test_uav/model/actor_model14-10-2023_11-21-29/300.pt (torch, 79599 bytes, 7 tensors)

logstd f4 [4]
00000000: 5cf3 35bf f56c 8fbf 541d a0be b3d8 66bf
-0.7107446 -1.1205126 -0.31272376 -0.90174407

mean_net.0.weight f4 [128, 17]
00000000: 6121 243c 04fd 65be c6d6 0fbf f55b 693e
00000010: 4c1b da3d 0e9a b2be e981 083e ae58 063e
00000020: deec 793d 7788 c83c cb53 a33e 5ab0 6e3e
00000030: fed2 063e e1a2 253e aff9 13be e0e8 43bd
00000040: 9ed9 63be e53c 3bbe 6c76 b3bd 1d3a bc3d
00000050: 2cff 223d 2623 803e 3d05 f53d c22d 8c3e
00000060: 77f1 9fbe 725e b73e 9558 24be d076 fdbd
00000070: 5c70 81be 28ce d93e b48e 8c3e 56e6 58be
00000080: 0575 b53d 4dfb 67be 826b 5abe 14cd 793b
00000090: da11 38bd 1c9b 1d3e 99c5 0e3e 5337 813e
000000a0: 7c97 cebe 94c0 303d f5bc 9a3e 6de3 be3e
000000b0: cc86 81be 99a0 8cbe 7964 7b3e b1d7 833e
000000c0: f473 183e 8e4f e83d 854d 8d3e e71b 173d
000000d0: 0a9e 02be ff68 c9be 3915 773a 9c40 a53e
000000e0: 31b2 e93d 2279 54be c8d7 24be d0ff 80bd
000000f0: e4c5 063e b28e 9b3e b199 52bb 6d41 003d
00000100: 91bd d2bd 3b7a f03b a96a d2bd afad 0e3e
00000110: ce7f 55be 5e5b 9bbe 0e73 8e3e 9f28 bd3c
00000120: f761 c8be f10d cbbc a682 843e 17c4 5b3e
00000130: ce2d 313e 4d15 a5be c82a 0b3e 9ac6 e63b
00000140: fc74 3eb9 27fd 1bbe 22e9 313e 2f4d d2bd
00000150: 4384 28be 3571 08be 9bb0 29be 3244 d5bd
00000160: 545a 42be 36e7 5ebb 40f4 3d3e 1acf 24bd
00000170: 2987 83be 8fa9 32bd 4891 bdbc 7cb6 21be
00000180: edf1 7dbe 99c9 8dbd ce4f 373e 4b54 723e
00000190: 8a62 60be a939 873e f6ff 2f3e 856e c7bc
000001a0: 9a52 d13e 5483 063f 1cba 393e 54f4 8f3e
000001b0: d2b5 f83d d9a0 a23d 185e 18be c6bf a5be
000001c0: 0b7a a1bd b169 b73e e878 d4bd 9b0c 63be
000001d0: 4d7a 233e 7faf a33d a340 033e 2088 46be
000001e0: 65c7 5bbd 39e2 b9bd 93e9 0dbe 3b69 6e3e
000001f0: bfbc 52be bffd 95bd 2e19 023e e47e 5bbe
00000200: f92e 283c 9070 dabc c907 32bf f2ab 733e
00000210: 79c0 6cbe 23b9 a43e b4e4 3bbe d34b 783e
00000220: e392 c1bd e545 bd3e 23b1 643e 82ee c3be
00000230: c9aa 69be d85a 6c3e e44e aa3e 26ed 973d
00000240: e579 c23d 1422 2d3d 50ea 8e3e a612 07be
00000250: f456 4cbd 5a6c 39be c81a 2f3d 5f81 25bc
00000260: 942d 20be ffb6 2cbe d7c5 04bf 084e 5f3e
00000270: 858e 9a3d db88 963e e3a5 58be 0a27 05be
00000280: a3b3 223e 900b afbe 1616 82bd b168 dbbe
00000290: ae43 23be 5ef9 7ebd ab2b 503d 86b2 133e
000002a0: 9916 bfbe 328c 82bd 213f 6abe ef23 efbd
000002b0: c39b 6cbe 5076 bbbe b639 1a3d 50ec 453d
000002c0: 9ce7 0abe 514a a83e b000 083e e4a8 c23d
000002d0: 014d 883d e784 313d 9455 1d3c 42cb d3bd
000002e0: 2890 a9be 124b c53c 4a0b 26be 915a b4be
000002f0: cc60 5d3d b002 46be c155 49be ba8e b13e
00000300: a18b 15be 3b26 37be 091a 6a3e 811e 253e
00000310: 3ce1 413e 4e38 97be 39c8 6b3e 277d 3a3e
00000320: a92c 76be e4ad 47be b71c 34be 36a5 debd
00000330: cc8a 98bc 50bf 003e 19c4 953c 5ca7 bf3e
00000340: 5739 98be 63b7 27be 7e28 60be c8ef 8d3c
00000350: 1b00 c7be 902e 0abe 0fc3 d7bd 8faf 0d3e
00000360: 3eb6 f2bd 2522 03be 22fb bdbd 64f6 963d
00000370: 7697 f9bb ea1e 9a3e 26a7 023d 45b8 083e
00000380: 6861 123f 3612 fcbd e344 f53e 275f 2b3d
00000390: f240 a53d ba14 163e 56a2 8b3c 9a0d 0f3e
000003a0: 131e 60bc d421 773e 6241 093e 43dd 0dbc
000003b0: d67c d1bd a65d 1abe b3bc 07bf 8b5c aebe
000003c0: 87c4 c73e 3a21 ac3d 2d5a c7be 4716 703d
000003d0: 8c75 423d 092f 4d3d 4afd c9bd 89be 403d
000003e0: a3b5 b03e 51de cf3d b15c a5bd 87bc d73d
000003f0: 9975 18be 92eb 713e cb8b fabc 8fff 98be
0.010017724 -0.22459799 -0.56187093 0.22788985 0.10649738 -0.3488316 0.13330807 0.13119766
0.06101691 0.024479134 0.31899866 0.2330946 0.13166425 0.16175415 -0.14450715 -0.04782951
-0.22250983 -0.18284948 -0.087628216 0.09190772 0.039794132 0.25026816 0.1196389 0.2737866
-0.3123891 0.35814244 -0.16049416 -0.12376177 -0.25281036 0.42540097 0.27452624 -0.21181616
0.0886021 -0.22654457 -0.21330073 0.003811662 -0.0449389 0.15391201 0.13942565 0.25237522
-0.40349948 0.043152407 0.30222288 0.37282887 -0.25298154 -0.27466276 0.24550046 0.25750497
0.14887983 0.11343299 0.27598205 0.036891844 -0.127556 -0.39337918 0.00094254647 0.32275856
0.114109404 -0.20749334 -0.16097939 -0.06298792 0.13161427 0.30382305 -0.0032135064 0.031312395
-0.10290063 0.0073387898 -0.1027425 0.13933443 -0.20849535 -0.30343145 0.27822155 0.023090659
-0.3913724 -0.024786921 0.25880927 0.21461521 0.1730263 -0.32242814 0.13590539 0.007042718
-0.00018163392 -0.15233289 0.1737409 -0.10268628 -0.16456704 -0.13324435 -0.16571276 -0.10413398
-0.1897977 -0.0034012324 0.18550205 -0.04023657 -0.25689057 -0.043618735 -0.023140565 -0.15792269
-0.24799319 -0.06923217 0.17901537 0.23664968 -0.2191259 0.2641118 0.17187485 -0.024344692
0.40883332 0.5254414 0.18137401 0.28116095 0.121440545 0.079408355 -0.14879644 -0.32372874
-0.07884606 0.35822824 -0.103746235 -0.22172777 0.15964623 0.079924576 0.12817626 -0.19387865
-0.053656954 -0.09076352 -0.13858633 0.2328233 -0.20579813 -0.07323789 0.12704918 -0.21435124
0.010265105 -0.026665002 -0.6954313 0.2379606 -0.23120297 0.32172498 -0.18348962 0.24247675
-0.094518445 0.36967388 0.22333197 -0.38267905 -0.22819056 0.23081529 0.33263314 0.07418279
0.09495906 0.042268828 0.2791314 -0.13190708 -0.049887612 -0.18107739 0.04275015 -0.010101645
-0.15642387 -0.16866682 -0.5186438 0.2180711 0.07546715 0.29401287 -0.21157031 -0.13003173
0.15888838 -0.3418851 -0.06351869 -0.4285331 -0.15943787 -0.062249534 0.050822895 0.1442357
-0.37321928 -0.063743964 -0.22875644 -0.11676776 -0.23106293 -0.36613703 0.037652694 0.04832107
-0.13564914 0.328692 0.13281512 0.095048696 0.06655312 0.043339636 0.009602923 -0.10341503
-0.33117795 0.024083648 -0.16215244 -0.35225347 0.05404739 -0.19336963 -0.19661619 0.34679204
-0.14604045 -0.17885678 0.22861494 0.16124918 0.18933576 -0.29535145 0.23025598 0.18211804
-0.24040474 -0.19499928 -0.17589079 -0.10871355 -0.018620871 0.1257298 0.018281983 0.37432373
-0.29731247 -0.1637855 -0.21890447 0.01732625 -0.38867268 -0.13494325 -0.10535251 0.13836502
-0.11851166 -0.12805994 -0.092764154 0.07371214 -0.0076169325 0.3010171 0.031897686 0.13351543
0.5717988 -0.12308161 0.4790412 0.04183879 0.08069028 0.14656344 0.017045181 0.13970032
-0.013679045 0.24133998 0.13403848 -0.00865871 -0.10228889 -0.15074787 -0.5302231 -0.3405498
0.39017126 0.08404775 -0.38935986 0.058614995 0.047475383 0.050093684 -0.09862764 0.04705671
0.34513578 0.10149825 -0.0807432 0.105340056 -0.1488861 0.23625019 -0.030584237 -0.29882476

mean_net.0.bias f4 [128]
00000000: 8549 9abd fc62 823d ff84 04bc 057c 543d
00000010: afaa 8dbe f995 bdbd 0ea2 70be 8628 eabd
00000020: e96c 883e 0d34 10be b294 f3bd 0dc5 ad3d
00000030: a21e f93d f060 24be 40b8 a9bc f4f0 bf3d
00000040: 4ed1 d63c 78d3 9cbe 5e13 0bbe 66ef 15bd
00000050: ddd0 1fbe 2be9 ee3d ecc1 17be b0eb 473d
00000060: d355 25bd 530e 9c3d 2cee 9b3e 6fa8 62be
00000070: 8ec9 ae3e 9b99 99be f9bd 713e 03f0 5d3d
00000080: 9548 5fbd 35d9 ce3c e8ce 273d 2006 00be
00000090: c0fc 35bd ce54 2b3e 7acc c6bd f169 2e3e
000000a0: 6379 d13d ec7f 2e3e 131f 95bd b2a0 6dbd
000000b0: 2353 b5bc 66f0 273e 12cb 26bd 2665 af3b
000000c0: 525f dfbd a6e0 d6bd f083 f1bd 647c 743e
000000d0: 70a8 c53d 45c9 863d 7bd9 2a3d 7725 7bbe
000000e0: 4c56 9d3e ff7e 9abe d959 3f3e 1088 5bbd
000000f0: 359a 533c 3e4d 3fbe 3c1b c2bd d752 18be
00000100: 6dbb 5d3d ebd4 7c3d 0bd0 2fbc 8d65 a7bd
00000110: c0da 0f3e f3c3 513e 4e4d 113e 1928 753d
00000120: a3e4 3cbe 3183 fdbc f4fe a53e d981 b33e
00000130: 53fa 903d a85e 2abe dba3 61be e62d 613e
00000140: 8470 ed3d 31bb 23be 50ed 92bb ecff 763e
00000150: d1a9 99be 4a28 8f3c c112 883e 2896 0cbe
00000160: 9c97 66bd 7260 f3bd 6114 85be 5dc2 2bbe
00000170: 2fa4 e9bd d199 18bc 525e c13d 4407 cc3e
00000180: bcda 1e3e 13e0 ab3d 6f21 113c c157 363e
00000190: 3409 aebd 07b0 5d3c 19d2 13be b871 99be
000001a0: 7e4d b33d 2414 83bd cec5 803d 28d2 cf3d
000001b0: e637 8cbe 78ea 95be 7429 cb3b 30f1 49be
000001c0: c94d c4be a92b b63d 6139 df3d 3201 ff3d
000001d0: e351 d33d d720 d8bd d108 92be 0c8b 9a3e
000001e0: c5e8 093f 2a26 b3be ceea 233e 4387 a93d
000001f0: f27e 32be 9ff4 833d d624 6cbc 7380 35be
-0.07533554 0.06366536 -0.008088349 0.051876087 -0.27669284 -0.09257121 -0.23499319 -0.114335105
0.26645592 -0.14082356 -0.11893596 0.0848485 0.12164046 -0.16052604 -0.02071774 0.0937213
0.026222851 -0.30630088 -0.13581607 -0.03660526 -0.15607019 0.11665567 -0.14820069 0.048808753
-0.04036505 0.0761992 0.30455148 -0.22134565 0.3413815 -0.30000004 0.23607625 0.05418397
-0.05451258 0.025250057 0.040968806 -0.12502337 -0.044430494 0.16731569 -0.097069696 0.17032601
0.10228231 0.17040986 -0.072813176 -0.05801458 -0.02213437 0.16400298 -0.040721007 0.005352634
-0.10906853 -0.10492067 -0.11792743 0.23875576 0.096512675 0.06581358 0.04171131 -0.2452601
0.30729902 -0.30175015 0.18686618 -0.053596556 0.012915184 -0.1868181 -0.09477851 -0.14875351
0.05413382 0.061726492 -0.010730754 -0.08173666 0.1404829 0.20484905 0.14189646 0.059852693
-0.18446593 -0.030946346 0.32421076 0.35060003 0.070789956 -0.16637671 -0.22035162 0.21990165
0.11593726 -0.15989377 -0.0044838563 0.24121064 -0.30012372 0.017475266 0.26576808 -0.13729155
-0.05629693 -0.1188363 -0.2599211 -0.16773362 -0.11408269 -0.009314016 0.09441818 0.39849293
0.15513128 0.08392348 0.008858069 0.17806913 -0.08497849 0.013530738 -0.14435615 -0.29969573
0.08755015 -0.06400326 0.06287728 0.10147506 -0.27386397 -0.29280448 0.00620001 -0.19720912
-0.38340595 0.08895046 0.10899616 0.124514 0.10318353 -0.10553139 -0.2852235 0.3018421
0.53870803 -0.34990054 0.1600754 0.08277752 -0.17431238 0.06443142 -0.014413079 -0.1772478

mean_net.2.weight f4 [128, 128]
00000000: 11af 33be c925 1f3e 54cc aa3c e70f a53d
00000010: 537b 5c3b a16d 493d 6a78 91bd a191 1cbe
00000020: 9a47 59bd 8cbc 203e d683 bdbd 338c fabd
00000030: 3164 aebc 842a d03c 2b6d 39bd b164 b7bd
00000040: cd54 2c3d 4f1a 253e f5c3 59be cf6f f43c
00000050: c37f 9fbd 2a82 4ebd b3a4 153e 7ce2 183d
00000060: 6b45 9e3e 31bc 4cbe 0dec ca3d dec9 62be
00000070: b460 d43d 9626 5f3e 39e6 15be 13ea e2bd
00000080: 7a3b 42bd 8617 ddbd c04d d63d 2fc7 73bd
00000090: 8ab9 c6bd f32f 203a 5ec2 033e d127 353d
000000a0: bda6 4ebd 2f9c fcbd 24d4 b7bc 2d56 24bd
000000b0: 71b9 b1bd f049 dbbd 2b6c 523e 3057 eebc
000000c0: be9e 1cbd c5a8 48bc cc59 3abe 26a0 ed3c
000000d0: f638 993c 5b96 1c3d a198 623d 166d 4b3c
000000e0: 6cad 33be 7652 4bbd 7a81 bfbd 0234 a6bd
000000f0: ee72 2cbe e4ee ccbd ed33 39bc 4599 923d
00000100: 992f 5cbe e060 12bd 31a1 ff3b 38e9 003d
00000110: de6e 513d 2156 613a aa1c e6bb 5778 7e3c
00000120: 9f1c ac3d 08dc 0b3e 6de1 4c3e 8490 323e
00000130: 88fc 723b 514b 08be 5666 75bd 454e c83c
00000140: 8fdd 04be 4e26 2e3d 5c8e 8bbd 3cd6 ab3d
00000150: 6871 fdbc 44ea 99bd e7c7 8ebd 02c7 3a3e
00000160: c91f 10be 14d1 f0bb 59b1 c63c 3c09 163d
00000170: 7e58 d43d 9523 213e 9c71 66be ce7a 933b
00000180: 27bf 333d 03d8 15be 411f cebd 9a5d 45bd
00000190: fd34 5f3d 1e75 e03d ec8e c93c c225 c9bd
000001a0: 423c 57bd 08c8 0b3b 58a8 393d e014 b6bd
000001b0: f96c 98bd 65cf b03d 56df 8c3e 0a11 11bd
000001c0: 30af 84bd 5d8a 5d3d 069b b53d 1298 01be
000001d0: 7954 263d 18f9 063d 3a9f 83bc d486 093d
000001e0: 4d35 16bd dfa6 bc3d 6f1f f7bc a868 02be
000001f0: 0f71 1a3d 202a 08be 3f30 263d a0a9 7f3c
00000200: 8bb3 e03c ccb2 9ebc 570a 3b3d 0081 d93d
00000210: 6e62 bfbd 6131 5c3d 903f 20be e439 af3c
00000220: 9f92 09be 2f51 8c3b 216c 433e 9590 d73d
00000230: 5d7f f03d 88cd d23d 4a3b 9f3d fe85 373e
00000240: e42b f4bc 357b 433e ed95 c23c 521b d03d
00000250: 1517 b53d 4c82 dfbd ab6f 52bd c391 783d
00000260: b63a 183e aa2a 39be 0030 acbe e5d3 df3b
00000270: b137 353c 2776 ec3c a95a 0f3c bbe5 c1bd
00000280: a00c d9bc 5706 f4bd 8113 f4bc b2d2 f73d
00000290: 5438 853e b062 5fbc 2d1d a03b f647 373d
000002a0: 226b 2abe d0b3 9abd d3af a93d d719 e83b
000002b0: caa2 9d3d 04c4 fabd 36c5 0cbd 33dd d9bd
000002c0: 4699 afbe 9968 f93c 8d19 26bd 98b3 afbc
000002d0: 5e9e 90bd 4ba9 9abd 9798 d5ba e94c f13d
000002e0: 1d61 9fbd 99c2 423d 008e 55be 78c7 c43d
000002f0: feb7 0abd a727 d43d 1b69 373e 32ae 09be
00000300: 72ab 6f3e 7490 5b3d d554 273e 2ac4 313d
00000310: 7c53 213d 1343 19be 2c84 99bd 47a6 b03d
00000320: 1ff3 143e 52b1 0cbd 42e8 fdbb 8b47 af3d
00000330: a1dc 8b3d 2439 563d d81d 9fbd 61fd e83d
00000340: 43a4 5b3e 172c 5c3d f30c b43c 0c88 1a3e
00000350: 9914 883c 0392 013e c15b a13c 404c d3bd
00000360: 8471 41bd fa55 613c cfbe 4f3e ff7b 8abd
00000370: fd05 0a3e 006f 4f3d 9979 41bd 1463 36bd
00000380: 3428 6cbd 3015 2abe 16d7 a73d fcb3 a73c
00000390: 5a51 afbb 36e4 583c 387c 673d 0b37 d33c
000003a0: 92d6 743d 00fe e9bb 0fa6 7c3d b7fd 04bd
000003b0: 1110 9e3d da75 963d 435c b2bd a6ca f2bc
000003c0: 747c 593e fb7d 093e bbfd 16be c778 413c
000003d0: c711 77bd 56e9 f13d 94e9 98bc 0b71 323e
000003e0: 82bd 24bc a508 3c3d d4e9 c23c 08d7 d1bd
000003f0: 162b d83c 44c1 29be 3673 6dbd 64d8 4abd
-0.17547251 0.15541758 0.020849384 0.08059674 0.0033642843 0.049176816 -0.07103045 -0.15289928
-0.0530468 0.15696925 -0.09253661 -0.12233772 -0.02128801 0.025410898 -0.045270126 -0.08954752
0.04207306 0.16123317 -0.21266158 0.02983847 -0.077880405 -0.050417103 0.14613609 0.037325367
0.30912337 -0.19993664 0.09908304 -0.22147319 0.10370007 0.21792063 -0.14638604 -0.11079802
-0.047420003 -0.10795502 0.104640484 -0.05951613 -0.097033575 0.00061106606 0.12867114 0.044227425
-0.050451983 -0.12334477 -0.022440024 -0.040121246 -0.08677948 -0.10707462 0.20549075 -0.029094309
-0.038237326 -0.012247269 -0.18198317 0.029007029 0.018703919 0.038229328 0.05532134 0.012416145
-0.17546624 -0.049639188 -0.093508676 -0.081153885 -0.16840717 -0.10006502 -0.011303884 0.0715814
-0.21502532 -0.03573692 0.007801198 0.031472415 0.05113112 0.0008595903 -0.00702246 0.015531621
0.084038965 0.13658154 0.20007868 0.17437941 0.003707679 -0.13309981 -0.05991205 0.024451384
-0.12975143 0.042517 -0.06814262 0.08390471 -0.030937865 -0.07515386 -0.06971722 0.18239978
-0.14074625 -0.007349143 0.024254488 0.0366299 0.10368441 0.1573623 -0.22504276 0.0045007234
0.04388347 -0.14633183 -0.10064555 -0.04818497 0.054493893 0.10959838 0.024604283 -0.09821655
-0.0525477 0.0021328945 0.04532656 -0.088907 -0.0744266 0.08633307 0.27514142 -0.03541664
-0.06478727 0.05408703 0.08867459 -0.12655666 0.040607903 0.032952398 -0.016067136 0.033575848
-0.036671925 0.09211516 -0.030166356 -0.12735236 0.037705477 -0.1329732 0.040573355 0.015604407
0.027429363 -0.019372366 0.045664158 0.10620308 -0.09344946 0.05375803 -0.15649247 0.02138991
-0.13434838 0.004282139 0.19084217 0.10525624 0.117430426 0.10293108 0.0777498 0.17922208
-0.029806085 0.19089969 0.02375313 0.10161461 0.08842293 -0.10913524 -0.051376026 0.060685884
0.14866146 -0.18082681 -0.3363037 0.0068306797 0.011060641 0.028864933 0.008749642 -0.09467646
-0.026495278 -0.11915272 -0.029794456 0.12100734 0.26019537 -0.013634369 0.0048862905 0.04474636
-0.1664243 -0.07553828 0.08285489 0.0070831585 0.07697065 -0.12244418 -0.034367763 -0.106378935
-0.34296626 0.030445384 -0.04055171 -0.021447942 -0.07061456 -0.07551821 -0.0016296086 0.117822476
-0.07782195 0.047548864 -0.2085495 0.09608358 -0.033866875 0.103591256 0.17911188 -0.13445356
0.23405245 0.053604558 0.16340955 0.043399967 0.039386258 -0.14966993 -0.07495913 0.08625465
0.14545868 -0.034348793 -0.0077486346 0.085585676 0.06829191 0.052300587 -0.07769364 0.11376453
0.2144938 0.053752985 0.02197883 0.1509096 0.016611384 0.12653355 0.019697072 -0.10317278
-0.047227398 0.013753409 0.20287631 -0.06761932 0.13478847 0.050642967 -0.047235105 -0.044528082
-0.05765553 -0.16609645 0.08195321 0.020471565 -0.005350274 0.0132380035 0.05651495 0.025783082
0.059774943 -0.007140875 0.061681803 -0.032468524 0.07717908 0.07346697 -0.08709004 -0.029637646
0.21238881 0.13426964 -0.14745228 0.011808581 -0.06031969 0.118120834 -0.018666066 0.17425935
-0.010054948 0.04590668 0.023793139 -0.10246092 0.026387732 -0.16577631 -0.0579712 -0.049522772

mean_net.2.bias f4 [128]
00000000: 4ec0 a63d 8027 d1bd 2b7c f93c 592b 83bd
00000010: 8585 d53c 1cfe 963d 2b99 443d a082 47bd
00000020: 7e89 26bd 46b0 a63d e60d 493d ef44 f63d
00000030: 813c a03d 9be1 f93b b9bf b93d a1c9 14be
00000040: 2370 86bc dba6 9cbd 9407 b1bb e6fb 003d
00000050: c11a 723d 53f0 f4bb 493d aebd f3ba 2dbd
00000060: 928d 0abe 3a50 623e 2771 2cbc 3fb9 59bd
00000070: 77d9 1a3d 6ec3 883d 3324 52be 62cc 19bc
00000080: a3af 5a3d 43e7 493d fbab 6dbd 9b97 5f3e
00000090: 52ee 3e3d 274c a63d 1799 abbd 18ee 523c
000000a0: 3488 473d e981 4e3e aa31 90bd 1c62 3e3d
000000b0: 455c d0bc cb44 1abc 136e bfbd f638 363c
000000c0: 8199 85bc e34c 0c3d d805 87bd d8f3 99bd
000000d0: 7f42 073d 7bc3 163d a948 9d3d e89a aabd
000000e0: 68c8 113e ff6b 7abd bd50 da3a edb6 3c3c
000000f0: 1835 e03c d177 ed3d 790c 0ebe 8f4f 7b3d
00000100: a148 b8bd 1bf0 b83d ea8c 9b3d bfcc efbc
00000110: 2be1 a2bd 0cff 64bd b6b8 00bd e257 d43d
00000120: 18a1 98bd 4e47 febd 6a8e 0a3d fd7b 91bd
00000130: 2d5c a73d c48d ae3d f115 133e d445 f2bd
00000140: 2e8f 943c 9e3a 7d3d e48c 8d3c 5f44 04be
00000150: 246f 5e3d d27c 593d 259f bb3d 6b2b 15bd
00000160: 9452 443d 1ace d7bd f9c3 0bbc f097 c7ba
00000170: 2efc 33be d7d6 5c3c 1c45 ccbc 19ab 213c
00000180: cc5e 7d3d 9ba2 283d 77a7 423d 3445 0abd
00000190: a040 af3b d2d5 4d3a 6771 023e 18d8 403d
000001a0: 4ab4 adbd 973a b63d cff0 1a3d 413a 31be
000001b0: 55ad 54bd 43c1 f2bc 1ce6 07bd 52e4 b1bc
000001c0: 8ffa 35bd 6503 81bd 5084 3fbd 7e23 a23d
000001d0: a874 ef3d 3046 113d 0b99 393d 1809 83bd
000001e0: 27e2 b63d c94d 3d3e 808d 2dbc bbb8 e03c
000001f0: 6199 203b 828e babb f21a bfbc e2d0 1fbd
0.08142148 -0.10212612 0.030454716 -0.06404752 0.026064644 0.07372686 0.047997635 -0.048708558
-0.040658467 0.0813909 0.04908552 0.12024867 0.0782404 0.007625771 0.09069771 -0.1453004
-0.016410893 -0.07649013 -0.0054025147 0.03149023 0.059107546 -0.007474938 -0.08507783 -0.042414617
-0.13530567 0.22100917 -0.0105250245 -0.05315518 0.037805047 0.066779 -0.20521621 -0.009387108
0.053390156 0.049292814 -0.05802534 0.21835177 0.046614 0.08119994 -0.08378809 0.012874149
0.048713878 0.20166744 -0.07040723 0.046480283 -0.025434623 -0.009415816 -0.09347167 0.011121979
-0.016308548 0.034253012 -0.065929115 -0.07517213 0.0330224 0.03680752 0.076798744 -0.08330327
0.14236605 -0.06113815 0.0016656142 0.011518222 0.027369067 0.11595119 -0.13871945 0.06135517
-0.08998228 0.090301715 0.075952366 -0.029272435 -0.07953104 -0.055907294 -0.031426154 0.10368325
-0.07452601 -0.12415944 0.033827223 -0.07103727 0.08171878 0.085231334 0.14363839 -0.11829725
0.01813468 0.06182348 0.017279096 -0.12916707 0.05430521 0.053097554 0.09161214 -0.03641836
0.047930315 -0.10537358 -0.00853061 -0.0015227776 -0.17576668 0.013478956 -0.024935298 0.009867453
0.061857983 0.041170698 0.04752299 -0.033757403 0.00534828 0.0007851991 0.12738572 0.047081083
-0.08481653 0.08897894 0.03782731 -0.17307378 -0.051923115 -0.02963317 -0.033178434 -0.021715317
-0.044428404 -0.062994756 -0.046757042 0.07916926 0.11692172 0.035467327 0.04531197 -0.06398219
0.08929854 0.18486704 -0.010592818 0.027431836 0.0024505483 -0.005693258 -0.023328278 -0.039017566

mean_net.4.weight f4 [4, 128]
00000000: 157c a9be c36e 143c c5b5 4f3c f70b 2e3e
00000010: 3fde fdbd 0777 cd3c 5d4a 693e fa9c a3be
00000020: d326 41be b9ff dbbd 1d48 bdbd cab1 babd
00000030: ef0f 313e 3365 65be 953e f13d c1b4 823d
00000040: bd2d a2be 6163 523c a183 2cbd 77fb 19be
00000050: 4479 093e eb5d 803c 0361 773e ef6b 133e
00000060: f3ca 8fbe 8999 173e cf1e 71be b326 e83d
00000070: 296b 4a3e 5326 a4bd 3ff7 3cbd 2821 a43e
00000080: 0110 59bd e224 02be 434d 2c3e dd79 b63d
00000090: cc11 583d 8d82 683e 979b 88bd 887d 1b3d
000000a0: 9f9b 503e 458c bfbc 00a5 77bd 7e4b 213e
000000b0: 60ef dd3d b073 173e 110c 2d3e fb74 ac3e
000000c0: 5388 3ebe f8a5 a93d f4f6 a0bc a509 c1bc
000000d0: 1b0d 703d b665 eabd 3f8e 70bd c627 f3bc
000000e0: d297 ba3e 5f3d e03c cac3 643d f4f7 6abe
000000f0: f6bf 663e 5ccd df3d 2b70 fa3d 4c2c b9be
00000100: 8f6d 373e 51e1 10be bdbc a8bd 5ea0 f0bc
00000110: 2d17 6c3e 2bcf 35be 91c3 e2bc f787 193e
00000120: 82a4 83bd fc15 263e a7ee 15be 3bf6 91bd
00000130: 53fd 58bd 9251 0bbe 9413 23be c0ed 1ebe
00000140: 0a37 a33d d069 1d3e 269f d3be b577 c13d
00000150: 3322 a6bd f9e9 563d fa20 473e 48e0 e0bc
00000160: dd71 dfbb 75e9 763c 9540 4dbe 4674 873e
00000170: 1834 87be 2c15 a5be 65d9 1fbd 740b 3bbc
00000180: 991f b63d 457c 89be 554a 2b3c 5d2a e2bb
00000190: fbc2 3e3d 1600 3b3e 0c58 dcbd f3bb e03d
000001a0: 0be6 85be a00d ba3d a889 7e3e 8479 7ebb
000001b0: 8f77 8fbe f63c d83c bd57 61bd 8ac3 13bc
000001c0: 8090 093e 8137 1bbe 2b44 33bc 42e2 4a3e
000001d0: 3d86 a4bd 2b87 f7bd f801 6cbe 4ecb 11be
000001e0: 1450 9e3d 0ea1 043d 61ca bbbd b9aa 5c3e
000001f0: ff48 df3d 09cb eb3d f51e e83d 5b7c 83bd
00000200: ca75 02bd 63d8 e93d 001b edbd c54c 283d
00000210: 0b29 9bbd 37d8 88bc 7451 b7bd 0e8e 3a3e
00000220: 3cec 53bd fc1b a5bd f2af 573c d12c 793e
00000230: 8ea7 4d3e 70ec 03be a977 9bbd 2bae 06be
00000240: 37bb 733e 163f d83d 1905 ec3d f04d d03d
00000250: 694d 6abd c0db 2f3d 8e5b 933d 7dd7 8cbe
00000260: 5ce6 36bd 7ffa 8e3d f0e5 073e d2bc 613c
00000270: ed6e f33d 3d49 0abe 98c9 41be 104a 56be
00000280: 1386 8fbe 66d0 cdbc 8343 7bbe 1540 d3bd
00000290: c9a6 af3d 0eae 24be 1ef4 af3d b520 703e
000002a0: 4981 9d3d dd77 bb3d eb97 4e3d 99d8 f33c
000002b0: c7cf 153e cdb9 78bd 5df7 173e 7473 e2bb
000002c0: b663 0bbe 4ec4 eebd ef19 bbbd 3ed3 68bd
000002d0: 7459 b63d 8eb2 193d d41d eebd 0a31 203e
000002e0: 80c3 063d 7129 0b3e b366 673e 531c 0abe
000002f0: f023 523d 24a2 b43d 336a 99bd 897c 113d
00000300: c59b 9e3d 1864 98bd a2e5 aebd b1b9 0dbe
00000310: b7f0 d23d 585a 153e 324f 6c3e 088d 1e3e
00000320: 5d30 283e 7450 68be c33f 44be 4fdd 8b3e
00000330: 9b7a 5bbe 1b48 0fbe 8223 01be fb98 82be
00000340: 7f7a 24bc f381 2f3e 0af2 cdbc aa13 57be
00000350: 6bd8 4e3c a9b6 8e3d 2482 253e bca6 3bbe
00000360: 06cd 74be 9465 d03d 59b3 22be 136b 47be
00000370: 58b8 783d 253c 8e3d 6e4e 78be ac07 96bd
00000380: f969 543e 4e9d 7cbd 8d8a 8dbd 7d5d 803e
00000390: bb60 a3bd f059 c13b 2859 54bd 00b7 3c3e
000003a0: 32a3 24be 877e 36bd b989 bbbd 24c2 2fbd
000003b0: c93b 033e 4765 a33e ffc5 ba3c d24b 02be
000003c0: d74e 1fbe c63e e8bd 1eae 26bc 51f0 02be
000003d0: 75f8 b2bd 7aa2 543e 6f59 de3c 0442 61be
000003e0: bcfc 67be 424c 8fbd 0d7a cc3d 39d7 52bd
000003f0: 1ba7 36bc 4685 113e 68f4 1bbc 9f1e 86bd
-0.3310248 0.009059611 0.012677615 0.16996752 -0.12395906 0.02508117 0.22782274 -0.319557
-0.18862467 -0.107421346 -0.0924227 -0.09115942 0.17291234 -0.22401886 0.11779515 0.06382132
-0.3167552 0.012841077 -0.04211772 -0.15037332 0.13425165 0.015669784 0.24158101 0.14396642
-0.28084525 0.14804663 -0.23546909 0.11335506 0.19767441 -0.08015122 -0.04613423 0.32056546
-0.05299378 -0.12709382 0.16826348 0.08909962 0.052751347 0.22706051 -0.066703014 0.037961513
0.20371865 -0.023382315 -0.06046009 0.15751454 0.10836673 0.14790225 0.16899134 0.33683
-0.18606691 0.08283609 -0.019649006 -0.02356417 0.05860625 -0.11445181 -0.058729406 -0.029682051
0.36443955 0.027373014 0.05585078 -0.22946149 0.22534165 0.10927841 0.122284256 -0.36166608
0.17912887 -0.14148451 -0.08239124 -0.029373344 0.23055716 -0.1775481 -0.027681144 0.14993273
-0.06427862 0.16219324 -0.1464182 -0.07127043 -0.052975964 -0.13605335 -0.15925437 -0.15520382
0.07969482 0.15372396 -0.41332358 0.094466604 -0.08111992 0.052469227 0.19446173 -0.027450696
-0.0068189935 0.015070309 -0.20044167 0.26455897 -0.26406932 -0.32242715 -0.039025683 -0.011416305
0.088927455 -0.26852623 0.010454734 -0.0069020228 0.046572667 0.18261752 -0.10758981 0.109733485
-0.2615207 0.0908463 0.24857199 -0.0038829753 -0.28020903 0.026396256 -0.055015314 -0.009018788
0.13434029 -0.15157892 -0.0109415455 0.19812873 -0.080334164 -0.12086328 -0.23047626 -0.14237711
0.077301174 0.032380156 -0.0916946 0.215495 0.10902595 0.11513335 0.113340296 -0.06420203
-0.031850614 0.114182256 -0.115774155 0.041088838 -0.07576188 -0.016704662 -0.08951083 0.18218252
-0.051738963 -0.08061978 0.013164507 0.24333502 0.20083448 -0.12883162 -0.07591183 -0.13152377
0.23801886 0.10558908 0.1152441 0.101711154 -0.05720273 0.04293418 0.07195197 -0.27508155
-0.04465328 0.06981372 0.13271308 0.013777928 0.11886392 -0.135045 -0.18924558 -0.2092669
-0.28031978 -0.025123786 -0.24537472 -0.10314957 0.085767336 -0.16082022 0.085914835 0.23449977
0.07690675 0.091537215 0.05043785 0.029766368 0.14630042 -0.06072407 0.14840455 -0.0069107357
-0.13612255 -0.11658536 -0.09135806 -0.05684208 0.089037806 0.0375238 -0.11626783 0.15643707
0.032901287 0.13590027 0.2259777 -0.13487367 0.051303804 0.08819988 -0.07490959 0.035519157
0.077445544 -0.07440966 -0.08539893 -0.13840367 0.10299819 0.14585245 0.23077086 0.15483487
0.16424699 -0.2268694 -0.19164948 0.27317283 -0.21433489 -0.1399235 -0.12611201 -0.2550734
-0.010038971 0.17139415 -0.025139827 -0.21003595 0.01262484 0.069684334 0.16162926 -0.18325323
-0.23906335 0.101756245 -0.15888728 -0.1947444 0.06072268 0.069450654 -0.24248669 -0.07325682
0.2074355 -0.061673455 -0.06911192 0.25071326 -0.07977434 0.005900614 -0.05184284 0.18429184
-0.16077879 -0.04455426 -0.09157128 -0.042909756 0.12815775 0.31913206 0.02279949 -0.12724236
-0.15557419 -0.11340098 -0.010173349 -0.12786986 -0.08738796 0.20765105 0.027142255 -0.21997839
-0.22655004 -0.06996967 0.09984217 -0.051474784 -0.0111482395 0.14210996 -0.00951872 -0.06548809

mean_net.4.bias f4 [4]
00000000: be06 613d de36 1abd 557e 3a3d 323d b4bd
0.05493807 -0.03764998 0.045530636 -0.088007346
