test_uav/model/actor_model13-10-2023_17-19-10/1150.pt (torch, 79608 bytes, 7 tensors)

logstd f4 [4]
0	0xbf563f11	-0.8368998
1	0xbffe298a	-1.9856427
2	0xbf435167	-0.76296085
3	0xc092379c	-4.5692883

mean_net.0.weight f4 [128, 17]
0	0xbd2512fe	-0.040301315
1	0x3d7f8dee	0.062391214
2	0x3ed069da	0.40705758
3	0x3c826e6f	0.0159218
4	0xbd96d3ca	-0.07364614
5	0x3e634ddb	0.22197668
6	0xbe5fa884	-0.21841627
7	0x3e1f3940	0.15549183
8	0x3d4e4506	0.050358795
9	0x3e6cfe8c	0.23143977
10	0x3e36b99d	0.17844243
11	0xbe87002b	-0.26367316
12	0xbdea074f	-0.11427175
13	0xbdc2e9eb	-0.095172726
14	0xbd6174be	-0.055042975
15	0x3da2fd29	0.07958443
16	0x3e8af58c	0.27140462
17	0xbe1b040e	-0.15138265
18	0xbdfec30f	-0.12439548
19	0x3c04dc9b	0.008109237
20	0x3d51a172	0.051179357
21	0x3ddcf9d0	0.107898355
22	0x3e775c9d	0.24156423
23	0x3d31ed04	0.043438926
24	0x3dd38ee0	0.103299856
25	0x3ebef709	0.37297848
26	0x3f26ec3b	0.6520421
27	0xbf200012	-0.6250011
28	0xbf21770a	-0.63072264
29	0x3f622d92	0.88350785
30	0xbcd8646c	-0.026415072
31	0x3e510c4a	0.20414844
32	0x3f3afad8	0.7303901
33	0xbe16ec03	-0.14738469
34	0xbea7a98d	-0.32746544
35	0xbe5f3a52	-0.21799591
36	0xbdaa1b0a	-0.083059385
37	0xbe950513	-0.29105434
38	0x3ea9c2b1	0.3315635
39	0x3e1f97fd	0.15585323
40	0x3e38273e	0.1798372
41	0x3e927bb4	0.28610003
42	0x3e199136	0.149968
43	0xbeb9f803	-0.3632203
44	0xbe675423	-0.2259069
45	0x3d9bae8f	0.07601654
46	0xbe527c14	-0.20555145
47	0x3d81e350	0.063421845
48	0xbe8b4333	-0.27199706
49	0xbbfc89c4	-0.0077068526
50	0xbc1acffe	-0.009449003
51	0x3e8f5037	0.27990887
52	0xbc463145	-0.012096708
53	0xbe11f6f5	-0.14254363
54	0x3e115bbf	0.14195155
55	0xbdb73731	-0.08946074
56	0x3d44887a	0.047981717
57	0x3e396376	0.18104348
58	0x3e18ef32	0.14934996
59	0x3ea241b5	0.31690755
60	0x3eb9aa27	0.36262628
61	0xbea29eb8	-0.31761718
62	0x3f245100	0.64186096
63	0x3e1375c3	0.14400391
64	0x3d3c0f0a	0.04591278
65	0xbde6d0fc	-0.11270329
66	0xbdd3d45f	-0.10343241
67	0xbe99abc0	-0.30013847
68	0xbec6a066	-0.3879425
69	0xbeb96d69	-0.36216286
70	0xbf2ddef5	-0.6791833
71	0x3de58fee	0.11209093
72	0x3ef6280d	0.4807743
73	0xbdb87b2a	-0.09007867
74	0x3a0e710f	0.0005433717
75	0x3d774e4f	0.060377415
76	0x3eafda0a	0.34346038
77	0xbc8caab1	-0.017171236
78	0xbd86909b	-0.0657055
79	0x3daad4f6	0.083414
80	0x3e76add7	0.24089752
81	0x3e9b48c8	0.30328965
82	0x3dc27cc7	0.09496456
83	0x3e196645	0.14980419
84	0xbd180a31	-0.037119094
85	0xbe87ab15	-0.26497713
86	0xbdf66896	-0.12031667
87	0x3e06e79c	0.1317429
88	0xbf19c5d0	-0.6006746
89	0xbd8ab6c1	-0.06773139
90	0x3e807416	0.25088567
91	0xbc47bb47	-0.0121906465
92	0xbd0e6adf	-0.03476989
93	0xbdb350e3	-0.08755662
94	0xbdae0226	-0.084965035
95	0x3c722ecc	0.014781665
96	0xbd84d0fc	-0.06485173
97	0x3dfabb54	0.12242761
98	0x3de9f68b	0.114239775
99	0x3dbb3c24	0.0914233
100	0xbe6b431e	-0.22974822
101	0x3d4763a6	0.048679017
102	0x3f171bb7	0.59026664
103	0x3f027579	0.509605
104	0x3ebd9316	0.3702628
105	0x3e81a0fa	0.25318128
106	0x3ddc5671	0.10758675
107	0xbd7640bb	-0.060120326
108	0x3d860a3b	0.0654492
109	0xbe152dd6	-0.14568266
110	0xbe28b370	-0.164747
111	0x3ce5174a	0.027965207
112	0xbd827f8e	-0.063719854
113	0x3ebc89b2	0.36823803
114	0xbf0ea4b7	-0.55720085
115	0x3e007a86	0.12546739
116	0x3cc3139e	0.023813065
117	0xbc71f807	-0.014768607
118	0x3dba8e29	0.09109146
119	0x3e9c9b87	0.30587408
120	0xbec0e4fa	-0.37674695
121	0x3ea14ca5	0.31503788
122	0x3e2a823e	0.16651246
123	0xbed9ad5d	-0.42515078
124	0x3e64c86e	0.22342083
125	0x3db41edd	0.08794949
126	0x3e44ad81	0.19206811
127	0xbef2a664	-0.4739257
128	0xbce5c9c3	-0.028050309
129	0x3c2bceed	0.010486347
130	0x3dfdd2a1	0.1239369
131	0xbe08cb0d	-0.13358708
132	0xbe44246b	-0.19154517
133	0x39b9a884	0.00035411504
134	0xbd6a3370	-0.05717796
135	0xbda52147	-0.08062988
136	0x3dd65d54	0.1046702
137	0xbe9f6a69	-0.31135872
138	0xbea8fd6d	-0.3300585
139	0x3ceaf537	0.02868138
140	0xbef4498b	-0.4771236
141	0xbeeeac19	-0.46615675
142	0x3e1fc256	0.15601477
143	0x3e83f554	0.25773108
144	0xbd58c45c	-0.052921638
145	0x3eca4697	0.3950698
146	0x3ddf6c62	0.10909344
147	0x3db5d44b	0.08878382
148	0xbe9419f3	-0.28926048
149	0xbce4403e	-0.027862664
150	0xbe2be340	-0.16785908
151	0x3da2ed87	0.07955461
152	0xbda48393	-0.08032908
153	0x3eb23eda	0.34813577
154	0x3ef4324f	0.47694632
155	0xbec3f970	-0.38276243
156	0x3dbe3707	0.092878394
157	0x3ebe82a9	0.3720906
158	0x3d1e333b	0.038623076
159	0x3e53a4ba	0.20668307
160	0xbe7a95da	-0.24471226
161	0x3e8cbd20	0.2748804
162	0x3e71cbf5	0.2361296
163	0x3da85370	0.082190394
164	0x3d0bf6b6	0.03417083
165	0x3e926e43	0.28599748
166	0x3da8f9ec	0.08250794
167	0xbdf68e36	-0.12038843
168	0x3ddb1db9	0.106990285
169	0x3e246e7f	0.16057776
170	0x3df3d71a	0.11906262
171	0xbe7d2ea7	-0.24724828
172	0x3e388b49	0.18021883
173	0x3e4eb0c0	0.20184612
174	0xbe85823d	-0.26075926
175	0x3d31e198	0.043428034
176	0xbcf1c760	-0.029514015
177	0xbedde61b	-0.4333962
178	0xbd4f969d	-0.050680745
179	0x3d432c49	0.047649655
180	0xbde67745	-0.112532176
181	0x3e5b8a38	0.21439445
182	0xbf23dd8c	-0.6400993
183	0x3dcdaab1	0.100423224
184	0xbc8f9791	-0.017528327
185	0x3e11352d	0.14180441
186	0x3e76cb85	0.24101074
187	0xbeee300f	-0.4652104
188	0xbd391290	-0.04518372
189	0xbdbd25ad	-0.09235702
190	0x3e979be0	0.2961111
191	0xbd57c4d6	-0.05267795
192	0x3e3f3967	0.18674241
193	0xbd256c61	-0.04038656
194	0xbe13a625	-0.14418848
195	0xbebb8e94	-0.36632216
196	0xbd8f8ffd	-0.070098855
197	0x3ed2e354	0.41189063
198	0x3e4a5dab	0.19762294
199	0x3e2edbdd	0.17076059
200	0x3dc3ab7c	0.095541924
201	0xbea46b0b	-0.32112917
202	0x3e939df5	0.2883145
203	0x3cb0ce26	0.021582674
204	0x3dfa6847	0.122269206
205	0xbf1a2c45	-0.602238
206	0xbeb7218b	-0.3576778
207	0xbec86e99	-0.3914688
208	0x3e2ba06a	0.16760412
209	0xbd91b517	-0.07114618
210	0xbd8123a2	-0.063056245
211	0x3e965478	0.2936132
212	0x3e24c4d6	0.16090712
213	0x3e4d4aa8	0.2004801
214	0xbef8d726	-0.48601645
215	0xbdf6ff84	-0.120604545
216	0x3d2b0da0	0.04176104
217	0x3e75e949	0.24014772
218	0x3e3155a9	0.17317833
219	0xbdfea42a	-0.124336556
220	0x3e0ea32a	0.1392943
221	0xbe890cc7	-0.2676756
222	0x3e0bfe98	0.13671339
223	0xbe47d2c2	-0.19513991
224	0x3de1ea95	0.11031071
225	0x3e6d86eb	0.23195998
226	0x3ea35f1c	0.319085
227	0x3ddbeeea	0.107389286
228	0xbce8483c	-0.028354757
229	0xbe94483a	-0.28961354
230	0x3e19b946	0.15012082
231	0xbdc5604f	-0.0963751
232	0xbec272de	-0.37978262
233	0xbe456646	-0.19277295
234	0xbe62e7c1	-0.2215872
235	0xbe88c9d8	-0.26716495
236	0xbec8b93f	-0.39203832
237	0xbe779e60	-0.24181509
238	0x3f0d0370	0.5508337
239	0x3f302912	0.6881267
240	0x3ea7b7b8	0.32757354
241	0xbe56f95d	-0.20993562
242	0x3e68d183	0.22736172
243	0x3e82f8b2	0.25580364
244	0x3e14c0e2	0.14526704
245	0x3e09f532	0.13472441
246	0xbbb7c115	-0.005607734
247	0x3d4ce6e1	0.05002487
248	0xbe752f76	-0.23943886
249	0xbdb6cdbf	-0.08925962
250	0x3ea0a67b	0.31377015
251	0xbe72d23a	-0.23713008
252	0xbe60ff60	-0.21972418
253	0xbe07f9db	-0.13278906
254	0x3dfe28e1	0.12410141
255	0xbe9ba32f	-0.30397937

mean_net.0.bias f4 [128]
0	0xbe18bd0a	-0.14915863
1	0x3e9d59da	0.30732614
2	0x3dae5816	0.08512895
3	0xbc3037dc	-0.010755505
4	0x3cec0b12	0.028813872
5	0xbd6bd1dd	-0.057573188
6	0xbe2aa3ce	-0.16664049
7	0x3cd2a786	0.025714647
8	0x3e6f44ac	0.2336604
9	0xbe8b23e4	-0.2717582
10	0xbc444195	-0.011978527
11	0xbe8c5e6a	-0.27415782
12	0x3e78b5b7	0.24288069
13	0xbe0bca36	-0.13651356
14	0xbe5f6ba5	-0.21818407
15	0xbdd6ae68	-0.10482484
16	0xbe1d00e6	-0.15332374
17	0xbebb522b	-0.36586127
18	0x3d111066	0.03541603
19	0xbe84477f	-0.25835797
20	0x3df93536	0.12168352
21	0x3d762e61	0.060102824
22	0xbe1c7e1f	-0.15282486
23	0x3dcfcedd	0.10146878
24	0x3df90560	0.12159228
25	0xba06baed	-0.00051395484
26	0x3c6a5e62	0.014304729
27	0xbcf52038	-0.02992259
28	0xbd9757bb	-0.0738978
29	0x3df4adb8	0.11947197
30	0xbe944207	-0.28956625
31	0x3dd2f30f	0.10300266
32	0x3e62dce5	0.22154577
33	0x3e177d0c	0.14793795
34	0x3e4a6271	0.19764115
35	0x3d99269c	0.07478067
36	0x3d703caa	0.058651604
37	0x3e4bb4e4	0.19893223
38	0x3c335c00	0.0109472275
39	0xbcc98c4d	-0.024603033
40	0xbd58e8b7	-0.05295631
41	0x3e268e3c	0.16265196
42	0x3e1375d2	0.14400414
43	0xbd820938	-0.063494146
44	0x3d8c55a4	0.06852272
45	0xbeb240d5	-0.34815088
46	0xbe1b7a72	-0.15183428
47	0xbe05cde2	-0.1306682
48	0xbd44a2f5	-0.04800697
49	0xbe3cbbd6	-0.18431029
50	0xbe918378	-0.28420615
51	0xbd4776f6	-0.048697434
52	0xbe13c31f	-0.14429902
53	0x3b0fefa5	0.0021962908
54	0x3d063e9e	0.03277456
55	0xbd8c030e	-0.0683652
56	0xbd8c33e8	-0.06845838
57	0xbba888b2	-0.0051432485
58	0x3e8b1db7	0.27171108
59	0x3da17864	0.07884291
60	0xbe6a53cf	-0.22883533
61	0xbe3a20f9	-0.1817664
62	0xbe5e1579	-0.21687879
63	0xbe2ad391	-0.16682269
64	0x3ade615d	0.0016966272
65	0xbe16a83d	-0.14712615
66	0x3d7fba44	0.062433496
67	0x3d2c3efd	0.042052258
68	0x3e7d6f23	0.24749427
69	0x3e4a41e4	0.19751698
70	0x3e8c9956	0.27460736
71	0x3e2f7606	0.17134866
72	0xbda985a3	-0.08277442
73	0x3e8c08a4	0.27350342
74	0x3e4c820d	0.19971485
75	0x3d447f14	0.047972754
76	0xbe080bd0	-0.13285756
77	0xbe663bf1	-0.22483803
78	0xbea646c4	-0.32475865
79	0x3cd23203	0.025658613
80	0x3e211292	0.1572974
81	0xbcd5d988	-0.026104704
82	0x3e955a03	0.29170236
83	0x3caad3d4	0.02085296
84	0x3ec318a8	0.3810475
85	0x3da6a5e4	0.0813711
86	0x3ddeac10	0.10872662
87	0xbc9c21e5	-0.01905913
88	0xbe9c9f33	-0.3059021
89	0x3df1336d	0.11777387
90	0xbd3b04a6	-0.04565873
91	0xbdf6eb67	-0.12056618
92	0xbe4f3f68	-0.20239031
93	0x3e25144c	0.16121024
94	0xbd98df20	-0.07464433
95	0x3d1f137e	0.03883695
96	0xbe72ed04	-0.23723227
97	0x3e2422d5	0.16028912
98	0x3ea4390d	0.32074776
99	0x3e1f5393	0.15559225
100	0xbd2d5d8d	-0.042325545
101	0x3c8b6290	0.017014772
102	0xbcc228f7	-0.023701174
103	0xbe4e3f79	-0.201414
104	0xbded2e63	-0.11581113
105	0x3d6cc508	0.05780509
106	0xbdd36343	-0.10321667
107	0xbd9b3702	-0.07578851
108	0x3d070dc9	0.03297213
109	0x3e56e6ad	0.20986433
110	0xbe1d4507	-0.15358363
111	0xbb19bcf3	-0.002345857
112	0x3d76f054	0.06028779
113	0x3cd34cc9	0.02579345
114	0xbe548924	-0.2075544
115	0x3e24cc30	0.16093516
116	0x3e0c27c2	0.13687041
117	0x3d94c141	0.07263423
118	0xbcda5d04	-0.026655681
119	0x3e0aa688	0.13540089
120	0xbe0a50d5	-0.13507397
121	0x3d05de5f	0.032682773
122	0x3d896fdb	0.06710788
123	0xbe251f94	-0.16125327
124	0x3c9c3bed	0.019071544
125	0x3e676dbe	0.22600457
126	0xbe2d96d9	-0.16952075
127	0xbe2c0821	-0.16799976

mean_net.2.weight f4 [128, 128]
0	0x3d3dc21e	0.046327703
1	0x3e6157dd	0.22006173
2	0xbe188107	-0.1489297
3	0x3d25bba8	0.040462166
4	0xbe0fbf29	-0.14037766
5	0x3d1631fa	0.036668755
6	0xbc1ad8e0	-0.009451121
7	0xbdae96fa	-0.0852489
8	0x3de1ebb0	0.11031282
9	0x3e8f86a6	0.28032416
10	0xbc58be09	-0.013228902
11	0x3da4fe4d	0.080563165
12	0xbd2e3aa8	-0.042536408
13	0xbda68670	-0.08131111
14	0x3e379fda	0.17932072
15	0xbe098371	-0.13429047
16	0xbe0b4d77	-0.13603769
17	0x3d93c95e	0.07216142
18	0x3e1f3f20	0.15551424
19	0x3d5a3be7	0.053279784
20	0xbb65ac47	-0.0035045312
21	0x3ba1ff0a	0.004943733
22	0x3d24866e	0.040167265
23	0xbe71db23	-0.2361875
24	0xbcb2f973	-0.021847462
25	0xbe2e45f2	-0.1701887
26	0xbdd79453	-0.105263375
27	0x3ea11afd	0.31465903
28	0xbdc7fe74	-0.0976533
29	0x3e800dc9	0.25010517
30	0x3d94bae8	0.07262212
31	0xbe985597	-0.297528
32	0xbdc8ba71	-0.09801186
33	0xbd2cdf16	-0.04220494
34	0x3e9ef149	0.3104346
35	0xbe84016f	-0.25782344
36	0xbdf9a830	-0.12190282
37	0x3df5c9a7	0.12001353
38	0xbe612eed	-0.21990557
39	0x3cd149ab	0.025547823
40	0xbcc43fad	-0.023956144
41	0xbe041d49	-0.12901796
42	0x3e3c540d	0.18391438
43	0x3bec0ee4	0.0072039235
44	0x3dc45cce	0.095880136
45	0xbe899b66	-0.26876372
46	0x3e07fdef	0.13280462
47	0x3d6a5f71	0.057219926
48	0x3de38968	0.111101925
49	0x3db2a24a	0.087223604
50	0xbeb29cc7	-0.34885237
51	0x3defaacd	0.117024995
52	0xbc9618ad	-0.018322313
53	0x3b8c8ee6	0.0042894958
54	0xbd30711f	-0.04307663
55	0x3d811c2f	0.06304204
56	0xbd844ec5	-0.064603366
57	0x3e32a9d6	0.174476
58	0xbe01bb18	-0.12669027
59	0x3e531b28	0.20615828
60	0xbcbcc1bc	-0.023041598
61	0x3cde9118	0.027168795
62	0xbe296a48	-0.1654445
63	0x3deb8c8f	0.11501419
64	0x3d44fa7e	0.04809045
65	0xbd137af0	-0.036005914
66	0xbe9457a2	-0.2897311
67	0x3cfef029	0.031120377
68	0x3ea4e69a	0.32207185
69	0xbce009b8	-0.027348384
70	0x3d67ff62	0.056640036
71	0x3e33b28e	0.17548582
72	0x3b79ab63	0.003809654
73	0x3e800d09	0.25009945
74	0x3ce6634f	0.028123526
75	0x3e0935d2	0.13399437
76	0xbe34ca3f	-0.17655276
77	0xbd8068a0	-0.06269956
78	0xbe01718a	-0.12640968
79	0x3e3bda8d	0.1834509
80	0x3c949ae9	0.018140273
81	0xbbd9c728	-0.0066460557
82	0xbbf0db73	-0.007350379
83	0x3e3ca5ef	0.18422674
84	0x3d2838cc	0.04106979
85	0xbe5b9069	-0.21441807
86	0xbd8197d2	-0.063277856
87	0xbce5f4fa	-0.028070915
88	0xbdf8605c	-0.12127754
89	0x3e2f523b	0.17121212
90	0x3db8f508	0.09031111
91	0x3e15d117	0.14630543
92	0xbd29523f	-0.0413382
93	0x3e12c002	0.14331058
94	0xbe6c7714	-0.230923
95	0x3d18ebfb	0.037334424
96	0x3da807fe	0.082046494
97	0x3daa5131	0.08316267
98	0x3e4230d8	0.18963945
99	0xbd9af734	-0.075666815
100	0xbe3d7985	-0.18503387
101	0x3d9a8431	0.07544745
102	0xbd84290a	-0.0645314
103	0xbd2b7358	-0.041858047
104	0xbc07ac73	-0.008280861
105	0xbdfdbc46	-0.12389426
106	0x3ed28d31	0.41123345
107	0xbea3ccef	-0.3199229
108	0xbe8ec1b6	-0.27882165
109	0x3c0e8691	0.008699075
110	0x3e4237c4	0.18966585
111	0x3e35aadb	0.17740957
112	0xbe2783e1	-0.16358902
113	0xbd9d29b2	-0.076739684
114	0xbc55b0d4	-0.013042647
115	0xbe09a590	-0.13442063
116	0x3c427dff	0.01187086
117	0xbe00ac60	-0.12565756
118	0x3d476191	0.04867703
119	0xbd930d3b	-0.07180258
120	0x3cdfa01d	0.027298028
121	0x3db2d0b9	0.08731217
122	0x3ccebaf5	0.025235632
123	0xbdd24418	-0.10266894
124	0x3be27032	0.0069103474
125	0x3e914e4c	0.28380048
126	0xbe65bd48	-0.22435486
127	0xbd962420	-0.07331109
128	0xbd586acd	-0.05283623
129	0x3e899f56	0.26879376
130	0xbc8630e2	-0.016380731
131	0x3e127af5	0.14304717
132	0xbc17c0f6	-0.009262314
133	0xbe0c5b1c	-0.1370663
134	0x3de4165d	0.11137078
135	0xbe26bfbe	-0.16284081
136	0xbe1debb1	-0.1542194
137	0x3d9b40a9	0.07580692
138	0xbdcdd1e0	-0.10049796
139	0xbee47988	-0.4462397
140	0x3db8f297	0.09030645
141	0x3d306421	0.04306424
142	0x3ea751d9	0.32679632
143	0xbcf94044	-0.030426152
144	0xbdfea4a2	-0.12433745
145	0xbe6055d1	-0.21907736
146	0x3e83944d	0.25699082
147	0xbdfde02c	-0.12396273
148	0x3da14657	0.078747444
149	0xbbb7535a	-0.005594653
150	0x3e0c95ae	0.13728973
151	0xbd04a1a8	-0.03238073
152	0x3e957359	0.29189566
153	0xbe8a7027	-0.2703869
154	0x3e8ffa97	0.28120872
155	0x3d8d7497	0.069070034
156	0x3e0cddc1	0.13756467
157	0x3e462a76	0.19352135
158	0xbde23171	-0.110445864
159	0xbe03e810	-0.12881494
160	0x3c9361f3	0.017991042
161	0x3eae5f8d	0.34057274
162	0xbdbe4078	-0.0928964
163	0x3d78ce99	0.060743902
164	0x3e263f4c	0.16235083
165	0x3cdccf45	0.026954303
166	0xbccb4f0e	-0.02481797
167	0x3e7171b6	0.23578534
168	0xbdf25617	-0.118328266
169	0x3d3d3e4b	0.046201985
170	0xbdd0ccea	-0.10195334
171	0xbe3f338a	-0.18672004
172	0xbe9a3037	-0.3011491
173	0xbe31e80c	-0.17373675
174	0xbec6b8d7	-0.38812897
175	0x3d80cff2	0.062896624
176	0x3cb8f33c	0.02257692
177	0x3e66484e	0.2248852
178	0xbec1ecff	-0.37876126
179	0x3d382443	0.044956457
180	0xb8a3259b	-7.77945e-05
181	0x3d159686	0.036520503
182	0x3c9cf2e7	0.019158794
183	0x3d3b182e	0.045677356
184	0xbdee7a11	-0.11644376
185	0xbe114012	-0.14184597
186	0xbd1985fe	-0.0374813
187	0x3d7ab7bb	0.061210375
188	0xbea6b409	-0.3255923
189	0xbd3e6e25	-0.04649176
190	0x3eaffc79	0.3437231
191	0x3d01363e	0.03154587
192	0xbe80e280	-0.25172806
193	0xbdc1ec0a	-0.09468849
194	0x3baf94d3	0.0053583174
195	0xbe071252	-0.13190582
196	0xbc6459b8	-0.013937406
197	0xbc8ae732	-0.016955946
198	0x3c47661d	0.012170342
199	0xbd574e8a	-0.052565135
200	0xbe144451	-0.14479186
201	0x3e8f9f32	0.28051144
202	0xbe8c1d02	-0.2736588
203	0x3e5d133b	0.21589367
204	0x3eb55392	0.35415322
205	0xbd7d75ab	-0.061879795
206	0xbcc4115d	-0.02393406
207	0xbe14acaa	-0.14518991
208	0x3e1d3440	0.15351963
209	0x3e206e98	0.15667188
210	0x3d8dc240	0.06921816
211	0x3e972142	0.2951756
212	0xbbe4e47e	-0.006985246
213	0xbcb9f017	-0.022697492
214	0x3b8a0079	0.004211482
215	0xbe60bd92	-0.21947315
216	0xbc81d92d	-0.015850628
217	0xbd73d551	-0.059529606
218	0xbd76b46d	-0.06023066
219	0x3edfd7aa	0.43719226
220	0x3da8d463	0.082436346
221	0x3e8a4933	0.27008972
222	0xbe369fa9	-0.17834343
223	0x3eafb5d1	0.34318402
224	0xbe4e5084	-0.20147902
225	0xbe17d69e	-0.14827964
226	0xbd300f23	-0.042983185
227	0x3d815dba	0.06316705
228	0x3cdcd20e	0.02695563
229	0x3dd92a27	0.10603743
230	0xbe0d8f21	-0.1382413
231	0xbeace465	-0.33768
232	0x3c9c29b6	0.019062858
233	0xbedd1deb	-0.43186888
234	0xbea05f76	-0.3132283
235	0xbf297fe6	-0.6621078
236	0x3eb3eb44	0.3514043
237	0xbdbe7508	-0.09299666
238	0xbe2fa3c0	-0.1715231
239	0x3e622156	0.22083029
240	0x3e9f4d88	0.3111384
241	0xbdd71e0e	-0.10503779
242	0xbc1d83e4	-0.009613965
243	0xbd29b62a	-0.04143349
244	0xbe5c521d	-0.21515699
245	0x3d1a7ef6	0.037718736
246	0x3e873e51	0.2641473
247	0x3c1319b7	0.008978299
248	0xbe8af24b	-0.2713798
249	0x3dd52b58	0.10408658
250	0x3dca195b	0.098681174
251	0xbed4e55b	-0.41581234
252	0x3e56323f	0.20917605
253	0x3e85de74	0.2614628
254	0x3c1debf7	0.009638778
255	0x3dce7174	0.10080233

mean_net.2.bias f4 [128]
0	0xbda9f97c	-0.082995385
1	0xbd90f66f	-0.070782535
2	0x3e3caa6a	0.18424383
3	0x3dc41af0	0.095754504
4	0xbcb05484	-0.021524675
5	0xbcba0eb2	-0.022712085
6	0xbc9d2c82	-0.019186262
7	0x3e00f5ee	0.12593815
8	0x3de9581d	0.113937594
9	0x3ce3e286	0.027817976
10	0xbcef79b3	-0.029232835
11	0x3dcdeb23	0.100546144
12	0x3e226b65	0.1586128
13	0xbd2ae517	-0.041722383
14	0xbe4c8893	-0.19973974
15	0xbda85b21	-0.082205065
16	0xbd8ba7a2	-0.06819083
17	0x3e4130a9	0.18866219
18	0x3de9bd90	0.11413109
19	0x3b932801	0.004490853
20	0x3caddf30	0.021224588
21	0xbda7420a	-0.08166893
22	0xbdba1578	-0.09086126
23	0x3b0f56c7	0.0021871792
24	0xbda272de	-0.079320654
25	0xbd527676	-0.051382504
26	0xbe7c002d	-0.24609442
27	0xbdbb7efe	-0.09155081
28	0x3db8887c	0.09010407
29	0xbd53ebac	-0.051738426
30	0x3d78fcd4	0.06078799
31	0x3e491612	0.19637325
32	0xbdac2a5b	-0.08406516
33	0xbd51f163	-0.051255595
34	0x3e37fb5a	0.17966977
35	0xbdc92e91	-0.09823335
36	0xbd1b36f5	-0.037894208
37	0xbd86ca81	-0.06581593
38	0x3baee9e0	0.0053379387
39	0x3c7887c5	0.015169089
40	0x3c6909a2	0.014223488
41	0xbd4c27ae	-0.04984253
42	0x3da80350	0.08203757
43	0x3d565f9a	0.052337267
44	0xbc640b11	-0.013918654
45	0xbe13a6d1	-0.14419104
46	0xbdab15d1	-0.083537705
47	0x3db9eeb7	0.09078734
48	0xbc983e9f	-0.018584548
49	0x3cd1963d	0.025584335
50	0x3d4f0b68	0.050547987
51	0x3dc653fd	0.09683988
52	0x3bf70b53	0.0075391917
53	0x3df4fe50	0.11962569
54	0x3d07aa0e	0.03312116
55	0x3d990528	0.074716866
56	0xbd15f971	-0.03661484
57	0x3e0714bc	0.13191503
58	0x3d6729d4	0.056436375
59	0xbe0861c7	-0.13318549
60	0x3df38ea0	0.11892438
61	0xbdd20119	-0.102541156
62	0x3dca444b	0.09876307
63	0x3d0c4a97	0.034250822
64	0xbcd51075	-0.026008824
65	0xbdf0d472	-0.11759271
66	0xbc5a4337	-0.013321689
67	0x3d15c87f	0.03656816
68	0xbd8f8657	-0.07008045
69	0xbdd74560	-0.10511279
70	0xbdccd777	-0.10002034
71	0xbde643ce	-0.112434015
72	0xbbf2c449	-0.007408653
73	0xbcc5254a	-0.024065632
74	0x3d8e1071	0.0693673
75	0x3d0edba3	0.03487743
76	0xbe211ec0	-0.15734386
77	0x3d8cf796	0.06883161
78	0x3d9c829a	0.07642098
79	0xbdeb49b3	-0.114886664
80	0x3d6f21b5	0.058381755
81	0xbca86a50	-0.020558506
82	0xbceedc7c	-0.02915787
83	0x3d9cba03	0.076526664
84	0x3d760f4d	0.060073186
85	0x3dad772a	0.08469994
86	0xbd2f46d3	-0.042792153
87	0xbe1954db	-0.14973776
88	0x3d7ce396	0.06174048
89	0xbe422ae7	-0.18961678
90	0x3e236fd3	0.15960626
91	0xbb72afbc	-0.0037031015
92	0xbe27ab32	-0.163739
93	0x3e038d25	0.12846811
94	0xbcbb9b7c	-0.02290129
95	0xbd8126dc	-0.0630624
96	0x3d551ea2	0.052031167
97	0xbd8b83d4	-0.068122536
98	0x3c57650a	0.013146648
99	0xbddecbdd	-0.108787276
100	0xbd58f567	-0.05296841
101	0x3ddbadcc	0.107265085
102	0xbd02a710	-0.031897604
103	0x3de1259a	0.109935
104	0x3ccae04d	0.024765158
105	0xbe0f76f8	-0.14010227
106	0xbe00b551	-0.12569167
107	0xbd39c287	-0.04535153
108	0x3e265ef3	0.16247158
109	0x3c1f145e	0.009709446
110	0xbddf4b32	-0.10903014
111	0x3c630209	0.013855466
112	0xbca098e3	-0.019604152
113	0xbd30af8e	-0.043136172
114	0xbd9f2a8f	-0.07771789
115	0x3c56f1d1	0.013119177
116	0xbdb47467	-0.088112645
117	0xbd4c2ebb	-0.049849253
118	0xbdbbdfdc	-0.09173557
119	0x3e15888a	0.14602867
120	0xbcb3bd67	-0.0219409
121	0x3d191dd7	0.037381973
122	0xbb897436	-0.0041947616
123	0xbbc7b562	-0.0060946206
124	0x3ca19d10	0.019728214
125	0xbd7b7554	-0.06139119
126	0xbd594ea7	-0.053053524
127	0xbda797a8	-0.08183223

mean_net.4.weight f4 [4, 128]
0	0xbc8d237d	-0.017228836
1	0xbe4585c8	-0.19289315
2	0x3f03bcee	0.5146016
3	0x3e74b7e6	0.23898277
4	0x3e25a7b0	0.16177249
5	0x3bf5f43e	0.0075059226
6	0x3ee54344	0.44777882
7	0xbe24d6ce	-0.16097566
8	0xbdce50af	-0.10073983
9	0xbe4a3fe3	-0.19750933
10	0xbdd1c8db	-0.10243388
11	0x3b3dd2f7	0.0028964856
12	0xbd92ffa9	-0.071776696
13	0xbe490703	-0.19631581
14	0xbe27ac61	-0.16374351
15	0x3e05b6e3	0.13058047
16	0xbccb8f3c	-0.024848573
17	0x3d71bf92	0.059020586
18	0xbdcd4a37	-0.10023921
19	0x3eb53460	0.3539152
20	0x3e4d0f18	0.20025289
21	0x3d8ffb1f	0.070303194
22	0x3e281eba	0.16417971
23	0x3df8fa90	0.12157166
24	0x3e81eec9	0.2537749
25	0xbe7f2a2c	-0.24918431
26	0xbe56fce0	-0.20994902
27	0xbeabf4de	-0.33585256
28	0x3ca1cbe2	0.01975054
29	0x3d475f84	0.048675075
30	0x3ebcabdf	0.36849877
31	0x3e40910c	0.18805331
32	0xbe464d25	-0.19365366
33	0xbd6dae15	-0.058027346
34	0x3e20a238	0.15686882
35	0xbaa86f41	-0.0012850539
36	0xbe046830	-0.1293037
37	0xbd3d8e27	-0.046278145
38	0xbdc385b2	-0.09546985
39	0x3f49ea58	0.78873205
40	0xbe851238	-0.25990462
41	0xbed4b4f9	-0.4154432
42	0xbd18c223	-0.03729452
43	0xbd9ab4ac	-0.07553992
44	0xbe9e1e27	-0.3088238
45	0x3e167217	0.1469196
46	0xbdb3f3b0	-0.08786714
47	0x3ea463d7	0.32107422
48	0xbea283c6	-0.3174116
49	0x3e58da11	0.21176936
50	0xbef30fec	-0.47473085
51	0xbd1cf770	-0.038321912
52	0xbe15e32e	-0.14637443
53	0x3e41d052	0.18927124
54	0x3ef7fa01	0.48432925
55	0x3cc30c14	0.02380947
56	0x3e72360a	0.23653427
57	0xbe2f7eba	-0.17138186
58	0xbda84831	-0.082168944
59	0xbea2b0cf	-0.3177552
60	0x3eb26a66	0.348468
61	0x3c4d5fba	0.01253503
62	0x3c863e75	0.016387204
63	0x3e62c5ad	0.2214572
64	0x3e70e5f2	0.23525217
65	0xbe465a52	-0.19370392
66	0xbe3a9bbc	-0.1822347
67	0x3e1a3416	0.15058932
68	0x3e462474	0.19349843
69	0xbe097050	-0.1342175
70	0xbbf64eef	-0.007516734
71	0xbd5bb462	-0.053638823
72	0xbd47a8a6	-0.04874482
73	0x3ca2a55e	0.019854244
74	0x3ea48040	0.32129097
75	0x3d9ee9f7	0.07759469
76	0x3e3b8a94	0.18314582
77	0x3e85b89d	0.2611741
78	0x3ef9cbdf	0.48788354
79	0xbc1a356a	-0.009412149
80	0x3cb0e305	0.021592626
81	0xbe885162	-0.2662459
82	0x3eec9a78	0.462116
83	0xbe92d45a	-0.28677636
84	0x3e599aeb	0.21250503
85	0xbec3e818	-0.3826301
86	0xbc183d9d	-0.0092920335
87	0xbd17fd05	-0.037106533
88	0xbdb33369	-0.0875004
89	0xbc83ca06	-0.016087543
90	0x3e6c276e	0.23061916
91	0x3ddf834a	0.10913713
92	0x3dda16a8	0.106488526
93	0x3e80af9e	0.25133985
94	0xbe066327	-0.13123761
95	0x3e0ec989	0.13944067
96	0xbcb54158	-0.022125885
97	0x3dd53172	0.104098216
98	0xbd56963d	-0.052389372
99	0x3cee7200	0.029107094
100	0xbdec7d96	-0.11547391
101	0x3e9048c5	0.2818052
102	0x3cf8b629	0.030360298
103	0x3dbdd4f5	0.09269134
104	0x3f214986	0.6300281
105	0x3c9f2e60	0.019431293
106	0x3e512f5d	0.20428224
107	0xbe4ba3d4	-0.19886714
108	0x3e336874	0.17520314
109	0xbeb1af66	-0.3470413
110	0xbe02f199	-0.12787475
111	0x3ec78437	0.3896806
112	0xbeb12fe5	-0.34606853
113	0xbdb2c2b3	-0.08728542
114	0x3ef89fc3	0.4855939
115	0xbed48c6a	-0.41513377
116	0xbe749a4e	-0.23886988
117	0xbe36ce8c	-0.17852229
118	0x3e364f44	0.17803675
119	0x3e15609b	0.14587633
120	0xbecb5558	-0.3971355
121	0x3e0bc2f3	0.13648586
122	0xbe6f7a9c	-0.23386616
123	0x3e73cfa0	0.23809671
124	0xbe4102e9	-0.18848766
125	0xbe852db6	-0.26011437
126	0x3eab0559	0.33402517
127	0xbdfad715	-0.12248055
128	0x3c888715	0.016665975
129	0x3dfcc56d	0.123423435
130	0xbdac533f	-0.084143154
131	0xbe5e7cb8	-0.21727264
132	0x3e5978c0	0.21237469
133	0x3e5eaf41	0.21746542
134	0xbe460865	-0.1933914
135	0x3df44e85	0.11929039
136	0x3d47b70c	0.04875855
137	0xbddd7221	-0.10812784
138	0x3e1c7f41	0.15282919
139	0xbd092ca4	-0.03348984
140	0x3d92d78d	0.07170019
141	0xbe951671	-0.29118684
142	0x3e31e736	0.17373356
143	0xbdb959c2	-0.09050323
144	0xbe1f77b9	-0.15573014
145	0x3ef6326e	0.4808535
146	0x3e86a585	0.26298156
147	0x3d399cd1	0.045315567
148	0xbe9b94eb	-0.30387053
149	0xbe2f6c95	-0.17131265
150	0x3da5a778	0.08088583
151	0xbe3ec4ba	-0.18629733
152	0xbdc4cb2f	-0.09609067
153	0xbe902bfa	-0.2815855
154	0x3d61e626	0.055151127
155	0xbe93a98f	-0.288403
156	0xbe1db2a0	-0.15400171
157	0x3e4c4662	0.19948724
158	0xbcca7173	-0.0247123
159	0x3daadc73	0.083428286
160	0xbe2c79c1	-0.1684332
161	0x3e960e3b	0.29307732
162	0xbd15b9e6	-0.03655424
163	0x3df76491	0.120797284
164	0x3d8ec814	0.069717556
165	0x3dea99d8	0.114551246
166	0x3af94079	0.0019016407
167	0xbe9fe720	-0.31231022
168	0x3d1a0146	0.03759887
169	0x3e7f7c92	0.24949864
170	0x3e11f956	0.1425527
171	0x3dba08e5	0.09083728
172	0x3e00c9aa	0.12576929
173	0xbd114323	-0.035464417
174	0x3db765b0	0.08954942
175	0xbe6a55ba	-0.22884265
176	0xbe6f12b2	-0.23346975
177	0xbdf5301f	-0.11972069
178	0x3d95d5df	0.07316183
179	0x3e6c182f	0.230561
180	0xbebf7d3d	-0.37400237
181	0xbe04dae4	-0.12974125
182	0xbdea392e	-0.114366874
183	0x3d2adf20	0.041716695
184	0xbe71b37a	-0.23603621
185	0xbe31f0cc	-0.17377013
186	0x3f2d7404	0.6775515
187	0xbf32b5cb	-0.69808644
188	0x3d70000c	0.058593795
189	0x3e83c805	0.2573854
190	0xbdec6322	-0.115423456
191	0xbec292a4	-0.38002503
192	0x3c3ce50e	0.01152922
193	0x3d599937	0.053124633
194	0x3e2f61bd	0.17127128
195	0xbdc4415a	-0.09582777
196	0xbe30539a	-0.17219391
197	0x3e8f12ab	0.2794393
198	0x3e80b42b	0.25137457
199	0x3e90d9d2	0.28291184
200	0xbd2b3999	-0.041802976
201	0xbee7ea77	-0.4529607
202	0xbe26d05d	-0.16290422
203	0xbe9b0bbe	-0.30282396
204	0x3e60f3d8	0.21968019
205	0x3eb07b9c	0.34469306
206	0xbdb5f8d9	-0.088853545
207	0x3ddd99c3	0.10820343
208	0xbd7ae3ac	-0.06125228
209	0xbe6c926f	-0.23102735
210	0x3e4624ef	0.19350027
211	0x3effdbcb	0.49972376
212	0x3e81f4af	0.2538199
213	0xbd85b8c6	-0.06529383
214	0x3e620534	0.22072297
215	0xbdd0f2d0	-0.10202563
216	0x3c9fe057	0.019516153
217	0x3e877ae6	0.26460952
218	0xbe814955	-0.2525126
219	0x3d6c6985	0.05771782
220	0x3ea80edc	0.32823837
221	0x3e036e2e	0.12834999
222	0xbe393320	-0.18085909
223	0x3ddaf102	0.106905
224	0xbd889911	-0.0666982
225	0x3e55490b	0.20828645
226	0x3d57f993	0.052728247
227	0x3e2f0439	0.17091455
228	0xbd4dbe3f	-0.05023026
229	0xbee4debf	-0.44701192
230	0xbeb22a1f	-0.3479776
231	0x3ecedfd1	0.40405133
232	0xbc42077f	-0.0118426075
233	0xbe86c291	-0.26320317
234	0x3d415370	0.047198713
235	0xbf081ac2	-0.5316583
236	0x3e164a70	0.14676833
237	0xbdd101c7	-0.10205417
238	0xbe64408c	-0.22290248
239	0x3d762b99	0.06010017
240	0xbd3f7bc6	-0.0467489
241	0xbe6bee76	-0.23040184
242	0xbcf65cf5	-0.030073622
243	0x3e111cbe	0.1417112
244	0xbafcfea4	-0.0019301963
245	0x3d1523a4	0.036410943
246	0xbddd3a87	-0.10802179
247	0x3e34b9a7	0.17648946
248	0xbcbe90bc	-0.023262374
249	0xbe5cfe59	-0.21581401
250	0xbdfc16f1	-0.12309063
251	0x3e11a28e	0.14222166
252	0xbe3ee616	-0.18642458
253	0xbe8040a5	-0.2504932
254	0xbcd74011	-0.026275666
255	0xbe5b40ec	-0.21411484

mean_net.4.bias f4 [4]
0	0x3e2349f4	0.1594618
1	0xbdeb67f0	-0.11494434
2	0xbe7e6405	-0.24842842
3	0x3cf13c66	0.029447746
