test_uav/model/actor_model13-10-2023_17-19-10/2260.pt (torch, 79608 bytes, 7 tensors)

logstd f4 [4]
-1.5027844 -4.4332414 -0.852427 -4.5421367
00000000: 3d5b c0bf 1ddd 8dc0 a838 5abf 2f59 91c0

mean_net.0.weight f4 [128, 17]
-0.07195882 0.052701607 0.4749152 0.023593321 -0.10884171 0.22430752 -0.22987959 0.15723222
0.06334859 0.2402036 0.19492932 -0.23065074 -0.1225986 -0.10749627 -0.064784475 0.055022307
0.25880504 -0.2348885 -0.4343208 -0.09921817 0.0104547795 0.053925022 0.046774603 -0.039264403
0.22955973 0.43641394 0.70021874 -0.72475666 -0.76523674 0.8162139 -0.0696857 0.22266452
0.6638871 -0.118495464 -0.42068198 -0.16463853 -0.16266401 -0.2993976 0.4528924 0.025553815
0.20124058 0.27175134 0.11661402 -0.36747602 -0.23313129 0.14568698 -0.19729513 0.07765374
-0.25403386 0.012699934 0.009836622 0.34252763 0.028744517 -0.18570173 0.1171488 -0.058487117
0.07361992 0.2166917 0.18499044 0.3261404 0.34942973 -0.26320946 0.74717736 0.16415529
0.073418975 -0.103619985 -0.09282878 -0.28920805 -0.38311952 -0.38626313 -0.70678115 0.1614179
0.45062047 -0.070059605 0.008299479 0.04196243 0.36930028 -0.017743615 -0.08944305 0.095253535
0.26630202 0.31056204 0.09215757 0.15774682 -0.034826312 -0.3561311 -0.06308032 0.26995096
-0.56243795 -0.10828674 0.26633227 -0.016858732 -0.036070496 -0.03030693 -0.054769743 0.009640226
-0.0154101355 0.099041514 0.11283476 0.09130145 -0.2439438 0.04097685 0.6293253 0.5008849
0.4816452 0.30365145 0.122195184 -0.011805421 0.04833615 -0.13308719 -0.16938257 0.038677536
-0.10754306 0.33461216 -0.59205043 0.12045463 0.019648477 -0.020307174 0.090936996 0.28469086
-0.4032687 0.36468798 0.15198795 -0.45933068 0.19241682 0.093188345 0.1981397 -0.48686096
-0.011227416 0.016587455 0.1506561 -0.16948375 -0.20516922 0.009500127 -0.040671505 -0.06434595
0.060067132 -0.336006 -0.38604283 0.0060694097 -0.5031112 -0.45185325 0.17078894 0.2691545
-0.039353788 0.38153374 0.14224182 0.11106431 -0.25792652 -0.042020865 -0.18256605 0.0837309
-0.082176894 0.32331288 0.45358583 -0.5157733 0.14191034 0.3936352 0.03367695 0.13340011
-0.25633198 0.2527997 0.23016088 0.035336737 0.08452407 0.25804558 0.10471688 -0.11020222
0.105016164 0.16796988 0.21873723 -0.26141813 0.14770958 0.20812999 -0.3419691 0.05139755
-0.074881114 -0.45078462 -0.013435441 0.0251021 -0.15765637 0.24759299 -0.5337068 0.08608477
-0.024416663 0.10807836 0.2500558 -0.47688442 -0.04258358 -0.143247 0.28510806 0.02271205
0.14624992 0.0030953446 -0.13456757 -0.43370408 -0.082367525 0.39575323 0.34344456 0.19744362
0.11110686 -0.317317 0.2988338 0.03898992 0.21133448 -0.59324455 -0.38171208 -0.44181138
0.177019 -0.085657574 -0.033741567 0.3233357 0.24176183 0.17253552 -0.48377696 -0.14446469
0.10795808 0.22812821 0.15147857 -0.12226525 0.12854967 -0.4190323 0.1361291 -0.25546703
-0.07898481 0.2022972 0.32333454 0.13312408 -4.1864463e-05 -0.32727244 0.11766616 -0.13366042
-0.33690706 -0.34983227 -0.198141 -0.23594089 -0.40790036 -0.23336712 0.5627472 0.6935556
0.37619534 -0.2236179 0.17902106 0.26989746 0.14408225 0.13453363 -0.011138363 0.031437963
-0.18273303 -0.10826663 0.31084165 -0.24816543 -0.23639329 -0.13915694 0.111021616 -0.28347236
00000000: 255f 93bd a4dd 573d 1628 f33e c846 c13c
00000010: 67e8 debd dfb0 653e 8e65 6bbe 7c01 213e
00000020: e8bc 813d eff7 753e 8d9b 473e b52f 6cbe
00000030: fa14 fbbd 0127 dcbd b9ad 84bd 125f 613d
00000040: 1882 843e 9c86 70be 4c5f debe e532 cbbd
00000050: 864a 2b3c 7ce0 5c3d ba96 3f3d b6d3 20bd
00000060: b511 6b3e a671 df3e 8941 333f a789 39bf
00000070: 8ee6 43bf 65f3 503f 60b7 8ebd 2b02 643e
00000080: 81f4 293f c0ad f2bd a163 d7be 0197 28be
00000090: 6591 26be a44a 99be 83e1 e73e 3c56 d13c
000000a0: 0312 4e3e fe22 8b3e 55d3 ee3d d125 bcbe
000000b0: f8b9 6ebe f82e 153e bc07 4abe ed08 9f3d
000000c0: ba10 82be 6213 503c c829 213c c85f af3e
000000d0: 9f79 eb3c 9828 3ebe b6eb ef3d 3090 6fbd
000000e0: 0ac6 963d 6ee4 5d3e 226e 3d3e e0fb a63e
000000f0: 74e8 b23e 64c3 86be 0447 3f3f 5318 283e
00000100: b05c 963d b736 d4bd 041d bebd 1413 94be
00000110: 3e28 c4be 48c4 c5be 9cef 34bf bc4a 253e
00000120: bab7 e63e 697b 8fbd 8afa 073c cce0 2b3d
00000130: ed14 bd3e 0f5b 91bc eb2d b7bd 4914 c33d
00000140: bd58 883e fd01 9f3e 1cbd bc3d 6288 213e
00000150: 09a6 0ebd d156 b6be 4130 81bd 0337 8a3e
00000160: effb 0fbf 70c5 ddbd b45c 883e 531b 8abc
00000170: a8be 13bd 3d46 f8bc 3d56 60bd 0af2 1d3c
00000180: cb7a 7cbc 47d6 ca3d e915 e73d 41fc ba3d
00000190: 67cc 79be 57d7 273d 761b 213f fe39 003f
000001a0: 339a f63e 3478 9b3e 7841 fa3d 866b 41bc
000001b0: 20fc 453d 0248 08be a072 2dbe 566c 1e3d
000001c0: 893f dcbd 4952 ab3e 9e90 17bf ebb0 f63d
000001d0: d8f5 a03c 3b5b a6bc 2d3d ba3d 00c3 913e
000001e0: 3c79 cebe 62b8 ba3e bba2 1b3e 642d ebbe
000001f0: ea08 453e 88d9 be3d 22e5 4a3e d745 f9be
00000200: 32f3 37bc 6ae2 873c 9845 1a3e 268d 2dbe
00000210: e117 52be 6ca6 1b3c 2a97 26bd cfc7 83bd
00000220: f408 763d fa08 acbe 68a7 c5be e6e1 c63b
00000230: e5cb 00bf 4f59 e7be 4ce3 2e3e 9ece 893e
00000240: 7031 21bd 6458 c33e d7a7 113e af75 e33d
00000250: f20e 84be 121e 2cbd 98f2 3abe 1b7b ab3d
00000260: 5c4c a8bd 4489 a53e 673c e83e b809 04bf
00000270: f250 113e 8e8a c93e d7f0 093d 0a9a 083e
00000280: f23d 83be f66e 813e 4baf 6b3e 41bd 103d
00000290: f51a ad3d 8d1e 843e ce75 d63d b4b1 e1bd
000002a0: b712 d73d 4c00 2c3e a7fc 5f3e 99d8 85be
000002b0: 2e41 173e 0720 553e 9316 afbe 3d86 523d
000002c0: 455b 99bd 3ecd e6be 5320 5cbc eba2 cd3c
000002d0: ac70 21be 0489 7d3e 02a1 08bf 364d b03d
000002e0: 7405 c8bc 3058 dd3d 5007 803e 322a f4be
000002f0: 1f6c 2ebd 57af 12be aff9 913e 9f0e ba3c
00000300: 8ac2 153e 44db 4a3b 15cc 09be 760e debe
00000310: 4eb0 a8bd 2ba0 ca3e f7d7 af3e a92e 4a3e
00000320: fe8b e33d 6077 a2be be00 993e e5b3 1f3d
00000330: 1168 583e e0de 17bf c46f c3be 1a35 e2be
00000340: 7844 353e 3d6d afbd 9934 0abd 428c a53e
00000350: 6a90 773e 27ad 303e 9db1 f7be 8dee 13be
00000360: 2019 dd3d 719a 693e 331d 1b3e 3466 fabd
00000370: 86a2 033e 678b d6be 6d65 0b3e 93cc 82be
00000380: cac2 a1bd ff26 4f3e 1b8c a53e ae51 083e
00000390: a097 2fb8 4190 a7be f5fa f03d 47de 08be
000003a0: 157f acbe 371d b3be 79e5 4abe 7d9a 71be
000003b0: 51d8 d0be caf7 6ebe 3310 103f dc8c 313f
000003c0: ad9c c03e 17fc 64be 4c51 373e 0030 8a3e
000003d0: 4c8a 133e 2fc3 093e ae7d 36bc 18c5 003d
000003e0: 5e1e 3bbe e5ba ddbd a326 9f3e 141f 7ebe
000003f0: 1511 72be 287f 0ebe 4d5f e33d 4a23 91be

mean_net.0.bias f4 [128]
-0.14775984 0.26849654 0.09295059 -0.013549375 0.022417964 -0.043245524 -0.16016577 0.047545135
0.22124176 -0.27365038 -0.029937778 -0.27196857 0.21854952 -0.12336588 -0.23049456 -0.09803735
-0.1475206 -0.31989905 0.022810202 -0.2097958 0.1328963 0.07140925 -0.16391101 0.095352255
0.13103116 0.0067099216 -0.0062747644 -0.016530868 -0.06624766 0.11732096 -0.2825029 0.08347638
0.21277972 0.14590128 0.20659634 0.055378955 0.060987838 0.20668471 -0.0038027111 -0.017884238
-0.04935122 0.15646715 0.15031365 -0.0782728 0.09907781 -0.34448895 -0.1396813 -0.13079189
-0.058766037 -0.17651556 -0.2796212 -0.050054934 -0.113449 -0.013861361 0.033185482 -0.026280904
-0.04810286 0.021458726 0.25682652 -0.03935881 -0.23092327 -0.1657441 -0.21162702 -0.16694538
0.0037306924 -0.1483654 0.051653374 0.04668664 0.25344932 0.21233007 0.2423028 0.18843941
-0.09541725 0.27395853 0.20020342 0.05129456 -0.15320034 -0.23588559 -0.3157633 0.03975042
0.13720696 -0.016811268 0.34437257 0.03526302 0.40213224 0.059383355 0.12529424 0.036089674
-0.31266323 0.119619094 -0.026582599 -0.10946193 -0.20986766 0.17780508 -0.07113325 0.020634115
-0.18321796 0.15955724 0.32028162 0.17262991 -0.05626696 0.0371712 -0.03243298 -0.20342922
-0.108729966 0.058391184 -0.083645016 -0.074781016 0.023965456 0.21747173 -0.14842106 -0.00870778
0.040275753 0.014047577 -0.1948528 0.16296971 0.13224742 0.093770675 -0.04434548 0.120752975
-0.1288418 0.038940348 0.05410559 -0.16457361 0.01829507 0.22158818 -0.17289549 -0.17791073
00000000: 5b4e 17be 6178 893e e15c be3d 33fe 5dbc
00000010: e1a5 b73c 3822 31bd 7f02 24be b0be 423d
00000020: 338d 623e e71b 8cbe 1240 f5bc 773f 8bbe
00000030: 72cb 5f3e 40a7 fcbd c406 6cbe cec7 c8bd
00000040: a40f 17be cfc9 a3be 76dc ba3c b6d4 56be
00000050: f815 083e 033f 923d 4ad8 27be 0b48 c33d
00000060: 082d 063e e7de db3b 8a9c cdbb be6b 87bc
00000070: daac 87bd f945 f03d 38a4 90be aaf5 aa3d
00000080: ede2 593e 2567 153e fe8d 533e 0bd5 623d
00000090: 62ce 793d 28a5 533e e836 79bb f781 92bc
000000a0: 8124 4abd ed38 203e d2eb 193e 7d4d a0bd
000000b0: 4fe9 ca3d db60 b0be 9d08 0fbe 4fee 05be
000000c0: a8b4 70bd 7fc0 34be 832a 8fbe 6706 4dbd
000000d0: f357 e8bd c31a 63bc 80ed 073d 0d4b d7bc
000000e0: 8107 45bd 36ca af3c c47e 833e b436 21bd
000000f0: 2677 6cbe d2b8 29be c1b4 58be bbf3 2abe
00000100: a27e 743b 19ed 17be 7d92 533d 7d3a 3f3d
00000110: 1cc4 813e 0e6d 593e 3a1e 783e 43f6 403e
00000120: 1f6a c3bd 4b44 8c3e 2002 4d3e 3f1a 523d
00000130: 8de0 1cbe fe8b 71be baab a1be 56d1 223d
00000140: fb7f 0c3e c9b7 89bc 9a51 b03e f56f 103d
00000150: 47e4 cd3e f63b 733d 224d 003e c4d2 133d
00000160: 6515 a0be dbfa f43d c0c3 d9bc 942d e0bd
00000170: 8ce7 56be 8912 363e 4fae 91bd e008 a93c
00000180: 7d9d 3bbe f962 233e f4fb a33e e5c5 303e
00000190: 2f78 66bd d440 183d 72d8 04bd c04f 50be
000001a0: d1ad debd 982b 6f3d 144e abbd ca26 99bd
000001b0: 3453 c43c e9b0 5e3e b1fb 17be 14ab 0ebc
000001c0: 30f8 243d cf27 663c 7e87 47be 88e1 263e
000001d0: de6b 073e d70a c03d 9ba3 35bd 564d f73d
000001e0: 1bef 03be ea7f 1f3d d39d 5d3d fc85 28be
000001f0: 8bdf 953c 03e8 623e 840b 31be 3b2e 36be

mean_net.2.weight f4 [128, 128]
0.036857974 0.22293241 -0.15487334 0.029706223 -0.1078231 0.01909735 0.03516041 -0.08888524
0.135229 0.265886 -0.002604877 0.07202693 -0.040551543 -0.0883059 0.17503288 -0.13657066
-0.14291735 0.06578765 0.19414347 0.05900181 0.032541107 -0.010184485 0.048596054 -0.2573935
-0.04587292 -0.18417631 -0.07920304 0.3724061 -0.120228514 0.25213614 0.09471702 -0.29163215
-0.068864994 -0.047180604 0.31636173 -0.3104815 -0.112361476 0.11406083 -0.21629176 0.057565432
-0.035745755 -0.06499466 0.17934692 -0.009787725 0.098707445 -0.28272623 0.14042218 0.074021086
0.08636056 0.14030758 -0.36741996 0.118340485 -0.08214376 0.0120807225 -0.05983751 0.07529736
-0.0653077 0.18067618 -0.11446573 0.21835478 -0.019316642 0.028628532 -0.15115243 0.10609158
0.039124977 -0.060202293 -0.3043719 0.027056351 0.3756158 -0.025758937 0.02086004 0.16792928
0.0076822257 0.26034254 0.018084133 0.18012695 -0.19169956 -0.06731945 -0.15560445 0.21143721
0.02473424 -0.0066556786 0.0067352923 0.19343022 0.064864196 -0.22136766 -0.058558553 -0.043087352
-0.13493958 0.20440495 0.076282755 0.2093998 -0.0393279 0.17306319 -0.23830539 0.04130263
0.0660299 0.092676625 0.20257704 -0.06721503 -0.17922331 0.05185487 -0.071422644 -0.09407675
-0.035774015 -0.14699927 0.41083825 -0.33910272 -0.2781808 0.0467302 0.21008995 0.20258047
-0.15756597 -0.06494179 -0.031980477 -0.12763676 0.030686123 -0.15023333 0.09222881 -0.05513127
0.014974093 0.09937292 0.016684892 -0.14041603 -0.000121355435 0.28432027 -0.24159837 -0.06559337
-0.1083644 0.189945 0.004931073 0.13864718 -0.011677768 -0.26675996 0.19934869 -0.15850236
-0.17101052 0.21598695 -0.12159352 -0.38666487 0.029617766 0.08440762 0.3571278 -0.011107077
-0.06438944 -0.13338783 0.21113408 -0.06746077 0.11421742 0.05435779 0.06777754 0.06391087
0.39646628 -0.22533813 0.3173879 -0.0073325494 0.15757538 0.23312102 -0.10348426 -0.12588881
0.05945799 0.465637 -0.029816581 0.16883704 0.23924941 0.04112343 -0.021923909 0.094007105
-0.23107864 0.05930757 -0.25337592 -0.10702283 -0.38256943 -0.1597459 -0.41466513 -0.055690125
0.058571436 0.3394862 -0.37999249 0.02710974 0.08185612 0.09443819 0.041006733 0.023643857
-0.100354895 -0.14883679 -0.06343414 0.046056397 -0.46554688 -0.04980836 0.37590265 0.09963348
-0.12254087 -0.17090534 0.08510349 -0.32624605 0.0016995864 -0.029438967 -0.10291808 -0.07190651
-0.052962046 0.3311979 -0.43649107 0.22895463 0.4039932 0.031985182 -0.032534212 -0.27150214
0.033181056 0.10251167 0.029901978 0.23501877 -0.104534194 -0.06185269 0.004024762 -0.2128904
-0.031902626 0.06974383 -0.027011858 0.45194548 0.020391861 0.21627781 -0.14967431 0.42722023
-0.16767253 -0.26819208 -0.071947224 0.006528845 -0.021486398 0.053018834 -0.0056360825 -0.19305974
0.007921763 -0.53731495 -0.37721014 -0.7864553 0.65723836 -0.0026169026 -0.05209057 0.19855726
0.23190783 -0.09574659 0.02563017 -0.08887434 -0.30086404 0.09743347 0.18722284 -0.0072406293
-0.22965002 0.043912705 0.2160552 -0.37433985 0.25167364 0.19621025 0.054980446 0.14827587
00000000: 63f8 163d 6548 643e 1e97 1ebe 775a f33c
00000010: 5cd2 dcbd 0c72 9c3c 5d04 103d 7709 b6bd
00000020: 7979 0a3e 3622 883e 96b6 2abb db82 933d
00000030: 6019 26bd b9d9 b4bd d23b 333e 2ed9 0bbe
00000040: ed58 12be adbb 863d 8ccd 463e e2ab 713d
00000050: d349 053d d4dc 26bc a80c 473d 15c9 83be
00000060: 3ee5 3bbd b798 3cbe 3435 a2bd 03ac be3e
00000070: 5e3a f6bd fd17 813e fffa c13d cf50 95be
00000080: 1709 8dbd 7340 41bd 2afa a13e 6ef7 9ebe
00000090: c61d e6bd b998 e93d 967b 5dbe bbc9 6b3d
000000a0: 246a 12bd ec1b 85bd b8a6 373e b25c 20bc
000000b0: 2127 ca3d 7ec1 90be d5ca 0f3e 5e98 973d
000000c0: cedd b03d caac 0f3e 781e bcbe 7f5c f23d
000000d0: fd3a a8bd 39ee 453c 2d18 75bd 8135 9a3d
000000e0: 0bc0 85bd 2d03 393e 026d eabd 6598 5f3e
000000f0: ef3d 9ebc 6286 ea3c b4c7 1abe 8b46 d93d
00000100: 8341 203d ae96 76bd a2d6 9bbe 48a5 dd3c
00000110: b750 c03e 6804 d3bc ade2 aa3c a7f5 2b3e
00000120: 2ebb fb3b 9e4b 853e 2d25 943c 3373 383e
00000130: e44c 44be c8de 89bd c656 1fbe ff82 583e
00000140: 769f ca3c e117 dabb bab3 dc3b 9212 463e
00000150: 85d7 843d 34ae 62be 18db 6fbd 5d7c 30bd
00000160: 9a2d 0abe 884f 513e 223a 9c3d e76c 563e
00000170: 4b16 21bd 7a37 313e 5406 74be f22c 293d
00000180: af3a 873d 3ecd bd3d 5b70 4f3e 09a8 89bd
00000190: 5186 37be c665 543d 0946 92bd 50ab c0bd
000001a0: c687 12bd fa86 16be 6459 d23e df9e adbe
000001b0: b76d 8ebe 2b68 3f3d d221 573e 4171 4f3e
000001c0: f958 21be 3400 85bd f6fd 02bd 36b3 02be
000001d0: 7761 fb3c c4d6 19be 75e2 bc3d 54d1 61bd
000001e0: e655 753c 0884 cb3d c1ae 883c 38c9 0fbe
000001f0: 3480 feb8 6d92 913e 9065 77be d155 86bd
00000200: 28ee ddbd f180 423e d794 a13b 87f9 0d3e
00000210: 1c54 3fbc c394 88be 1022 4c3e 714e 22be
00000220: 621d 2fbe af2b 5d3e 0606 f9bd f0f8 c5be
00000230: f5a0 f23c e7dd ac3d 74d9 b63e 75fa 35bc
00000240: 9cde 83bd d296 08be 8833 583e df28 8abd
00000250: d3ea e93d 46a6 5e3d f3ce 8a3d b4e3 823d
00000260: a1fd ca3e 0abf 66be ab80 a23e e245 f0bb
00000270: 715b 213e 47b7 6e3e 8eef d3bd ffe8 00be
00000280: 398a 733d f967 ee3e e741 f4bc 9ee3 2c3e
00000290: ccfd 743e 0b71 283d c599 b3bc cc86 c03d
000002a0: e19f 6cbe 7fec 723d 7dba 81be c92e dbbd
000002b0: 24e0 c3be 6e94 23be fd4e d4be 541b 64bd
000002c0: 9ae8 6f3d 23d1 ad3e 608e c2be 3f15 de3c
000002d0: 2ea4 a73d cf68 c13d adf6 273d c3b0 c13c
000002e0: de86 cdbd ac68 18be c2e9 81bd a2a5 3c3d
000002f0: 295c eebe da03 4cbd 5076 c03e a30c cc3d
00000300: b5f6 fabd cf01 2fbe bd4a ae3d b909 a7be
00000310: a8c4 de3a fd29 f1bc b7c6 d2bd b843 93bd
00000320: bbee 58bd c592 a93e c27b dfbe 1573 6a3e
00000330: 32d8 ce3e e502 033d 9842 05bd 5402 8bbe
00000340: dce8 073d a3f1 d13d fef4 f43c c3a8 703e
00000350: 0616 d6bd 3f59 7dbd 27e2 833b f1ff 59be
00000360: 54ac 02bd dad5 8e3d f947 ddbc 6665 e73e
00000370: d50c a73c ee77 5d3e 3944 19be 9cbc da3e
00000380: 59b2 2bbe 7950 89be 1159 93bd ecef d53b
00000390: 3e04 b0bc 472a 593d e3ae b8bb 74b1 45be
000003a0: 48ca 013c 798d 09bf b021 c1be 2255 49bf
000003b0: c640 283f 5780 2bbb ec5c 55bd 9852 4b3e
000003c0: 3f79 6d3e ca16 c4bd 5df6 d13c c003 b6bd
000003d0: da0a 9abe 338b c73d 58b7 3f3e cd42 edbb
000003e0: 6029 6bbe cfdd 333d 933d 5d3e 79a9 bfbe
000003f0: 5edb 803e 57eb 483e 2d33 613d a1d5 173e

mean_net.2.bias f4 [128]
-0.06933881 -0.08645472 0.2108189 0.11381953 -0.029492905 -0.015535581 -0.023437683 0.14366406
0.09616937 0.05550617 0.0037243017 0.10644428 0.206116 -0.041956224 -0.20918597 -0.10934189
-0.11534136 0.16861701 0.104373485 -0.024389064 0.029417243 -0.08099608 -0.089848466 0.010201697
-0.09408443 -0.027646895 -0.25368375 -0.078408204 0.091894425 -0.06558743 0.06529974 0.1870988
-0.09005425 -0.046747692 0.18472275 -0.09035211 -0.053406365 -0.0644373 0.0075673056 0.029827598
0.0063019176 -0.04944067 0.08863871 0.05071283 -0.0071694497 -0.11990141 -0.075493135 0.08520539
0.0028253961 0.02699896 0.13976067 0.09096863 0.018765206 0.10687147 0.05664794 0.06801983
-0.0013576868 0.14508739 0.04289679 -0.11327626 0.11483543 -0.015263419 0.12615104 0.0782284
0.0073720743 -0.12796828 -0.002103799 0.021678498 -0.07855906 -0.12393369 -0.099070966 -0.104196094
-0.0078785885 -0.029683141 0.0501302 0.021329617 -0.21555418 0.05251214 0.06235669 -0.11024351
0.06705748 -0.008302448 0.010358406 0.06946585 0.08007491 0.116048135 -0.042778276 -0.1507543
0.0709488 -0.24566069 0.14553541 -0.018067708 -0.16985516 0.12247818 -0.020003172 -0.07714635
0.07502216 -0.060043734 0.02033402 -0.081957445 -0.05833039 0.09087145 -0.065229215 0.10118122
0.014405846 -0.20897664 -0.124881566 -0.04788169 0.19563451 0.021614607 -0.10518083 0.056392062
-0.0034672038 -0.07852387 -0.027091937 0.0032734987 -0.10165373 -0.07845239 -0.20124066 0.22203368
0.00092820456 0.05155186 -0.0089045 0.0007196516 0.021558128 -0.04276314 -0.047605854 -0.072779775
00000000: 8201 8ebd 2c0f b1bd e9e0 573e 371a e93d
00000010: 1b9b f1bc f388 7ebc 6200 c0bc ac1c 133e
00000020: 72f4 c43d 705a 633d 6a13 743b 75ff d93d
00000030: 1310 533e 4ada 2bbd d934 56be a4ee dfbd
00000040: 1738 ecbd f0a9 2c3e c4c1 d53d 93cb c7bc
00000050: 6efc f03c 46e1 a5bd 7902 b8bd 0525 273c
00000060: 56af c0bd be7b e2bc d6e2 81be 7b94 a0bd
00000070: 2533 bc3d b452 86bd dfbb 853d d496 3f3e
00000080: 5d6e b8bd 827a 3fbd f627 3d3e 870a b9bd
00000090: a2c0 5abd b4f7 83bd 29f7 f73b 0259 f43c
000000a0: 5180 ce3b 4d82 4abd 3688 b53d 42b8 4f3d
000000b0: b4ed eabb df8e f5bd 259c 9abd 2a80 ae3d
000000c0: 482a 393b ec2c dd3c 6c1d 0f3e c34d ba3d
000000d0: 7db9 993c 6edf da3d ac07 683d fb4d 8b3d
000000e0: 69f4 b1ba ca91 143e 8bb4 2f3d 62fd e7bd
000000f0: d72e eb3d 6b13 7abc bd2d 013e 3636 a03d
00000100: 7191 f13b 1e0a 03be e4df 09bb 1b97 b13c
00000110: 93e3 a0bd f2d0 fdbd b8e5 cabd c364 d5bd
00000120: 3215 01bc 0f2a f3bc 5355 4d3d 73bb ae3c
00000130: 3cba 5cbe f816 573d bb69 7f3d 59c7 e1bd
00000140: 6f55 893d fe06 08bc 4eb6 293c 1d44 8e3d
00000150: 50fe a33d a5aa ed3d 4638 2fbd 565f 1abe
00000160: 9b4d 913d 7a8e 7bbe 3c07 153e bb02 94bc
00000170: 83ee 2dbe d7d5 fa3d b1dd a3bc e8fe 9dbd
00000180: 38a5 993d 6bf0 75bd 8893 a63c 4ed9 a7bd
00000190: d9eb 6ebd d01a ba3d e596 85bd 1938 cf3d
000001a0: 7f06 6c3c f9fd 55be e8c1 ffbd 971f 44bd
000001b0: 6a54 483e 1e11 b13c 0c69 d7bd 5dfb 663d
000001c0: 073a 63bb 1fd1 a0bd e9ef ddbc 3288 563b
000001d0: d52f d0bd a6ab a0bd 0812 4ebe cc5c 633e
000001e0: c152 733a 0b28 533d 2ee4 11bc 00a7 3c3a
000001f0: ac9a b03c 6728 2fbd 5bfe 42bd 900d 95bd

mean_net.4.weight f4 [4, 128]
-0.22313431 -0.35469636 0.45354486 0.2076539 0.2841916 -0.07482509 0.5391174 -0.27370945
-0.2741197 -0.037831884 -0.066767775 -0.21268322 -0.07352416 -0.16634397 -0.4432152 0.058954485
0.08125981 0.061109453 0.08734366 0.8663271 0.3537794 0.16362944 0.12940922 0.1460495
0.103452384 -0.07988073 -0.13302974 -0.62971216 -0.08098989 -0.09674139 0.24438794 0.109646186
-0.2774596 -0.06895791 0.18096483 -0.18034604 -0.29026097 0.08033891 0.011251463 0.9699371
-0.115196116 -0.3210146 -0.39516738 0.16605894 -0.23778424 0.21746351 0.0072057247 0.30621278
-0.42466587 0.0709206 -0.710598 -0.14844723 -0.10082253 0.24309471 0.6570719 -0.060123544
0.20609926 -0.22308883 -0.025212297 -0.36953217 0.5163341 0.014953821 -0.080678195 0.3328985
0.25531113 -0.086389765 -0.074806094 0.10208359 0.13063632 -0.11072061 -0.19776237 0.04166666
-0.32533717 0.30089465 0.19446959 0.14316766 0.34652817 0.4524226 0.88188434 -0.089577414
0.32177725 -0.44540405 0.57807684 -0.66464347 0.18613818 -0.47326735 0.12842134 -0.0110942535
-0.39401025 -0.17089695 0.56136245 0.047973953 0.18417002 0.2010165 -0.002092781 0.09861671
-0.092325136 0.2919074 0.014301704 0.10968241 0.11589645 0.4768934 0.16889794 0.18602884
0.6408488 0.0890691 0.076817624 -0.076616734 0.020848861 -0.24812736 -0.19116491 0.6115013
-0.45178542 -0.045061998 0.7603998 -0.58700854 -0.15884452 -0.25215554 0.27184623 0.016772877
-0.47804174 0.3093899 -0.43763396 0.11224946 -0.5445879 -0.4567112 0.16633989 -0.027294612
0.01477235 0.11285629 -0.11235012 -0.22727837 0.25870356 0.22580247 -0.21081041 0.107012786
0.038325835 -0.114474125 0.15834771 -0.05940057 0.1022786 -0.26368108 0.115038686 -0.041227542
-0.17008908 0.4615159 0.25193548 0.0067540784 -0.3039791 -0.17948762 0.13791737 -0.18243574
-0.08811907 -0.22268039 0.058655508 -0.22428906 -0.13838175 0.186561 -0.0053206976 0.07316102
-0.13729395 0.27503148 -0.022622233 0.116438285 0.1078589 0.13846734 0.04600482 -0.22874671
0.017368065 0.29759195 0.11695899 0.09498033 0.1244309 -0.03941866 0.025464352 -0.22371466
-0.21869774 -0.16474204 0.106585875 0.25071314 -0.3889457 -0.14896916 -0.10935637 0.024129566
-0.23342526 -0.1487754 0.6508868 -0.6756693 0.061003495 0.26458558 -0.12261727 -0.3369885
0.005268541 0.06535064 0.18560319 -0.05602875 -0.18073769 0.2532744 0.16265461 0.31547585
-0.068398744 -0.42357948 -0.17415346 -0.30309004 0.20133543 0.41925785 -0.08252781 0.12869452
-0.01894187 -0.14775048 0.20881838 0.5082245 0.24304754 -0.029243812 0.2648325 -0.07171661
0.07209884 0.2595214 -0.07013154 0.064328134 0.29777536 0.15632911 -0.17150645 0.101477854
-0.07271551 0.15793365 0.07806957 0.15880547 -0.039295897 -0.43448216 -0.38180485 0.41649568
-0.022432595 -0.25183445 0.060376905 -0.5406 0.14112113 -0.07536979 -0.2155641 0.020851616
-0.07086159 -0.23332754 -0.02237159 0.11833058 0.0016116339 0.010745766 -0.10968524 0.170813
0.021079635 -0.20181912 -0.09773949 0.1175282 -0.21165977 -0.18787013 -0.0060117384 -0.22578774
00000000: 527d 64be c39a b5be 0837 e83e 39a3 543e
00000010: 9081 913e e63d 99bd 9903 0a3f a523 8cbe
00000020: 6b59 8cbe 9bf5 1abd 8bbd 88bd a1c9 59be
00000030: d693 96bd 1356 2abe 1aed e2be 427a 713d
00000040: 8b6b a63d e84d 7a3d 3ce1 b23d 9dc7 5d3f
00000050: 9322 b53e 7a8e 273e da83 043e 008e 153e
00000060: d8de d33d 8298 a3bd f338 08be d134 21bf
00000070: 07de a5bd 5a20 c6bd d540 7a3e 2e8e e03d
00000080: 2f0f 8ebe ce39 8dbd d84e 393e a2ac 38be
00000090: 169d 94be ba88 a43d 0e58 383c cc4d 783f
000000a0: f1eb ebbd 075c a4be 6153 cabe 5b0b 2a3e
000000b0: b67d 73be c1ae 5e3e 001e ec3b ecc7 9c3e
000000c0: ce6d d9be d23e 913d c0e9 35bf 8d02 18be
000000d0: 0b7c cebd d2ed 783e dd35 283f 1b44 76bd
000000e0: af0b 533e 6671 64be 058a cebc 5233 bdbe
000000f0: 792e 043f df00 753c 9c3a a5bd ac71 aa3e
00000100: 24b8 823e 1eed b0bd f033 99bd 3411 d13d
00000110: 87c5 053e 7dc1 e2bd 3882 4abe a9aa 2a3d
00000120: 9892 a6be dd0e 9a3e 0923 473e 8b9a 123e
00000130: 246c b13e efa3 e73e 2cc3 613f 5d74 b7bd
00000140: fdbf a43e 000c e4be d8fc 133f 1326 2abf
00000150: 029b 3e3e 1950 f2be e280 033e acc4 35bc
00000160: b6bb c9be 9cff 2ebe 73b5 0f3f 5680 443d
00000170: 1197 3c3e 45d7 4d3e 0a27 09bb 8ff7 c93d
00000180: f614 bdbd e374 953e b251 6a3c 2ca1 e03d
00000190: 1e5b ed3d 5f2b f43e 95f3 2c3e 587e 3e3e
000001a0: ab0e 243f dc69 b63d 8f52 9d3d 3ce9 9cbd
000001b0: 3bcb aa3c 1915 7ebe bcc0 43be 598b 1c3f
000001c0: 6b50 e7be ee92 38bd 90a9 423f 3146 16bf
000001d0: 23a8 22be 881a 81be 6e2f 8b3e 4667 893c
000001e0: e3c1 f4be 5a68 9e3e 8f11 e0be 0be3 e53d
000001f0: 1d6a 0bbf 0dd6 e9be 0155 2a3e f398 dfbc
00000200: ba07 723c 3321 e73d d217 e6bd a9bb 68be
00000210: cb74 843e c338 673e afde 57be 8529 db3d
00000220: 8dfb 1c3d 6971 eabd e725 223e 034e 73bd
00000230: 7177 d13d 3501 87be 6799 eb3d 36de 28bd
00000240: d52b 2ebe d04b ec3e b0fd 803e 5151 dd3b
00000250: 26a3 9bbe 9acb 37be 363a 0d3e 6fd0 3abe
00000260: c577 b4bd 5406 64be c240 703d 08ac 65be
00000270: f2b3 0dbe d909 3f3e 3f59 aebb 72d5 953d
00000280: c996 0cbe edd0 8c3e 4352 b9bc 3277 ee3d
00000290: 21e5 dc3d 62ca 0d3e 8d6f 3c3d 943c 6abe
000002a0: 7947 8e3c f95d 983e 3288 ef3d 0c85 c23d
000002b0: a1d5 fe3d 7675 21bd 9e9a d03c 7515 65be
000002c0: 4df2 5fbe 23b2 28be b249 da3d 795d 803e
000002d0: e423 c7be 5f8b 18be 3cf6 dfbd 5eab c53c
000002e0: 0807 6fbe 9458 18be 84a0 263f aaf8 2cbf
000002f0: cdde 793d c377 873e c31e fbbd c289 acbe
00000300: baa3 ac3b 8ed6 853d c30e 3e3e 677e 65bd
00000310: 4d13 39be 2fad 813e ee8e 263e 0d86 a13e
00000320: a414 8cbd 69df d8be 4955 32be 9e2e 9bbe
00000330: e02a 4e3e f7a8 d63e 5704 a9bd 7fc8 033e
00000340: fb2b 9bbc e74b 17be 7cd4 553e 001b 023f
00000350: 74e1 783e b890 efbc 2098 873e 28e0 92bd
00000360: 8ea8 933d fddf 843e 20a1 8fbd 78be 833d
00000370: 0376 983e bd14 203e 639f 2fbe 9fd3 cf3d
00000380: dfeb 94bd 5cb9 213e f0e2 9f3d e79d 223e
00000390: bcf4 20bd 7274 debe ed7b c3be ec3e d53e
000003a0: 90c4 b7bc 72f0 80be c64d 773d c364 0abf
000003b0: 0f82 103e 7a5b 9abd d6bc 5cbe 02d1 aa3c
000003c0: e21f 91bd 6aed 6ebe a044 b7bc 4e57 f23d
000003d0: 763d d33a 020f 303c a8a2 e0bd 9ae9 2e3e
000003e0: 33af ac3c aca9 4ebe a42b c8bd a0b2 f03d
000003f0: 57bd 58be 0761 40be 1efe c4bb e734 67be

mean_net.4.bias f4 [4]
0.027824124 -0.12153661 -0.3283234 0.025716115
00000000: 6bef e33c 30e8 f8bd 011a a8be 9aaa d23c
