test_uav/model/actor_model13-10-2023_17-19-10/3960.pt (torch, 79608 bytes, 7 tensors)

logstd f4 [4]
000000 9c 32 1d c0 1c 33 88 c0 3c 7a af bf ff 85 9f c0
       -2.456214 -4.256239 -1.3709178 -4.985107

mean_net.0.weight f4 [128, 17]
000000 fd 49 94 bd 83 66 82 3d 9b 9d 04 3f bd 38 aa bc
       -0.07240675 0.06367209 0.51802987 -0.020779008
000010 57 fd 12 be 01 fb 79 3e 8e 2c 88 be 0e a6 31 3e
       -0.14354454 0.24412157 -0.26596493 0.17348501
000020 de 1e 7f 3d e3 83 7c 3e 88 54 2f 3e 63 d1 59 be
       0.062285297 0.24659686 0.1712209 -0.21271281
000030 4c 9f f9 bd 5e f5 f3 bd 69 8d a9 bd 34 01 12 3d
       -0.121885866 -0.119120345 -0.08278925 0.03564568
000040 4b eb 75 3e 63 57 52 be 95 93 31 bf 1a 89 2d be
       0.24015538 -0.20541148 -0.6936582 -0.16946831
000050 73 b2 ef bc 1e bb d8 3d cd 94 b9 bd 34 6e db bd
       -0.029259896 0.10582565 -0.090615846 -0.10714379
000060 88 f1 93 3e 0c de b9 3e dd 60 34 3f b2 6c 29 bf
       0.2889521 0.3630222 0.704603 -0.6618148
000070 c9 8c 80 bf b6 fd 4b 3f fa d6 11 be ca 1d 75 3e
       -1.0042964 0.7968401 -0.14242163 0.23937145
000080 b0 e5 22 3f ce ae cf bd 64 83 01 bf af be e2 bd
       0.63631725 -0.10140763 -0.5059111 -0.11071526
000090 0c b4 30 be c9 dd 80 be 83 d2 f2 3e 79 fb 5d 3c
       -0.17256182 -0.2516921 0.47426233 0.013548725
0000a0 74 19 47 3e b1 d6 a0 3e a1 76 34 3e 22 d7 cc be
       0.19443303 0.31413797 0.17623378 -0.40007883
0000b0 47 87 86 be 30 eb 86 3e 55 20 1c be 7d 1b c3 3d
       -0.26275083 0.2635131 -0.15246709 0.09526727
0000c0 62 0a 83 be a1 e8 d8 3c 09 21 0e bb 7c 0a b2 3e
       -0.2559386 0.026478114 -0.002168717 0.34773624
0000d0 5f c8 a5 3d 80 44 ba bd 34 53 b0 3d c9 f5 b5 bd
       0.080948584 -0.090950966 0.0860962 -0.088847704
0000e0 1f 2f 7c 3d 75 d1 4f 3e 5a 5e 37 3e 0b 22 c2 3e
       0.061568376 0.20294745 0.17907086 0.37916598
0000f0 44 14 b6 3e a0 10 6a be 11 0d 4e 3f 44 66 40 3e
       0.35562336 -0.22857904 0.8048869 0.18789011
000100 3e af c1 3d 27 a6 f9 bd cc bc 07 be 55 7f 9e be
       0.09457253 -0.12189894 -0.13255614 -0.30956522
000110 04 2a fd be af eb b7 be f3 8b 3a bf 90 31 09 3e
       -0.49446118 -0.35922 -0.72869796 0.13397813
000120 0a 86 ea 3e 46 43 13 be e9 18 39 3d b9 33 40 3d
       0.4580539 -0.14381132 0.04518977 0.046924327
000130 1f da ad 3e 59 0f 2c bd 26 df c6 bd ae 4d a1 3c
       0.33955476 -0.042006824 -0.09710531 0.01969036
000140 2b a2 82 3e 43 be a8 3e 7e ff cf 3d d9 72 26 3e
       0.2551435 0.32957658 0.10156153 0.16254748
000150 95 61 f6 bc a7 d1 c7 be d2 2a ad bd 23 38 88 3e
       -0.030075828 -0.3902714 -0.08455433 0.2660533
000160 4e 78 2c bf aa 43 b6 bd a8 af 1a 3e 0d 36 8b 3b
       -0.6737107 -0.08899625 0.1510607 0.0042483867
000170 70 dc 99 bc 7b 9c 40 bd 65 5f 63 bd 3f 21 c9 bb
       -0.01878187 -0.04702423 -0.055510897 -0.0061379964
000180 b1 ce a2 3d e5 e7 89 3d c9 b9 d2 3d 20 c0 cb 3d
       0.079495795 0.067336835 0.10289342 0.09948754
000190 60 d7 87 be 9e 04 4f 3d df 38 3f 3f 34 d6 fc 3e
       -0.26531506 0.050541513 0.74696153 0.49382174
0001a0 11 e6 e0 3e b0 d0 a5 3e b2 50 0c 3e 38 5b 5d bd
       0.43925527 0.32385778 0.13702658 -0.05404207
0001b0 0a 7b 5a 3d a4 ad c5 bd 27 62 3a be b0 29 8a 3d
       0.053339995 -0.0965226 -0.18201505 0.067462325
0001c0 18 3f 28 be c3 7f 94 3e fe f3 1a bf d7 a3 01 3e
       -0.16430318 0.29003724 -0.6052855 0.12660156
0001d0 81 a7 c4 3c f5 a4 2d bc 39 70 e1 3d 41 fb a9 3e
       0.024005653 -0.010598411 0.11007733 0.33199504
0001e0 7d 61 d1 be 81 a3 c5 3e 7d ba ff 3d a7 02 03 bf
       -0.4089469 0.38601306 0.12486742 -0.5117592
0001f0 45 1b 53 3e a0 78 9d 3d 3c 6d 49 3e 7f a9 f8 be
       0.20615871 0.07689023 0.19670576 -0.48566815
000200 85 3d 7c bb 53 3f a4 bb 85 33 f9 3d 86 c3 2a be
       -0.0038488817 -0.0050124316 0.1216803 -0.16676149
000210 f3 87 61 be a7 09 00 3c 9f 6c 0e bd b0 0d 7d bd
       -0.22024517 0.007814801 -0.034771558 -0.06178063
000220 ad 21 68 3d 2e 33 a2 be ed 38 be be 31 00 e1 bc
       0.05667274 -0.31679672 -0.37152806 -0.027465912
000230 b7 79 06 bf 7c 9f b9 be 35 b0 4e 3e fb 7f 9f 3e
       -0.5252947 -0.3625449 0.20184405 0.3115233
000240 2b f0 ca bc b7 4f c0 3e 01 3c 36 3e 21 42 b5 3d
       -0.024772724 0.37560818 0.17796327 0.08850504
000250 98 63 6e be 8a 32 70 bd 15 fb 41 be bb f2 b2 3d
       -0.2328018 -0.058641948 -0.18943436 0.087377034
000260 c5 d0 9d bd 3a 98 b1 3e 97 72 ea 3e 87 fb 13 bf
       -0.07705835 0.34686452 0.4579055 -0.57805675
000270 7d 35 83 3d 52 15 d9 3e 0a 34 d7 3a ac 41 90 3d
       0.064066865 0.4239908 0.0016418707 0.07043776
000280 cb fe 8c be f0 4c 56 3e 14 b0 66 3e d8 89 00 3c
       -0.27538142 0.20927787 0.22528106 0.0078453645
000290 f8 9e 13 3e 11 f0 8a 3e 38 b3 0d 3e 59 6b da bd
       0.1441611 0.2713628 0.13837898 -0.10665006
0002a0 a6 bf be 3d fd a4 2d 3e 91 02 7a 3e 85 fe 92 be
       0.09313898 0.1695747 0.24415042 -0.28709808
0002b0 6e b6 5a 3e ed 38 80 3e a8 9c c9 be 68 53 cb 3d
       0.21358654 0.2504343 -0.39377332 0.09928018
0002c0 c7 07 d9 bd ec 8c e4 be c6 d1 05 39 40 be 15 3d
       -0.105971865 -0.44638765 0.00012762015 0.03655839
0002d0 b6 7f c9 bd 3c 23 82 3e 67 04 01 bf b2 b1 b7 3d
       -0.09838812 0.25417507 -0.5039734 0.089694396
0002e0 4c a3 f2 bc 80 13 e2 3d c2 ee 81 3e 38 d7 ce be
       -0.029618882 0.110388756 0.2537747 -0.40398574
0002f0 f7 2d 76 bd c7 8d 04 be c0 79 8d 3e 97 29 f1 bc
       -0.06010243 -0.12944709 0.2763195 -0.029438777
000300 90 ba 6f 3e 8a 8e 25 bd fb 53 25 be bd 98 bb be
       0.23411012 -0.04041914 -0.16145317 -0.36639968
000310 98 32 a4 bd 39 4a c2 3e ea 6c fc 3e 7a 6c 5e 3e
       -0.080174625 0.37947252 0.49301845 0.21721068
000320 42 0a f8 3d a6 16 a9 be 93 fa a7 3e 91 3f 21 3d
       0.121113315 -0.33025092 0.3280836 0.039367262
000330 4d 6b 72 3e fe 8c fa be 2d 5c ef be 9e a9 e6 be
       0.23673744 -0.48935694 -0.46750012 -0.45051283
000340 e4 3c 4b 3e 75 7f 23 be ae 0e ee 3d e7 fd a4 3e
       0.19847447 -0.1596659 0.11623894 0.32224962
000350 3f b7 81 3e 94 be 11 3e 7f 83 d9 be a2 ba 2f be
       0.25335118 0.14232856 -0.42483136 -0.17161039
000360 61 55 ea 3d f2 53 74 3e bd e6 18 3e 01 21 f6 bd
       0.11442066 0.23860148 0.1493177 -0.12018014
000370 a9 ac 01 3e 2e 49 03 bf 01 b1 12 3e 7a 0c 80 be
       0.12663521 -0.5128354 0.14325334 -0.2500952
000380 49 0b 93 bd a9 c9 32 3e c4 0d 9c 3e a3 f4 1c 3e
       -0.07179887 0.1745974 0.30479252 0.15327697
000390 76 de 4d bd 34 36 a6 be 5a 5b 8f 3e 1e db 92 be
       -0.050260983 -0.3246323 0.27999383 -0.28682798
0003a0 b8 eb 33 bf 2d e4 ce be 00 d9 aa be 76 28 71 be
       -0.70281553 -0.4040846 -0.33368683 -0.23550591
0003b0 e8 71 b6 be 92 9d 85 be d6 e3 fb 3e 28 0d 41 3f
       -0.3563378 -0.2609678 0.49197263 0.754107
0003c0 ba 79 e8 3e 29 7e 88 be d9 78 1f 3e 3c 55 3b 3e
       0.4540537 -0.26658753 0.15573443 0.18294233
0003d0 75 14 55 3e 1c c6 12 3e 14 ed 38 3c fe fd 1b 3d
       0.20808585 0.14333385 0.011286993 0.038084023
0003e0 f2 28 96 bd 50 0f fd bc 62 60 93 3e 42 8f 83 be
       -0.073320284 -0.03089109 0.28784472 -0.25695235
0003f0 b4 1e 65 be 87 5f 12 be 73 53 ec 3d 8a a7 a8 be
       -0.22374994 -0.14294253 0.11539354 -0.32940322

mean_net.0.bias f4 [128]
000000 71 be 17 be 37 ff 8f 3e be b5 9a 3d 78 6c 9c bc
       -0.14818741 0.281244 0.07554196 -0.01909469
000010 ec e1 80 3c e7 4c f0 bc bc 94 06 be 20 56 59 3d
       0.015732728 -0.029333545 -0.13142675 0.05306065
000020 37 e8 5a 3e 61 cc 8a be fa 1d b9 bc 2b 72 8e be
       0.21377645 -0.27109054 -0.022597302 -0.27821478
000030 4e df 4d 3e c6 06 f3 bd 6f 12 5f be 68 3e 00 be
       0.20104715 -0.11866526 -0.21784376 -0.12523806
000040 90 1c fe bd e7 6f a4 be f6 c4 24 3d d8 8b 4f be
       -0.124077916 -0.32116625 0.0402269 -0.2026819
000050 d6 fa 22 3e 72 55 57 3d e3 8d 2a be 5c 83 af 3d
       0.15915999 0.05257172 -0.16655688 0.08569977
000060 fe 8b 9b 3d 17 7f 53 3c 82 10 9e bc fd b0 b9 3b
       0.07595061 0.012908719 -0.01929498 0.0056668506
000070 d6 2f 59 bd 25 d4 10 3e 7c ad 78 be 83 ce 95 3d
       -0.053024136 0.14143427 -0.24284929 0.073147796
000080 a1 32 49 3e c3 46 0d 3e 2a 73 5e 3e a5 10 4b 3d
       0.1964822 0.13796525 0.21723619 0.04957642
000090 e7 63 41 3d fb 77 48 3e 53 02 0e bd 7a 1f 02 bd
       0.047214415 0.19577019 -0.034670185 -0.0317683
0000a0 99 61 37 bd aa 27 20 3e fa 2e 18 3e 30 eb 9d bd
       -0.04477081 0.1564013 0.1486167 -0.07710874
0000b0 5c 44 d9 3d de 86 a8 be 03 dd 18 be a6 ab fd bd
       0.10608742 -0.32915395 -0.1492806 -0.12386255
0000c0 12 6e 97 bd 0c bf 2c be 28 62 98 be ae 03 26 bd
       -0.07394041 -0.16869754 -0.29762387 -0.040530853
0000d0 2f 07 d6 bd 66 60 c6 bc 27 21 a0 3d 83 09 12 bc
       -0.10450589 -0.024215888 0.07818823 -0.008913401
0000e0 4f 00 67 bd 1a 11 86 3c b7 e3 7a 3e d8 a5 e1 bd
       -0.05639678 0.016365577 0.24500929 -0.1101796
0000f0 5d 9e 6b be 6b d9 07 be 8f 85 67 be 43 76 32 be
       -0.2300963 -0.13266532 -0.22609542 -0.17427926
000100 99 f9 03 3c aa 9c 22 be 89 b4 0a 3d 15 b9 86 3d
       0.008055114 -0.15880075 0.033863578 0.0657827
000110 98 99 85 3e 2e d0 57 3e ab be 6d 3e de e6 4d 3e
       0.26093745 0.21075508 0.23217265 0.201076
000120 f2 83 cc bd 30 ff 84 3e 4b 8c 58 3e fe 95 30 3d
       -0.09986104 0.25975943 0.21147268 0.043111794
000130 5e 2e 1f be 2a 0e 75 be b6 1b a6 be 83 47 31 3d
       -0.15545031 -0.23931184 -0.32443017 0.04328109
000140 a4 52 a5 3d 07 8d 65 bd 8d 31 ca 3e fb 1c fc 3c
       0.08072403 -0.056042697 0.3949093 0.030775538
000150 5e 1b d3 3e f7 ed 5e 3d 69 61 f1 3d e3 95 d3 3c
       0.41231817 0.05442616 0.11786158 0.025828307
000160 e4 d6 a0 be f0 cf f6 3d 50 c6 fa 3b 0a e3 dc bd
       -0.3141395 0.1205138 0.007653035 -0.10785492
000170 7b 5f 50 be 6a 9b 38 3e dc d2 95 bd 98 0b 9c 3c
       -0.20348923 0.18028036 -0.07315609 0.019048497
000180 bd 09 37 be a6 21 33 3e bc 2c 95 3e 08 90 26 3e
       -0.17874809 0.17493305 0.29135692 0.16265881
000190 0a c9 8b bd ac 6c 5e 3d 70 d0 4f bd 0a 89 56 be
       -0.068254545 0.054302856 -0.05073589 -0.20950714
0001a0 bc ca f6 bd 66 d9 86 3d ac da 98 bd a7 21 6a bd
       -0.12050387 0.06584434 -0.07463583 -0.057161
0001b0 d8 8d 3b 3c 91 64 66 3e 7e 92 06 be 5f 8d 89 bb
       0.011447392 0.224993 -0.1314182 -0.004197761
0001c0 ff 7d 1c 3d 9e 63 9e 3b 88 a9 37 be 91 82 13 3e
       0.038206097 0.0048336526 -0.17935765 0.14405276
0001d0 4c 88 11 3e 81 3e a8 3d 5c 7f 73 bd 44 40 b8 3d
       0.1421215 0.08215047 -0.05944763 0.08996633
0001e0 f2 6c 01 be 83 fb 20 3d d4 2e 34 3d be 0a 34 be
       -0.12639216 0.03930236 0.04398997 -0.17582223
0001f0 f4 08 e8 3c 1d d9 69 3e d8 49 4a be 0e a1 44 be
       0.028324582 0.22836728 -0.19754732 -0.19202062

mean_net.2.weight f4 [128, 128]
000000 1d 09 15 bb a3 4b 40 3e 72 57 1d be 64 e4 48 3d
       -0.0022741028 0.18778853 -0.15365389 0.049045935
000010 65 3a 18 be fc 41 ac 3d ee 7e 96 bb 09 5b cd bc
       -0.14866026 0.08411023 -0.004592768 -0.025067823
000020 dc 9c 97 3d 9d ea 95 3e 94 fd ae 3c 84 cd 21 3e
       0.074029654 0.29280558 0.02136115 0.15801054
000030 39 49 1a bd a0 a5 b9 bd 28 5d 1b 3e fd 60 02 be
       -0.037667487 -0.090647936 0.15172255 -0.1273231
000040 21 f8 4f be 10 c3 99 3d cb 78 3e 3e 44 65 01 3d
       -0.20309497 0.07507908 0.18600766 0.031590715
000050 77 7d 12 3e cc 90 14 bd a3 4a 12 3e a9 a2 9a be
       0.14305674 -0.0362709 0.14286284 -0.30202225
000060 f0 5d 3d bd e7 48 5c be cd c5 23 be b7 ae d5 3e
       -0.046232164 -0.21512185 -0.15993424 0.4173486
000070 58 e7 1f be 46 18 91 3e ef 0c d2 3d 2d 29 b5 be
       -0.15615594 0.28338832 0.10256373 -0.35382977
000080 75 bf b4 bd 19 fc f4 3b fa 69 b7 3e fe d3 ac be
       -0.0882558 0.0074763414 0.3582304 -0.33755487
000090 36 9e ec bc bb 40 f3 3d fc bc 55 be 42 3f 5b 3d
       -0.028884035 0.11877581 -0.20872873 0.053527124
0000a0 6a 8b 10 bd 4f 3e 31 bd 05 d6 97 3e 99 68 87 bd
       -0.035289206 -0.043272313 0.2965547 -0.06611747
0000b0 fb c0 9a 3d ac 85 8f be bb 91 1d 3e 73 74 63 3d
       0.07556339 -0.2803167 0.15387623 0.055530977
0000c0 e8 7d 8a 3d 6d 5d 61 3e 0b 02 f3 be d4 34 db 3d
       0.06762296 0.22008295 -0.47462496 0.107034355
0000d0 32 2e eb bd a6 23 14 bb 47 7a 56 bd cb ef 93 3d
       -0.114834204 -0.0022604256 -0.052362707 0.07223471
0000e0 2b 82 c5 bd f7 87 4f 3e 2f 83 ee bd c0 80 4e 3e
       -0.09643968 0.2026671 -0.11646115 0.20166302
0000f0 3a 6f bd bc f2 9d b0 3d 0d 9c 48 be 79 46 07 3e
       -0.023124326 0.08623876 -0.19590779 0.13210477
000100 79 9e c3 bd 8f 6c 30 bd 78 d9 7f be 24 4d 8e bd
       -0.09551711 -0.04307228 -0.24985301 -0.06948307
000110 c6 29 e2 3e 07 be df bc 47 87 32 3c 25 de 40 3e
       0.44172496 -0.027312292 0.01089651 0.18834741
000120 a5 3b 0a 3d 15 bc 97 3e 88 82 58 3d 30 8b 4d 3e
       0.033748288 0.29635683 0.05285886 0.20072627
000130 17 31 5c be 6b 4a 4f bd 97 29 55 be 8d 94 37 3e
       -0.21503101 -0.05060808 -0.20816647 0.17927761
000140 24 cd 4a 3d a8 34 f8 bd 3f 3d f7 3b 4e ec 62 3e
       0.049512044 -0.121194184 0.007545143 0.22160456
000150 ad e9 f3 3d a9 4d 59 be 7c bd 7b bd fc f1 0a bd
       0.119098045 -0.21221031 -0.061460003 -0.03392218
000160 fc 1b 1b be 90 1f a3 3e e4 85 9d 3d 7c f1 3c 3e
       -0.15147394 0.31860018 0.07691553 0.18451494
000170 93 17 e3 bc 4a b4 44 3e 47 76 78 be 45 59 77 3d
       -0.027721202 0.192094 -0.24263869 0.06038787
000180 a6 34 76 3d 4c 7e 08 3e 24 46 48 3e 30 e0 0d bd
       0.060108803 0.13329428 0.19558007 -0.03463763
000190 72 12 25 be c5 0c 4f 3d 77 19 8b bd 95 f7 05 be
       -0.16120318 0.050549287 -0.067919664 -0.13082726
0001a0 f9 07 ad bd f1 b5 57 be 29 88 d2 3e f9 ce d8 be
       -0.08448786 -0.21065499 0.41119507 -0.42345408
0001b0 3d 65 61 be 01 c0 00 3e 3b d0 80 3e f0 47 57 3e
       -0.22011276 0.12573244 0.25158867 0.21023536
0001c0 35 36 76 bd c6 be ae bd c0 61 41 bc d7 6a 0c be
       -0.06011029 -0.08532481 -0.011803091 -0.13712631
0001d0 5b f8 a1 3d a4 05 4c be cb 7f f9 3d 4f 94 59 bd
       0.07908698 -0.19924027 0.12182578 -0.053119954
0001e0 73 97 09 ba b3 5b be 3d 5b b0 46 3c 93 6d 47 be
       -0.0005248703 0.09294834 0.012127007 -0.19475393
0001f0 3e bb 3f 3d 48 18 84 3e f8 1f 80 be 1d 17 7e bd
       0.046809427 0.25799775 -0.2502439 -0.06203376
000200 13 00 01 be 2f de 3f 3e 66 53 0d bc 6b e8 15 3e
       -0.12597685 0.187371 -0.008625841 0.14639442
000210 40 16 2b bd 82 5c 83 be f6 bc 8b 3e 6b c8 ee bd
       -0.041769266 -0.25656515 0.27292603 -0.116593204
000220 46 64 75 be 03 ba 87 3e 21 03 fe bd e5 2c cb be
       -0.23964033 0.26509103 -0.124029405 -0.3968269
000230 2c d1 57 ba 7f 91 0b 3e 81 85 c5 3e 27 b7 56 bc
       -0.0008232768 0.13629721 0.38578418 -0.01310519
000240 71 ad 51 bd 46 32 09 be 76 41 3f 3e 3a b3 58 3d
       -0.051190797 -0.13398084 0.18677315 0.0529053
000250 23 8e 35 3e a7 a8 c6 3d d8 f8 c3 bd 68 78 ec 3c
       0.17730002 0.09700137 -0.095689476 0.028866008
000260 ed 0b ea 3e 9b f9 61 be 4d 3b aa 3e 92 e7 b9 bb
       0.45712224 -0.22067873 0.33248368 -0.0056733573
000270 c2 cf 5f 3e f4 94 96 3e 5c 63 33 bd a1 7b 0d be
       0.21856597 0.29410517 -0.04379593 -0.13816692
000280 ee 2c 42 bb a7 22 e5 3e de 2c 3f 3d 94 f4 52 3e
       -0.002962883 0.44753 0.046673648 0.20601112
000290 10 00 26 3e b9 20 23 3d 5c 3b fb bc a0 af 4e 3d
       0.16210961 0.03982613 -0.030667953 0.050460458
0002a0 cf 9f ba be 42 a5 0d 3d 00 18 35 be 1a 7a d3 bd
       -0.3645005 0.03458143 -0.17684937 -0.103260234
0002b0 b8 83 c9 be dc bb ca bd ee 40 e5 be 46 84 22 bd
       -0.39358306 -0.098991126 -0.447761 -0.039676927
0002c0 e9 ce 3a 3d 05 e8 b7 3e 04 f0 a8 be 21 ab fd b9
       0.04560748 0.35919204 -0.32995617 -0.0004838342
0002d0 6f 3a 79 3e a0 37 38 3d d3 be ba 3d c0 9b bb bc
       0.24338697 0.044974923 0.09118428 -0.022901416
0002e0 2f 7f 10 be 57 dd 11 be 98 cf ec bd da 59 7e bc
       -0.14111017 -0.1424459 -0.11563033 -0.015524352
0002f0 0d 5c fa be 53 09 b9 bc 09 86 bc 3e ee e9 3a 3e
       -0.48898354 -0.022587454 0.3682101 0.182533
000300 37 dc f7 bd 66 4d 5d be 7f a5 cd 3d 50 7a cd be
       -0.121025495 -0.21611556 0.100413315 -0.4013238
000310 5f 26 5a 3d 25 6d 8c bd ad 48 72 bc 23 6e e5 3a
       0.05325925 -0.06856755 -0.014787835 0.0017504137
000320 f2 59 80 3d 5d 8c 82 3e 2e 99 f3 be 67 8c a5 3e
       0.06267156 0.25497714 -0.47577804 0.3233368
000330 d6 8f a2 3e 4a c5 38 3d 7e 82 66 bd 5e 64 85 be
       0.31750363 0.045110025 -0.05627679 -0.26053137
000340 a0 b2 71 3d d3 9b db 3d f5 34 be bc 35 b7 1a 3e
       0.05900824 0.107230805 -0.023218611 0.1510895
000350 b4 23 b0 bd 57 cd 45 be c3 c9 23 bc cc a8 4c be
       -0.0860056 -0.19316612 -0.009996834 -0.19986266
000360 99 d8 20 3c cb f7 74 3e 6f 5e 20 bc 71 17 e2 3e
       0.009817266 0.2392265 -0.00978814 0.4415851
000370 a8 f2 9c bd 2b 3e 41 3e 9c 9c 0f be da f7 01 3f
       -0.076634705 0.18871371 -0.14024585 0.50768816
000380 96 2f 0b be cc 64 4d be 9f 11 ef bd 1a 67 ed bb
       -0.13592371 -0.20057982 -0.11673283 -0.0072449567
000390 66 3b 19 bd a4 25 d9 3d 5f 8c c0 bc c0 44 3d be
       -0.037410162 0.106028825 -0.023504434 -0.18483257
0003a0 ed 89 54 bd 9a 71 14 bf e6 00 d7 be d2 0d 41 bf
       -0.05188935 -0.5798584 -0.41992873 -0.75411713
0003b0 7f f4 29 3f 18 2b 43 3d 25 ca e7 3d b1 57 38 3e
       0.66388696 0.04764852 0.11317853 0.18002202
0003c0 af 19 0b 3e d5 05 29 be 89 b4 8a 3d 23 57 01 be
       0.13584016 -0.16506131 0.067727156 -0.12630896
0003d0 65 d9 a3 be fb 5b f5 3d ba ba b5 3d 6a 0f 58 bd
       -0.32001796 0.119804345 0.08873506 -0.052749075
0003e0 57 39 92 be 7a f1 12 3d ab c8 92 3e 8c 3a 07 bf
       -0.28559372 0.03587482 0.28668723 -0.5282371
0003f0 09 6e ae 3e 40 aa 24 3e 9c fa 92 3d 2f 8f 20 3e
       0.34068325 0.1608057 0.07176706 0.1567962

mean_net.2.bias f4 [128]
000000 81 64 8f bd 83 3d 0b be e3 9e 78 3e d9 5f dd 3d
       -0.070015915 -0.13597684 0.2427936 0.10809297
000010 2a ba 64 bd 20 32 cc 3b 7c d0 9f bc d0 94 1e 3e
       -0.055841602 0.0062315613 -0.019508593 0.15486455
000020 b6 60 95 3d 83 ae 42 3d a0 d1 94 3b 2c f4 c5 3d
       0.07293837 0.04752971 0.004541591 0.09665713
000030 50 77 b5 3e 0f 27 46 bd f3 55 61 be 4c 88 eb bd
       0.3544259 -0.048377093 -0.22005443 -0.11500606
000040 a4 a2 fa bd 2f 4f 29 3e 96 be 27 3e 54 8e 29 3c
       -0.122380525 0.16534112 0.16381297 0.010348875
000050 f4 0c 02 3d ff 6e b6 bd 50 ad c5 bd f7 f7 f3 3c
       0.031750634 -0.089078896 -0.09652197 0.029781325
000060 dc a2 d9 bd ea 2e d8 bc d2 37 ba be ad 0d b5 bd
       -0.10626766 -0.026389558 -0.36370713 -0.08840499
000070 29 ad a5 3d d7 25 97 bd b1 6b 87 3d d0 2f 59 3e
       0.08089668 -0.07380264 0.066123374 0.21209645
000080 5c 75 b2 bd 34 68 66 bd 76 ab 67 3e 1a 71 d9 bd
       -0.08713791 -0.05625172 0.22624001 -0.106172755
000090 7e b7 23 bd 4c 07 80 bd 13 ff 0e 3b 67 da 32 3d
       -0.039969914 -0.06251392 0.0021819517 0.043665316
0000a0 93 13 05 bc 8f d9 35 bd e2 67 a7 3d b7 1e bd 3c
       -0.008122343 -0.044396933 0.08174111 0.023085935
0000b0 a5 d5 26 bc f7 29 9d bd cd b2 a2 bd c5 8e a4 3d
       -0.010182773 -0.0767402 -0.0794426 0.080350436
0000c0 d4 11 cf 3b 39 3f 17 3d 18 8d 2d 3e ba 7f bb 3d
       0.006319264 0.03692553 0.16948354 0.09155221
0000d0 cb bb de 3c d9 6a c5 3d d0 0e 93 3d 4e b5 61 3d
       0.027189156 0.0963952 0.0718056 0.055104546
0000e0 d2 c7 3c 3d aa 7b 15 3e 92 85 1b 3d 15 d4 dd bd
       0.046089 0.14597955 0.03796918 -0.10831467
0000f0 31 9b e1 3d f5 8e 31 3d d4 10 21 3e e5 bf a7 3d
       0.110159285 0.043349225 0.15729076 0.08190898
000100 ce b9 94 3d e3 80 59 be e7 72 78 3c f6 fe d7 3b
       0.07262002 -0.21240573 0.015164114 0.006591673
000110 d7 d0 b9 bd b4 7c 07 be 66 7d ea bd 67 86 10 be
       -0.09073036 -0.13231164 -0.11449699 -0.1411377
000120 35 51 5c bc fc 7f c8 bc e7 09 43 3d 5b de 8d bc
       -0.013447096 -0.02447509 0.047616865 -0.017317941
000130 ca 2a 75 be 3e 1d 7a 3d 36 bc 4a 3d 1d 29 0f be
       -0.23942104 0.061063044 0.0494959 -0.13980527
000140 18 b7 57 3d 7d 43 ab bc b0 52 b7 3b 55 4b 91 3d
       0.052664846 -0.020906204 0.005594574 0.070944466
000150 92 46 97 3d 85 f8 08 3e 7a 84 80 bc 18 cc 15 be
       0.07386507 0.13376053 -0.01568817 -0.14628637
000160 1a 4f 93 3d df a3 68 be b7 90 f2 3d 6e 41 21 bd
       0.07192822 -0.22718762 0.118440084 -0.03936904
000170 42 3a 38 be e0 63 0c 3e 80 83 1d bb f6 5a ce bd
       -0.17990974 0.13709974 -0.002403468 -0.10075943
000180 a7 00 04 3e ca e6 93 bd b3 b6 12 3d 20 bd a9 bd
       0.12890874 -0.07221754 0.035818767 -0.08288026
000190 17 94 9a bd 26 c5 d1 3d 7a c4 d3 bd 00 32 f3 3d
       -0.07547777 0.10242681 -0.10340209 0.11874771
0001a0 92 07 8c bc 90 fc 5a be 0e a1 d5 bd f2 0a f3 bc
       -0.017093454 -0.21385407 -0.10431109 -0.029668305
0001b0 91 ea 35 3e d8 f2 68 3d 78 71 fb bd 30 fa f0 3c
       0.17765261 0.05687222 -0.12277502 0.029416174
0001c0 b7 7b 8d bb 14 45 80 bd 32 bc b0 3d 16 55 b9 ba
       -0.0043177265 -0.062631756 0.086296454 -0.0014139737
0001d0 e7 d7 0a be bf 1e 8d bd 0a 31 78 be 70 af 78 3e
       -0.13558923 -0.0689063 -0.24237457 0.24285674
0001e0 4d eb eb 3b 05 f0 4b 3d 5e b0 7b bc 8a a4 96 3b
       0.007199681 0.049789447 -0.015361873 0.0045972513
0001f0 22 66 a5 3c 10 21 ea bc 2f 13 9b bd c3 88 90 bd
       0.020190302 -0.028580219 -0.07572018 -0.07057335

mean_net.4.weight f4 [4, 128]
000000 2d 83 e4 bd 80 03 3b be 08 ce f8 3e a0 84 47 3c
       -0.11157832 -0.18263054 0.4859469 0.012177616
000010 92 fd cc 3e 38 0d 1d 3e 7f 2d 21 3f 93 e0 d1 be
       0.4003721 0.15337074 0.62960047 -0.4099165
000020 67 7e d2 be ba 2c 84 be 4c 90 39 be 8a 50 31 be
       -0.41112062 -0.25815374 -0.18121451 -0.1731588
000030 9e b8 d5 3c bb 6f 07 be 52 aa 13 bf 79 df b1 bd
       0.026089009 -0.13226216 -0.57681763 -0.08685202
000040 4a 50 0e 3e 54 2f 12 3e 28 1e 3a 3d b1 fe ad 3f
       0.13897815 0.14275867 0.045438915 1.3593351
000050 c2 2d c2 3e 32 7f c4 3d 88 9e 62 3e d4 7d 85 3e
       0.37925535 0.09594573 0.22130787 0.26072562
000060 36 f8 5e 3d 52 85 9f be b3 bc 76 be cb 70 12 bf
       0.05443593 -0.31156403 -0.2409542 -0.5720336
000070 3e b5 c1 bd 39 0b 70 be 3e e0 a0 3e 37 2b 2d 3e
       -0.09458397 -0.23441781 0.31421083 0.16911016
000080 ba 6e a5 bd a2 e7 2e bd 74 76 b7 3d 19 ca 1b be
       -0.0807776 -0.04270137 0.0895814 -0.15213813
000090 38 d7 e0 bd a0 ff 39 3e c4 19 75 bd d7 eb a1 3f
       -0.1097855 0.1816392 -0.059839025 1.2650098
0000a0 c7 9d c2 bd e5 3a b1 be b6 85 ee be 80 d0 da bd
       -0.0950275 -0.34615245 -0.46586388 -0.106842995
0000b0 b2 ac c3 be 51 ef c8 3e 1c b5 ad 3e bc a4 bd 3e
       -0.38217694 0.39245084 0.33927238 0.37039745
0000c0 c8 7f 23 bf ba 09 45 3e 3b 15 4d bf 4f bb 8e bd
       -0.63866854 0.19241992 -0.8011052 -0.0696932
0000d0 92 5d 1b bd 0d f4 8c 3e 84 e3 4f 3f 11 b3 96 bd
       -0.037931032 0.27529946 0.81206536 -0.07358373
0000e0 31 dd 90 3e ce 64 93 be d6 c7 79 be 52 25 dd be
       0.28293756 -0.28787845 -0.24392638 -0.43192536
0000f0 eb 6a 3f 3f f8 b3 40 3e e3 b4 a3 bd ec 90 95 3e
       0.7477252 0.18818653 -0.07993486 0.2921213
000100 6c 81 aa 3e e0 5c 52 be af 62 7e bd 89 4c a0 bd
       0.33301866 -0.20543242 -0.06210583 -0.07827098
000110 52 0a 33 3e b9 92 63 be fa fd 88 be 50 c5 61 3e
       0.17484406 -0.22223939 -0.2675627 0.22047925
000120 78 af ce be c7 bd 97 3e 83 5e bc 3e a4 f4 54 3e
       -0.40368247 0.29636976 0.36790857 0.20796448
000130 59 2b 02 3f 4c b7 1e 3f d6 74 89 3f e0 ad 19 be
       0.50847393 0.6199844 1.073878 -0.15007734
000140 4f b0 de 3e a6 e5 0b bf 64 ec 47 3f fa a2 37 bf
       0.43493888 -0.5464729 0.7809508 -0.7173306
000150 63 87 87 3e e0 3a 00 bf c7 e3 ae 3d 16 01 07 3d
       0.2647048 -0.50089836 0.08539539 0.03296002
000160 f3 29 0c bf 22 e4 c3 bd c6 ac 2f 3f e1 32 21 3e
       -0.5475151 -0.09564997 0.68623006 0.15742065
000170 64 c5 6e 3e a7 62 25 3d 5b 60 7a 3e c9 87 2e 3e
       0.23317486 0.040377285 0.24450819 0.17043985
000180 78 05 8b bd 70 78 9c 3e ab b0 c7 3d 6c a3 67 3d
       -0.067881525 0.30560637 0.097504936 0.056552336
000190 4f 37 82 3e ab 97 dd 3e fe bd 11 3e 74 4b 31 3e
       0.25432822 0.43279776 0.14232633 0.1731394
0001a0 85 71 4d 3f 3c 45 e5 3d 70 d7 b6 3d 3e 06 a1 be
       0.8025134 0.11194846 0.0892781 -0.31450075
0001b0 d7 ef 39 3e 51 fc e3 be 1f b1 7e be 1f 2b 3a 3f
       0.18157898 -0.4452844 -0.24872254 0.7272205
0001c0 f1 58 0b bf eb b5 0c be e0 ef 57 3f 42 f0 18 bf
       -0.5443259 -0.13741271 0.84350395 -0.59741604
0001d0 3c cf 60 be e0 6c 6f be c3 eb 29 3e 1e 89 c6 3d
       -0.21954054 -0.23381376 0.16593842 0.09694122
0001e0 85 5a dd be fe be 9f 3e 67 93 2d bf 81 e3 97 3e
       -0.43233123 0.31200403 -0.67803043 0.2966576
0001f0 54 57 0b bf 02 bf ad be d4 fa ff 3e b7 d5 e5 3d
       -0.5443013 -0.3393479 0.49996054 0.112224035
000200 ba 49 92 3c 98 85 dd 3d 58 38 de bd 3a de 48 be
       0.017857421 0.108164966 -0.108505905 -0.19616023
000210 44 5d 73 3e c5 9b 55 3e 96 23 37 be dc 93 ea 3d
       0.23766047 0.20860203 -0.17884669 0.11453983
000220 c6 e6 d8 3c 24 40 90 bd 27 ae 25 3e be 08 b0 bc
       0.026477229 -0.07043484 0.16179715 -0.021488544
000230 60 4c d8 3d 12 61 69 be 87 6e b9 3d 7f e5 67 bd
       0.105614424 -0.22790936 0.090542845 -0.05661535
000240 8c de 30 be 6d 2e d8 3e b9 8a 76 3e e5 26 ba 3c
       -0.17272395 0.4222292 0.24076356 0.022723624
000250 57 ae 95 be c9 f2 2e be a7 d6 b5 3d 4a 40 29 be
       -0.29234573 -0.17084803 0.08878832 -0.1652843
000260 93 93 99 bd 93 e7 57 be 93 d0 5e 3d 34 db 5c be
       -0.07498851 -0.21084432 0.05439813 -0.21567994
000270 8f aa 02 be 88 74 34 3e 99 e2 29 3c 0e ee 99 3d
       -0.12760375 0.17622578 0.0103689665 0.075161085
000280 64 7e 06 be 11 3e 80 3e 0c 97 0b bc 58 35 ed 3d
       -0.13134152 0.25047353 -0.008519899 0.1158244
000290 24 76 d6 3d 15 96 12 3e 49 06 29 3d 91 08 46 be
       0.10471752 0.14315064 0.04126576 -0.19339205
0002a0 0b 5b 0f 3c 85 06 94 3e 14 f1 cb 3d 2e 37 84 3d
       0.008749734 0.28911224 0.099580914 0.06455837
0002b0 82 70 aa 3d fd 52 2f bd 0a e5 db 3c 3d 8b 2f be
       0.083222404 -0.042803753 0.026842613 -0.17142959
0002c0 fe ab 4a be 44 b8 1a be 61 cb 8e 3d 3f a4 71 3e
       -0.19792172 -0.15109354 0.06972385 0.23597811
0002d0 f6 1b b9 be 2c d5 0b be 4f 98 cf bd ff 46 00 3d
       -0.36154145 -0.13655537 -0.101364724 0.031317707
0002e0 0c f1 5f be 37 f9 04 be 31 58 1f 3f de 92 21 bf
       -0.21869296 -0.12985693 0.62243944 -0.63114727
0002f0 a4 90 6c 3d f8 68 89 3e 38 ef e8 bd 96 62 a1 be
       0.057755128 0.26837897 -0.11373752 -0.31520528
000300 42 a3 7a 3c 3c df 70 3d 28 b9 3e 3e 75 f0 0c bd
       0.015297713 0.058806643 0.18625319 -0.034409005
000310 9d 5a 2e be 97 4c 5d 3e 09 22 a9 3d ea 70 a4 3e
       -0.17026754 0.21611248 0.08258445 0.32117397
000320 54 97 8c bd 51 8c d1 be 9a 18 2b be bf dd 9c be
       -0.06864801 -0.40927365 -0.16708604 -0.3063793
000330 5f 42 4a 3e 65 3d d8 3e bd e4 84 bd ba a6 dd 3d
       0.19751881 0.4223434 -0.06488941 0.10822816
000340 16 d4 6b bc 2d 2f e7 bd 5f 0d 2e 3e 41 a6 e1 3e
       -0.014393827 -0.11288295 0.16997288 0.44072154
000350 af 65 73 3e 2e 56 b5 bc a4 87 83 3e e0 30 6c bd
       0.23769258 -0.02213582 0.25689423 -0.0576638
000360 ab 00 a1 3d 0f 8a 6f 3e 07 a1 9e bc 30 02 7d 3d
       0.078614555 0.23392509 -0.019363893 0.061769664
000370 19 07 8e 3e 8c 7c 13 3e ec 62 11 be b5 fd e2 3d
       0.2773979 0.1440298 -0.14197892 0.11083547
000380 2f ee 8f bd bb 27 0b 3e 4f 05 8c 3d 71 5b 24 3e
       -0.07027852 0.13589375 0.0683695 0.16050507
000390 dc 3f 25 bd ab 75 d5 be 0b f3 c4 be af 0f c9 3e
       -0.040344104 -0.41691336 -0.38466677 0.39269778
0003a0 9f bd 69 bb 19 26 7b be e4 6f 93 3d 17 6e 03 bf
       -0.0035666001 -0.24526252 0.07199076 -0.5133986
0003b0 6c 4e 12 3e ee 78 7f bd a1 91 58 be 12 76 86 3c
       0.14287728 -0.062371187 -0.21149303 0.016413722
0003c0 95 5e 67 bd fe f8 6a be 23 88 9f bc 66 81 cb 3d
       -0.056486685 -0.22946545 -0.019474095 0.0993679
0003d0 d8 74 c1 ba 7b 54 8f 3b b2 ca e8 bd f5 37 33 3e
       -0.0014759554 0.0043740845 -0.11366786 0.17501815
0003e0 dd ba aa 3c 92 ed 3a be e8 38 d1 bd 51 5f b2 3d
       0.020841056 -0.18254688 -0.10215932 0.087095864
0003f0 cc dc 35 be 2a f1 1b be 21 95 2b bb 47 44 4d be
       -0.17760009 -0.15228716 -0.0026181417 -0.20045577

mean_net.4.bias f4 [4]
000000 c1 6b 2a 3e 7c 37 ee bd d4 aa 8f be ae 9b fc 3c
       0.16642667 -0.116316766 -0.2806002 0.030835953
