test_uav/model/actor_model13-10-2023_17-19-10/4230.pt (torch, 79608 bytes, 7 tensors)

logstd f4 [4]
-2.943597 -4.1988664 -1.4531943 -4.994403
00000000: e563 3cc0 1d5d 86c0 4502 babf 26d2 9fc0

mean_net.0.weight f4 [128, 17]
-0.05037451 0.067529835 0.54134023 -0.022047907 -0.13990737 0.24580231 -0.28316447 0.17098227
0.057657335 0.251359 0.17265674 -0.20101105 -0.12806065 -0.11806626 -0.08169803 0.03437312
0.23922929 -0.21309116 -0.6465535 -0.24880262 -0.050741345 0.06284461 -0.121060915 -0.11088303
0.28047323 0.3914793 0.7178566 -0.67332983 -1.0351962 0.7871402 -0.1287354 0.24152555
0.6403191 -0.09288633 -0.5167352 -0.085443154 -0.17649642 -0.2816932 0.44875538 0.056566503
0.20233117 0.32717183 0.18456468 -0.4020657 -0.2511711 0.3049532 -0.1397313 0.09782708
-0.26240894 0.02714852 -0.005991032 0.24365094 0.08379111 -0.17002144 0.09087721 -0.105845295
-0.031626448 0.23944409 0.19806458 0.37419844 0.34107837 -0.2973216 0.7847749 0.25588155
0.06500652 -0.12446819 -0.13751036 -0.31622204 -0.46640986 -0.37179074 -0.75818783 0.15036534
0.45425102 -0.14922495 0.03712179 0.01989913 0.3317855 -0.045776773 -0.100472525 0.007894451
0.24975736 0.32824248 0.09930456 0.16409275 -0.026423188 -0.37946668 -0.098605424 0.2758604
-0.6743838 -0.08807841 0.16035292 0.009088106 -0.0012511024 -0.04126253 -0.057349734 -0.04257331
0.011070674 0.07305384 0.09685979 0.09624986 -0.2665168 0.04655808 0.758062 0.49291775
0.49256083 0.33002666 0.14607675 -0.041116025 0.03127989 -0.11546991 -0.1623835 0.064265035
-0.14145647 0.3081483 -0.6008317 0.10736318 0.017663408 -0.02057391 0.101035915 0.33510244
-0.4129683 0.38425362 0.107387446 -0.5043802 0.19190587 0.08499086 0.20101118 -0.4978762
0.0015876988 0.018783452 0.086092785 -0.16991246 -0.22082193 0.016344948 -0.030376038 -0.056585643
0.072548725 -0.32414228 -0.40321946 -0.017504731 -0.52952874 -0.34077936 0.18896149 0.30786797
-0.030924855 0.37156552 0.17877258 0.07358965 -0.23347858 -0.062003817 -0.19383633 0.08858195
-0.080184355 0.33151817 0.46503738 -0.6225942 0.056319766 0.42351696 -0.0065318127 0.09340635
-0.2505985 0.20115371 0.21834509 0.010883809 0.17690726 0.25655228 0.14349179 -0.103497535
0.103839315 0.17961478 0.28563794 -0.30242458 0.22448307 0.2523618 -0.3623209 0.06479948
-0.09081653 -0.45708102 -0.009446534 0.044150993 -0.08745217 0.2258311 -0.51450145 0.09141158
-0.015016878 0.11270438 0.26542294 -0.46409184 -0.046978865 -0.12482388 0.27017835 -0.04550767
0.17993583 -0.039868142 -0.15596765 -0.35656053 -0.09778331 0.4338995 0.54297644 0.22370501
0.12852934 -0.3338845 0.32611588 0.046773702 0.26279923 -0.4550624 -0.43701604 -0.41161788
0.2170937 -0.12771961 0.17186745 0.32673404 0.26877195 0.14660643 -0.43998286 -0.20183443
0.12355395 0.24547252 0.14676806 -0.10704398 0.12884152 -0.53193957 0.09746615 -0.26473692
-0.104807205 0.16615495 0.32889286 0.14447516 -0.051374614 -0.33665836 0.30006027 -0.20103201
-0.64331514 -0.37701416 -0.35613886 -0.22869295 -0.36097834 -0.25221914 0.45744073 0.7507177
0.44818938 -0.2715482 0.15358771 0.18442142 0.20385954 0.15189597 0.008238564 0.04920968
-0.08262496 0.009781228 0.2960491 -0.25500277 -0.21923088 -0.14836407 0.11423064 -0.33723897
00000000: 8155 4ebd 154d 8a3d 4695 0a3f d09d b4bc
00000010: e143 0fbe 9ab3 7b3e effa 90be fa15 2f3e
00000020: 192a 6c3d 20b2 803e eecc 303e d7d5 4dbe
00000030: 5522 03be b9cc f1bd 4c51 a7bd d4ca 0c3d
00000040: 86f8 743e 9234 5abe 8884 25bf 1dc6 7ebe
00000050: 28d6 4fbd adb4 803d c9ee f7bd a416 e3bd
00000060: 309a 8f3e fa6f c83e 73c5 373f 585f 2cbf
00000070: 4f81 84bf 0582 493f 36d3 03be 7952 773e
00000080: f4eb 233f 303b bebd c248 04bf d2fc aebd
00000090: 7abb 34be 173a 90be 44c3 e53e 47b2 673d
000000a0: e72f 4f3e 1183 a73e 86fe 3c3e 8edb cdbe
000000b0: 8099 80be d322 9c3e b915 0fbe 9059 c83d
000000c0: 775a 86be 9366 de3c 6b50 c4bb a27f 793e
000000d0: ac9a ab3d 1a1a 2ebe d51d ba3d 6bc5 d8bd
000000e0: bc8a 01bd d530 753e 71d1 4a3e f096 bf3e
000000f0: d3a1 ae3e 893a 98be 02e7 483f e802 833e
00000100: 2322 853d 2ee9 febd 84cf 0cbe dbe7 a1be
00000110: 46cd eebe 5b5b bebe 9918 42bf 5ff9 193e
00000120: 9793 e83e 6dce 18be 050d 183d 8003 a33c
00000130: cadf a93e 6d80 3bbd 8ac4 cdbd ba57 013c
00000140: 65c0 7f3e 660f a83e 3060 cb3d ee07 283e
00000150: 7175 d8bc 7549 c2be a4f1 c9bd 933d 8d3e
00000160: 6ba4 2cbf 7462 b4bd 8e33 243e 48e6 143c
00000170: 08fc a3ba e602 29bd 8ee7 6abd 5a61 2ebd
00000180: c661 353c 409d 953d 6d5e c63d a61e c53d
00000190: e474 88be afb3 3e3d 5a10 423f b75f fc3e
000001a0: ef30 fc3e 41f9 a83e 2595 153e 4769 28bd
000001b0: 581f 003d 7d7b ecbd dc47 26be 639d 833d
000001c0: f7d9 10be 9dc5 9d3e 1bd0 19bf 3ae1 db3d
000001d0: dab2 903c 9e8a a8bc ebeb ce3d 8c92 ab3e
000001e0: 9570 d3be e4bc c43e f3ed db3d 101f 01bf
000001f0: f982 443e b00f ae3d e0d5 4d3e a1e9 febe
00000200: 551a d03a c1df 993c 6a51 b03d 88fd 2dbe
00000210: 251f 62be d7e5 853c 2bd7 f8bc 59c6 67bd
00000220: 6d94 943d faf5 a5be c872 cebe 1566 8fbc
00000230: 328f 07bf a27a aebe 1f7f 413e dfa0 9d3e
00000240: 1f56 fdbc d63d be3e 2910 373e 2cb6 963d
00000250: 0215 6fbe b7f7 7dbd 087d 46be 746a b53d
00000260: b237 a4bd c0bc a93e 6119 ee3e 5562 1fbf
00000270: 8eaf 663d 37d7 d83e d108 d6bb d44b bf3d
00000280: 724e 80be 3dfb 4d3e db95 5f3e 0152 323c
00000290: 2d27 353e d25a 833e 83ef 123e 84f6 d3bd
000002a0: b5a9 d43d f0ec 373e 233f 923e 65d7 9abe
000002b0: e4de 653e 9135 813e 2082 b9be 97b5 843d
000002c0: 04fe b9bd 8606 eabe a3c5 1abc acd7 343d
000002d0: 201a b3bd 4540 673e 5eb6 03bf ff35 bb3d
000002e0: 5a09 76bc 8ed1 e63d 84e5 873e 729d edbe
000002f0: e96c 40bd aaa3 ffbd d154 8a3e 4066 3abd
00000300: 1941 383e c74c 23bd fcb5 1fbe 1a8f b6be
00000310: 9e42 c8bd 1328 de3e 8100 0b3f ed12 653e
00000320: 329d 033e e9f2 aabe a9f8 a63e c895 3f3d
00000330: 9f8d 863e f0fd e8be 91c0 dfbe 94bf d2be
00000340: d04d 5e3e eec8 02be 05fe 2f3e af49 a73e
00000350: 7a9c 893e ff1f 163e 6f45 e1be afad 4ebe
00000360: da09 fd3d 265d 7b3e 5e4a 163e e039 dbbd
00000370: 08ef 033e 312d 08bf 559c c73d 998b 87be
00000380: 29a5 d6bd 8624 2a3e a564 a83e 4cf1 133e
00000390: 306e 52bd 7c5e acbe 80a1 993e 56db 4dbe
000003a0: 4db0 24bf 0008 c1be d557 b6be 7c2e 6abe
000003b0: 27d2 b8be de22 81be ac35 ea3e 092f 403f
000003c0: 1479 e53e 5e08 8bbe 1946 1d3e f8d8 3c3e
000003d0: 8ec0 503e 9e8a 1b3e 0bfb 063c 1790 493d
000003e0: 4637 a9bd 7241 203c bf93 973e b98f 82be
000003f0: 0f7e 60be c0ec 17be c1f1 e93d 96aa acbe

mean_net.0.bias f4 [128]
-0.14379352 0.28145522 0.07222209 -0.036954723 0.010899124 -0.028399518 -0.13869922 0.059930008
0.2122172 -0.27261528 -0.014284837 -0.28512838 0.20340832 -0.1083331 -0.21274014 -0.13022166
-0.12006228 -0.308686 0.03170579 -0.20667191 0.1587393 0.048168983 -0.16045429 0.079619735
0.08418177 0.019270064 -0.018276438 0.010263273 -0.054759458 0.14640982 -0.24531555 0.06641602
0.1873034 0.13175726 0.21783862 0.047139224 0.04665358 0.19281584 -0.026178861 -0.03202633
-0.04247819 0.15506393 0.15057448 -0.077849165 0.09678334 -0.34733477 -0.1614825 -0.12843502
-0.07737459 -0.16847244 -0.2980867 -0.03798825 -0.101942696 -0.03416695 0.086213 0.0005892283
-0.053148817 0.021305494 0.22919683 -0.10769937 -0.22756025 -0.13198052 -0.22592768 -0.17799154
0.008660323 -0.16361807 0.028751908 0.048250902 0.2607819 0.22560118 0.2040726 0.2040691
-0.109065466 0.25817806 0.20792541 0.042893704 -0.15629281 -0.24606507 -0.3204727 0.049598876
0.08325314 -0.040154543 0.38691032 0.025721781 0.41066656 0.05443978 0.11563673 0.029009953
-0.31373116 0.11691046 0.018530505 -0.09914696 -0.19888063 0.18367775 -0.086663485 0.017052611
-0.17359757 0.17910767 0.29164284 0.16260372 -0.071140885 0.05569698 -0.05304644 -0.20956437
-0.11701097 0.06619965 -0.074527495 -0.07007458 0.007334232 0.22474761 -0.14997716 -0.005532917
0.035625193 0.0062820804 -0.19038056 0.15012611 0.13930944 0.09635634 -0.06641525 0.0815947
-0.12188154 0.039140195 0.036442675 -0.17879342 0.032050498 0.23562963 -0.1986689 -0.19183372
00000000: 9c3e 13be e61a 903e 2de9 933d d65d 17bd
00000010: 3d92 323c 1ba6 e8bc 2b07 0ebe 2b79 753d
00000020: 774f 593e 3b94 8bbe f30a 6abc 59fc 91be
00000030: 454a 503e bfdd ddbd 8dd8 59be d458 05be
00000040: 36e3 f5bd 170c 9ebe eedd 013d cda1 53be
00000050: 8e8c 223e d74c 453d 214e 24be ac0f a33d
00000060: 7e67 ac3d 41dc 9d3c 78b8 95bc 4927 283c
00000070: 744b 60bd 75ec 153e 0034 7bbe 1f05 883d
00000080: 76cc 3f3e 60eb 063e 1611 5f3e 0f15 413d
00000090: d317 3f3d 8471 453e 0d75 d6bc 0a2e 03bd
000000a0: 9cfd 2dbd 14c9 1e3e 3230 1a3e 626f 9fbd
000000b0: 5836 c63d ddd5 b1be ab5b 25be 7884 03be
000000c0: 9276 9ebd 0a84 2cbe d29e 98be 9199 1bbd
000000d0: 55c7 d0bd a5f2 0bbd 7190 b03d 7176 1a3a
000000e0: 93b2 59bd dc88 ae3c 93b2 6a3e 7d91 dcbd
000000f0: 8e05 69be e725 07be 9659 67be 6a43 36be
00000100: 07e4 0d3c 7f8b 27be 1f89 eb3c bda2 453d
00000110: 3585 853e ff03 673e 68f8 503e 7df7 503e
00000120: b75d dfbd ea2f 843e 66ea 543e 4fb1 2f3d
00000130: 390b 20be 7bf8 7bbe ff14 a4be 3128 4b3d
00000140: 9f80 aa3d 1779 24bd 1c19 c63e 7cb6 d23c
00000150: e342 d23e 3ffc 5e3d f3d2 ec3d 48a6 ed3c
00000160: 5fa1 a0be c06e ef3d 49cd 973c 900d cbbd
00000170: 5da7 4bbe 0516 3c3e a07c b1bd ebb1 8b3c
00000180: 90c3 31be 0068 373e 3652 953e 9781 263e
00000190: 50b2 91bd 8422 643d 3947 59bd 0b98 56be
000001a0: 73a3 efbd af93 873d dfa1 98bd 4383 8fbd
000001b0: ff53 f03b 3d24 663e 9d93 19be 794d b5bb
000001c0: b9eb 113d e9d9 cd3b 1ff3 42be a9ba 193e
000001d0: 22a7 0e3e 7956 c53d b804 88bd 1f1b a73d
000001e0: 079d f9bd 7851 203d ea44 153d 9f15 37be
000001f0: 6247 033d e548 713e dc6f 4bbe 0f70 44be

mean_net.2.weight f4 [128, 128]
-0.0018962936 0.18189605 -0.15157941 0.04424428 -0.14248729 0.088732116 0.013531987 -0.027251448
0.08332686 0.29732195 0.028075067 0.14073169 -0.022646155 -0.09605398 0.14370444 -0.12848794
-0.20295483 0.07154424 0.19070227 0.032179236 0.14552209 -0.03529219 0.12888229 -0.30416015
-0.04446044 -0.23298004 -0.15945873 0.41548198 -0.14294782 0.27847198 0.09623543 -0.3523993
-0.08262063 0.018086167 0.3479034 -0.3382919 -0.043801513 0.13842173 -0.20940895 0.018465148
-0.032514732 -0.042021185 0.29847482 -0.081816204 0.06634029 -0.29131073 0.156261 0.045186333
0.06747486 0.19857948 -0.50290847 0.102648064 -0.098235056 -0.010314297 -0.05510102 0.074059546
-0.11587086 0.20644543 -0.110632695 0.20949326 -0.004536021 0.07249176 -0.20884675 0.13482678
-0.093726784 -0.053555604 -0.26874766 -0.070155255 0.4709521 -0.020048948 0.015408561 0.19784947
0.03146212 0.284051 0.069891885 0.19557641 -0.21350703 -0.052524887 -0.2072762 0.19506072
0.062184297 -0.13298288 0.0088560525 0.22692387 0.12634785 -0.207426 -0.05309066 -0.034663994
-0.15277915 0.31607392 0.07684851 0.17775115 -0.018595269 0.19529408 -0.256692 0.058462445
0.05405211 0.13914375 0.19569653 -0.030471819 -0.16014168 0.05392265 -0.069360845 -0.1466577
-0.084275074 -0.22600053 0.37980852 -0.43111315 -0.23590451 0.11244871 0.24667832 0.21041815
-0.0461688 -0.08702294 -0.01931962 -0.13007154 0.08390757 -0.2143118 0.13905953 -0.051660556
0.0019430747 0.090923585 0.0074445624 -0.21314019 0.04437293 0.26468977 -0.2579772 -0.06679826
-0.099497244 0.20805138 0.0067258463 0.15988024 -0.0146256145 -0.24033487 0.25835055 -0.108062096
-0.22787152 0.28497335 -0.13949595 -0.42408776 0.043772273 0.13997534 0.38037884 -0.027042774
-0.0910746 -0.1406025 0.18223983 0.05587122 0.16525422 0.0826989 -0.07662719 0.04497746
0.391514 -0.24278781 0.347672 0.002317432 0.22412363 0.30823493 -0.07793827 -0.11629827
0.008925334 0.42648938 0.12882908 0.19956493 0.15265797 0.056273695 -0.035965323 0.008180187
-0.35881424 0.0603512 -0.2061334 -0.105148114 -0.36794046 -0.088052385 -0.452004 -0.064729534
0.06455489 0.36909693 -0.3742108 -0.009366675 0.26608017 0.035601366 0.08891911 -0.022450475
-0.13389188 -0.15792203 -0.11760113 -0.020588432 -0.4864971 -0.04855777 0.31826332 0.15692271
-0.08632352 -0.21981253 0.09907007 -0.39582163 0.065974265 -0.067051575 0.0058656395 0.03865016
0.07743663 0.25405112 -0.46016023 0.2645986 0.3054059 0.0454241 -0.07554663 -0.2514768
0.09970953 0.10087426 -0.024480823 0.14686657 -0.08584077 -0.20158698 -0.00378145 -0.20142716
0.014587726 0.23652928 0.005408368 0.42454448 -0.102711625 0.19058907 -0.14750965 0.48929262
-0.13993642 -0.25010896 -0.109657794 0.0063752476 -0.02940968 0.10503247 0.008248251 -0.20609555
-0.0512069 -0.57824284 -0.39803585 -0.7617866 0.6659104 0.04797618 0.13369076 0.1856983
0.14270689 -0.14170039 0.0853452 -0.12576506 -0.31002012 0.12338738 0.12853487 -0.05512775
-0.29580718 0.046057068 0.27318764 -0.5246694 0.37500843 0.16131248 0.06965208 0.1399226
00000000: 0e8d f8ba f542 3a3e a237 1bbe 7d39 353d
00000010: 30e8 11be 2fb9 b53d 44b5 5d3c 6e3e dfbc
00000020: 46a7 aa3d 953a 983e affd e53c f81b 103e
00000030: 6e84 b9bc f3b7 c4bd 4227 133e 5892 03be
00000040: 64d3 4fbe c985 923d 7547 433e 60ce 033d
00000050: be03 153e 8b8e 10bd b8f9 033e e1ba 9bbe
00000060: 261c 36bd 5292 6ebe 2649 23be 0eba d43e
00000070: ea60 12be e193 8e3e 1517 c53d ae6d b4be
00000080: 0135 a9bd 7129 943c 6520 b23e 9934 adbe
00000090: 3769 33bd 6dbe 0d3e 4d6f 56be 3944 973c
000000a0: 2b2e 05bd 681e 2cbd b1d1 983e 418f a7bd
000000b0: 6bdd 873d ae26 95be e202 203e 4e15 393d
000000c0: 4230 8a3d 6b58 4b3e 9cbe 00bf 2639 d23d
000000d0: 762f c9bd 4cfd 28bc 9bb1 61bd 88ac 973d
000000e0: b44d edbd 6e66 533e 6593 e2bd 6785 563e
000000f0: e7a2 94bb 8f76 943d ecdb 55be 0810 0a3e
00000100: d4f3 bfbd 1f5d 5bbd 4b99 89be 8fad 8fbd
00000110: a220 f13e b13d a4bc 3074 7c3c 0d99 4a3e
00000120: 6dde 003d 226f 913e 7a23 8f3d 2f45 483e
00000130: 96a1 5abe 5624 57bd 3640 54be ffbd 473e
00000140: f6b4 7e3d aa2c 08be fa18 113c bb5e 683e
00000150: 5561 013e 7b67 54be 9875 59bd d5fb 0dbd
00000160: 2372 1cbe 71d4 a13e c062 9d3d 6604 363e
00000170: 1b55 98bc 2cfb 473e 226d 83be 5176 6f3d
00000180: bf65 5d3d b37b 0e3e ac64 483e 09a0 f9bc
00000190: 2efc 23be ffdd 5c3d 0f0d 8ebd 702d 16be
000001a0: 6998 acbd af6c 67be 4376 c23e ddba dcbe
000001b0: f490 71be 824b e63d 3e99 7c3e db77 573e
000001c0: 7f1b 3dbd 1539 b2bd 2e44 9ebc 7931 05be
000001d0: bbd7 ab3d 8d74 5bbe 9f65 0e3e 059a 53bd
000001e0: c5ae fe3a 2536 ba3d 84f1 f33b 6c41 5abe
000001f0: 64c0 353d 6b85 873e 9615 84be 87cd 88bd
00000200: 36c5 cbbd 6c0b 553e 7d64 dc3b a5b7 233e
00000210: 46a0 6fbc 581a 76be 8646 843e a94f ddbd
00000220: 2757 69be 07e8 913e 07d8 0ebe 0822 d9be
00000230: 8e4a 333d b255 0f3e 04c1 c23e cf88 ddbc
00000240: 5285 babd 1afa 0fbe 149d 3a3e 38d9 643d
00000250: 6738 293e 0a5e a93d b7ee 9cbd 493a 383d
00000260: 8674 c83e 5e9d 78be 1002 b23e 0fe0 173b
00000270: aa80 653e f8d0 9d3e 1a9e 9fbd ca2d eebd
00000280: 903b 123c d15c da3e c5eb 033e c05a 4c3e
00000290: 5f52 1c3e 3f7f 663d 6050 13bd 3106 063c
000002a0: 80b6 b7be d232 773d a214 53be e557 d7bd
000002b0: b162 bcbe cf54 b4bd 116d e7be eb90 84bd
000002c0: 5b35 843d 46fa bc3e 8f98 bfbe af76 19bc
000002d0: a93b 883e bdd2 113d 391b b63d 0fea b7bc
000002e0: f41a 09be 50b6 21be dcd8 f0bd 12a9 a8bc
000002f0: 2616 f9be 83e4 46bd 69f3 a23e 59b0 203e
00000300: 63ca b0bd 8916 61be 40e5 ca3d 22a9 cabe
00000310: 841d 873d 5652 89bd 8d34 c03b a14f 1e3d
00000320: 1997 9e3d fd12 823e 1f9a ebbe 7879 873e
00000330: 2a5e 9c3e 9f0e 3a3d 31b8 9abd 91c1 80be
00000340: 8334 cc3d 2a97 ce3d 028c c8bc 3164 163e
00000350: 49cd afbd d16c 4ebe 34d2 77bb ec42 4ebe
00000360: 5c01 6f3c bb34 723e ae38 b13b e55d d93e
00000370: 795a d2bd c829 433e c50c 17be 9084 fa3e
00000380: 7e4b 0fbe 480e 80be 4494 e0bd 74e7 d03b
00000390: 92ec f0bc 431b d73d ac23 073c b60a 53be
000003a0: 54be 51bd b907 14bf 5bcb cbbe 7204 43bf
000003b0: 1b79 2a3f ac82 443d 3be6 083e b227 3e3e
000003c0: c121 123e e819 11be 77c9 ae3d 8ec8 00be
000003d0: f5ba 9ebe 86b2 fc3d a59e 033e a3cd 61bd
000003e0: 0a74 97be 56a6 3c3d 40df 8b3e bc50 06bf
000003f0: 1b01 c03e 192f 253e c0a5 8e3d df47 0f3e

mean_net.2.bias f4 [128]
-0.06846802 -0.13738276 0.25017503 0.11803216 -0.06829575 -0.011933532 -0.021205006 0.1621569
0.07051922 0.067085214 0.013995399 0.094892755 0.3904303 -0.050139535 -0.2144907 -0.11538941
-0.11430329 0.16092032 0.16856493 0.0015143156 0.03175576 -0.0888742 -0.09978125 0.0419306
-0.11204976 -0.027840834 -0.36620083 -0.08846298 0.07722432 -0.082894616 0.06597894 0.20568642
-0.087099925 -0.059686404 0.22597532 -0.10765521 -0.034565285 -0.052478887 -0.0013555731 0.035844874
-0.006111782 -0.042476434 0.081690006 0.022917239 -0.019085148 -0.08321525 -0.05815299 0.09078939
0.008122312 0.042329285 0.17263849 0.09708951 0.022428747 0.09651243 0.09287652 0.05771443
0.044548295 0.14896539 0.033650625 -0.10127246 0.12344193 0.057377663 0.16200669 0.09308979
0.08825534 -0.23073031 0.014356585 0.027419215 -0.094201155 -0.13176395 -0.111595824 -0.1439674
-0.011890838 -0.021306377 0.036451608 -0.019418254 -0.22976814 0.06502286 0.054637227 -0.13525227
0.05033978 -0.019819893 -0.015820924 0.069465525 0.07931912 0.12759107 -0.020483436 -0.14233528
0.0713878 -0.22508922 0.1164632 -0.04030175 -0.18330996 0.14450623 -0.004536233 -0.09173136
0.1266842 -0.07562143 0.036419734 -0.086932644 -0.08373838 0.10959102 -0.10836007 0.12292079
0.004365157 -0.21297787 -0.09728395 -0.03770357 0.19186974 0.056014027 -0.1254555 0.014594494
0.008477335 -0.07666024 0.042022187 -0.0020014122 -0.14325123 -0.07266879 -0.25078818 0.2466874
-0.009183157 0.042642668 -0.014765103 -0.01515964 0.01815379 -0.026524842 -0.06714223 -0.06789361
00000000: f638 8cbd 11ae 0cbe f116 803e d8ba f13d
00000010: a4de 8bbd dc84 43bc 1fb6 adbc 750c 263e
00000020: 616c 903d f963 893d f54c 653c 2257 c23d
00000030: 7be6 c73e 1d5f 4dbd 73a3 5bbe 4851 ecbd
00000040: d817 eabd 4cc8 243e 499c 2c3e 007c c63a
00000050: 5412 023d ad03 b6bd 1d5a ccbd 6cbf 2b3d
00000060: 587a e5bd 7612 e4bc ad7e bbbe 142c b5bd
00000070: c927 9e3d a7c4 a9bd f71f 873d 769f 523e
00000080: 7261 b2bd bb79 74bd 1366 673e 567a dcbd
00000090: 5494 0dbd 1af4 56bd 7cad b1ba 13d2 123d
000000a0: 5845 c8bb c5fb 2dbd 174d a73d efbc bb3c
000000b0: 7558 9cbc c26c aabd d431 6ebd caef b93d
000000c0: 7213 053c 7961 2d3d 25c8 303e ddd6 c63d
000000d0: 7ebc b73c 4fa8 c53d 0b36 be3d f765 6c3d
000000e0: 4678 363d 628a 183e 3dd5 093d ef67 cfbd
000000f0: 1fcf fc3d d704 6b3d 15e5 253e dca5 be3d
00000100: 37bf b43d 9144 6cbe e237 6b3c 439e e03c
00000110: 89ec c0bd 21ed 06be 5a8c e4bd 316c 13be
00000120: cad1 42bc b68a aebc 484e 153d 0813 9fbc
00000130: 5748 6bbe b52a 853d 49cb 5f3d 927f 0abe
00000140: 1631 4e3d 545d a2bc e29a 81bc f143 8e3d
00000150: 1072 a23d 3ca7 023e e1cc a7bc 57c0 11be
00000160: c433 923d ca7d 66be 4284 ee3d 7313 25bd
00000170: 9bb5 3bbe 71f9 133e aea4 94bb a7dd bbbd
00000180: 81b9 013e 69df 9abd dc2c 153d be09 b2bd
00000190: 077f abbd 4271 e03d e2eb ddbd e5bd fb3d
000001a0: 9709 8f3b df16 5abe cf3c c7bd 0f6f 1abd
000001b0: 8079 443e f76e 653d 6877 00be bf1d 6f3c
000001c0: 85e4 0a3c 0b00 9dbd 751f 2c3d 202a 03bb
000001d0: 73b0 12be 60d3 94bd 4f67 80be 9f9b 7c3e
000001e0: f474 16bc 14aa 2e3d 55e9 71bc 2460 78bc
000001f0: 42b7 943c a04a d9bc de81 89bd ce0b 8bbd

mean_net.4.weight f4 [4, 128]
-0.08248335 -0.14293924 0.49260294 -0.022342235 0.41514882 0.14037599 0.6609833 -0.4090809
-0.38083205 -0.2846021 -0.1996102 -0.15047361 0.027616294 -0.14004467 -0.5606724 -0.11820624
0.11306764 0.10897122 0.052088905 1.3458744 0.32431543 0.089964636 0.21333048 0.2386297
0.061641056 -0.3402599 -0.24332833 -0.55105436 -0.09934029 -0.22923358 0.37577015 0.17560239
-0.07845825 -0.03535942 0.09746871 -0.1511994 -0.0774504 0.20380302 -0.044517417 1.2366686
-0.1424075 -0.3622306 -0.47985753 -0.11291589 -0.4103161 0.40838227 0.31053412 0.37121755
-0.6235952 0.22466192 -0.8294926 -0.10957862 -0.04882092 0.27887458 0.80029184 -0.07784856
0.27488786 -0.3206683 -0.22702569 -0.4519358 0.7837412 0.18616611 -0.07549992 0.24432428
0.32578298 -0.20422386 -0.07415951 -0.086884625 0.16684958 -0.2263723 -0.30336073 0.22619973
-0.40280062 0.23599151 0.38977775 0.19903888 0.49456444 0.5839873 1.1112884 -0.12309561
0.44299245 -0.5230461 0.78102964 -0.7129427 0.27041247 -0.5202832 0.09010924 0.07003583
-0.5393039 -0.13356614 0.6940242 0.1408662 0.2403898 0.038596425 0.2243118 0.2162732
-0.07576653 0.31138378 0.10306558 0.07997373 0.26688972 0.42670438 0.15738471 0.18343516
0.8086773 0.11420387 0.1088199 -0.3378272 0.18374515 -0.45316505 -0.24629019 0.741886
-0.5537078 -0.1375598 0.7985942 -0.624734 -0.22851829 -0.2458363 0.16202211 0.09566811
-0.4625476 0.33388612 -0.6722282 0.35029545 -0.5604335 -0.34139094 0.51179427 0.11148539
0.02507803 0.10002888 -0.10659031 -0.18904017 0.22946316 0.20832086 -0.17483279 0.11487473
0.021004396 -0.06461303 0.16073428 -0.023494478 0.10666355 -0.22228187 0.0824157 -0.037651766
-0.17103413 0.42919385 0.23403202 0.02369392 -0.29786935 -0.17642748 0.0929972 -0.16381624
-0.07207122 -0.21088012 0.051851727 -0.20648882 -0.11631641 0.17309606 0.0032666218 0.077391274
-0.12464221 0.24805579 -0.007920788 0.11853202 0.09993402 0.14509614 0.039047796 -0.20060185
0.01043526 0.2894155 0.08079776 0.06549013 0.07691084 -0.041323908 0.027713774 -0.16991466
-0.19941537 -0.15588908 0.06858091 0.23955618 -0.35335606 -0.13591045 -0.098643504 0.027835278
-0.21817291 -0.12611969 0.6240868 -0.62486625 0.063498914 0.27046362 -0.10937405 -0.31880596
0.01698128 0.056921925 0.18462266 -0.03370155 -0.16398074 0.21273944 0.078637704 0.320502
-0.07537778 -0.4085288 -0.16438828 -0.307051 0.19980198 0.4253807 -0.06333401 0.10056866
-0.019848242 -0.10765218 0.15402225 0.4335653 0.23409413 -0.027464082 0.26208717 -0.058800675
0.08013647 0.22774962 -0.02806448 0.06156311 0.27406302 0.14241555 -0.13061252 0.11894643
-0.06730368 0.11751742 0.07220678 0.15700471 -0.045552913 -0.41919684 -0.38501173 0.3919949
0.0018239594 -0.2454484 0.072368845 -0.5156479 0.14471391 -0.06266869 -0.20940346 0.007429856
-0.04960512 -0.23284149 -0.016931966 0.09385944 -0.0030692534 0.0051597874 -0.11857444 0.1743505
0.01979501 -0.17090157 -0.10069381 0.08020032 -0.17221832 -0.15350957 0.003387268 -0.19416857
00000000: 08ed a8bd aa5e 12be 7436 fc3e 1007 b7bc
00000010: 638e d43e b9be 0f3e 3436 293f 0d73 d1be
00000020: 6bfc c2be 5eb7 91be 9e66 4cbe c115 1abe
00000030: 913b e23c df67 0fbe 3a88 0fbf 1d16 f2bd
00000040: 0290 e73d 4e2c df3d 2d5b 553d 9d45 ac3f
00000050: ac0c a63e 613f b83d 4e73 5a3e 585b 743e
00000060: 557b 7c3d 8c36 aebe 102b 79be e611 0dbf
00000070: ec72 cbbd 35bc 6abe f264 c03e 1dd1 333e
00000080: b8ae a0bd 0ad5 10bd ad9d c73d 04d4 1abe
00000090: 519e 9ebd bdb1 503e e557 36bd 284b 9e3f
000000a0: 46d3 11be 4a76 b9be e3af f5be 7240 e7bd
000000b0: f414 d2be 7b17 d13e 54fe 9e3e 3a10 be3e
000000c0: efa3 1fbf c60d 663e a159 54bf c16a e0bd
000000d0: 72f8 47bd a6c8 8e3e eddf 4c3f 116f 9fbd
000000e0: 1abe 8c3e a32e a4be 6c79 68be 2164 e7be
000000f0: 43a3 483f 54a2 3e3e b49f 9abd 2530 7a3e
00000100: 07cd a63e 0f20 51be f1e0 97bd 91f0 b1bd
00000110: 9eda 2a3e 24ce 67be 1952 9bbe e7a0 673e
00000120: e23b cebe c2a7 713e f390 c73e d9d0 4b3e
00000130: 8d37 fd3e 3180 153f b33e 8e3f 8d19 fcbd
00000140: e8cf e23e 59e6 05bf 8ff1 473f 6a83 36bf
00000150: 8173 8a3e 4831 05bf 318b b83d f26e 8f3d
00000160: d20f 0abf 90c5 08be 92ab 313f 3b3f 103e
00000170: be28 763e 4917 1e3d feb1 653e b976 5d3e
00000180: 7c2b 9bbd b26d 9f3e 0c14 d33d 44c9 a33d
00000190: c5a5 883e ff78 da3e 7529 213e 6dd6 3b3e
000001a0: 7a05 4f3f b8e3 e93d f8dc de3d b0f7 acbe
000001b0: b027 3c3e 4005 e8be 7f33 7cbe 3eec 3d3f
000001c0: cbbf 0dbf 7adc 0cbe ab70 4c3f 91ee 1fbf
000001d0: b300 6abe 83bc 7bbe 20e9 253e a4ed c33d
000001e0: 0ad3 ecbe 1ff3 aa3e 2617 2cbf ed59 b33e
000001f0: 9278 0fbf cbca aebe f304 033f 7452 e43d
00000200: 7170 cd3c f1db cc3d 054c dabd bf93 41be
00000210: 64f8 6a3e 1052 553e 5e07 33be 7143 eb3d
00000220: 6911 ac3c d653 84bd 8797 243e 7e77 c0bc
00000230: 6b72 da3d dc9d 63be 90c9 a83d bd38 1abd
00000240: 9223 2fbe 4cbf db3e 17a6 6f3e c019 c23c
00000250: 5582 98be 68a9 34be 5175 be3d 72bf 27be
00000260: 139a 93bd f5f0 57be 7a62 543d ce71 53be
00000270: 4c37 eebd 1840 313e d214 563b 517f 9e3d
00000280: 6a44 ffbd 5602 7e3e 31c6 01bc eac0 f23d
00000290: 35aa cc3d 1594 143e 95f0 1f3d 926a 4dbe
000002a0: a7f8 2a3c 452e 943e 4c79 a53d b01f 863d
000002b0: 6e83 9d3d 4243 29bd ff07 e33c 1cfe 2dbe
000002c0: 8b33 4cbe 63a1 1fbe 2674 8c3d 374e 753e
000002d0: 16eb b4be 1c2c 0bbe 9b05 cabd cf06 e43c
000002e0: b868 5fbe 8525 01be 27c4 1f3f 3cf7 1fbf
000002f0: b80b 823d 357a 8a3e 80ff dfbd 893a a3be
00000300: 531c 8b3c f726 693d b90d 3d3e a30a 0abd
00000310: 91ea 27be 5ed8 593e ce0c a13d d718 a43e
00000320: aa5f 9abd b02a d1be 6755 28be ca35 9dbe
00000330: e498 4c3e 80cb d93e 43b5 81bd f1f6 cd3d
00000340: c898 a2bc bf78 dcbd 02b8 1d3e 45fc dd3e
00000350: 5fb6 6f3e 5bfc e0bc 4a30 863e fad8 70bd
00000360: 971e a43d 3237 693e 7be7 e5bc 9a29 7c3d
00000370: fd51 8c3e 62d5 113e 4abf 05be 309a f33d
00000380: 83d6 89bd f9ac f03d 26e1 933d d8c5 203e
00000390: b195 3abd f8a0 d6be 4220 c5be 8eb3 c83e
000003a0: ec11 ef3a d356 7bbe 1e36 943d 8001 04bf
000003b0: e22f 143e 7158 80bd dc6d 56be 2676 f33b
000003c0: bd2e 4bbd 006e 6ebe e8b4 8abc 6139 c03d
000003d0: 8725 49bb 6f13 a93b 28d7 f2bd f088 323e
000003e0: 2529 a23c d200 2fbe 8e38 cebd 1140 a43d
000003f0: 005a 30be 9d31 1dbe edfc 5d3b 20d4 46be

mean_net.4.bias f4 [4]
0.16695955 -0.115294166 -0.2765114 0.03204098
00000000: 72f7 2a3e 591f ecbd e792 8dbe 673d 033d
