test_uav/model/actor_model13-10-2023_17-19-10/4430.pt (torch, 79608 bytes, 7 tensors)

logstd f4 [4]
00000000: ef22 40c0 8b00 86c0 6f00 debf 7a0f a2c0
-3.0021322 -4.1875663 -1.7343882 -5.064389

mean_net.0.weight f4 [128, 17]
00000000: 45b2 8cbd 018c 8d3d 89da 073f d767 99bc
00000010: 759d 0fbe f033 803e 10e2 92be ec42 373e
00000020: b8db 653d 0ee6 803e bc9e 2e3e 5e76 47be
00000030: 75b3 06be 04a1 f4bd d176 aebd b4c0 003d
00000040: c2c8 713e c65e 57be 2804 20bf 3e14 59be
00000050: be1a 4ebd 1fe6 883d 3004 cdbd ec97 afbd
00000060: b08f 883e 6d49 c03e 89ba 383f 57f6 2ebf
00000070: 8bb3 8bbf c5e2 4e3f f1cf 0dbe ec3d 723e
00000080: 4b51 253f 6452 bebd 0f03 f9be 7336 a4bd
00000090: 6ac7 18be 9fbf 8abe 0f6b e83e 3c3c a23d
000000a0: 3a76 7c3e f488 a53e 040b 413e 569b d0be
000000b0: d55a 7fbe e663 9b3e 27f2 15be dcad c63d
000000c0: 5288 88be e5db fa3c 22df 14bc e216 8b3e
000000d0: a9ad b83d f82f 4fbe a78d c63d 0a5b 8abd
000000e0: 9edd f4bc 9d10 853e f2c9 4f3e 78a8 bf3e
000000f0: d76a ae3e c944 96be f5d4 413f 64dc 853e
00000100: 402a 623d 803f f8bd 939c 01be 2d2b 9dbe
00000110: 06dc ecbe 0b4a bcbe 6d36 42bf d86d 283e
00000120: 68da eb3e b65f 15be b369 283d ff34 833c
00000130: 8c36 ac3e f004 53bd 9b4d babd f211 1b3c
00000140: 943e 813e d6da a83e 8cf0 c53d 0f34 253e
00000150: cd5c ddbc a4ff e3be 64f2 aabd 3962 833e
00000160: 554d 2cbf 94de 8abd 2421 2a3e 56cd 403d
00000170: 2801 8c3c f8b2 fbbc 8a43 85bd fedf 9bbd
00000180: 424a 993c ce29 963d de31 b43d 0632 b83d
00000190: 9ecd 8abe 9c2a 203d a4ce 413f 0c06 003f
000001a0: d237 f33e 4784 ad3e b65b 1f3e 7c6f 99bd
000001b0: 5aeb 233d 9276 e3bd 228e 29be 09af 843d
000001c0: 7ddd 22be d5c6 b23e 80e6 18bf 00b8 d23d
000001d0: 70f0 923c 6175 dcbc b81a d13d 5e70 ac3e
000001e0: c250 d5be eebd c43e f547 de3d 12d5 02bf
000001f0: 5e96 2c3e 492a 813d 80d8 553e 213a ffbe
00000200: 9f5b 67ba 7283 303d a0a9 e53d 14b8 28be
00000210: db1f 62be eb1a 753c 46f6 ebbc 3874 62bd
00000220: a5ac af3d 31e8 9abe b73b cebe 025e c7bc
00000230: bcea 09bf e3cb b0be e8f4 4a3e ddeb 9b3e
00000240: 02c4 d9bc 33af be3e da84 3a3e b155 943d
00000250: 44a9 5fbe d7e1 70bd af4b 40be daf8 ba3d
00000260: 4ac6 9ebd 3f31 af3e 2e1f ec3e ae4f 19bf
00000270: e081 863d d976 e23e bf00 d93b 7f4c d43d
00000280: 2b74 81be b7d9 3d3e 6ec8 643e 6e90 a43c
00000290: 7df8 433e 4665 763e d8c7 143e 598f d2bd
000002a0: 632f d13d e033 363e a9a5 8d3e 091b 89be
000002b0: 8210 803e c877 8b3e d7fd bbbe 98fa 3f3d
000002c0: b756 b3bd fde8 e8be 6776 2c3c 9572 463d
000002d0: d229 53bd b588 853e 98ba 04bf 1f5d c63d
000002e0: 7bbc 8dbc 67ba f43d 44b8 873e 5809 e0be
000002f0: 93ae 00bd 0faf fabd 4187 9a3e 1ff7 c2bb
00000300: ac2d 5c3e 26d8 2abc 0091 25be 8b12 babe
00000310: a055 afbd 334d e33e e1e1 0f3f 9011 5f3e
00000320: 191c 013e b8a8 a8be 238b a93e c771 5c3d
00000330: fff2 873e 9163 eabe 827e debe 4383 cfbe
00000340: a36e 6a3e 9bca 14be 1c14 383e b6d5 a13e
00000350: 0dec 8e3e eaa3 103e aec9 dcbe b3b5 69be
00000360: b234 f93d 7be3 713e a0da 163e 7b65 e3bd
00000370: 14df 063e 24e6 01bf d8fb 9d3d dbc1 71be
00000380: f0d6 cabd c6d4 303e 84db ae3e eb41 133e
00000390: 150d 6cbd 09ff acbe 6fca a13e 6ab4 62be
000003a0: 50c4 3abf 8dab c3be fee2 b8be e2c8 74be
000003b0: f9b1 b0be 496c 82be 1680 f33e d038 453f
000003c0: ef00 e93e 1e5e 88be 023b 0d3e 55c3 373e
000003d0: 18f4 4c3e 6705 0f3e b0e6 ee3c cf9f 5d3d
000003e0: 2022 c8bd 78f0 a4bc fdf7 9a3e 5833 84be
000003f0: 2104 64be 9b98 19be afec de3d 9f60 afbe
-0.0686994 0.06911469 0.53067833 -0.018726273 -0.14024909 0.25039625 -0.28688097 0.17896622
0.056117743 0.25175518 0.1705274 -0.19478747 -0.13154395 -0.11944774 -0.08518756 0.031433776
0.2361174 -0.21032247 -0.6250634 -0.21199128 -0.050318472 0.06684517 -0.10010564 -0.08573899
0.26672125 0.3755602 0.7215963 -0.68344635 -1.0914167 0.8081477 -0.13848855 0.23656434
0.6457717 -0.092930585 -0.48635146 -0.08018198 -0.1491982 -0.2709932 0.4539418 0.07921645
0.24654475 0.3233105 0.18851858 -0.40743512 -0.24936993 0.30349654 -0.14643155 0.0970113
-0.26666504 0.030622432 -0.009086402 0.27165896 0.09017498 -0.20233142 0.09694987 -0.067556456
-0.029890832 0.25989237 0.2029188 0.3743322 0.34065887 -0.29349354 0.7571557 0.26144707
0.055216074 -0.12121487 -0.12657385 -0.30697003 -0.46261615 -0.3677524 -0.758643 0.16448152
0.46065068 -0.14587292 0.041116428 0.016016481 0.33635366 -0.05151838 -0.09096833 0.009464728
0.25243056 0.3297946 0.09665021 0.1613314 -0.02702179 -0.44530976 -0.083470136 0.25660875
-0.673055 -0.06780735 0.16614205 0.047070824 0.017090395 -0.030724987 -0.06507023 -0.076110825
0.018712167 0.07332192 0.08798574 0.08993916 -0.27109998 0.039103135 0.75705934 0.50009227
0.47503525 0.33889982 0.15562329 -0.07491967 0.04001937 -0.111066 -0.16558126 0.06478698
-0.15904804 0.34917322 -0.59726715 0.102890015 0.017936915 -0.02691144 0.10210174 0.3367948
-0.41663176 0.38426155 0.108535685 -0.5110637 0.16854236 0.063068934 0.2088337 -0.49849036
-0.0008825603 0.043094106 0.11213994 -0.1647647 -0.22082464 0.014960031 -0.028803956 -0.055286616
0.08577851 -0.30255273 -0.40279934 -0.024336819 -0.538738 -0.34530553 0.19819987 0.30453387
-0.026582722 0.3724304 0.18214741 0.07242907 -0.21841913 -0.058809128 -0.18778871 0.09129496
-0.077526644 0.3421726 0.46117538 -0.59887207 0.065677404 0.442313 0.0066224034 0.10366153
-0.25283942 0.18540083 0.22342083 0.0200884 0.1913776 0.2406207 0.1452936 -0.10281248
0.102141164 0.17793226 0.2766545 -0.2677844 0.25012594 0.27239823 -0.36717102 0.046869844
-0.08756774 -0.45490256 0.010526276 0.048449118 -0.051553555 0.26080862 -0.5184722 0.0968573
-0.017301789 0.11949616 0.2650777 -0.4375713 -0.031416487 -0.12240421 0.30181316 -0.0059498693
0.21501797 -0.01042751 -0.16168594 -0.36342272 -0.085612535 0.44394836 0.5620404 0.21784043
0.12608375 -0.32941222 0.33113965 0.053819444 0.2655258 -0.45779088 -0.43455893 -0.40529832
0.22893767 -0.14530413 0.17976421 0.3160836 0.27914467 0.14125028 -0.4312262 -0.22823219
0.12168254 0.23621933 0.14731836 -0.1110334 0.13171035 -0.5074179 0.07714051 -0.23609106
-0.09904277 0.17268667 0.34151852 0.14380614 -0.057629663 -0.33788326 0.31599757 -0.22139135
-0.729558 -0.3821682 -0.3611068 -0.23904756 -0.34510782 -0.2547324 0.4755866 0.77039814
0.45508525 -0.26634306 0.13792041 0.17945607 0.2001499 0.13966905 0.029162735 0.054107483
-0.09772134 -0.020134196 0.30267325 -0.25820422 -0.222672 -0.1499962 0.108849876 -0.34253404

mean_net.0.bias f4 [128]
00000000: c171 15be f9f3 8c3e cd0f 903d 0ec6 0dbd
00000010: 93fc 253c a9e6 0fbd b6fc 0fbe 39a5 743d
00000020: f44b 5c3e 5163 89be 54b2 43bc 5309 8ebe
00000030: 4ca2 4e3e a07f d1bd 1002 5cbe d07e 09be
00000040: 7fb5 f3bd efc6 a0be 83f5 d73c 1ad9 4ebe
00000050: 33ed 203e 60fc 343d fa16 1fbe 554e a73d
00000060: ba4e 9e3d cdb2 683c 7ddb 88bc 0307 6f3c
00000070: fabc 6ebd 5637 1a3e 0156 7dbe 374c 843d
00000080: 10c7 3c3e a09a 0a3e c8ad 5c3e 0564 3f3d
00000090: 9a04 3b3d bc8b 423e 2534 01bd a198 18bd
000000a0: ff5a 2dbd c40a 203e beb4 1f3e f3ff a1bd
000000b0: ba1b ca3d 9f37 aebe 59b1 31be 07df e7bd
000000c0: 932d acbd 37b7 28be 5088 99be 7b97 ecbc
000000d0: 98f7 dbbd d184 d5bc 50f5 a03d 263c b7bb
000000e0: 88ff 62bd c08c c63c 6536 633e bf07 01be
000000f0: 13b7 68be a9e2 17be 9523 6abe 4d27 34be
00000100: dac7 193c 2bf2 31be c99e db3c 36bf 043d
00000110: fffc 843e 11ba 753e 9e9d 563e b2c5 503e
00000120: 1ddc dbbd f226 833e 312d 533e 79a6 173d
00000130: 0ac3 26be c873 7bbe b12f a4be 1637 4d3d
00000140: 0e62 9d3d 2626 4dbd 1071 c73e a4aa c13c
00000150: 41d7 d23e b8ab 6b3d e93f ee3d 59df bc3c
00000160: 43e6 9dbe f367 ea3d cab4 643c b12b d1bd
00000170: 0d42 4fbe a6b9 403e e8b1 babd d11d aa3c
00000180: ba58 32be 9bca 393e 3646 9b3e d994 243e
00000190: 5878 80bd 03f0 6a3d c779 67bd 63b0 52be
000001a0: 04c8 eebd e774 903d d5c3 97bd 91c6 9fbd
000001b0: 4fc3 0d3c e801 653e a194 22be 23af f9ba
000001c0: bc3a 183d 0b01 533c a425 42be 5efe 123e
000001d0: c01b 103e e174 c33d 0dad 84bd 664d ac3d
000001e0: 8f5d f9bd 4918 3f3d 30be 193d a0f4 36be
000001f0: a9fe 163d 7172 753e e6c3 51be 958c 45be
-0.14594175 0.27529886 0.07034264 -0.034612708 0.010131019 -0.035132084 -0.14061245 0.05972788
0.21513349 -0.26833585 -0.011944372 -0.2774149 0.20179099 -0.10229421 -0.21485162 -0.13427281
-0.11899852 -0.31401774 0.026362186 -0.20200005 0.15715484 0.044185996 -0.15536109 0.081692375
0.0772986 0.014202786 -0.016706223 0.014589074 -0.05828569 0.15060171 -0.24739839 0.06459849
0.18435311 0.13535547 0.21550667 0.046726245 0.045658685 0.18998617 -0.03154387 -0.037254933
-0.04232311 0.15629107 0.15596291 -0.079101466 0.0986857 -0.3402681 -0.17352809 -0.11321836
-0.0840713 -0.16476141 -0.2998681 -0.028880825 -0.10740584 -0.026064308 0.0785929 -0.005591887
-0.055419475 0.024237037 0.22188719 -0.12600611 -0.22726087 -0.14832558 -0.22865136 -0.17593117
0.009386027 -0.17377536 0.026809113 0.032408915 0.2597427 0.2399676 0.20958564 0.20387915
-0.10735343 0.2561565 0.20622708 0.037023995 -0.16285339 -0.24555886 -0.32067636 0.050101362
0.07684718 -0.05008521 0.38953447 0.023640938 0.4117985 0.05753681 0.11633284 0.02305572
-0.30839738 0.11445608 0.013959119 -0.102134116 -0.2024004 0.1882082 -0.09115964 0.02076617
-0.17416659 0.18143694 0.30327004 0.16072406 -0.06272954 0.0573578 -0.05651262 -0.20575099
-0.11659244 0.07053547 -0.07410399 -0.078015454 0.008652522 0.22364008 -0.1587701 -0.0019049387
0.03716539 0.012878667 -0.18959671 0.14354846 0.14073086 0.09543777 -0.06478319 0.084132
-0.12176048 0.04665402 0.037534893 -0.17866755 0.036863957 0.23969437 -0.20484886 -0.19291909

mean_net.2.weight f4 [128, 128]
00000000: dbbb 783b 7b3a 3b3e ab1f 1fbe 43aa 303d
00000010: b38f 14be 346e e53d 14d9 c43b 9ffd 09bd
00000020: 5add c63d a9e6 8c3e 37a9 e43c 88e8 1b3e
00000030: f4d9 58bc 53be cabd 488d 103e 7bd7 edbd
00000040: 15d2 49be 7b25 853d ef9c 533e 1828 003d
00000050: 96f1 123e 6113 15bd a83a 263e f971 9fbe
00000060: b093 96bd 2e30 80be 3126 28be ff16 d73e
00000070: 8e48 19be 6874 863e 81d4 cf3d 8bc9 b7be
00000080: e3b9 adbd 839b 583c 9311 af3e 5025 adbe
00000090: 84ab 2fbd 53c5 0d3e 668c 55be 14f6 f33c
000000a0: e818 f2bc 54bb 5abd e069 9b3e 6497 a9bd
000000b0: f5b4 7e3d fa2f 9abe a247 1c3e c1bf 643d
000000c0: 3022 8c3d 9e0f 4e3e 02c3 fdbe cc05 d63d
000000d0: b91c 03be 8033 a8bc 77b3 76bd edba a13d
000000e0: 0481 dfbd f4f9 4f3e dd92 e0bd 140c 5b3e
000000f0: 9a91 68bb 1f30 8c3d a2aa 58be 3c99 033e
00000100: e9b1 dfbd 559a 42bd b38a 83be 6de0 9abd
00000110: 1ab9 ea3e f8ae aabc 25d8 0d3b 37a7 413e
00000120: e5ee f03c 2bac 8f3e 7388 9b3d 8be4 433e
00000130: 9cb7 4fbe 3f4c 47bd 73b9 52be 13a3 4d3e
00000140: f975 8a3d 6b6b 01be 9e68 413c 1a3d 6f3e
00000150: 7409 023e 0df4 64be 58d5 52bd 40d1 14bd
00000160: 5960 25be 1d59 973e 4088 973d 9220 4e3e
00000170: c3c9 81bc d85b 543e 5220 7dbe d2ba 613d
00000180: 1b39 523d 007b 0a3e 00fe 4b3e f8b7 27bd
00000190: 213b 2cbe 7c95 723d d78c 93bd 303c 25be
000001a0: f946 acbd 2817 5dbe a198 cc3e 93b7 debe
000001b0: 8382 77be 8780 f23d 89d4 6a3e 03a9 663e
000001c0: 6ad5 22bd d732 a3bd aef5 9ebc 4aca 01be
000001d0: 6b80 b73d 321c 53be f05a 273e 9e60 4cbd
000001e0: f289 153c 62f9 c93d e821 7b3c 9417 51be
000001f0: b202 173d 3813 883e 07b4 88be 05e3 a6bd
00000200: 1e87 a5bd 8e0e 383e ed3f f6bc 0722 323e
00000210: 224e 6dbd ef4c 8fbe 0d86 903e 60c0 4abd
00000220: 7aa0 6cbe c07b 963e f1ab ebbd 7f94 bfbe
00000230: d101 02bb c5e1 223e 360a d23e 8009 3abc
00000240: 18e1 4bbd d160 0abe 4356 193e 0435 973d
00000250: 2b37 833e 462a ec3d 55f6 e4bd 425a 463d
00000260: 37e6 f73e b7ab 4ebe ca5d b63e 9cb5 55bc
00000270: da33 873e 3bce b73e d63f 36bd f853 0cbe
00000280: cb8b c8bc 3c76 d43e ea23 c03d 2b7a 5a3e
00000290: 69e6 093e 50eb 2f3d 0c41 80bd e7b9 31bc
000002a0: 2ce7 a8be ca22 7b3d d030 04be c8e7 b5bd
000002b0: d987 b7be 09d3 8bbd 22a4 d2be 2e24 38bd
000002c0: 7eab 373d 7a1f b23e 04a5 aabe 37ec bcbc
000002d0: ad42 a43e f6ee 503d d748 d73d c411 0ebd
000002e0: 6ce4 bfbd 44d5 2abe 8061 0cbe 9680 13bd
000002f0: 7cbd f6be 7828 093c f6cb ac3e c2da 2a3e
00000300: 8f0b e2bd f59e 66be d721 bd3d f2f8 d6be
00000310: 8172 d63d 9983 a5bd 6676 c6bc 28c6 ac3d
00000320: 30d2 cf3d bea1 733e 22b3 ddbe b81e 863e
00000330: e51d 823e a097 4d3d 3c06 b9bd f5f0 7ebe
00000340: 288f 8b3d 363f a53d 9760 2abd 5580 e33d
00000350: 924a c5bd 3304 7abe 88fb 05bc 6ba0 35be
00000360: c873 6b3c d607 773e 4b95 203c 50b3 dd3e
00000370: 49ec 08be f291 233e e5cb 0cbe 9072 fe3e
00000380: 5345 dcbd f258 69be 128d 06be 2c29 9abc
00000390: 9411 16bd 25f5 f83d ee5a 70bc b126 3fbe
000003a0: a30b a4bd b443 16bf 79da b7be c6e5 3dbf
000003b0: c326 1c3f d6a3 3e3d 49e6 f03d c067 213e
000003c0: d35b e83d fea3 47be 1a6a c83d 3af6 1fbe
000003d0: 149b 8dbe 3029 0f3e 96ba 603d 5b69 9cbd
000003e0: b78a a7be 770a ad3c dc3a 9e3e b291 10bf
000003f0: 5d93 c13e 7fbf 1a3e 3193 ef3d 929c 133e
0.0037953767 0.18284027 -0.15539424 0.043131124 -0.14507942 0.1120266 0.006007323 -0.033689138
0.09710188 0.2751973 0.02791272 0.15225422 -0.013235558 -0.09899583 0.14116395 -0.11613365
-0.19709046 0.065012895 0.20665334 0.031288236 0.1434997 -0.036395434 0.16233313 -0.31141642
-0.07352388 -0.25036758 -0.16420819 0.42009732 -0.14969084 0.26260686 0.10147954 -0.35895953
-0.08482721 0.013220671 0.34193096 -0.3381753 -0.04288818 0.13844804 -0.20854339 0.029780425
-0.029552892 -0.053401306 0.30354214 -0.082808286 0.062184293 -0.30114728 0.15261701 0.055846933
0.06842458 0.20123145 -0.49562842 0.104503244 -0.12803926 -0.02053237 -0.060229745 0.078969814
-0.1091328 0.20310193 -0.10965512 0.21391326 -0.0035487176 0.06845116 -0.21158841 0.12851423
-0.109226055 -0.047510464 -0.25691757 -0.07562337 0.45844346 -0.020835385 0.0021643725 0.18911444
0.029410789 0.2806104 0.07594385 0.19130151 -0.20284885 -0.0486567 -0.20578556 0.20081739
0.06760783 -0.12638633 0.011804728 0.23363152 0.12698919 -0.22358723 -0.05147299 -0.03633237
-0.16150035 0.29560176 0.073990345 0.20129612 -0.015843278 0.2073816 -0.2471936 0.055109806
0.05132399 0.13523483 0.19921112 -0.04094693 -0.16819431 0.05922459 -0.072045974 -0.16136241
-0.084119745 -0.21590865 0.39960197 -0.4349943 -0.2417088 0.11840921 0.22932638 0.2252541
-0.03975431 -0.07968681 -0.019404259 -0.12674823 0.08960041 -0.20616224 0.16343284 -0.04989683
0.009127127 0.09862019 0.015327908 -0.2041915 0.036867805 0.26577163 -0.2669985 -0.08148769
-0.08082412 0.17974302 -0.030059779 0.17395793 -0.05793584 -0.27988383 0.28227273 -0.04949987
-0.23108092 0.2939129 -0.115074046 -0.3741798 -0.0019837508 0.15906437 0.41023415 -0.011354804
-0.049775213 -0.13513495 0.14974312 0.07383159 0.25628027 0.115315005 -0.111797966 0.04842592
0.48417827 -0.20182692 0.3561843 -0.013043787 0.26406747 0.3589953 -0.044494472 -0.13703907
-0.024480721 0.41496456 0.0938185 0.21335666 0.13466801 0.04294902 -0.06262407 -0.010847545
-0.3298887 0.061312474 -0.12909245 -0.088820994 -0.3584583 -0.06827361 -0.41140848 -0.04495638
0.044841282 0.3478964 -0.33329022 -0.023061855 0.3208212 0.05100914 0.1051194 -0.03468491
-0.0936974 -0.16682917 -0.13709068 -0.0360113 -0.4819144 0.008371465 0.3374936 0.16685012
-0.11037361 -0.22521575 0.0923497 -0.41986805 0.10471059 -0.08081741 -0.024226379 0.08436233
0.10147512 0.23792168 -0.4330073 0.26195312 0.25413433 0.05019343 -0.09034392 -0.24896605
0.06814414 0.08068697 -0.04159602 0.11108462 -0.09633364 -0.24415664 -0.0081776455 -0.17736976
0.014370866 0.24124083 0.009801219 0.43300867 -0.13371386 0.15973642 -0.13749655 0.4969678
-0.1075541 -0.22787836 -0.13139752 -0.01881846 -0.036637858 0.121561326 -0.014670117 -0.18667103
-0.08010032 -0.58697057 -0.3590887 -0.7417873 0.60996646 0.046542965 0.117626734 0.15762234
0.11345639 -0.19496152 0.09785862 -0.15621272 -0.27657378 0.13980556 0.054865442 -0.076372825
-0.3272302 0.021123154 0.3090428 -0.56472313 0.37807742 0.15112112 0.116979964 0.14415196

mean_net.2.bias f4 [128]
00000000: 4580 87bd d7d6 19be ec95 843e 5821 e93d
00000010: 7585 a5bd 0ad2 88bc a300 2abc f90d 323e
00000020: b3a8 8a3d 216f 8a3d 10c0 c93c 9d30 c23d
00000030: 3d79 cd3e 3c75 54bd 0378 66be bd0c e4bd
00000040: 54f8 e3bd d9e8 283e 650b 2c3e a2e3 913b
00000050: 3ec3 cd3c 11ee b4bd 30c0 c3bd 2fbe 423d
00000060: b175 c1bd 61a0 dfbc 7447 bbbe 346c b1bd
00000070: fdb9 a33d 7206 9dbd be9d 5d3d 54e2 4d3e
00000080: 97d2 b3bd caaf 64bd d2f0 6a3e 3489 afbd
00000090: 2111 2bbd 4bbc 5dbd 5cb0 23bc 3f8d 053d
000000a0: bcdb 34bc 8fa6 3fbd b754 9e3d e9b0 a13c
000000b0: f0d2 70bc 4ed8 afbd 0dd0 83bd ded2 b43d
000000c0: 1844 e73b 1fe5 363d 6630 253e abf5 cd3d
000000d0: f9ca ad3c 3eab ba3d 8a67 db3d 41f8 753d
000000e0: ae0f 233d 824d 1b3e 9bb0 1b3d 8c5a cabd
000000f0: 3353 fb3d 688f 8c3d 0a3c 2e3e 18e2 ca3d
00000100: 7899 a63d 7dfc 58be 1693 663c 3d40 013d
00000110: 400a ccbd 015b 07be 7c12 ebbd c63f 1abe
00000120: 4c5e 4fbc 7b52 d0bc 3a11 123d ea29 cebc
00000130: 362f 5dbe 0d71 873d 8507 a03d a1f3 0dbe
00000140: a209 573d 1b9c bfbc 2054 81bc 649c 923d
00000150: e124 ac3d 5a7a 073e 31b4 9cbc 9ec4 0cbe
00000160: a885 a33d 989f 61be df2b ed3d 727e 20bd
00000170: b044 36be 6ca1 183e 36fc 9139 08c4 babd
00000180: e065 063e 188f abbd 1700 223d ea4b 9abd
00000190: 843c adbd 9498 e23d a1f0 0ebe a023 033e
000001a0: 19c7 eb3b 4e7c 4abe 76e9 cbbd c6c5 22bd
000001b0: 0c64 453e a8bc 4c3d ec4a 07be 7cb3 903c
000001c0: 155f a23c cf51 b1bd 0b5b 943c 4141 a4bb
000001d0: b07a 10be da1c 92bd 22f1 7bbe 5dc3 763e
000001e0: 3672 a33b 41ed 2e3d bffd 7fbc a1b0 1fbc
000001f0: 21af bb3c 4715 e6bc 5a2f 9bbd 4bad 91bd
-0.06616262 -0.15023361 0.2589563 0.11383313 -0.080820955 -0.016701717 -0.010376128 0.17388143
0.06770458 0.067594774 0.024627715 0.094819285 0.4013156 -0.051869616 -0.22506718 -0.11135242
-0.11131349 0.16495074 0.16801222 0.004452185 0.025117513 -0.0883447 -0.09558141 0.047544654
-0.09446276 -0.027298154 -0.36577952 -0.08663216 0.07994459 -0.07667245 0.054105513 0.20105869
-0.08780401 -0.055831708 0.22943428 -0.08571091 -0.041764382 -0.05413465 -0.009990778 0.032605406
-0.011038717 -0.046789702 0.07731002 0.019737678 -0.014698729 -0.08586179 -0.06436167 0.08829282
0.007057678 0.0446521 0.16131744 0.10056623 0.021214949 0.09114693 0.10713108 0.060051206
0.039809875 0.15166286 0.03801022 -0.09880552 0.12271728 0.0686329 0.1701509 0.09906405
0.081347406 -0.21190067 0.014073154 0.031555403 -0.099628925 -0.13218309 -0.11478135 -0.1506339
-0.0126567595 -0.025429955 0.03566096 -0.02516647 -0.21600041 0.066133596 0.07813934 -0.13862468
0.05249942 -0.023389867 -0.015787184 0.071587354 0.084054716 0.13230267 -0.01912889 -0.13746879
0.07984477 -0.22033536 0.11580633 -0.039183088 -0.1779964 0.14905328 0.00027844467 -0.09119421
0.131248 -0.08376902 0.039550867 -0.07534011 -0.08458808 0.11064258 -0.1395898 0.12806559
0.007195365 -0.19773981 -0.099566385 -0.039739393 0.19276446 0.049984604 -0.13212174 0.01766371
0.01982073 -0.08658182 0.018109819 -0.0050126617 -0.14109302 -0.07134409 -0.24603704 0.24097963
0.0049879802 0.04270673 -0.015624463 -0.009746701 0.022910656 -0.028086318 -0.07577391 -0.07113131

mean_net.4.weight f4 [4, 128]
00000000: b7f0 bebd a4d4 14be 02e5 fc3e 68c5 adbc
00000010: eb38 d03e 1a42 113e 4bcf 293f cfde d1be
00000020: a8c5 c3be 811e 98be ff33 46be 8eaf 19be
00000030: 3a42 093d 0078 13be 5f7f 10bf 12dd e9bd
00000040: 40cd c43d 94ca ee3d 4596 793d 0db2 aa3f
00000050: 44c7 983e f98b a03d 0d1c 5b3e c219 7f3e
00000060: 259e 803d 7087 aebe a397 81be 0ace 0cbf
00000070: 29bb a9bd 6029 74be d9ac c23e 8f49 363e
00000080: c030 a6bd 9f87 0cbd 56cd e43d e21a 19be
00000090: 4989 94bd 3682 583e 000b 44bd b834 9e3f
000000a0: 9269 14be 6720 b2be 2dba eebe 6446 ebbd
000000b0: 20f9 cfbe c5a5 cf3e b6d6 a83e 17e6 b43e
000000c0: d81b 1fbf d487 6e3e cbdb 4fbf 59c4 e1bd
000000d0: 68d8 50bd 03ef 8c3e f0ee 4c3f 15e4 9fbd
000000e0: cbec 903e 66a5 a3be 45b4 6fbe 0f40 e8be
000000f0: 789b 4a3f b4c8 453e 5ff1 93bd 4124 793e
00000100: 0982 a83e d459 59be 9a43 98bd 1993 b2bd
00000110: a793 263e 90b5 6cbe 7d80 92be b697 713e
00000120: ad5a cfbe afaf 803e 984b bd3e 3fe1 433e
00000130: 77ae fd3e 7bc6 133f 78e0 8c3f 08b4 03be
00000140: 93f8 e53e da5e 04bf 99de 443f 4212 36bf
00000150: 89b2 913e 4731 06bf 2f0c e03d 72ae 823d
00000160: 2339 08bf 6337 febd bb9c 2c3f dd5c 033e
00000170: 8feb 7b3e 6d8c 353d d5b9 673e 0db6 513e
00000180: 875a 97bd 0dec 983e bd5b d23d bea6 9c3d
00000190: f52c 863e f23f db3e 61c7 193e fecd 493e
000001a0: 0618 4d3f 57e4 ed3d 46f5 d53d 060c b1be
000001b0: 62b1 403e 2785 e6be 4393 79be 26ae 443f
000001c0: a4fc 0abf 7578 12be 7df7 4b3f 64a4 20bf
000001d0: 67a7 6ebe af53 76be c403 1d3e cd57 d83d
000001e0: 4968 ecbe d7f7 b13e 7359 2dbf cb9d b53e
000001f0: caee 0ebf 4bfe b1be 22f0 003f c168 d53d
00000200: c1a0 6e3c b5c3 c43d e8e2 d6bd 3295 3dbe
00000210: 852b 6a3e 2452 543e 8c9b 2cbe 7177 e83d
00000220: 1f4a 843c a37f 65bd 13f4 233e 0a2e dbbc
00000230: e0de e13d f7e6 5cbe 7c37 9e3d fb4d 01bd
00000240: e636 2ebe 6ab2 db3e 6b0b 783e 957c 003d
00000250: 1575 92be 3e5d 35be 0305 cd3d e5e9 27be
00000260: 4272 85bd d77c 56be 7589 4c3d eff9 51be
00000270: 01b8 e5bd 9ccf 2f3e 39f3 40ba 10e5 a03d
00000280: b7f2 f6bd def5 783e 1644 0ebc 40e8 ff3d
00000290: a3e1 c13d b4a4 133e b6db 1b3d c54a 50be
000002a0: 3945 383c 6547 963e 70c2 a23d 8f4b 833d
000002b0: a05e a53d 5e69 18bd a58a 0c3d 6659 2abe
000002c0: 7965 4fbe 7b5f 1dbe d26a 853d 4ae4 743e
000002d0: 68f2 b6be d735 0dbe 7f08 cbbd 9ee7 e33c
000002e0: 4d49 61be 72c3 fabd 6e65 1e3f 3948 1dbf
000002f0: 36a6 743d 0bf0 893e 7e03 dbbd 4899 9ebe
00000300: e28c f53c 7c21 623d e2b6 3f3e 9621 15bd
00000310: ba45 2abe c545 553e 2bdf b43d c59c a53e
00000320: 3b32 a7bd 17b3 d0be 3c92 26be aea0 9bbe
00000330: cc11 4c3e 11a2 da3e 98f0 a3bd 8aff c83d
00000340: f2ee b4bc 6fd1 eabd 3f1e 1d3e 21a8 e13e
00000350: 998b 703e 9418 c2bc b10b 843e 5620 79bd
00000360: 2791 9b3d a9f7 703e 50e8 95bc 8fd9 7f3d
00000370: 15bd 8a3e 2cd9 0e3e 06db 01be e9b5 e93d
00000380: bd24 82bd 4c5f ff3d 2359 983d 8077 283e
00000390: a784 48bd 67f7 d7be 3d66 c2be 18cd c43e
000003a0: 63b4 4bba edd2 78be 0394 8c3d d9c9 04bf
000003b0: 63e1 153e d08c 88bd fa8e 55be 41a0 e9ba
000003c0: 2c14 49bd 2f11 71be 724b e0bc 0ae1 bb3d
000003d0: 634e 62bb 7b27 2f3c 032e f8bd b577 313e
000003e0: fe57 ba3c 2c26 31be 4267 cabd ff96 a13d
000003f0: 5a8a 1fbe 93e1 19be 2bb4 903b a9dc 3bbe
-0.093232565 -0.14534241 0.4939347 -0.021212295 0.40668425 0.14185372 0.6633193 -0.40990302
-0.38236737 -0.29710773 -0.19355772 -0.15008375 0.033510424 -0.14401245 -0.5644435 -0.11419119
0.09609461 0.116597325 0.060934324 1.3335587 0.29839528 0.07839198 0.2139742 0.2491217
0.06280164 -0.34087706 -0.25311002 -0.5500189 -0.08287651 -0.23843908 0.38022497 0.17801498
-0.08114767 -0.034309026 0.11171977 -0.14951661 -0.072527476 0.21143422 -0.047862053 1.2359838
-0.14493397 -0.34790346 -0.46626416 -0.11488035 -0.40619755 0.4055616 0.3297631 0.35331795
-0.6215186 0.23294002 -0.8119475 -0.110237785 -0.05098763 0.275261 0.8005209 -0.07807175
0.2830566 -0.31962126 -0.23408611 -0.45361373 0.79143476 0.19314843 -0.07223772 0.24330236
0.3291171 -0.21225673 -0.07434769 -0.08719463 0.16267262 -0.23116136 -0.28613654 0.2359303
-0.40498868 0.25134036 0.36971736 0.19128893 0.4954717 0.5772473 1.1006002 -0.12861645
0.4491621 -0.5170723 0.7690216 -0.7112161 0.28456524 -0.5241894 0.10939824 0.06380929
-0.53212184 -0.12412908 0.6742665 0.12828393 0.24601577 0.044323374 0.22629483 0.20479603
-0.073903136 0.29867592 0.10271404 0.07648991 0.26206174 0.42822224 0.15017463 0.19707486
0.8011478 0.11615818 0.10447173 -0.34579486 0.18817666 -0.45023462 -0.24372582 0.7682823
-0.5429175 -0.14303763 0.7967451 -0.6275084 -0.23306046 -0.2405536 0.15333468 0.10563622
-0.46173313 0.347594 -0.67714614 0.3547195 -0.55833113 -0.34764323 0.50366414 0.10420371
0.014564694 0.09607641 -0.10492498 -0.18513945 0.22868164 0.20734459 -0.16856211 0.11350907
0.016148625 -0.056029927 0.16011076 -0.026755352 0.11028838 -0.21572481 0.077254266 -0.03156851
-0.1701313 0.42909557 0.24223106 0.03136881 -0.28604952 -0.1771135 0.100107215 -0.16397817
-0.065159336 -0.2094606 0.049935777 -0.20505498 -0.112167366 0.1716904 -0.0007360462 0.0785619
-0.12058013 0.24312541 -0.008683225 0.1249547 0.09466865 0.14418298 0.03805133 -0.20341022
0.011246973 0.29351345 0.07947242 0.06410896 0.08074689 -0.03720986 0.03431191 -0.16635665
-0.20253552 -0.15368454 0.06514515 0.2391521 -0.35731816 -0.1379007 -0.0991373 0.027820405
-0.22000618 -0.122443095 0.6187352 -0.6143833 0.059728824 0.2694095 -0.106940255 -0.3097632
0.029974405 0.055207714 0.18722108 -0.036408983 -0.16628161 0.20827396 0.088316284 0.32346168
-0.081638776 -0.40761635 -0.16266721 -0.30396026 0.19928664 0.42701772 -0.08004874 0.09814365
-0.022086594 -0.114657275 0.15343569 0.44073585 0.23490752 -0.02369336 0.2579017 -0.060821854
0.07596045 0.23531975 -0.018299252 0.06246334 0.27097383 0.13950032 -0.12681207 0.1141165
-0.063546635 0.12469348 0.074388765 0.16451836 -0.048954632 -0.4218094 -0.37968627 0.38437724
-0.0007770715 -0.24299212 0.068641685 -0.51870495 0.1463676 -0.06667483 -0.20855322 -0.0017824249
-0.049091503 -0.23541711 -0.027379725 0.09173782 -0.0034531585 0.010690565 -0.12118151 0.17330821
0.022747036 -0.17299718 -0.09882976 0.07890128 -0.1558012 -0.15027456 0.004416009 -0.18345894

mean_net.4.bias f4 [4]
00000000: 8bc9 303e a762 e5bd c316 97be ed0f 053d
0.17264383 -0.11200457 -0.29509553 0.03248589
