test_uav/model/actor_model13-10-2023_17-19-10/450.pt (torch, 79599 bytes, 7 tensors)

logstd f4 [4]
-0.59001815 -0.6913226 -0.5026041 -2.2645125
00000000: 6e0b 17bf 85fa 30bf aaaa 00bf c6ed 10c0

mean_net.0.weight f4 [128, 17]
0.029024594 0.006151811 0.38661027 0.009403276 -0.08812543 0.23519607 -0.1924939 0.12271296
0.06741421 0.23591106 0.18338911 -0.1997089 -0.09874461 -0.08194811 -0.05038884 0.081059985
0.27171242 -0.02745959 0.021062288 0.16098545 0.12650809 0.1972766 0.26830173 0.085959904
0.13887484 0.48756287 0.576426 -0.2077087 0.08213219 0.81197417 -0.07401659 0.19992055
0.60706604 -0.1795414 -0.32918867 -0.19545902 -0.13864371 -0.30762157 0.3487 0.19651113
0.18688665 0.25814793 0.08127272 -0.3718702 -0.22474347 0.0154731395 -0.2441494 0.051851656
-0.25961214 -0.0055403155 0.004345371 0.24453905 -0.010499489 -0.11201968 0.14418633 -0.0016748928
0.029273009 0.14511523 0.16022894 0.32455277 0.35154468 -0.36447254 0.5542911 0.12159495
0.031869326 -0.11058519 -0.115339555 -0.2947247 -0.43473792 -0.30999053 -0.6653939 0.15423214
0.48321015 -0.11939457 -0.002344219 0.030360907 0.29417196 -0.012789166 -0.045583297 0.080701284
0.21169351 0.28733665 0.10753954 0.14157835 -0.021918034 -0.2878086 -0.18773866 0.09329389
-0.5477743 -0.06186362 0.21523164 -0.055130504 -0.03802599 -0.07301362 -0.08359515 0.020828428
-0.078310736 0.14694232 0.12619185 0.09519524 -0.21151404 0.05296681 0.61003256 0.46939424
0.34928122 0.19467492 0.044985414 -0.1076959 0.04397736 -0.1670349 -0.1803304 0.021721777
-0.06929124 0.37733126 -0.5054578 0.13401526 0.03273456 0.00061566144 0.08769175 0.3061609
-0.34064037 0.22356428 0.13317934 -0.4389001 0.12785316 0.10580399 0.12259297 -0.3921516
-0.075612985 -0.03662908 0.15741006 -0.041529126 -0.210958 -0.011342857 -0.09035395 -0.12520836
0.13762996 -0.2363676 -0.26494724 -0.013523148 -0.46266195 -0.40988836 0.1681137 0.26742917
-0.03629422 0.40142655 0.07489571 0.011660103 -0.30448315 -0.041465975 -0.16670723 0.07879588
-0.0847459 0.33531398 0.40433532 -0.37410063 0.11458648 0.3540777 0.0151303 0.14104359
-0.2517641 0.28188005 0.22148053 0.085029416 0.0071864952 0.32188237 0.07228432 -0.1330188
0.110694796 0.1442294 0.21031451 -0.10163659 0.3653634 0.18620712 -0.2164168 0.103914715
0.033700943 -0.34031484 -0.03999896 0.06864169 -0.18606535 0.06748526 -0.4941911 0.13163754
-0.00031561093 0.17821427 0.24645378 -0.45692202 -0.018882638 -0.12978534 0.23084652 -0.038744204
0.20234443 -0.085949324 -0.11661324 -0.38445136 -0.06942346 0.37689748 0.22081418 0.10435924
0.08420943 -0.3022345 0.28838506 0.026142657 0.1122274 -0.54093045 -0.39235526 -0.36566427
0.120778285 -0.118755594 -0.115647756 0.23121059 0.15773909 0.21678482 -0.42349213 -0.0810085
0.012178572 0.24054301 0.19188815 -0.13520502 0.15881093 -0.19787154 0.010267855 -0.055118363
-0.040712908 0.16205952 0.30088302 0.047319442 -0.0032492937 -0.26242584 0.1683018 -0.12834993
-0.34107935 -0.21794884 -0.21684067 -0.31862143 -0.37954614 -0.23939627 0.5693679 0.6118385
0.30464628 -0.19825168 0.26975772 0.2087595 0.12667495 0.12437638 -0.010950934 0.026053127
-0.23893814 -0.097862564 0.34541458 -0.22794928 -0.22023785 -0.13963835 0.118085146 -0.24271058
00000000: fcc4 ed3c 2295 c93b c8f1 c53e 3310 1a3c
00000010: 1b7b b4bd 3dd7 703e 1f1d 45be ef50 fb3d
00000020: 7610 8a3d ab92 713e 5bca 3b3e 7d80 4cbe
00000030: 9d3a cabd 69d4 a7bd 8764 4ebd c702 a63d
00000040: e41d 8b3e eff2 e0bc d28a ac3c 5fd9 243e
00000050: 568b 013e e102 4a3e d85e 893e bf0b b03d
00000060: 3535 0e3e d7a1 f93e a890 133f 97b1 54be
00000070: ec34 a83d 8add 4f3f 0396 97bd f9b7 4c3e
00000080: ae68 1b3f b3d9 37be 6b8b a8be 6926 48be
00000090: 9ef8 0dbe 9380 9dbe ce88 b23e 373a 493e
000000a0: 375f 3f3e f72b 843e 5072 a63d c565 bebe
000000b0: 2723 66be 0d83 7d3c 4d02 7abe 6762 543d
000000c0: e2eb 84be 898b b5bb 9d63 8e3b 7268 7a3e
000000d0: 0c06 2cbc 936a e5bd 95a5 133e 1488 dbba
000000e0: f3cd ef3c 1699 143e 0e13 243e c82b a63e
000000f0: aafd b33e 259c babe 06e6 0d3f c606 f93d
00000100: 6989 023d 7d7a e2bd 2537 ecbd 28e6 96be
00000110: f895 debe 14b7 9ebe 4157 2abf 08ef 1d3e
00000120: 5267 f73e 2485 f4bd 78a1 19bb 70b7 f83c
00000130: b59d 963e a689 51bc 8db5 3abd b746 a53d
00000140: 2fc6 583e ca1d 933e b13d dc3d eaf9 103e
00000150: 738d b3bc a65b 93be 903e 40be de10 bf3d
00000160: f03a 0cbf b564 7dbd af65 5c3e 86d0 61bd
00000170: 24c1 1bbd 2a88 95bd ef33 abbd 61a0 aa3c
00000180: 6161 a0bd 0c78 163e 7038 013e b9f5 c23d
00000190: 2397 58be baf3 583d 182b 1c3f 7154 f03e
000001a0: fdd4 b23e dd58 473e a042 383d ab8f dcbd
000001b0: 9b21 343d 320b 2bbe 88a8 38be def1 b13c
000001c0: 91e8 8dbd 9031 c13e af65 01bf 4c3b 093e
000001d0: ad14 063d 5764 213a bb97 b33d 1fc1 9c3e
000001e0: 6a68 aebe 09ee 643e 2a60 083e 84b7 e0be
000001f0: f0eb 023e c3af d83d 0612 fb3d 18c8 c8be
00000200: fbda 9abd 6008 16bd 1a30 213e 721a 2abd
00000210: 6005 58be 64d7 39bc 7e0b b9bd 9f36 00be
00000220: deee 0c3e 590a 72be 2aa7 87be 3290 5dbc
00000230: 07e2 ecbe e3dc d1be ff25 2c3e 7aec 883e
00000240: 3fa9 14bd c887 cd3e ec62 993d 040a 3f3c
00000250: 37e5 9bbe 3ad8 29bd 4db5 2abe bc5f a13d
00000260: 428f adbd 46ae ab3e 0a05 cf3e 1e8a bfbe
00000270: 51ac ea3d ac49 b53e 14e5 773c bb6d 103e
00000280: 39e7 80be 9552 903e cbcb 623e e723 ae3d
00000290: b17c eb3b c4cd a43e cd09 943d 1536 08be
000002a0: f4b3 e23d dfb0 133e b05c 573e d826 d0bd
000002b0: e910 bb3e 14ad 3e3e 5e9c 5dbe 3dd1 d43d
000002c0: 000a 0a3d bf3d aebe f3d5 23bd 0494 8c3d
000002d0: ea87 3ebe b635 8a3d 9e06 fdbe fecb 063e
000002e0: 9578 a5b9 cd7d 363e 615e 7c3e aff1 e9be
000002f0: c3af 9abc 73e6 04be 0863 6c3e 3eb2 1ebd
00000300: 6133 4f3e 3306 b0bd ecd2 eebd cfd6 c4be
00000310: e32d 8ebd b5f8 c03e 1d1d 623e 4cba d53d
00000320: fe75 ac3d 7bbe 9abe 35a7 933e 2029 d63c
00000330: 7bd7 e53d 6b7a 0abf cae2 c8be 5938 bbbe
00000340: 9b5a f73d 2236 f3bd bbd8 ecbd 78c2 6c3e
00000350: 5b86 213e d7fc 5d3e f6d3 d8be c9e7 a5bd
00000360: a288 473c e850 763e 547e 443e 2f73 0abe
00000370: 559f 223e d69e 4abe 813a 283c cbc3 61bd
00000380: 94c2 26bd eef2 253e 570d 9a3e 08d2 413d
00000390: 1af2 54bb ae5c 86be 4f57 2c3e 2a6e 03be
000003a0: f4a1 aebe fb2d 5fbe 7b0b 5ebe 5922 a3be
000003b0: df53 c2be 4c24 75be 18c2 113f 73a1 1c3f
000003c0: 99fa 9b3e 7d02 4bbe af1d 8a3e 0dc5 553e
000003d0: 14b7 013e 0bb9 fe3d 8c6b 33bc 5e6d d53c
000003e0: 33ac 74be 2b6c c8bd 2eda b03e 896b 69be
000003f0: 0886 61be 5bfd 0ebe a0d6 f13d 1f89 78be

mean_net.0.bias f4 [128]
-0.15086266 0.29997584 0.08390979 -0.020028984 0.033737298 -0.056890752 -0.16612843 -0.022547793
0.2365296 -0.27309072 0.028335497 -0.27232414 0.25503173 -0.1343862 -0.22845925 -0.11524549
-0.16744389 -0.37382197 0.033335455 -0.24239977 0.10295234 0.065335244 -0.16947886 0.096597046
0.16208078 0.0016853834 -0.012395571 -0.07231874 -0.06012773 0.1061057 -0.3211818 0.10717247
0.23949455 0.13057102 0.18932424 0.07296219 0.06103812 0.213851 0.008578093 0.017986547
-0.06467273 0.16670994 0.1316164 -0.06643322 0.06478364 -0.35582066 -0.15209216 -0.11988677
-0.050808724 -0.17823258 -0.28458944 -0.03869417 -0.18836738 0.031802237 0.018311415 -0.09029717
-0.095510945 -0.0044909967 0.26347864 0.021619346 -0.23490576 -0.17876333 -0.21184197 -0.15992105
-0.0053020627 -0.16696705 0.06004731 0.121645674 0.24654143 0.21074381 0.33977577 0.15946227
-0.07563735 0.27735925 0.19278146 0.05713694 -0.10959967 -0.2060646 -0.3266664 0.025693206
0.17743304 -0.028651234 0.30616036 0.004675157 0.4108561 0.09123936 0.107951075 -0.03212562
-0.27895203 0.12926434 -0.049432155 -0.11741814 -0.22291541 0.14911915 -0.07627957 0.043552805
-0.23256548 0.15783516 0.31458166 0.12911937 -0.03909845 0.0011693372 -0.02768129 -0.20028824
-0.11442948 0.04140831 -0.09792708 -0.058574487 0.0402209 0.21766092 -0.19722089 -0.0055541797
0.051302537 0.019808138 -0.26756752 0.16571033 0.12932317 0.07308355 -0.013487047 0.16891104
-0.15378478 0.030662527 0.0730771 -0.1548225 0.039499115 0.25435248 -0.17034242 -0.16536485
00000000: be7b 1abe 6f96 993e e5d8 ab3d d313 a4bc
00000010: 1f30 0a3d 4706 69bd 921d 2abe 26b6 b8bc
00000020: d134 723e 8cd2 8bbe d81f e83c 126e 8bbe
00000030: 8593 823e 899c 09be 39f1 69be d405 ecbd
00000040: 6976 2bbe 9865 bfbe c28a 083d a537 78be
00000050: add8 d23d 7cce 853d de8b 2dbe acd4 c53d
00000060: 81f8 253e 15e8 dc3a cb16 4bbc d91b 94bd
00000070: 7f48 76bd f24d d93d f171 a4be 3d7d db3d
00000080: 0f3e 753e 69b4 053e 37de 413e 336d 953d
00000090: 1c03 7a3d c2fb 5a3e 218b 0c3c 8658 933c
000000a0: 2373 84bd 03b6 2a3e 73c6 063e 240e 88bd
000000b0: 49ad 843d 202e b6be 0cbe 1bbe 3287 f5bd
000000c0: cf1c 50bd 9a82 36be b5b5 91be c77d 1ebd
000000d0: 61e3 40be 1043 023d d201 963c b9ed b8bd
000000e0: 3e9b c3bd 3629 93bb ace6 863e 0e1b b13c
000000f0: 238b 70be bc0d 37be 1aed 58be 58c2 23be
00000100: edbc adbb 69f9 2abe 2bf4 753d 5e21 f93d
00000110: 5b75 7c3e 3acd 573e 17f7 ad3e 144a 233e
00000120: c1e7 9abd 0802 8e3e 8168 453e 6d08 6a3d
00000130: cb75 e0bd 9902 53be d240 a7be 8f7a d23c
00000140: 02b1 353e feb5 eabc 0dc1 9c3e 0f32 993b
00000150: bb5b d23e b4db ba3d 7415 dd3d 2796 03bd
00000160: cdd2 8ebe df5d 043e 5f79 4abd ec78 f0bd
00000170: f043 64be b1b2 183e 7738 9cbd 6d64 323d
00000180: a525 6ebe 8a9f 213e d910 a13e de37 043e
00000190: b225 20bd 7244 993a dfc3 e2bc 5c18 4dbe
000001a0: 015a eabd c39b 293d fe8d c8bd cdeb 6fbd
000001b0: acbe 243d 81e2 5e3e 46f4 49be d6ff b5bb
000001c0: 9c22 523d ad44 a23c 9cfe 88be f8af 293e
000001d0: 4b6d 043e d4ac 953d c6f8 5cbc 04f7 2c3e
000001e0: c279 1dbe fb2f fb3c 72a9 953d ca89 1ebe
000001f0: d3c9 213d 7d3a 823e 3e6e 2ebe 6755 29be

mean_net.2.weight f4 [128, 128]
0.036443193 0.18865488 -0.13029286 0.027403608 -0.14502333 0.05798873 -0.03177954 -0.065386
0.17157404 0.21703565 -0.059187125 0.044964213 -0.048802268 -0.071152695 0.1900273 -0.14611669
-0.16429524 0.0658599 0.12743251 0.019913884 0.010093721 -0.011631002 0.046835702 -0.18759975
-0.022614181 -0.1418537 -0.079382814 0.19824006 -0.08251131 0.24304181 0.073581696 -0.3035289
-0.10145215 0.078242585 0.29163274 -0.22667964 -0.14381763 0.06979618 -0.16235262 0.06178739
0.028260423 -0.06934248 0.12347106 -0.028948031 0.011041483 -0.2729573 0.13557565 0.02996958
0.13744102 -0.010613673 -0.28221965 0.10173199 -0.03382042 -0.0027577893 -0.040302258 0.056903575
-0.04986113 0.12104005 -0.13054849 0.20280187 0.026808139 -0.008345524 -0.12803903 0.055949364
0.03818511 -0.042112 -0.24332617 0.067129135 0.22669435 -0.03710178 0.05215154 0.1854429
-0.02120362 0.25671515 0.048456255 0.09612435 -0.14743598 -0.028090717 -0.11151475 0.17494558
0.06722732 0.048701648 -0.013637419 0.18472153 -0.019056471 -0.19287054 -0.09131401 -0.02545313
-0.10928725 0.1473022 0.08230656 0.20010756 -0.033418123 0.144732 -0.2201543 0.05308208
0.08530897 0.034953244 0.1795486 -0.06785578 -0.13088366 0.07553423 -0.04712703 -0.079051614
-0.009765798 -0.123976246 0.37175432 -0.32928112 -0.2619424 -0.06071667 0.15964596 0.15246508
-0.10659408 -0.09879933 -0.006207661 -0.12795033 0.00045121636 -0.16182631 0.038690727 -0.06226668
0.028340228 0.14048666 0.016589066 -0.10304387 0.018243032 0.2695562 -0.22964065 -0.09575421
0.042725127 0.24101613 0.160407 0.20969677 -0.069571614 0.17126767 -0.0370148 -0.030255497
-0.25141147 -0.0069661946 -0.16681506 -0.4032219 0.057493776 0.0801298 0.4483644 -0.1331
-0.19905554 -0.15122275 0.075405926 -0.011029951 0.31352633 0.10890853 0.010020638 0.026697224
0.04078596 -0.06696543 0.07474678 0.097411126 0.05996136 0.27561364 0.030197123 -0.2934322
-0.05675997 0.22741164 0.037646018 0.07501575 0.043590736 0.006729868 0.007553238 0.12876591
0.063358165 0.059129756 0.23791465 -0.07771239 -0.21632668 -0.007152533 -0.23273294 -0.06505213
-0.034785703 0.06263915 -0.19898158 -0.08299566 0.07435462 -0.112997465 0.077553034 -0.021971464
-0.10836319 -0.20475662 -0.088834174 0.0070235794 -0.10990587 -0.038957857 0.06425692 0.08332507
-0.19921106 0.027007813 -0.035375148 -0.11770684 0.013405875 -0.064880185 0.08645217 0.070170105
0.06371293 0.23058939 -0.043512166 0.1594492 0.07580289 -0.14757313 -0.035387546 -0.06488389
0.060862586 0.042147037 0.007904438 0.20973901 -0.08347793 -0.09539179 -0.0351105 -0.16830476
0.15395972 0.11635073 -0.025586694 0.114883915 -0.064221874 0.20085193 -0.0382181 0.25256246
-0.17007795 0.03423445 -0.11633229 0.0653499 0.16917397 0.19976036 -0.045276593 -0.18276496
-0.0020177173 -0.17626312 -0.27385807 -0.35943955 0.10259259 -0.06214459 0.10898149 -0.008368357
0.12106757 -0.17829306 0.017973067 -0.09951627 -0.12874253 -0.19486932 0.044977337 -0.040146563
-0.24138528 -0.10848862 0.008419808 -0.2609923 0.17787336 0.06407668 0.0054534557 0.022825385
00000000: 7545 153d bf2e 413e 7e6b 05be 887d e03c
00000010: ff80 14be 9785 6d3d 432b 02bd 18e9 85bd
00000020: 1bb1 2f3e 983e 5e3e 336e 72bd 652c 383d
00000030: e3e4 47bd 81b8 91bd 8496 423e 9d9f 15be
00000040: 033d 28be 8ee1 863d ab7d 023e 7122 a33c
00000050: 2260 253c f58f 3ebc cbd6 3f3d 261a 40be
00000060: 6041 b9bc 1942 11be 7593 a2bd 71ff 4a3e
00000070: b1fb a8bd f4df 783e 00b2 963d 2468 9bbe
00000080: 25c6 cfbd a63d a03d e350 953e b51e 68be
00000090: ee44 13be 4df1 8e3d c43f 26be c614 7d3d
000000a0: 6782 e73c 6e03 8ebd 65de fc3d 6c24 edbc
000000b0: 56e7 343c 0fc1 8bbe 58d4 0a3e c482 f53c
000000c0: 57bd 0c3e f9e4 2dbc 187f 90be dd58 d03d
000000d0: 4887 0abd 07bc 34bb fb13 25bd b913 693d
000000e0: 2f3b 4cbd d9e3 f73d 81ae 05be 4bab 4f3e
000000f0: be9c db3c aabb 08bc aa1c 03be 292b 653d
00000100: fd67 1c3d a27d 2cbd 7f2a 79be 007b 893d
00000110: 9022 683e 09f8 17bd da9c 553d bee4 3d3e
00000120: 37b3 adbc 2b70 833e 117a 463d d8dc c43d
00000130: 75f9 16be 811e e6bc d861 e4bd ef24 333e
00000140: 7aae 893d 617b 473d 7b6f 5fbc a427 3d3e
00000150: 511c 9cbc db7f 45be d702 bbbd 1583 d0bc
00000160: fed1 dfbd 63d6 163e 5790 a83d ffe8 4c3e
00000170: 71e1 08bd a034 143e 2170 61be 986c 593d
00000180: 78b6 ae3d 222b 0f3d 97db 373e f9f7 8abd
00000190: 5e06 06be b1b1 9a3d 4608 41bd d0e5 a1bd
000001a0: ba00 20bc 42e7 fdbd 9556 be3e 8997 a8be
000001b0: 501d 86be 0bb2 78bd 3b7a 233e ce1f 1c3e
000001c0: ff4d dabd 4e57 cabd a269 cbbb 6905 03be
000001d0: 3c91 ec39 ccb5 25be 2b7a 1e3d 590b 7fbd
000001e0: c429 e83c bcdb 0f3e cbe5 873c aa08 d3bd
000001f0: 6972 953c 4503 8a3e eb26 6bbe c91a c4bd
00000200: 8b00 2f3d efcc 763e bc41 243e c0ba 563e
00000210: 907b 8ebd cb60 2f3e d59c 17bd 60da f7bc
00000220: 01b9 80be ad44 e4bb 91d1 2abe 1a73 cebe
00000230: 987e 6b3d 181b a43d 0590 e53e 5e4b 08be
00000240: 37d5 4bbe 23da 1abe 6c6e 9a3d f8b6 34bc
00000250: 8686 a03e 6f0b df3d 9a2d 243c 23b4 da3c
00000260: 2e0f 273d 2c25 89bd d714 993d 7c7f c73d
00000270: 0b9a 753d 3b1d 8d3e f55f f73c bf3c 96be
00000280: 247d 68bd 99de 683e b632 1a3d dca1 993d
00000290: 338c 323d 3986 dc3b 2781 f73b 36db 033e
000002a0: edc1 813d 0b32 723d e69f 733e ac27 9fbd
000002b0: be84 5dbe cc5f eabb 8b51 6ebe 0d3a 85bd
000002c0: 747b 0ebd f448 803d d4c1 4bbe a1f9 a9bd
000002d0: 3c47 983d 376b e7bd 20d4 9e3d 80fd b3bc
000002e0: 85ed ddbd b8ab 51be b1ee b5bd 0e26 e63b
000002f0: 5416 e1bd 4692 1fbd 2299 833d 56a6 aa3d
00000300: fcfd 4bbe 7d3f dd3c 88e5 10bd 4910 f1bd
00000310: 51a4 5b3c e7df 84bd d60d b13d 58b5 8f3d
00000320: ed7b 823d a01f 6c3e d039 32bd a746 233e
00000330: 8c3e 9b3d 691d 17be 88f2 10bd d8e1 84bd
00000340: 0c4b 793d 5fa2 2c3d 9e81 013c d3c5 563e
00000350: 7af6 aabd c55c c3bd 07d0 0fbd 1558 2cbe
00000360: 9ea7 1d3e 4b49 ee3d 309b d1bc 4248 eb3d
00000370: c286 83bd 21ac 4d3e 958a 1cbd de4f 813e
00000380: ea28 2ebe 6c39 0c3d a03f eebd 2bd6 853d
00000390: f13b 2d3e fb8d 4c3e f373 39bd bd26 3bbe
000003a0: ae3b 04bb 527e 34be 2037 8cbe 7608 b8be
000003b0: 101c d23d 538b 7ebd b031 df3d 6f1b 09bc
000003c0: 46f2 f73d 7592 36be 413c 933c 30cf cbbd
000003d0: 15d5 03be d38b 47be 283a 383d b970 24bd
000003e0: b42d 77be 482f debd 3cf3 093c c8a0 85be
000003f0: 6f24 363e a23a 833d e7b2 b23b 4dfc ba3c

mean_net.2.bias f4 [128]
-0.086733505 -0.1203355 0.16869208 0.073752515 -0.013889812 0.0037917115 -0.041241914 0.11943395
0.12876941 0.04166668 -0.028189242 0.09490758 0.1679841 -0.04696928 -0.18923484 -0.093524955
-0.07237395 0.1726573 0.09641758 0.015793383 0.021641271 -0.070516184 -0.09053617 0.024656467
-0.10868217 -0.049993582 -0.13624375 -0.07607901 0.096428044 -0.01669656 0.051576257 0.116168626
-0.09331202 -0.06938826 0.12417421 -0.086028114 -0.067073725 -0.07674863 0.0075336704 -0.0021788317
0.024108753 -0.054766286 0.09948539 0.036263358 -0.027176859 -0.15257156 -0.06649985 0.122246265
-0.028504347 0.020532891 0.12011605 0.093684174 0.0058865086 0.12578064 0.016986024 0.08882852
-0.06391345 0.12519506 0.061300896 -0.15352006 0.111694254 -0.1400615 0.07581969 0.05199321
-0.046786714 -0.0657099 -0.01980766 0.045527685 -0.06305215 -0.09430401 -0.077980846 -0.12507728
-0.0006197586 -0.006975661 0.07098154 -0.02130196 0.01473896 0.07500757 0.095853396 -0.11195911
0.051353287 -0.033062465 0.019206822 0.06621235 0.031136254 0.06333009 -0.01618088 -0.1469154
0.08206523 -0.13468133 0.15238434 0.012392973 -0.16915464 0.12482299 -0.0233298 -0.04333882
0.030250313 -0.06112114 0.018443592 -0.10930142 -0.040171407 0.053178538 -0.020984726 0.10691299
0.021488823 -0.11927609 -0.13607344 -0.13430956 0.11960101 -0.022085933 -0.09974865 0.046590973
-0.04204254 -0.07157104 0.06993025 0.03992507 -0.06779026 -0.024336955 -0.03455211 0.0835661
-0.042647813 0.061575826 -0.0200958 -0.030736227 0.013945047 -0.045137804 -0.044881172 -0.078264244
00000000: 56a1 b1bd 7572 f6bd 9ebd 2c3e 8f0b 973d
00000010: 1892 63bc 5d7e 783b 48ed 28bd c999 f43d
00000020: 21dc 033e aeaa 2a3d 20ed e6bc e85e c23d
00000030: 0604 2c3e dc62 40bd c7c6 41be 038a bfbd
00000040: cb38 94bd 13cd 303e 9576 c53d 2061 813c
00000050: 0949 b13c ca6a 90bd 076b b9bd 5cfc c93c
00000060: c294 debd 12c6 4cbd 7b83 0bbe 50cf 9bbd
00000070: 117c c53d 39c7 88bc a041 533d d1e9 ed3d
00000080: 5f1a bfbd 6f1b 8ebd 0c4f fe3d 822f b0bd
00000090: f35d 89bd 632e 9dbd 02dd f63b bbca 0ebb
000000a0: b87f c53c 9d52 60bd ffbe cb3d e388 143d
000000b0: 01a2 debc b83b 1cbe 1331 88bd 405c fa3d
000000c0: f381 e9bc 9834 a83c 67ff f53d 7ddd bf3d
000000d0: 9de3 c03b a4cc 003e 4626 8b3c baeb b53d
000000e0: 0ee5 82bd 2233 003e a616 7b3d 5d34 1dbe
000000f0: f5bf e43d 486c 0fbe 5b47 9b3d d5f6 543d
00000100: 6da3 3fbd e992 86bd ac43 a2bc 3d7b 3a3d
00000110: 7c21 81bd 7622 c1bd 6cb4 9fbd 4214 00be
00000120: 4c77 22ba 1694 e4bb c55e 913d 7381 aebc
00000130: ae7b 713c 929d 993d c94e c43d d14a e5bd
00000140: d357 523d 826c 07bd a057 9d3c 579a 873d
00000150: 7511 ff3c 35b3 813d c48d 84bc fe70 16be
00000160: d111 a83d e7e9 09be a40a 1c3e e50b 4b3c
00000170: e036 2dbe 32a3 ff3d 231e bfbc 0c84 31bd
00000180: 81cf f73c 295a 7abd 0417 973c 6cd9 dfbd
00000190: c68a 24bd bdd1 593d 29e8 abbc 33f5 da3d
000001a0: 5409 b03c 0647 f4bd d656 0bbe 7288 09be
000001b0: 60f1 f43d 8fed b4bc 0549 ccbd 2dd6 3e3d
000001c0: cc34 2cbd d693 92bd 9737 8f3d 7888 233d
000001d0: 9fd5 8abd 4b5e c7bc 8386 0dbd b424 ab3d
000001e0: 79af 2ebd ef36 7c3d f29f a4bc 8aca fbbc
000001f0: c479 643c 6be2 38bd 52d5 37bd 0149 a0bd

mean_net.4.weight f4 [4, 128]
0.16550754 -0.02907553 0.26543766 0.10494077 0.045996673 -0.002250315 0.3125663 -0.14269245
0.06969763 -0.16030216 -0.08827998 0.07159599 -0.05727367 -0.054419175 -0.15366614 0.1103381
-0.064691305 0.020347944 -0.021790413 0.14064047 0.14282013 0.046750147 0.049919188 0.014478312
0.10689126 -0.12855035 -0.1447708 -0.08040751 0.17009103 0.092479706 0.26803932 0.12932637
-0.07597317 -0.08037983 0.040292904 -0.0026981845 -0.20010494 -0.14829399 -0.12299107 0.4327184
-0.19949156 -0.19187091 0.0052612573 -0.07133292 -0.17955111 -0.028001593 -0.11226014 0.19992714
-0.16255794 0.12121547 -0.1833576 -0.011259067 -0.081402645 0.1262564 0.29140604 0.11678999
0.05626292 -0.21607186 0.059281636 -0.15036681 0.18530735 -0.04301673 -0.040688545 0.1880174
0.006723519 -0.113477975 -0.053622846 -0.04938053 0.119746655 -0.05423623 -0.0712721 -0.06008508
-0.056206986 0.062226567 0.13856418 -0.010074223 0.028591791 0.28109992 0.3071975 -0.0063061533
-0.075983174 -0.14164227 0.29984856 -0.13527563 0.033930283 -0.17811224 0.04611737 -0.069100335
-0.06609232 -0.10780941 0.13395153 -0.040070385 -0.047802094 0.08088201 -0.07573232 0.04181537
-0.085333504 0.051824734 -0.018906835 -0.04740657 -0.04018716 0.19557445 0.0584177 0.01165052
0.38356152 0.0017725315 0.21261255 -0.1395201 0.060583543 -0.15512444 -0.01542345 0.2558342
-0.24690805 -0.15510313 0.1211996 -0.1389213 -0.08954457 -0.06740002 0.19234014 0.09338411
-0.21913722 0.101624355 -0.18787856 0.11473171 0.080458686 -0.15167253 0.12314127 -0.13143684
0.13518424 0.120027766 -0.123679005 -0.12502053 0.014803966 0.15750979 -0.05896007 0.07310841
-0.04008131 -0.09410306 0.015464114 0.12393818 0.24851382 -0.19282028 0.08917339 -0.1216057
-0.06395979 0.28212145 0.226506 -0.09056698 -0.22813155 -0.12519363 0.08500346 -0.08358402
0.032216635 -0.107201494 0.071479045 -0.06928942 -0.24119416 0.25770858 -0.02767828 0.040163796
-0.092569895 0.18192713 0.04602438 0.15921834 0.15684849 0.12430104 -0.049689945 -0.27582416
-0.11500776 0.20653342 -0.049304485 0.004690998 0.029477963 -0.009213323 0.060324464 -0.18336377
-0.17221959 -0.06692214 0.019681865 0.29797962 -0.20984954 -0.031979848 -0.11963549 0.015527175
-0.02810086 -0.19940515 0.39183334 -0.3215158 0.045813955 0.3289357 -0.055303697 -0.12844299
-0.03717376 0.050023198 0.06683114 -0.1428994 -0.012147155 0.055280566 0.04827589 0.27066234
-0.14514929 -0.24531358 -0.0003159452 -0.3692945 0.19367623 0.32236505 -0.06467875 0.17940712
-0.084805176 -0.17363407 0.04286171 0.30117932 0.087056555 -0.17899308 0.111438945 -0.010967303
-0.044576433 0.11547653 -0.20084375 0.01896244 0.2667107 0.10753625 -0.24855557 0.105450846
-0.080140755 0.15573646 0.019496365 0.13773376 0.006881896 -0.13540699 -0.32048038 0.25120622
0.03234498 -0.08339534 0.1253763 -0.25226653 0.088674776 -0.09579029 -0.29893783 0.10093987
0.021902133 -0.19495167 0.025568364 0.09249634 -0.0052062552 -0.0050015245 -0.12032767 0.14671056
0.052044068 -0.082874216 -0.08712514 0.09884863 0.107158475 -0.074177615 0.06402386 -0.0842664
00000000: cf7a 293e ce2f eebc 72e7 873e 30eb d63d
00000010: 0267 3c3d 057a 13bb b108 a03e f81d 12be
00000020: a2bd 8e3d 4026 24be 22cc b4bd eba0 923d
00000030: cc97 6abd a4e6 5ebd a85a 1dbe f1f8 e13d
00000040: e07c 84bd bbb0 a63c cf81 b2bc 0e04 103e
00000050: 713f 123e 157d 3f3d 1078 4c3d 7136 6d3c
00000060: cee9 da3d b4a2 03be cc3e 14be b1ac a4bd
00000070: 582c 2e3e 0066 bd3d 733c 893e 226e 043e
00000080: d297 9bbd 2e9e a4bd 2c0a 253d 06d4 30bb
00000090: 4fe8 4cbe 61da 17be bee2 fbbd 448d dd3e
000000a0: 8447 4cbe cf79 44be a066 ac3b fe16 92bd
000000b0: 3fdc 37be 9963 e5bc a5e8 e5bd b3b9 4c3e
000000c0: 9775 26be d13f f83d 18c2 3bbe f377 38bc
000000d0: 6eb6 a6bd 5c49 013e 2c33 953e 972f ef3d
000000e0: f373 663d f141 5dbe 4dd1 723d c2f9 19be
000000f0: 36c1 3d3e 5032 30bd 08a9 26bd a287 403e
00000100: f750 dc3b 2467 e8bd a1a3 5bbd 3d43 4abd
00000110: bc3d f53d cf26 5ebd 1bf7 91bd c61b 76bd
00000120: 4c39 66bd 49e1 7e3d c5e3 0d3e 5b0e 25bc
00000130: 5539 ea3c 54ec 8f3e fe48 9d3e d9a3 cebb
00000140: 119d 9bbd ac0a 11be c085 993e b285 0abe
00000150: 7bfa 0a3d 0e63 36be 91e5 3c3d 7a84 8dbd
00000160: 695b 87bd 2ecb dcbd 972a 093e d820 24bd
00000170: 21cc 43bd 78a5 a53d 8c19 9bbd 9846 2b3d
00000180: 55c3 aebd 2c46 543d 82e2 9abc 642d 42bd
00000190: 4b9b 24bd ab44 483e 6647 6f3d d3e1 3e3c
000001a0: 2d62 c43e 4a54 e83a 1bb7 593e 5bde 0ebe
000001b0: 7326 783d f1d8 1ebe a3b2 7cbc b3fc 823e
000001c0: 77d5 7cbe 5bd3 1ebe 7f37 f83d 6341 0ebe
000001d0: 2563 b7bd 0609 8abd d0f4 443e 2b40 bf3d
000001e0: 8265 60be 6e20 d03d 3d63 40be 75f8 ea3d
000001f0: 86c7 a43d 0b50 1bbe 7d31 fc3d 6197 06be
00000200: bd6d 0a3e 1ed1 f53d 6b4b fdbd 6205 00be
00000210: 558c 723c 3f4a 213e 1d80 71bd ddb9 953d
00000220: 4d2c 24bd 1bb9 c0bd 325d 7d3c 4dd3 fd3d
00000230: 687a 7e3e ae72 45be 8aa0 b63d 690c f9bd
00000240: 5afd 82bd 3972 903e 30f1 673e 2e7b b9bd
00000250: 519b 69be c232 00be 4b16 ae3d 192e abbd
00000260: 97f5 033d 758c dbbd 9b63 923d 9de7 8dbd
00000270: 9afb 76be 61f2 833e 8fbd e2bc cb82 243d
00000280: 4995 bdbd 1b4b 3a3e 0f84 3c3d 220a 233e
00000290: e49c 203e 8b91 fe3d af87 4bbd d338 8dbe
000002a0: 3089 ebbd 7f7d 533e 80f3 49bd f1b6 993b
000002b0: c57b f13c 7af3 16bc c916 773d b6c3 3bbe
000002c0: 555a 30be 7a0e 89bd dd3b a13c c990 983e
000002d0: cce2 56be 4dfd 02bd 7403 f5bd b165 7e3c
000002e0: c633 e6bc dd30 4cbe 619e c83e b89d a4be
000002f0: 6aa7 3b3d 436a a83e 2186 62bd 8f86 03be
00000300: 8343 18bd 20e5 4c3d c4de 883d 3854 12be
00000310: dc04 47bc e06d 623d f1bc 453d 4194 8a3e
00000320: 04a2 14be 7c33 7bbe 72a5 a5b9 2b14 bdbe
00000330: 1053 463e 080d a53e 4b76 84bd 80b6 373e
00000340: 56ae adbd 21cd 31be c38f 2f3d 2d34 9a3e
00000350: b54a b23d f649 37be 1a3a e43d 34b0 33bc
00000360: c795 36bd f57e ec3d fca9 4dbe 1e57 9b3c
00000370: 4e8e 883e f73b dc3d 5a85 7ebe 9df6 d73d
00000380: d620 a4bd 6179 1f3e d7b6 9f3c 140a 0d3e
00000390: 8781 e13b 21a8 0abe 0116 a4be 1a9e 803e
000003a0: 2b7c 043d 2dcb aabd a562 003e 1429 81be
000003b0: 1f9b b53d b32d c4bd 610e 99be 90b9 ce3d
000003c0: 1a6c b33c 69a1 47be bf74 d13c b96e bd3d
000003d0: 3c99 aabb d4e3 a3bb 5a6e f6bd 4b3b 163e
000003e0: 292c 553d f5b9 a9bd aa6e b2bd 2771 ca3d
000003f0: e775 db3d 6fea 97bd f11e 833d dd93 acbd

mean_net.4.bias f4 [4]
0.08821081 -0.14456773 -0.11177085 0.025881808
00000000: dfa7 b43d 9009 14be 1ee8 e4bd 1606 d43c
