test_uav/model/actor_model13-10-2023_17-19-10/5660.pt (torch, 79608 bytes, 7 tensors)

logstd f4 [4]
000000 85 c9 44 c0 c7 c9 82 c0 0c d3 3b c0 a0 6e a8 c0
       -3.0747998 -4.087131 -2.9347563 -5.263504

mean_net.0.weight f4 [128, 17]
000000 a0 25 ac bd 86 59 81 3d fe b5 15 3f 99 50 ab 3c
       -0.08405614 0.06315903 0.58480823 0.020912455
000010 32 91 13 be 6b 7a 8d 3e 68 54 90 be 88 97 2e 3e
       -0.14410856 0.2763246 -0.28189397 0.17049992
000020 5a d3 96 3d 6c f0 81 3e 28 88 1c 3e 94 ea 5f be
       0.07364531 0.2537874 0.15286314 -0.21866828
000030 66 49 fe bd 5a fe 0b be a9 f4 cc bd 4e 83 c8 3c
       -0.124163434 -0.13671246 -0.10007603 0.024476673
000040 95 7b 62 3e 46 4a 91 bd ba 12 1b bf 85 30 09 bd
       0.22117455 -0.07094245 -0.6057545 -0.033493537
000050 aa 89 d7 3c 15 e9 36 3d 44 79 77 bd 8f 87 7b bd
       0.02631076 0.044655878 -0.060418382 -0.061408576
000060 31 06 81 3e 8b 84 ce 3e d7 8d 40 3f 2e 41 35 bf
       0.25200036 0.40335497 0.7521643 -0.7080258
000070 4e b8 9d bf b0 12 4f 3f 80 bf d0 bd 90 39 81 3e
       -1.232187 0.8088789 -0.10192776 0.2523923
000080 5d b1 2d 3f 66 77 d3 bd df f9 16 bf ae a8 ee bd
       0.6784876 -0.10325508 -0.58975023 -0.11653267
000090 fb ef 5a be fa 93 90 be e1 5a dd 3e dd 5f 94 3d
       -0.21380608 -0.28237897 0.43233398 0.07244847
0000a0 4d dd 0e 3e f0 73 c9 3e 16 ed 50 3e df c7 d6 be
       0.13951607 0.39346266 0.20402941 -0.41949365
0000b0 15 c3 87 be 8a e5 6e 3e a3 26 fc bd c0 a4 b5 3d
       -0.26516023 0.2332975 -0.12312057 0.08869314
0000c0 91 09 8a be de ab f2 3c ab 75 fa bb 5c 9e 95 3e
       -0.26960424 0.029622968 -0.0076434216 0.2922238
0000d0 c3 c1 4d 3e ce 14 3e be 99 93 a1 3d 74 b4 d0 bd
       0.20093445 -0.18562624 0.0788948 -0.10190669
0000e0 31 fe c1 3c d9 00 b4 3e 7a bd 02 3e 7e 85 c6 3e
       0.023680778 0.35156897 0.12767592 0.3877372
0000f0 ae d4 bd 3e 51 0f 6d be 15 96 59 3f 0b d1 b7 3e
       0.37076324 -0.23150374 0.8499463 0.35901675
000100 b5 e5 cb 3d 6f 09 0d be 17 e2 2e be 31 ac 95 be
       0.099559225 -0.1377313 -0.17078434 -0.29232934
000110 77 e4 e1 be 6c ea c9 be 38 a5 4c bf 32 83 08 3e
       -0.44119617 -0.39436662 -0.79939604 0.13331297
000120 48 49 ed 3e 1d d2 27 be f6 96 3e 3c b9 e9 96 3c
       0.46344972 -0.16388746 0.011632672 0.018421995
000130 7d 1c ad 3e 8f 3a 98 bd 27 33 01 be e4 9a f3 bc
       0.33810797 -0.07433044 -0.1261717 -0.029736944
000140 77 c1 79 3e f1 23 a7 3e 65 cf a9 3d d7 6a 18 3e
       0.24390207 0.3264461 0.082915105 0.14884506
000150 03 ee 0c bd ca 18 e5 be cc 36 d9 bd 26 b8 83 3e
       -0.034406673 -0.44745475 -0.10606155 0.25726432
000160 eb ef 28 bf af 7c 6c bd a4 1f 42 3e d3 7a 4e 3d
       -0.65991086 -0.057736095 0.18957382 0.050410103
000170 2e 06 aa 3c e9 ba 0c bc ec 9f ab bd be 0e 27 be
       0.0207549 -0.008589485 -0.08380112 -0.16314217
000180 c3 d8 d0 3d 5e 06 68 3d 9d 51 74 3d 4c 03 94 3d
       0.10197594 0.056646697 0.059648145 0.07227191
000190 d5 9c 96 be 7c 39 01 3d 40 c9 3a 3f d7 d5 08 3f
       -0.29416528 0.031548962 0.72963333 0.53451294
0001a0 28 2d f5 3e 3c 63 c5 3e 92 d4 c4 3d 0c 4f 14 be
       0.47886014 0.38552272 0.09610857 -0.14483279
0001b0 59 eb 05 bd 0e 76 09 be 71 98 28 be 40 dd 79 3d
       -0.03269515 -0.1342394 -0.16464402 0.061002016
0001c0 f4 e6 d1 bd 0c 79 b2 3e 69 07 25 bf a4 91 01 3e
       -0.10249129 0.34857976 -0.6446443 0.12653214
0001d0 6a ad 9b 3c 07 88 d4 bc d1 dc d0 3d f0 96 af 3e
       0.019003589 -0.02594377 0.101983674 0.34294844
0001e0 e2 3c ce be ba 87 d3 3e a4 36 d7 3d 21 44 08 bf
       -0.40280825 0.4131449 0.10508469 -0.53228956
0001f0 20 47 31 3e 64 02 53 3d 16 61 6b 3e 48 b3 f6 be
       0.17312288 0.05151595 0.22986254 -0.48183656
000200 d6 18 56 3b 9e 86 db 3d d1 cf f8 3d e8 d6 02 be
       0.0032668612 0.107190356 0.12149013 -0.12777293
000210 23 2b 77 be 78 5f 7b bb b9 5e 0e bd ce 6e 8d bd
       -0.24137549 -0.0038356464 -0.034758303 -0.069059
000220 33 1f b7 3d 9f 19 bd be fe c6 c7 be a0 d9 c8 3c
       0.08941498 -0.3693361 -0.39019006 0.024517834
000230 3d 72 09 bf 5b a9 a2 be 28 a9 50 3e ff 2e a1 3e
       -0.5368994 -0.31769833 0.20377028 0.31481168
000240 b0 5b 0d 38 ad de bd 3e f7 d7 5b 3e 22 44 9d 3d
       3.370241e-05 0.3708395 0.21469103 0.07679011
000250 21 80 4a be cf 81 8d bd 7f d7 4e be 30 87 b6 3d
       -0.1977544 -0.06909525 -0.20199393 0.08912504
000260 60 ef 97 bd 95 b6 b7 3e 84 e9 d7 3e 3f 91 2c bf
       -0.07418704 0.35881487 0.42170346 -0.6740913
000270 b1 6d e8 3d 04 b1 e6 3e 87 db 19 be e6 21 c4 3d
       0.11349047 0.45056927 -0.1502515 0.09576778
000280 fc 91 8c be 7b 07 ef 3d e3 e5 39 3e cf ba b0 3d
       -0.27455127 0.11671349 0.18154101 0.08629381
000290 7d 93 24 3e bb 06 6b 3e dd 0f 1e 3e b6 68 ac bd
       0.16071887 0.22951786 0.15435739 -0.084184095
0002a0 88 be e3 3d 85 46 44 3e 16 32 c4 3e 50 5f 85 be
       0.11120325 0.19167526 0.38319463 -0.2604928
0002b0 58 4b 0d 3e 0f 46 8f 3e bc 1b c2 be 24 4b bb 3d
       0.13798273 0.27983138 -0.37911785 0.09145191
0002c0 78 ed ac ba e3 5a fa be 19 0b f8 bc 6f f1 79 3d
       -0.001319333 -0.48897466 -0.03027873 0.061021265
0002d0 13 83 22 bd fc 8d 46 3e 71 41 14 bf ab c5 f1 3d
       -0.039675783 0.193901 -0.57912356 0.1180528
0002e0 ea 53 fe bb d8 d0 04 3e 43 02 8d 3e 8c 1a 05 bf
       -0.007761468 0.12970293 0.27540788 -0.5199363
0002f0 e7 e4 fe bc d7 80 93 be 15 fe 9d 3e 93 e8 45 bd
       -0.031115009 -0.28809234 0.30857912 -0.048317503
000300 08 8e 73 3e 95 d2 c3 bc 97 22 4b be 13 0b b5 be
       0.2378465 -0.023904124 -0.19837414 -0.3536001
000310 d4 62 af bd 47 b1 ce 3e 62 4e 08 3f e9 72 02 3e
       -0.08563772 0.40369627 0.532446 0.12739147
000320 96 33 1b 3e 31 60 a7 be fb 7e a9 3e c7 3d 5e 3d
       0.15156397 -0.32690576 0.3310469 0.054258134
000330 a0 a7 86 3e 2e 0a e6 be 9a a1 d9 be 48 8a a7 be
       0.26299763 -0.4492964 -0.42506105 -0.32722688
000340 5e 18 7b 3e 6e d5 7c be 32 b2 13 3e f6 3d 9c 3e
       0.24521014 -0.24690792 0.14423445 0.30516022
000350 87 c3 78 3e 61 2b 12 3e a9 c2 f0 be fc 73 85 be
       0.24293338 0.1427436 -0.47023514 -0.26065052
000360 85 6c 1e 3e 2f f7 85 3e 7b ff 34 3e 33 04 91 bd
       0.15471084 0.2616515 0.17675583 -0.07080879
000370 bb 99 1f 3e 3e ec fc be 4a 29 aa 3d 22 76 42 be
       0.15585987 -0.49398988 0.083086565 -0.18990377
000380 39 fa 24 be ba fb f9 3d 45 48 cc 3e 31 ba 32 3e
       -0.16111077 0.12206216 0.39898887 0.17453839
000390 47 08 7b bd cc ca b1 be 0e cd b5 3e 8c 44 af be
       -0.06128719 -0.34725034 0.35508007 -0.34231985
0003a0 11 28 85 bf ad 80 aa be 79 d7 bd be ac c2 70 be
       -1.0402852 -0.33301297 -0.37078455 -0.23511761
0003b0 20 6f 9e be 23 00 7e be e8 28 02 3f 35 77 42 3f
       -0.30944157 -0.2480474 0.5084367 0.75963145
0003c0 56 b8 03 3f f2 f6 7f be c2 79 0b 3e ba 9b 62 3e
       0.5145315 -0.24996546 0.13620666 0.22129717
0003d0 3a 6b 57 3e 1f 05 f0 3d 24 96 5e 3c 32 5a 2f 3d
       0.21036997 0.11719727 0.013585601 0.042810626
0003e0 52 87 b1 bd 27 7a 9c 3c 99 78 97 3e 72 66 85 be
       -0.086683884 0.019101216 0.29584196 -0.26054722
0003f0 ae a2 73 be ff f0 34 be ee a7 c0 3d 93 d3 9d be
       -0.23792526 -0.17670058 0.0940703 -0.3082548

mean_net.0.bias f4 [128]
000000 42 c3 1a be 18 ae 9b 3e fd 55 75 3d 61 24 ae bc
       -0.15113547 0.3040626 0.059896458 -0.021257581
000010 c0 91 1f bb 8c 0b 56 bd 0f 71 fe bd b0 7b 66 3d
       -0.0024348348 -0.052257106 -0.12423908 0.0562703
000020 48 50 62 3e ba 5c 8e be 43 3a 07 3c 57 58 92 be
       0.22100937 -0.2780512 0.008253637 -0.28583023
000030 db ee 5c 3e ca 40 29 bd af 03 5d be 7d 5c c7 bd
       0.21575491 -0.041321553 -0.21583436 -0.097344376
000040 06 02 cb bd b0 e2 a4 be e5 b2 02 3d 34 94 48 be
       -0.09912495 -0.322042 0.03190889 -0.19587785
000050 e1 8e 20 3e fd ea 2e 3d 91 c7 0a be a8 d4 a1 3d
       0.15679504 0.04270457 -0.13552691 0.07901889
000060 43 5d 9d 3d 44 94 a7 3c aa 7a 1e bc 09 44 c7 3c
       0.07683804 0.02045644 -0.0096728 0.024324434
000070 e6 bf 3f bd 03 5f 15 3e 89 c5 73 be 91 e9 82 3d
       -0.046813868 0.14587025 -0.23805822 0.063922055
000080 ea b4 32 3e fa 94 12 3e a1 89 63 3e d1 b9 3d 3d
       0.17451826 0.14314643 0.2222047 0.046319786
000090 32 6b 22 3d c2 e7 46 3e 5a 16 81 bc 22 c7 4f bd
       0.03965301 0.19424346 -0.015757728 -0.050727017
0000a0 04 71 27 bd 7a b2 04 3e 38 60 15 3e 48 10 9f bd
       -0.040879264 0.12958708 0.14587486 -0.07766777
0000b0 b6 a0 de 3d 2a ac b0 be 9c 99 3c be d9 2d 0b be
       0.10870497 -0.3450635 -0.18417972 -0.13591708
0000c0 a5 5b 98 bd 51 29 26 be a8 77 93 be 78 7a 2b bd
       -0.07439355 -0.16226698 -0.28802228 -0.041864842
0000d0 d7 a9 09 be 54 55 01 bd 9a 71 b0 3d 55 44 2c bd
       -0.13443695 -0.031575516 0.08615418 -0.042057354
0000e0 ea 42 67 bd db d0 0f 3d c1 a8 4c 3e 4d 0b d7 bd
       -0.0564603 0.03511129 0.1998625 -0.10500202
0000f0 bd c1 61 be 37 ba 0d be 34 ee 5f be 0e 31 2f be
       -0.22046562 -0.13840567 -0.21868211 -0.17108557
000100 61 f7 16 3d ed 24 23 be e4 52 00 3d 0e bd 31 3d
       0.036857013 -0.15932055 0.03132905 0.043393187
000110 41 7b 81 3e 73 48 3e 3e 64 68 41 3e a1 04 51 3e
       0.25289348 0.18582325 0.18887478 0.20411922
000120 50 c3 cb bd cc b6 85 3e 2f 87 54 3e 94 6a 0a 3d
       -0.09949362 0.26116025 0.20754693 0.033793047
000130 cc fe 21 be fa b0 85 be a6 72 aa be 58 aa 40 3d
       -0.15819854 -0.26111585 -0.33290595 0.047037452
000140 af 05 b6 3d bd 03 81 bd d0 a4 bd 3e 36 7b ea 3b
       0.08887803 -0.06299541 0.37039804 0.007155801
000150 b9 f0 d4 3e 34 65 59 3d d7 1e db 3d 1a 5e b1 3b
       0.41589907 0.05307503 0.106992416 0.005412829
000160 be 94 a3 be 11 bb f0 3d 43 11 77 3c aa 3e c7 bd
       -0.3194942 0.1175443 0.015079799 -0.09728749
000170 fa 5f 58 be fb dc 4a 3e e5 0c d4 bd 01 0a c3 3c
       -0.21130362 0.1981086 -0.10354022 0.023808481
000180 be b8 35 be de a3 43 3e 66 99 a0 3e a1 0c 27 3e
       -0.17746255 0.19105479 0.31367034 0.16313411
000190 5c 10 3f bd ce 54 4c 3d f7 f8 6a bd 70 f7 4f be
       -0.04664646 0.049885564 -0.057366338 -0.20309234
0001a0 18 f3 f4 bd 30 ef b2 3d 2e 71 94 bd 1b 6a ac bd
       -0.11960429 0.08737028 -0.0724815 -0.084186755
0001b0 3e bc 7f 3b 97 e9 70 3e 8c 83 2f be df 5c 16 bd
       0.0039022113 0.23526607 -0.17140025 -0.036709663
0001c0 f1 94 3d 3d ef 87 31 3c 50 90 58 be 45 1e 11 3e
       0.04628462 0.010835632 -0.21148801 0.14171703
0001d0 5a ef 0b 3e c5 fa be 3d 37 42 8c bd 71 53 b0 3d
       0.13665524 0.09325174 -0.06848567 0.08609665
0001e0 66 8f f2 bd da 91 5a 3d e1 fb e9 3c 4a 46 3a be
       -0.11843757 0.05336175 0.028562488 -0.18190876
0001f0 0e ac 7c 3d d8 eb 60 3e b6 a1 32 be 86 77 47 be
       0.06168752 0.21964967 -0.174445 -0.19479188

mean_net.2.weight f4 [128, 128]
000000 1c 0d 26 bd af 18 3a 3e 93 7e 13 be 4b 90 dc 3c
       -0.040539846 0.18173479 -0.14403753 0.026924273
000010 22 a1 f1 bd 89 d6 b2 3d 2a cc ea 3d f6 fd 22 be
       -0.11798312 0.087323256 0.114647225 -0.15917191
000020 66 08 2f 3d ee 62 bf 3e 90 71 8d 3c 32 be d8 3d
       0.04273262 0.37380165 0.017266065 0.10583152
000030 6f f6 4e bd b5 9e da bd 66 33 11 3e ee 80 d8 bd
       -0.050527986 -0.10674802 0.14179763 -0.105714664
000040 20 09 48 be 1a f1 39 3d 5d 13 40 3e 17 84 ce 3c
       -0.19534731 0.045395948 0.18757387 0.02520947
000050 c3 0e 52 3e a4 d7 ea 3b d0 8f f1 3d ce 36 bb be
       0.20513444 0.0071668196 0.11795008 -0.3656525
000060 5b 04 92 bd 76 02 96 be f5 19 11 be 56 aa e5 3e
       -0.07129737 -0.29298753 -0.14170058 0.44856519
000070 6d 2c b7 bd 93 c4 99 3e cf 9a b3 3d c6 b4 a1 be
       -0.089440204 0.30032787 0.08769762 -0.31583232
000080 85 93 b8 bd 8d 96 43 3d 44 8b a7 3e e4 ac aa be
       -0.09012512 0.047751 0.3272344 -0.3333503
000090 61 0e 56 bd 44 e8 d2 3d fa 2f 67 be 9a d0 00 bd
       -0.052259807 0.102982074 -0.22576895 -0.031448938
0000a0 a4 eb 91 bd 8f 1f fc bb 42 ff 90 3e 1b 9d 8a bd
       -0.07125023 -0.0076941918 0.28319746 -0.06768247
0000b0 73 06 82 3d 41 dd 8d be c4 1d 05 3e 0d 28 9e 3d
       0.06348886 -0.27707866 0.12999636 0.07722483
0000c0 6d 55 5e 3d 9d 02 74 3e 54 fd 2b bf a7 3d 0b 3e
       0.054280687 0.23829122 -0.67183423 0.13597737
0000d0 32 40 9c bd 7c ee 0e bd 79 62 89 bd 06 64 a9 3d
       -0.07629432 -0.034895405 -0.06708235 0.08271031
0000e0 0e fb 2d be 30 ce 50 3e b9 33 f6 bd a6 90 5f 3e
       -0.16990301 0.20391154 -0.12021584 0.21832523
0000f0 65 41 cb bb 00 52 9b 3d e9 63 4b be c4 f1 30 3e
       -0.006202864 0.07584 -0.19862331 0.17279726
000100 e0 e7 da bd 1f c6 8f bd e6 f5 94 be f0 45 aa bd
       -0.10688758 -0.070202105 -0.29093856 -0.08314121
000110 d1 b4 10 3f c1 c3 54 bc 01 1b bf 3c c7 38 6b 3e
       0.56525904 -0.0129861245 0.023328306 0.22970878
000120 5e cf be 3c e4 35 80 3e 40 01 a3 3d 17 22 76 3e
       0.02329224 0.25041115 0.07959223 0.24036442
000130 86 11 3f be 7a 81 56 bd 45 8f 43 be 49 64 59 3e
       -0.18659028 -0.052369572 -0.19097622 0.21229662
000140 f8 0a a7 3d 7c 0e fe bd e5 ba c4 3c 63 24 5b 3e
       0.08156389 -0.124051064 0.0240149 0.21400599
000150 a5 81 0e 3e de 52 42 be c1 1d 59 bd a6 29 6a bd
       0.13916643 -0.18976924 -0.05300689 -0.057168625
000160 27 c5 2c be 56 e1 b4 3e b9 28 5c 3d 5b 1c 6e 3e
       -0.16872083 0.35328168 0.053749774 0.23253004
000170 a6 31 07 bc b8 c0 3d 3e 54 e0 91 be 6c 90 a8 3d
       -0.008251583 0.18530548 -0.2849146 0.08230671
000180 99 a4 63 3d f8 2a 1f 3e d4 24 52 3e 5a 03 7c bd
       0.055576894 0.15543735 0.20521861 -0.061526634
000190 2f 25 26 be cc bc 7a 3d c2 95 a9 bd d9 00 23 be
       -0.16225122 0.061215207 -0.08280517 -0.15918292
0001a0 c2 be 6b bd 54 4e 94 be 77 18 b0 3e 8b f2 d9 be
       -0.057554968 -0.2896601 0.34393665 -0.42567858
0001b0 cf f2 62 be 70 41 d7 3d ad 59 84 3e 06 ee 6f 3e
       -0.22162937 0.10510528 0.25849667 0.23430642
0001c0 34 9f af bd aa 4c 26 bd 41 ea 83 bc 4b 37 ee bd
       -0.085752875 -0.040600456 -0.016102912 -0.1163164
0001d0 2b 57 65 3d 71 96 93 be c8 f1 0a 3e 06 bd 33 bd
       0.055991333 -0.28825715 0.13568795 -0.04388144
0001e0 d9 9d 88 3c 41 4b c3 3d 6e 72 3e 3d 3c 70 6b be
       0.01667683 0.09535838 0.046495847 -0.22992033
0001f0 7d 6c 87 3d 64 c3 94 3e 67 71 78 be 59 cb 1c bc
       0.06612489 0.2905532 -0.2426201 -0.009569966
000200 64 6a 15 be a3 c7 5c 3e 3d f6 b2 bc 38 85 eb 3d
       -0.14591366 0.2156053 -0.021845931 0.11500019
000210 f1 42 bf bd c3 57 40 be f0 ec 82 3e 2a a4 1f bd
       -0.0933894 -0.18783478 0.25571394 -0.03897492
000220 d1 b2 1c be 3d 12 81 3e 0d b8 0a be 35 ca 9f be
       -0.15302588 0.25209227 -0.13546772 -0.3120896
000230 fa 8f da bd f4 52 47 3e 1f 3f bf 3e 08 04 4f bd
       -0.106719926 0.19465238 0.37352845 -0.050540954
000240 de ee e1 bd a6 ec 01 be 80 ce 28 3e 75 dd 1b bb
       -0.110318884 -0.1268793 0.16485023 -0.0023783122
000250 c7 e8 d7 3e 0b b9 0e 3e c5 12 b0 bd ec 08 a0 bc
       0.42169783 0.13937776 -0.0859733 -0.019535504
000260 08 2d c4 3e b5 25 7f be 96 1f a7 3e a2 fe 69 bc
       0.38315606 -0.24916728 0.32641286 -0.014281901
000270 77 5b 86 3e 06 04 d4 3e da f4 63 bc 39 ff 57 be
       0.26241657 0.4140932 -0.013913358 -0.21093453
000280 d7 80 51 bd 3e f4 0a 3f 88 45 41 bd 89 59 38 3e
       -0.051148262 0.54278934 -0.04718545 0.18002905
000290 c7 99 26 3e 47 1f 7c 3c e2 54 7d bd ef 72 b6 3d
       0.16269599 0.0153883165 -0.06184853 0.089086406
0002a0 a8 99 a9 be 72 8b b1 3d 01 66 00 bc 68 ec 46 be
       -0.33125043 0.08669175 -0.00783682 -0.1942612
0002b0 15 15 e6 be a6 ae eb bd 8d 0f ab be f4 82 65 bd
       -0.4493796 -0.11507921 -0.33410302 -0.05603309
0002c0 d1 b7 af 3c 88 b0 cf 3e 37 33 aa be e4 36 54 bd
       0.021449955 0.4056437 -0.332422 -0.05181016
0002d0 f7 7a a6 3e fe d9 90 3d d6 ec c3 3d f0 20 91 bc
       0.3251569 0.07072829 0.09566657 -0.017715901
0002e0 d5 66 17 be 28 12 18 be e0 97 01 be e6 c5 ac bd
       -0.14785321 -0.14850676 -0.12655592 -0.08436184
0002f0 3a 4b 00 bf b5 0a ad 3d 91 aa 9d 3e da ed 3c 3e
       -0.50114787 0.08449308 0.30794194 0.18450108
000300 a7 58 77 be d4 4b 5c be 31 fb 2b 3e 1a b7 f2 be
       -0.24154912 -0.21513301 0.1679504 -0.4740532
000310 80 05 03 3e 37 e4 27 bd f4 cc 01 be 07 20 35 3e
       0.12795067 -0.040989127 -0.1267584 0.17687999
000320 1d 05 9f 3d e6 60 de 3e 5d a6 f3 be 0b 87 e9 3e
       0.07764647 0.43433303 -0.47587863 0.45610842
000330 67 be 28 3e 8b 59 39 bd ba 9a cc bd f8 3c 8b be
       0.16478883 -0.04525141 -0.09990449 -0.27194953
000340 77 98 73 3d 1c c5 02 3e 08 e0 3e ba d4 e4 12 3e
       0.059471574 0.12770504 -0.0007281308 0.14345104
000350 49 99 9a bd 44 af 97 be e6 87 d4 ba da 53 36 be
       -0.07548768 -0.29625905 -0.0016214817 -0.17805424
000360 b0 83 e1 3c 33 82 9e 3e a9 21 6b 3c 61 06 f8 3e
       0.027528614 0.3095871 0.014351287 0.48442367
000370 3f 0d 02 be e3 ea 38 3e c7 d8 28 be 08 4b 0a 3f
       -0.12700365 0.18058352 -0.16488944 0.5402074
000380 21 11 a3 bd 44 40 70 be 1a 4f 0a be 73 1a c1 3d
       -0.079622515 -0.23462015 -0.13506737 0.09428873
000390 f4 04 1e bd df 9d 23 3e 75 e3 6a 3c 7b c7 87 be
       -0.038578942 0.15978192 0.014336457 -0.2651938
0003a0 9c 5e bd bd 00 6e 0d bf f2 dc a0 be 91 ad 56 bf
       -0.09246561 -0.5524597 -0.31418568 -0.8385859
0003b0 bb cd 18 3f 3f b3 b8 3d 6d 2d 80 3d 2f e4 2b 3e
       0.5968892 0.090185635 0.06258664 0.16786264
0003c0 1c 51 39 3e 7b b2 8e be ac 50 e2 3c b9 22 0a be
       0.18097347 -0.27870545 0.027626358 -0.13489808
0003d0 01 56 87 be 54 90 9b 3e 06 9f 99 3d d3 8f 75 bd
       -0.26432803 0.3038355 0.075010344 -0.059951615
0003e0 90 ed bd be 16 64 12 3d f6 ec 2c 3e 5f 40 24 bf
       -0.37095308 0.03573998 0.16887268 -0.6416072
0003f0 59 7c cd 3e 0b 41 33 3e 37 22 bf 3d 85 d3 05 3e
       0.40133932 0.1750528 0.09332698 0.1306897

mean_net.2.bias f4 [128]
000000 89 e0 61 bd 20 cf cf bd a5 cd 94 3e 07 f9 dd 3d
       -0.055145774 -0.10146928 0.29063144 0.10838514
000010 b2 96 0d be 47 5e c7 bc 3e ba 4d bd ca d7 2e 3e
       -0.13827017 -0.024336947 -0.050226443 0.17074504
000020 aa 5a 2d 3d 3e ab e0 3d a9 02 f7 3a 3c 17 b2 3d
       0.042322792 0.10970162 0.0018845397 0.08695838
000030 83 66 04 3f a1 99 81 bd 21 1f 6d be c8 3f fc bd
       0.5171892 -0.063281305 -0.23156406 -0.12316853
000040 4f ec e9 bd 25 77 2a 3e 84 12 23 3e d1 98 30 bc
       -0.114220254 0.16647013 0.15925032 -0.010778622
000050 c9 a7 3e 3d d8 e7 9e bd 8b 5f 61 bd 0a 73 33 3d
       0.04654673 -0.077590644 -0.055022758 0.04381088
000060 82 50 ba bd ad ce 8c ba d9 2a ce be 3b 7c cd bd
       -0.09097387 -0.0010742747 -0.40267065 -0.10033461
000070 fc 1c a6 3d 2c fb cb bd 5c bb 0f 3d e9 77 7a 3e
       0.08110997 -0.099600166 0.03509079 0.24459805
000080 e8 27 c3 bd f9 fb 71 bd 80 a8 6c 3e 90 dd cb bd
       -0.09529096 -0.05907819 0.23111153 -0.09954369
000090 11 0a 5a bd a7 6c 62 bd fa e8 de 3b 6b 3c 7a 3d
       -0.053232256 -0.0552794 0.0068026753 0.061092775
0000a0 75 ef 12 bd 89 c3 47 bd f7 e1 af 3d ce 06 b1 3c
       -0.035872895 -0.04877046 0.08588021 0.02160969
0000b0 90 2c 4e bd 9b 6b bb bd c1 10 c5 bd a6 e4 86 3d
       -0.050335467 -0.091513835 -0.09622336 0.0658658
0000c0 c4 36 6a bc 9a b5 15 3d 31 ca 25 3e 7d e6 b6 3d
       -0.014295284 0.036550142 0.16190411 0.08930681
0000d0 19 6e 91 3c cd 9d a8 3d ab 34 1e 3e 9a f2 5f 3d
       0.017752694 0.08233223 0.15449779 0.054674722
0000e0 cb 1d c6 3d a6 5a 30 3e cf 2c 54 3d 10 49 b2 bd
       0.09673651 0.1722208 0.051800545 -0.08705342
0000f0 81 10 0c 3e 2a f3 ae 3d ac b1 3d 3e ca 7a d0 3d
       0.1367817 0.085424736 0.18524808 0.1017967
000100 4e 8f ab 3d 33 06 82 be 52 ba f1 3c 7a 86 de bc
       0.083769426 -0.25395355 0.02950779 -0.027163733
000110 98 23 d6 bd 3b 2a f7 bd 85 31 e6 bd 8d fe 06 be
       -0.10456008 -0.12068602 -0.11239914 -0.13183041
000120 82 42 9c ba 8a 9b 20 bd de 9b af 3d 0b 23 42 bd
       -0.0011921676 -0.039210834 0.08574651 -0.0473967
000130 04 6d 54 be ba 96 e2 3c 08 2d a1 3d fe a3 20 be
       -0.20744711 0.027659763 0.07869917 -0.15687558
000140 7a 8a 59 3d ef 5f ba bc 41 4c 5e 3c 6d 41 b8 3d
       0.053110577 -0.022750823 0.013567985 0.08996854
000150 c5 b5 8b 3d 48 6f 0a 3e 75 9a d4 3c 5d f2 07 be
       0.06821779 0.13519013 0.025952557 -0.13276048
000160 e1 5c 75 3d 26 ed 57 be 8c a7 f3 3d 72 9d 92 bc
       0.05990303 -0.21086559 0.118971914 -0.017897341
000170 f4 e7 3a be e2 6f 0e 3e 1d 54 ce bb d4 af 9c bd
       -0.18252546 0.13909867 -0.006296648 -0.07650724
000180 48 df 09 3e 99 df 82 bd 4d b1 24 3d 18 6c b8 bd
       0.13464081 -0.06390304 0.04020815 -0.09004992
000190 77 b0 b0 bd 47 ba d0 3d 0e 8e 55 be ad d2 0b 3e
       -0.08627408 0.101917796 -0.20854971 0.13654585
0001a0 80 66 71 3c 84 41 3b be 1b aa ab bd 41 62 2b bd
       0.014733911 -0.18286711 -0.083820544 -0.04184175
0001b0 e5 27 26 3e ab 78 8f 3d b6 8b 3f be 03 c1 88 3d
       0.16226156 0.070054375 -0.18705639 0.06677439
0001c0 60 6b a6 bc 18 82 c3 bd a5 7e c1 b9 b0 34 3c 3b
       -0.020314872 -0.09546298 -0.00036906186 0.0028717928
0001d0 b7 5c 1a be ef 6b 6a bd 28 97 83 be 42 83 80 3e
       -0.1507443 -0.05723184 -0.2570126 0.25100142
0001e0 f8 f9 16 3b b4 f0 73 3d c5 a9 ae bc 71 e0 09 3c
       0.0023037177 0.059555724 -0.021321187 0.008415327
0001f0 f0 9d 2b 3c bc 37 40 bd ad 80 aa bd e1 a0 a0 bd
       0.010474667 -0.046928152 -0.08325324 -0.07843185

mean_net.4.weight f4 [4, 128]
000000 13 39 18 be 07 d2 08 be e0 48 f4 3e 45 fd 3c bd
       -0.14865522 -0.13361369 0.4771185 -0.046139974
000010 2b b6 d0 3e b6 6b ef 3d 75 64 24 3f ff cc df be
       0.40763983 0.11690466 0.64215785 -0.43711087
000020 86 1f d1 be 74 be 41 be a2 c6 6e be 6a e3 f6 bd
       -0.40844363 -0.18920308 -0.2331796 -0.120550945
000030 25 0a 1b 3d d1 0e 07 be ca 1e 0e bf b1 65 d5 bd
       0.03785147 -0.13189246 -0.5551573 -0.10419787
000040 15 a5 9a 3d 58 6e 97 3d 69 56 c5 3d f5 2a a6 3f
       0.07551018 0.07394093 0.09635622 1.298186
000050 70 35 9d 3e e6 9f aa 3d f3 3c 80 3e 46 26 81 3e
       0.30704832 0.083312795 0.250465 0.25224513
000060 0b 25 d3 3d 40 b2 c4 be 89 63 6c be a2 08 06 bf
       0.103098 -0.38417244 -0.23084845 -0.5235692
000070 8d b1 ca bd d7 bc 6c be 25 ed bb 3e 7c 4f 30 3e
       -0.098971464 -0.23118912 0.36704364 0.17217821
000080 99 4c d7 bd b3 12 04 bd 0a cd f1 3d cc c7 26 be
       -0.10512657 -0.032244395 0.11806686 -0.16287154
000090 8b 04 12 bc 48 c3 63 3e 93 5a 8b bd 34 45 a3 3f
       -0.008912216 0.22242463 -0.06804385 1.2755494
0000a0 cc f4 3c be 0f 48 ae be ca a8 f5 be a5 3f ff bd
       -0.18452758 -0.3403935 -0.47980338 -0.12463311
0000b0 1c cd de be 79 11 cc 3e fc ac 9c 3e 7d 26 b4 3e
       -0.4351586 0.3985708 0.30600727 0.35185614
0000c0 de 78 2d bf 02 ef 6b 3e fc 6a 4b bf bd 54 b6 bd
       -0.67762554 0.23040393 -0.7946012 -0.08902881
0000d0 a9 c7 43 bd 84 99 93 3e bd f1 4f 3f 89 df 30 bd
       -0.047797833 0.2882806 0.8122824 -0.04318193
0000e0 35 69 92 3e b1 a4 a2 be 6a d5 5a be 44 27 e8 be
       0.28595892 -0.31766275 -0.21370474 -0.45342457
0000f0 ad de 50 3f 60 1d 57 3e f7 e0 d2 bd 3c 2f 8e 3e
       0.81589776 0.210073 -0.10296815 0.27770412
000100 93 5c 94 3e 95 cf 4e be 88 bc df bd b5 67 e5 bd
       0.2897688 -0.20196374 -0.10924631 -0.11201421
000110 59 07 13 3e 05 33 6c be 5f 96 9e be 26 21 66 3e
       0.14358272 -0.23066337 -0.309741 0.22473583
000120 e8 ac ce be 05 06 47 3e d9 ec db 3e cd ed 4a 3e
       -0.40366292 0.1943589 0.42954138 0.19817276
000130 4e 69 06 3f a2 f2 17 3f 1c 6f 8b 3f 85 94 13 be
       0.5250443 0.59354603 1.0893283 -0.14412124
000140 15 37 f8 3e c1 c6 09 bf 3f 0c 42 3f c8 f4 32 bf
       0.48479524 -0.538189 0.75799936 -0.69904757
000150 d0 82 88 3e 44 b1 0f bf 59 6d d0 3d b0 67 92 3d
       0.26662302 -0.5612986 0.101771064 0.07148683
000160 5e f3 0e bf ee 23 17 be b3 db 1b 3f bd 58 18 3e
       -0.558401 -0.147598 0.6088211 0.14877601
000170 0a e8 6a 3e 3d 64 0a 3d 5c b6 4a 3e 42 60 0f 3e
       0.22940078 0.033787 0.19796127 0.14001563
000180 1b 19 9c bd d0 b3 93 3e 15 9f af 3d 73 24 17 3c
       -0.07621976 0.28848124 0.08575264 0.009224999
000190 00 91 92 3e 42 53 d4 3e 0c 9f 0f 3e b3 74 22 3e
       0.2862625 0.4146977 0.14025515 0.1586483
0001a0 c0 99 46 3f cc 9d e2 3d 91 1d da 3d 5e 30 b9 be
       0.77578354 0.110652536 0.106501706 -0.36169714
0001b0 2b 9c 5c 3e 15 1d f2 be 9c e2 69 be 18 60 3e 3f
       0.21543948 -0.47287813 -0.22840351 0.7436538
0001c0 8a d6 10 bf cf 26 06 be b4 f2 4f 3f 64 f8 13 bf
       -0.5657736 -0.13100742 0.8122971 -0.5780089
0001d0 76 85 52 be ba 6d 5c be 31 aa 02 3e 33 94 ee 3d
       -0.20558724 -0.21526232 0.12760235 0.116493605
0001e0 a4 aa ed be 5c 59 b4 3e 64 b8 33 bf 10 a4 d0 3e
       -0.4641925 0.35224426 -0.7020323 0.4075017
0001f0 de 81 08 bf c0 e1 b5 be ec fa f7 3e e5 82 e7 3d
       -0.5332316 -0.35523796 0.48433626 0.11304263
000200 8d 4b 0b 3c f6 a1 c3 3d eb 80 e1 bd 3a 26 37 be
       0.008501899 0.09552376 -0.11010917 -0.17885676
000210 d0 09 6e 3e 5d 56 65 3e a6 ee 28 be dd cb dd 3d
       0.2324593 0.22396226 -0.16497287 0.108298995
000220 8c d4 6d 3c eb 85 c4 bc 49 20 47 3e 57 13 74 bd
       0.014516007 -0.023989638 0.1944591 -0.059588756
000230 5d c9 f8 3d 2d 23 62 be 6b e8 aa 3d 77 d4 8f bc
       0.12147782 -0.22083731 0.083451115 -0.017557366
000240 5e 8c 41 be da 29 db 3e f5 71 86 3e 1b 59 92 3d
       -0.18901202 0.42805368 0.26258817 0.07145902
000250 b8 c0 89 be 7a 59 2a be 69 f1 c5 3d 1b 3d 22 be
       -0.26904845 -0.16635695 0.09665186 -0.15843622
000260 ed b4 5b bd 95 49 54 be c8 f4 16 3d c9 46 45 be
       -0.05363934 -0.20731194 0.036854535 -0.19265284
000270 8c ed f6 bd ef 9c 32 3e 55 6c 09 bc eb 10 a1 3d
       -0.12057027 0.17442678 -0.008387645 0.07864555
000280 ef 11 f6 bd 32 27 78 3e 86 f4 b1 3b e2 f4 0b 3e
       -0.12015139 0.24233702 0.005430761 0.13667634
000290 91 9d aa 3d 03 ba 08 3e c7 31 ec 3c 25 30 3f be
       0.08330835 0.13352208 0.02883233 -0.1867071
0002a0 25 83 0b 3d 61 60 93 3e b5 eb b1 3d 44 3f 86 3d
       0.034060616 0.2878447 0.08687536 0.06555036
0002b0 59 04 8b 3d 75 ff 66 bd fd 84 b4 3c 32 8a 08 be
       0.067879386 -0.056395967 0.02203607 -0.13333967
0002c0 fe ec 2b be 25 cb 17 be f4 22 42 3d 19 48 81 3e
       -0.16789624 -0.14823587 0.047396615 0.2525032
0002d0 f0 bf ab be 9d 18 31 be 82 2f c4 bd e8 9c b2 3c
       -0.33544874 -0.17294545 -0.09579374 0.021803334
0002e0 28 ce 59 be 95 f9 f9 bd 4b a6 20 3f 55 29 17 bf
       -0.21270049 -0.12205807 0.6275374 -0.5904744
0002f0 ba 6d 79 3d 0a 40 8d 3e 39 a9 de bd 07 0b 98 be
       0.06089566 0.2758792 -0.108721204 -0.29695913
000300 ac 61 0c bc 4c 41 46 3d ff f5 4c 3e fd 20 16 bd
       -0.008568209 0.048402116 0.20015715 -0.036652554
000310 73 b4 3c be 5a af 66 3e af ad a4 3d 8f 00 b0 3e
       -0.18428211 0.22527829 0.0804094 0.34375426
000320 1f 58 8e bd c5 e6 c2 be 56 27 32 be 0b eb 96 be
       -0.069504015 -0.38066688 -0.17397818 -0.294762
000330 06 4a 4c 3e 8b 29 e9 3e bd a2 d0 bd 49 79 ce 3d
       0.19950113 0.45539507 -0.1018729 0.10081727
000340 78 dd 5e 3c c1 ce e1 bd 00 36 11 3e b4 1b ce 3e
       0.013602607 -0.11025763 0.14180756 0.4025551
000350 44 0f 64 3e 31 49 d1 bc f4 50 84 3e 5c 6d 72 bd
       0.22271448 -0.025547596 0.25843012 -0.059186324
000360 92 91 a7 3d 24 55 55 3e 41 2c 51 3a a8 fb 96 3d
       0.08182062 0.2083326 0.00079793116 0.07372218
000370 f8 40 88 3e 5c 55 e3 3d 26 4f 0b be 2f b6 ed 3d
       0.26612067 0.111002654 -0.13604411 0.116070144
000380 7f 43 48 bd 0c 2b da 3d 2e d3 a1 3d dd 0c 55 3e
       -0.048892494 0.10652742 0.079016075 0.20805688
000390 ee c7 23 bd b0 00 d7 be e8 17 ca be a3 ca b7 3e
       -0.03998559 -0.41992712 -0.39471364 0.35896787
0003a0 21 62 81 3c ef 32 6c be e1 cd 8a 3d 9c a7 05 bf
       0.015793862 -0.23066305 0.067775495 -0.52208877
0003b0 70 9f 13 3e fd b6 80 bd 9c 78 52 be b4 92 29 bc
       0.1441629 -0.06284902 -0.20553821 -0.010349918
0003c0 4a c2 47 bd 42 bc 70 be ad 40 fe 34 17 5f 95 3d
       -0.048769273 -0.23509315 4.7358245e-07 0.072935276
0003d0 56 6f c6 b9 a6 69 b6 3c 38 b4 db bd ee 25 2e 3e
       -0.00037848455 0.022267174 -0.107277334 0.17006657
0003e0 4b fe 8f 3c e9 93 2b be 6f e2 e0 bd cf 28 d0 3d
       0.017577311 -0.16755642 -0.10980689 0.101640336
0003f0 81 cb 32 be 0d 6f 14 be c8 9c 96 ba 3a 96 36 be
       -0.17460443 -0.14495488 -0.0011490816 -0.17830744

mean_net.4.bias f4 [4]
000000 7d 6f 36 3e 2e 80 d3 bd 7a 2b 74 be dd 00 06 3d
       0.17815967 -0.10327183 -0.2384471 0.032715667
