test_uav/model/critic_model11-10-2023_13-20-10/0.pt (torch, 77735 bytes, 5 tensors)

critic_network.0.weight f4 [128, 17]
0.06269388 -0.047155328 0.17170693 0.1710077 0.1564197 0.028488556 0.14858024 -0.011534498
0.09790305 -0.111809626 -0.27400365 -0.024000024 0.14713131 0.2605272 0.2743547 0.29852146
0.026281495 -0.124025345 0.13268565 0.09335799 0.15593694 0.08354359 0.20339483 -0.06600056
0.114393406 -0.018398007 -0.100245066 -0.007931654 -0.10465447 0.11550588 0.12069651 0.18686101
0.23069926 0.1595454 -0.083047025 -0.117348365 0.06867086 0.04190238 -0.059702773 0.13121642
0.0504047 -0.0022248945 -0.14427438 0.17059804 -0.2635881 -0.05464611 -0.087007076 0.18499114
0.054567207 0.2785522 0.10381325 0.19330794 0.062452577 0.025922248 -0.045746297 0.11069456
0.06857045 -0.028234947 -0.08971877 0.13940221 -0.1264924 0.17768915 0.10977752 -0.032417238
-0.20971549 0.07077371 -0.24998637 -0.20816499 -0.099058785 -0.19659217 -0.26765704 -0.16389152
0.16768329 0.009316412 -0.061078757 -0.045191005 0.014321421 -0.16552074 -0.047022536 -0.06635408
-0.05441639 -0.14766164 -0.24587741 -0.029700207 -0.2232476 -0.20500775 0.088422336 0.20491982
0.15175253 -0.12974958 0.19406188 -0.15452641 -0.028408343 0.069075614 -0.0044250805 0.033505477
-0.26335818 -0.21659832 -0.15449548 0.22342244 -0.09375479 0.038457174 0.0016775923 -0.008044382
0.18491083 -0.026205787 -0.13349019 -0.20780937 0.15683281 -0.21276692 -0.10378861 -0.077039704
-0.0108965095 -0.33834603 0.31911066 0.12026754 0.24577674 -0.13576816 0.029575586 0.059078477
-0.044872947 0.074546345 0.011270062 -0.1694598 -0.14483725 0.0658292 0.09498162 -0.18895479
0.042345997 0.017438048 -0.28438252 -0.1702773 -0.044354714 -0.025042279 -0.26167354 -0.29064402
0.03156442 0.05374997 0.096737705 0.16253078 -0.043699086 0.2508012 -0.049464885 -0.14236279
-0.19517776 0.21876699 0.07576594 0.08724869 -0.2350204 -0.06993403 0.14168964 0.016865019
0.22777617 0.0833136 -0.060949106 0.11391206 -0.14000417 -0.22762738 -0.0559923 0.32311985
-0.08156322 -0.018268341 0.20268197 0.0038110341 -0.077248044 -0.006007929 -0.03914781 0.017102987
0.033604223 0.09964265 0.15474385 -0.015271148 -0.25850078 0.031506527 -0.111772284 0.07079443
0.07220161 -0.020077305 -0.06383294 -0.1847935 -0.2858572 -0.26892474 -0.19596931 -0.25860748
-0.082632 -0.2589457 0.048634842 -0.023769742 -0.0047886437 0.008376286 -0.04895003 0.081979714
-0.101370215 0.3164346 -0.36023226 0.021942971 0.067084946 0.22640698 -0.059488527 0.26854843
0.15764675 0.043137655 0.077958725 0.048200388 0.12060601 0.0034505702 0.23825237 0.0025943783
-0.124439284 -0.14571454 -0.14000516 0.05506791 -0.13832349 0.06972446 0.07529521 0.041469406
-0.045730047 0.07733997 0.25218967 0.30109978 -0.037390023 0.19399862 -0.18039154 0.24193928
0.007422438 0.20312862 0.10031789 -0.112101 -0.1738885 -0.12188359 -0.028989136 0.098243184
0.09634516 -0.051357973 0.12941611 -0.17894614 0.23533829 -0.1235534 0.01878556 -0.07904659
-0.23136382 -0.056049347 -0.12933424 0.003927125 -0.27180144 -0.3262586 0.13048644 -0.005974549
-0.1903962 -0.013487041 -0.17875512 0.022290057 -0.23479226 0.028512957 0.06268211 0.15169609
00000000: a665 803d f225 41bd f1d3 2f3e a41c 2f3e
00000010: 7c2c 203e d560 e93c 6b25 183e 31fb 3cbc
00000020: 6581 c83d 72fc e4bd 354a 8cbe b39b c4bc
00000030: 97a9 163e d263 853e 3878 8c3e ced7 983e
00000040: 4a4c d73c 0001 febd bfde 073e 7932 bf3d
00000050: efad 1f3e e718 ab3d bc46 503e 4d2b 87bd
00000060: 1747 ea3d 6bb7 96bc 494d cdbd c5f3 01bc
00000070: 1555 d6bd 598e ec3d bb2f f73d 7e58 3f3e
00000080: 6d3c 6c3e df5f 233e 8f14 aabd 5754 f0bd
00000090: 4fa3 8c3d d4a1 2b3d e58a 74bd 995d 063e
000000a0: 2975 4e3d 89cf 11bb aabc 13be 41b1 2e3e
000000b0: 05f5 86be 99d4 5fbd c430 b2bd 516e 3d3e
000000c0: dd81 5f3d 659e 8e3e 0b9c d43d 84f2 453e
000000d0: 46ce 7f3d e55a d43c 7860 3bbd d4b3 e23d
000000e0: aa6e 8c3d fa4c e7bc 79be b7bd 74bf 0e3e
000000f0: 3987 01be 25f4 353e 09d3 e03d f0c7 04bd
00000100: a8bf 56be cff1 903d 6dfc 7fbe 3429 55be
00000110: 55df cabd 754f 49be 580a 89be 2ed3 27be
00000120: 2bb5 2b3e dda3 183c b82d 7abd 341a 39bd
00000130: 65a4 6a3c 457e 29be b49a 40bd a6e4 87bd
00000140: b8e3 5ebd 9d34 17be 4ac7 7bbe d94d f3bc
00000150: 059b 64be 8ded 51be c516 b53d 80d6 513e
00000160: 0465 1b3e 13dd 04be 28b8 463e 2c3c 1ebe
00000170: 9db8 e8bc 8477 8d3d 4400 91bb 0a3d 093d
00000180: e2d6 86be f3cb 5dbe 1034 1ebe dac8 643e
00000190: 8302 c0bd 4585 1d3d a8e2 db3a 95cc 03bc
000001a0: 4459 3d3e 85ad d6bc a7b1 08be fbcb 54be
000001b0: c898 203e 92df 59be 1f8f d4bd fec6 9dbd
000001c0: 4687 32bc b13b adbe 7962 a33e d44e f63d
000001d0: e6ac 7b3e cf06 0bbe 8048 f23c 46fc 713d
000001e0: b2cc 37bd c1ab 983d 11a6 383c df86 2dbe
000001f0: 3750 14be 76d1 863d b985 c23d 5d7d 41be
00000200: ff72 2d3d 3dda 8e3c 969a 91be 2c5d 2ebe
00000210: 4aad 35bd 7725 cdbc 13fa 85be 4bcf 94be
00000220: b149 013d ee28 5c3d 6b1e c63d 786e 263e
00000230: d0fd 32bd 0469 803e b19b 4abd 8dc7 11be
00000240: aedc 47be 7404 603e 2c2b 9b3d 71af b23d
00000250: 30a9 70be 9339 8fbd 1717 113e 8228 8a3c
00000260: 283e 693e 52a0 aa3d c5a5 79bd ba4a e93d
00000270: 415d 0fbe 2717 69be 2f58 65bd f76f a53e
00000280: 9e0a a7bd 7da7 95bc dd8b 4f3e 8bc2 793b
00000290: 3934 9ebd 29de c4bb 7459 20bd 901b 8c3c
000002a0: 95a4 093d 7211 cc3d 2c75 1e3e d633 7abc
000002b0: 375a 84be fd0c 013d dee8 e4bd acfc 903d
000002c0: 70de 933d 2979 a4bc d8ba 82bd 823a 3dbe
000002d0: e05b 92be 81b0 89be 2eac 48be 3368 84be
000002e0: f73a a9bd 8894 84be 5435 473d c3b8 c2bc
000002f0: 0eea 9cbb b13c 093c d47f 48bd fbe4 a73d
00000300: 309b cfbd b703 a23e 5d70 b8be bfc1 b33c
00000310: d563 893d 3bd7 673e 3eaa 73bd 2e7f 893e
00000320: 266e 213e 1cb1 303d d3a8 9f3d c56d 453d
00000330: 4900 f73d f622 623b 6ef8 733e 7206 2a3b
00000340: 06da febd 3136 15be 835d 0fbe e48e 613d
00000350: aca4 0dbe b3cb 8e3d 6034 9a3d d3db 293d
00000360: 6e4f 3bbd 6b64 9e3d 011f 813e c029 9a3e
00000370: 4826 19bd 93a7 463e 8fb8 38be eebe 773e
00000380: ec37 f33b f300 503e 7773 cd3d 3695 e5bd
00000390: d40f 32be 1b9e f9bd a07a edbc b933 c93d
000003a0: 9c50 c53d bd5c 52bd a885 043e a83d 37be
000003b0: 85fc 703e 9109 fdbd 2de4 993c 2ee3 a1bd
000003c0: a3ea 6cbe 0094 65bd 3270 04be 1daf 803b
000003d0: 8f29 8bbe 5e0b a7be 3d9e 053e 26c6 c3bb
000003e0: 39f7 42be c0f8 5cbc 950b 37be a399 b63c
000003f0: 626d 70be 0194 e93c 7a5f 803d 3856 1b3e

critic_network.0.bias f4 [128]
0.20201272 0.2194948 0.06886143 0.13032132 -0.18848546 -0.109996855 -0.17612113 -0.06577028
0.1589027 0.21260265 0.16526695 0.26129788 -0.07443117 0.14275412 -0.28054273 0.130558
0.03279136 -0.08440108 -0.20824891 -0.18193352 0.14735568 0.22148916 0.1737673 0.33033702
0.07269345 0.13335799 0.15874793 -0.22833201 -0.24393685 0.2380847 -0.12518482 0.2780289
0.2751918 -0.08952481 0.041880682 -0.23398316 -0.23675147 -0.2886423 -0.03478383 -0.18953627
0.009136636 -0.11168927 0.0059695034 -0.07066156 0.13617466 -0.19904676 -0.13684657 -0.06869242
0.081243925 -0.16982806 0.14052881 -0.03314876 0.20744032 -0.039390087 0.049992796 0.22541898
-0.14248785 0.21725345 0.13892616 -0.19514957 -0.18767746 0.101261355 0.1522862 0.11839715
-0.18961637 -0.16502243 0.12366055 0.14297955 0.12822899 0.027611343 -0.2556048 0.1913241
0.13469972 -0.16520707 -0.11060938 -0.19364223 0.17011523 0.23823501 -0.2919094 -0.019594196
-0.14687355 -0.22800532 -0.062456682 -0.12915063 0.19319217 0.011700477 0.13612314 -0.19145685
0.15772367 -0.13263924 -0.09888687 -0.14869712 0.21075997 -0.24315201 0.1148318 0.16820852
0.12255942 0.104667656 0.19084197 0.09241596 -0.29227751 0.026522884 -0.06488391 0.00678174
0.18257537 0.04446982 -0.0970411 0.07959723 0.01551953 -0.0036130922 0.07549193 -0.26714456
0.17638732 0.087863125 -0.052181084 0.22959699 -0.1664767 -0.006767271 0.033544768 -0.23186918
0.042631786 -0.075199515 -0.14565016 0.21841125 -0.09771968 -0.007639187 -0.24086931 0.24470185
00000000: 6cdc 4e3e 3fc3 603e 3907 8d3d f472 053e
00000010: 5502 41be 0846 e1bd 1959 34be 92b2 86bd
00000020: 64b7 223e 82b4 593e bd3b 293e d6c8 853e
00000030: 5f6f 98bd 232e 123e 4ca3 8fbe ffb0 053e
00000040: 3c50 063d 79da acbd 343f 55be c84c 3abe
00000050: 68e4 163e 0ece 623e 0ef0 313e ef21 a93e
00000060: 4ee0 943d ff8e 083e d18e 223e decf 69be
00000070: 95ca 79be 7acc 733e 7330 00be ce59 8e3e
00000080: f1e5 8c3e c958 b7bd 148b 2b3d 4899 6fbe
00000090: fa6e 72be ecc8 93be 7d79 0ebd cc15 42be
000000a0: d4b1 153c 58bd e4bd d39b c33b 02b7 90bd
000000b0: 5f71 0b3e ead2 4bbe 8221 0cbe 9dae 8cbd
000000c0: 3763 a63d 68e7 2dbe c9e6 0f3e ffc6 07bd
000000d0: 3c6b 543e 8057 21bd 3fc5 4c3d 3cd4 663e
000000e0: 56e8 11be b077 5e3e a942 0e3e 4ad5 47be
000000f0: 852e 40be 1d62 cf3d eaf0 1b3e 347a f23d
00000100: cb2a 42be a4fb 28be be41 fd3d 3b69 123e
00000110: 764e 033e 2f31 e23c a2de 82be 77ea 433e
00000120: b9ee 093e 0b2c 29be 2c87 e2bd 264a 46be
00000130: b032 2e3e e1f3 733e 2675 95be 0284 a0bc
00000140: 0566 16be 3a7a 69be 94d2 7fbd 1040 04be
00000150: 2bd4 453e 5cb3 3f3c dd63 0b3e 440d 44be
00000160: 5082 213e 95d2 07be 3385 cabd 0f44 18be
00000170: 76d1 573e d7fc 78be ef2c eb3d db3e 2c3e
00000180: 6f00 fb3d ff5b d63d 146c 433e 9444 bd3d
00000190: 66a5 95be 8546 d93c dbe1 84bd 5c39 de3b
000001a0: 0af5 3a3e fc25 363d 7cbd c6bd df03 a33d
000001b0: a045 7e3c a1c9 6cbb 839b 9a3d 2cc7 88be
000001c0: e19e 343e 95f1 b33d d5bb 55bd 791b 6b3e
000001d0: de78 2abe fcbf ddbb 3d66 093d 1d6f 6dbe
000001e0: ab9e 2e3d 3402 9abd 5125 15be 33a7 5f3e
000001f0: 4121 c8bd 2552 fabb 72a6 76be 1f93 7a3e

critic_network.2.weight f4 [128, 128]
0.060166135 0.024657184 -0.03456681 -0.14738035 -0.090297095 -0.028262148 -0.035018552 -0.03522062
0.05445667 0.0717031 -0.12781963 -0.06989894 0.13457355 0.026776835 -0.046717606 0.0195118
-0.064486064 -0.04745788 -0.017651247 0.066587895 -0.0070997155 0.10490947 -0.06609622 -0.08299057
-0.024417413 0.04870524 -0.069514304 -0.11993543 -0.08162133 0.019111475 -0.07019704 0.044287417
0.0084355185 0.08757677 0.032219775 -0.07229332 0.017700832 -0.027884312 -0.09885938 0.021006372
0.11429947 -0.014023018 -0.025643488 0.0017931468 -0.05046886 0.0038100528 -0.019754637 -0.026887104
-0.025151512 0.07459015 -0.009653416 0.061416436 0.11923756 0.033766717 0.09517009 0.0049208696
0.06214958 -0.03363069 -0.087930575 -0.06292155 0.036762707 -0.10933236 0.06679191 -0.006484894
0.02080205 0.05102754 0.05362012 0.12850149 0.11102803 -0.037696213 -0.047264364 0.037165932
-0.073254555 -0.1285987 -0.07782639 0.09948516 0.01560995 0.12326156 0.0327175 -0.009842766
0.052751444 -0.08405735 0.013909588 -0.022999128 0.07213943 0.0025917855 0.053795084 -0.06923688
0.088342085 -0.018787635 -0.044314805 0.035373904 -0.032314893 -0.06897096 0.03428087 -0.016063217
-0.017940173 0.032199685 0.07616344 0.041727766 -0.004404807 0.10763631 0.079191275 -0.1278029
0.06271878 -0.1359073 -0.00037627126 -0.14391743 -0.023353186 0.09691564 0.0018919489 -0.13582557
0.045256227 -0.06710933 0.06055373 0.06643084 -0.015661776 -0.06084823 -0.033616666 -0.04379973
-0.003199248 -0.033212278 -0.07746395 0.064240076 -0.002547686 0.04042043 0.0442635 0.07496968
-0.023285188 0.07916171 0.09428156 -0.06393615 -0.050899375 0.062444173 0.058881454 -0.036810227
0.014962312 0.010600974 -0.09165325 0.04809853 0.13229646 0.040220533 -0.048904937 0.021797057
0.0198059 0.0745583 -0.059850253 0.07812149 -0.11709958 -0.02396129 -0.10697394 0.010887177
-0.07409425 -0.031071823 0.03605285 -0.109879315 -0.100766644 0.11234582 -0.089886904 0.1110412
0.021332636 0.01949485 0.023470422 -0.10318222 -0.05605589 0.066464506 -0.0077410615 -0.07018546
0.004615376 0.11213255 -0.10341955 0.015730971 0.010353962 -0.07417969 -0.09683817 0.056268934
-0.077680126 0.06599242 -0.05814381 -0.07948146 0.10424125 -0.03326966 0.103138566 -0.0043971296
0.014566519 0.088540286 -0.08745719 -0.07434775 0.039937045 0.0353478 0.011613248 -0.09102192
0.012333584 0.097660206 0.029211298 0.020129299 0.07009128 -0.042851552 -0.034141656 -0.0501977
-0.055775248 0.022510145 0.016155353 0.0752454 0.05608622 0.020633709 -0.02914851 -0.043675136
0.0485007 0.035725854 -0.05326685 -0.08524657 0.021804 0.032036297 0.058000114 -0.0077486336
0.02091949 0.0017781322 -0.09843582 -0.034654655 -0.013992988 -0.034127172 -0.028122623 0.042830616
0.082354985 -0.0073400973 0.020282492 -0.034612358 -0.023523506 0.10765898 0.091196604 -0.03461741
0.0048048603 -0.1178062 0.018148689 -0.014459712 0.08387602 0.1278448 -0.03847455 -0.006290557
-0.04133084 0.039114214 0.12926842 0.014391296 -0.002949246 0.01842366 -0.07579646 -0.04842669
-0.09714033 -0.0695004 -0.051562916 0.09919992 0.062399678 0.024747457 -0.060124848 0.051438447
00000000: c470 763d ddfd c93c ed95 0dbd e0ea 16be
00000010: afed b8bd 0586 e7bc 9d6f 0fbd 7f43 10bd
00000020: f50d 5f3d 13d9 923d 26e3 02be 2d27 8fbd
00000030: a6cd 093e 185b db3c f65a 3fbd 36d7 9f3c
00000040: 4511 84bd 3263 42bd 5999 90bc 3c5f 883d
00000050: bba4 e8bb c7da d63d 745d 87bd f6f6 a9bd
00000060: 0707 c8bc 257f 473d 845d 8ebd b5a0 f5bd
00000070: 1529 a7bd ab8f 9c3c 77c3 8fbd b966 353d
00000080: 2135 0a3c 735b b33d e2f8 033d 850e 94bd
00000090: 5601 913c a46d e4bc c976 cabd 8e15 ac3c
000000a0: d715 ea3d cdc0 65bc 4b12 d2bc 0608 eb3a
000000b0: 6fb8 4ebd 14b2 793b 7ad4 a1bc 5842 dcbc
000000c0: 8b0a cebc b8c2 983d 5d29 1ebc cd8f 7b3d
000000d0: d232 f43d f84e 0a3d 89e8 c23d 3f3f a13b
000000e0: 8f90 7e3d 56c0 09bd f214 b4bd 03dd 80bd
000000f0: 7e94 163d a5e9 dfbd 32ca 883d 3c7f d4bb
00000100: 1069 aa3c 4102 513d c5a0 5b3d e595 033e
00000110: aa62 e33d 5867 1abd 4798 41bd 4e3b 183d
00000120: 7c06 96bd 61af 03be 7163 9fbd e0be cb3d
00000130: e0c0 7f3c 8f70 fc3d c902 063d 8e43 21bc
00000140: e611 583d 4326 acbd 0ae5 633c ab68 bcbc
00000150: d6bd 933d f2da 293b 3c58 5c3d 11cc 8dbd
00000160: b2ec b43d 87e8 99bc 7183 35bd 3ae4 103d
00000170: 9f5c 04bd a640 8dbd 196a 0c3d 0297 83bc
00000180: 45f7 92bc d1e3 033d 94fb 9b3d bcea 2a3d
00000190: 3356 90bb 6d70 dc3d 092f a23d c3de 02be
000001a0: b472 803d 492b 0bbe 4646 c5b9 175f 13be
000001b0: 2e4f bfbc b57b c63d 45fb f73a dc15 0bbe
000001c0: 985e 393d 9e70 89bd 3007 783d e40c 883d
000001d0: 204d 80bc fe3b 79bd a1b1 09bd 5867 33bd
000001e0: 7aaa 51bb 9909 08bd 6ba5 9ebd 4d90 833d
000001f0: 14f7 26bb e58f 253d a54d 353d b489 993d
00000200: 94c0 bebc 891f a23d b116 c13d f5f0 82bd
00000210: dd7b 50bd 76c5 7f3d ae2d 713d 52c6 16bd
00000220: 7c24 753c b5af 2d3c b3b4 bbbd f702 453d
00000230: b978 073e 49be 243d 8b50 48bd be8f b23c
00000240: fc3f a23c 06b2 983d 8a25 75bd 29fe 9f3d
00000250: e8d1 efbd 784a c4bc 2715 dbbd 2160 323c
00000260: babe 97bd 568a febc 27ac 133d 6808 e1bd
00000270: be5e cebd 9115 e63d a016 b8bd 9269 e33d
00000280: c8c1 ae3c aab3 9f3c 0b45 c03c 3351 d3bd
00000290: dc9a 65bd 8b1e 883d bba8 fdbb 65bd 8fbd
000002a0: 943c 973b c0a5 e53d a1cd d3bd 3dde 803c
000002b0: aaa3 293c 85eb 97bd 1753 c6bd 417a 663d
000002c0: c216 9fbd 0927 873d 3428 6ebd 2dc7 a2bd
000002d0: 707c d53d c445 08bd 503a d33d cc15 90bb
000002e0: 69a8 6e3c 9c54 b53d c11c b3bd a243 98bd
000002f0: 0795 233d dbc8 103d 7e45 3e3c b369 babd
00000300: cd12 4a3c 1302 c83d 884c ef3c 33e6 a43c
00000310: 048c 8f3d 1c85 2fbd 1fd8 0bbd 1a9c 4dbd
00000320: 9674 64bd 3267 b83c 3b58 843c 431a 9a3d
00000330: aaba 653d 0608 a93c dbc8 eebc b3e4 32bd
00000340: aca8 463d 4655 123d 572e 5abd c195 aebd
00000350: 4d9e b23c 7e38 033d 8791 6d3d 40e8 fdbb
00000360: 5a5f ab3c 3710 e93a b898 c9bd 0af2 0dbd
00000370: d842 65bc efc8 0bbd 6a61 e6bc 286f 2f3d
00000380: bba9 a83d 3385 f0bb 7827 a63c b0c5 0dbd
00000390: 5eb4 c0bc 507c dc3d 49c5 ba3d fcca 0dbd
000003a0: 1772 9d3b 6144 f1bd 8fac 943c 6ee8 6cbc
000003b0: 31c7 ab3d bfe9 023e 7d97 1dbd 0421 cebb
000003c0: 874a 29bd 3a36 203d f15e 043e 78c9 6b3c
000003d0: 2348 41bb 37ed 963c 2d3b 9bbd 115b 46bd
000003e0: 82f1 c6bd 3a56 8ebd a333 53bd 5429 cb3d
000003f0: ce96 7f3d 2ebb ca3c 7945 76bd 1fb1 523d

critic_network.2.bias f4 [128]
0.124122545 0.12431935 0.12074116 0.0855759 -0.026243858 -0.08955745 0.09237716 0.11081837
-0.019103216 -0.06539389 0.027530853 0.037425984 0.08393436 -0.04654568 0.060576346 0.026549604
0.06262016 0.075682275 -0.038054496 -0.037240908 -0.004958723 0.017893773 -0.009668227 0.1123801
-0.0074567394 0.042767532 -0.022637596 -0.117747106 0.10267 0.0023144013 -0.06295485 -0.022962267
0.023371061 -0.023527183 -0.05656647 -0.10262167 -0.024108648 0.06422408 0.074650794 0.09454263
-0.027917212 0.009580414 -0.12000098 0.10021244 -0.12861387 0.0067213164 -0.0015586292 0.044407513
-0.03675896 -0.091162324 0.008754876 0.00825504 -0.005844186 -0.042253368 0.0635913 0.014253748
-0.024963325 0.11433994 0.02248631 -0.1279768 -0.013603141 0.029090064 -0.109268315 -0.032925013
0.12547942 -0.0998142 0.005127517 -0.100925915 0.0114378035 -0.002041711 -0.11416591 -0.08615276
-0.120733835 0.00015931905 -0.08203663 0.06761405 -0.10884559 -0.045018863 -0.11238313 -0.018561827
-0.12395755 -0.108067855 -0.02713462 0.021585062 0.039821584 -0.0915955 0.13150682 -0.11317229
-0.041490104 -0.018956091 -0.018169124 -0.028970698 -0.1231536 0.065502144 -0.05365278 -0.1074696
-0.12998056 0.084107846 -0.07553172 -0.108084075 0.020899871 -0.018350584 -0.09644662 -0.031097531
-0.035708267 0.014552194 -0.036119796 -0.12901917 -0.055497985 -0.12496145 0.088720545 0.09106812
-0.08500929 0.007901661 0.07926745 -0.00053852564 -0.005537452 0.010869278 -0.03601159 -0.032489564
-0.04337276 0.034647487 -0.040092725 0.027385233 0.11811753 -0.09946589 -0.123407215 0.07467587
00000000: f633 fe3d 259b fe3d 2447 f73d 6b42 af3d
00000010: 5cfd d6bc e569 b7bd 3d30 bd3d bef4 e23d
00000020: 597e 9cbc 3bed 85bd 6288 e13c fd4b 193d
00000030: c7e5 ab3d afa6 3ebd e71e 783d 8e7e d93c
00000040: 003f 803d 4fff 9a3d 08df 1bbd ec89 18bd
00000050: c97c a2bb f695 923c 7c67 1ebc 8a27 e63d
00000060: aa57 f4bb 022d 2f3d 7b72 b9bc 6525 f1bd
00000070: a644 d23d 36ad 173b 79ee 80bd 5d1b bcbc
00000080: ab74 bf3c 14bc c0bc 3eb2 67bd 4f2b d2bd
00000090: 807f c5bc ea87 833d 84e2 983d 919f c13d
000000a0: a3b2 e4bc 2bf7 1c3c 13c3 f5bd 2e3c cd3d
000000b0: 5bb3 03be 7d3e dc3b eb4a ccba a7e4 353d
000000c0: 9090 16bd 50b3 babd 9d70 0f3c 2640 073c
000000d0: 9680 bfbb de11 2dbd 283c 823d 8d88 693c
000000e0: e37f ccbc 0f2b ea3d 3635 b83c 5a0c 03be
000000f0: b5df 5ebc 494e ee3c 11c8 dfbd 61dc 06bd
00000100: ad7d 003e 636b ccbd bb04 a83b 3fb2 cebd
00000110: a065 3b3c 3ace 05bb d1cf e9bd dc70 b0bd
00000120: 4d43 f7bd e20e 2739 d202 a8bd 3c79 8a3d
00000130: 70ea debd b365 38bd 2029 e6bd f90e 98bc
00000140: 75dd fdbd ae52 ddbd 6c49 debc 28d3 b03c
00000150: f51b 233d 6c96 bbbd b9a9 063e e0c6 e7bd
00000160: 87f1 29bd ce49 9bbc 6ad7 94bc f553 edbc
00000170: f437 fcbd fd25 863d 04c3 5bbd 0619 dcbd
00000180: a019 05be bc40 ac3d 60b0 9abd 2f5b ddbd
00000190: 3536 ab3c f753 96bc ce85 c5bd 40c0 febc
000001a0: d542 12bd 536c 6e3c 5af2 13bd 9a1d 04be
000001b0: db51 63bd caeb ffbd 1eb3 b53d ec81 ba3d
000001c0: 5a19 aebd f875 013c f956 a23d d82b 0dba
000001d0: 8473 b5bb 0e15 323c e480 13bd c713 05bd
000001e0: a3a7 31bd 86ea 0d3d 4538 24bd ff56 e03c
000001f0: 9be7 f13d c6b4 cbbd ecbc fcbd aaef 983d

critic_network.4.weight f4 [1, 128]
-0.12821005 -0.16276166 -0.19620411 -0.119842514 -0.19272247 0.17685956 -0.18164125 -0.18863258
0.18018422 0.19646724 -0.13434552 -0.15793855 -0.14416027 0.14811003 -0.17264852 0.15032385
-0.19178803 -0.16422227 0.13509111 -0.16320837 -0.11804539 0.13318038 0.16233374 -0.173292
0.11482266 0.18606205 -0.16129266 0.19936655 -0.15395124 0.1256704 0.11699233 -0.14873557
-0.1858838 0.14496967 0.15083158 0.15747137 -0.16807319 -0.15366408 -0.18082148 -0.11909652
-0.18841214 -0.18297404 0.15759248 -0.15281598 0.14416078 -0.13009357 0.17170952 -0.13668436
-0.11485397 0.20850495 0.15762043 0.13896146 -0.15892844 0.19854541 -0.13068047 0.18109216
-0.19115974 -0.124651335 0.18893762 0.114223495 -0.1328231 0.14115745 0.13545087 -0.12565257
-0.12882908 0.17684175 0.1784049 0.13861181 -0.13759418 0.18487935 0.19294125 0.17338787
0.17555529 0.17421463 0.16151828 -0.15047777 0.19377366 0.16097412 0.18033439 -0.1639443
0.15111427 0.1228473 -0.14438166 0.13058758 0.15257436 0.18080752 -0.16477422 0.1715921
-0.17011733 0.17590632 -0.17038202 0.17085722 0.13032293 -0.14896813 0.12702663 0.15729819
0.14981295 -0.17857026 0.17470427 0.14763087 -0.16231471 -0.11929213 0.13840692 -0.16456756
0.13866486 -0.13478701 0.1746257 0.12938812 0.1566482 0.1360275 -0.15902175 -0.18751867
0.12784213 0.13832165 -0.18154015 -0.15837649 0.15880042 0.14593244 -0.14633074 0.20032936
0.15288976 -0.1290196 0.12608115 0.13678673 -0.16547877 0.16014104 0.1753817 -0.16836883
00000000: 7f49 03be feaa 26be bbe9 48be fe6f f5bd
00000010: 0a59 45be ac1a 353e 2a00 3abe e628 41be
00000020: 3682 383e b52e 493e df91 09be a5ba 21be
00000030: c09e 13be 28aa 173e c6ca 30be 7fee 193e
00000040: 1564 44be e229 28be 5355 0a3e 1820 27be
00000050: c8c1 f1bd 7060 083e d13a 263e 7573 31be
00000060: 2528 eb3d 0d87 3e3e e729 25be bf26 4c3e
00000070: 65a5 1dbe beaf 003e ad99 ef3d 234e 18be
00000080: 5358 3ebe ee72 143e 9873 1a3e 2d40 213e
00000090: 611b 2cbe 1e5a 1dbe 4429 39be e0e8 f3bd
000000a0: 1def 40be 8c5d 3bbe ec5f 213e cb7b 1cbe
000000b0: e29e 133e 4037 05be 9fd4 2f3e fcf6 0bbe
000000c0: 8f38 ebbd 5282 553e 4067 213e ea4b 0e3e
000000d0: 23be 22be 7d4f 4b3e 1ad1 05be 3970 393e
000000e0: 61bf 43be 3349 ffbd dd78 413e 02ee e93d
000000f0: c702 08be 948b 103e a2b3 0a3e 11ab 00be
00000100: c5eb 03be 0116 353e c6af 363e 41f0 0d3e
00000110: 7de5 0cbe 0351 3d3e 6492 453e 978c 313e
00000120: c4c4 333e 5265 323e 0c65 253e d816 1abe
00000130: 9a6c 463e 66d6 243e 94a9 383e 04e1 27be
00000140: b3bd 1a3e 5d97 fb3d c9d8 13be c0b8 053e
00000150: 743c 1c3e 9b25 393e 93ba 28be d7b5 2f3e
00000160: 3d33 2ebe c920 343e a078 2ebe 32f5 2e3e
00000170: 6073 053e 1a8b 18be 4513 023e c712 213e
00000180: 9168 193e 1fdb 36be ade5 323e 8c2c 173e
00000190: d435 26be 6f4f f4bd 8bba 0d3e 6684 28be
000001a0: 29fe 0d3e 9b05 0abe 14d1 323e 527e 043e
000001b0: 6368 203e cb4a 0b3e 99d6 22be e504 40be
000001c0: 0ce9 023e 31a4 0d3e a9e5 39be 722d 22be
000001d0: 949c 223e 506f 153e bad7 15be 2423 4d3e
000001e0: 228f 1c3e b71d 04be 6b1b 013e d211 0c3e
000001f0: 4473 29be 03fc 233e 4397 333e e168 2cbe
