test_uav/model/critic_model11-10-2023_13-20-10/150.pt (torch, 77815 bytes, 5 tensors)

critic_network.0.weight f4 [128, 17]
0	0x3de9b95e	0.11412309
1	0xbec2ee3a	-0.38072377
2	0x3e7d4998	0.24735105
3	0xbe1423d9	-0.144668
4	0x3e85327b	0.26015076
5	0xbe0ef8a7	-0.13962041
6	0x3e8a58ff	0.27021024
7	0xbd40e8fd	-0.047097195
8	0xbe48655c	-0.19569916
9	0xbf2dda57	-0.67911285
10	0xbf7fe7f3	-0.999633
11	0xbef83f81	-0.4848595
12	0xbe27eee0	-0.16399717
13	0x3de1eb42	0.110312
14	0x3de82bc0	0.1133647
15	0x3e4c767c	0.19967073
16	0x3d937455	0.07199923
17	0x3e9a1eff	0.30101773
18	0xbe96dff5	-0.2946774
19	0x3e93d9e1	0.28877166
20	0x3e637ffb	0.2221679
21	0xbeb788c0	-0.3584652
22	0xbddd3072	-0.10800256
23	0xbe62eab0	-0.22159839
24	0xbdbbf952	-0.091784135
25	0x3d566aff	0.052348133
26	0xbf2779bf	-0.65420145
27	0x3ece61f5	0.4030911
28	0x3f30f64d	0.69125825
29	0xbf518516	-0.818437
30	0x3dc28979	0.09498877
31	0x3d1accbb	0.037792902
32	0x3e166a09	0.14688887
33	0x3d8258cc	0.06364593
34	0xbe572fb6	-0.21014294
35	0x3d693055	0.05693086
36	0x3e90bd67	0.28269503
37	0xbdf8c7df	-0.121474974
38	0x3dd11ac0	0.1021018
39	0xbdadccf4	-0.08486357
40	0x3e70c37c	0.23512071
41	0xbd97e10a	-0.0741597
42	0xbef12db2	-0.47105175
43	0xbeeec5a3	-0.4663516
44	0x3e2c22b7	0.16810118
45	0x3eb4b0c4	0.3529111
46	0xbfec92e6	-1.848233
47	0x3d19e0c9	0.037567887
48	0x3e00f615	0.12593873
49	0x3c123d76	0.008925786
50	0x3dc3c928	0.09559852
51	0x3edc51f8	0.43031287
52	0x3c24e867	0.010065175
53	0xbe429db3	-0.1900547
54	0x3e6ab54a	0.22920719
55	0x3ec46ceb	0.38364348
56	0x3d5af581	0.053456787
57	0xbe9af95c	-0.3026837
58	0xbe04a1d1	-0.12952353
59	0x3e809524	0.25113785
60	0x3ee95e87	0.4557993
61	0x3d2dab55	0.042399723
62	0xbe3e2cdb	-0.18571799
63	0x3ea35616	0.31901616
64	0xbdf54612	-0.119762555
65	0xbd897876	-0.06712429
66	0xbdaf2a77	-0.085530214
67	0xbd9b588d	-0.07585249
68	0x3df64a2e	0.120258674
69	0x3e3f7e8f	0.18700622
70	0xbecd856d	-0.40140858
71	0xbd8cfabf	-0.068837635
72	0x3db7b180	0.08969402
73	0x3e0383b0	0.12843204
74	0x3d8c4f5b	0.06851073
75	0xbdce0321	-0.100591905
76	0xbd5664b3	-0.052342128
77	0x3e9a502d	0.30139294
78	0x3ebf6be6	0.37387007
79	0x3ecda7d8	0.40167117
80	0xc0090bf8	-2.1413555
81	0xbc97654d	-0.018480921
82	0x3bc71fb5	0.006076778
83	0x3cb4762d	0.022029007
84	0xbd98d9aa	-0.07463391
85	0x3eaa145c	0.33218658
86	0xbebc121e	-0.36732572
87	0x3eb8da0b	0.36103854
88	0x3e764a8d	0.24051876
89	0xbd4e4a0d	-0.05036359
90	0xbdee48c2	-0.11634971
91	0xbd502195	-0.050813276
92	0xbdfa9610	-0.122356534
93	0x3eb74c25	0.3580028
94	0xbf45926d	-0.77176553
95	0x3e2b3bd5	0.16722043
96	0xbdf2fa21	-0.118641146
97	0x3d8498de	0.064744696
98	0xbd800e7d	-0.062527634
99	0xbda84356	-0.08215968
100	0x3d15bdc7	0.03655794
101	0xbd461999	-0.048364256
102	0x3ecd101f	0.40051362
103	0x3dfc74c3	0.12326958
104	0x3e2bcb94	0.16776878
105	0x3f2552fb	0.64579743
106	0xbe0c2c44	-0.13688761
107	0xbdf157b2	-0.11784305
108	0x3ddcca0a	0.107807234
109	0xbd2adf47	-0.04171684
110	0x3e2b5e6f	0.16735242
111	0x3f57bf22	0.8427602
112	0x3cc18f11	0.02362779
113	0xbf195b8e	-0.59905326
114	0x3efe1b38	0.4963014
115	0x3da75103	0.08169749
116	0xbcc50e44	-0.024054654
117	0x3ddba54b	0.107248865
118	0xbd23af87	-0.039962318
119	0x3ebc532b	0.36782202
120	0x3e0c8a03	0.13724522
121	0xbf0f7836	-0.560428
122	0xbe14c4f1	-0.14528252
123	0x3e63d763	0.22250132
124	0xbe85d6f3	-0.26140556
125	0xbe2cd1cd	-0.16876908
126	0x3d9ba3db	0.07599612
127	0x3e152ccb	0.14567868
128	0x3d44c79f	0.048041936
129	0xbeabca17	-0.3355262
130	0xbf68b695	-0.909036
131	0xbf5ae2d1	-0.85502344
132	0xbe7296f5	-0.23690398
133	0xbee4e5e7	-0.44706652
134	0xbf0272b9	-0.509563
135	0xbf0efdaa	-0.5585581
136	0xbed050e5	-0.40686718
137	0x3d426933	0.047463607
138	0x3e6ca202	0.23108676
139	0xbd2b7d10	-0.041867316
140	0xbf3a0d2d	-0.72676355
141	0x3e8e7bc0	0.2782879
142	0xbe035015	-0.12823518
143	0xbf3c7af3	-0.73625106
144	0xbe58c729	-0.21169724
145	0x3f66fbb8	0.9022784
146	0x3e8e18eb	0.27753386
147	0x3e60b2ae	0.21943161
148	0xbf9357ed	-1.1511208
149	0xbdebf145	-0.11520628
150	0x3db74c21	0.08950067
151	0xbe8e9e35	-0.27855077
152	0x3d272ae9	0.040812407
153	0xbe8b3d8b	-0.2719539
154	0x3eb55108	0.35413384
155	0xbe8970fa	-0.26844007
156	0xbea1bacb	-0.31587824
157	0x3df67928	0.120348275
158	0xbe5546a9	-0.20827736
159	0x3ddd335a	0.1080081
160	0x3ac7099e	0.0015185361
161	0xbe848193	-0.25880107
162	0x3f3eab44	0.7448008
163	0x3d01aed2	0.031660862
164	0x3d209b9d	0.039210904
165	0x3d802ee1	0.062589414
166	0x3c81b68c	0.015834115
167	0x3a5592d7	0.0008147186
168	0xbc5aca9a	-0.013353968
169	0xbbdba923	-0.0067035123
170	0x3e0f3c22	0.13987783
171	0x3e788d28	0.24272597
172	0xbed8f779	-0.42376307
173	0xbd3c2393	-0.045932364
174	0x3b03a110	0.0020085014
175	0x3de30da3	0.110865854
176	0xbd0e94c0	-0.034809828
177	0x3d95dc84	0.07317451
178	0xbe29510d	-0.16534825
179	0x3ec3f8d0	0.38275766
180	0xbeb3c298	-0.351094
181	0xbeaa6445	-0.33279625
182	0xbfaa75c0	-1.3317184
183	0xbdb7bbdf	-0.089713804
184	0xbd363000	-0.04447937
185	0xbd9ca52f	-0.07648694
186	0xbd45a678	-0.04825446
187	0x3f8f9e80	1.1220245
188	0xbe1b1db4	-0.1514805
189	0x3f924875	1.1428362
190	0xbdebe1fa	-0.11517711
191	0x3e04ba69	0.12961735
192	0x3ea94363	0.33059224
193	0xbd3a8db8	-0.04554531
194	0xbe08bc6a	-0.13353124
195	0x3dc74cb5	0.097314276
196	0x3f58638f	0.84526914
197	0x3e5638d3	0.20920114
198	0xbf494844	-0.78625894
199	0xbd794236	-0.06085416
200	0x3d890371	0.066901095
201	0x3e390161	0.18066932
202	0x3d904441	0.070442684
203	0x3e19c96b	0.15018241
204	0x3deee5c6	0.116649196
205	0x3f1e2521	0.61775404
206	0x3eec51f4	0.46156275
207	0xbd6508b8	-0.055916518
208	0x3e2c37e5	0.16818197
209	0xbd5a1d40	-0.05325055
210	0x3e31a1f2	0.17346933
211	0xbe8a25bb	-0.2698191
212	0xbdeca402	-0.115547195
213	0xbf2e0ef2	-0.67991555
214	0x3e09b581	0.13448144
215	0xbef1d5a0	-0.47233295
216	0xbe5405af	-0.20705293
217	0xbd4d6b3f	-0.050151106
218	0xbd6c188e	-0.057640605
219	0xbd8093ce	-0.062781915
220	0xbdec9650	-0.11552107
221	0x3f7977d2	0.97448456
222	0x3e49535a	0.19660702
223	0x3f855d53	1.0419105
224	0x3ea27cbf	0.317358
225	0x3d11532f	0.03547972
226	0x3e9862d8	0.29762912
227	0x3d93081a	0.071792796
228	0xbe375998	-0.17905271
229	0xbd9b039a	-0.07569046
230	0x3ed23cdb	0.41062054
231	0xbe93a270	-0.28834867
232	0xbf03a6f6	-0.5142664
233	0xbf0d2c78	-0.5514598
234	0xbd6d46d4	-0.057928875
235	0xbd921fc8	-0.07134968
236	0xbc8cb9ea	-0.017178494
237	0xbd846a63	-0.06465604
238	0x3f737862	0.95105565
239	0xbf0c1088	-0.54712725
240	0xbf92a617	-1.1456937
241	0x3e938eac	0.28819788
242	0xbe073679	-0.13204373
243	0xbe447103	-0.19183736
244	0xbdc4b6fe	-0.096052155
245	0x3e2ff8d6	0.17184767
246	0x3ebfaf32	0.3743835
247	0xbed0c0f9	-0.40772226
248	0xbf48134a	-0.7815443
249	0xbf2773b3	-0.6541092
250	0xbec6b74a	-0.38811713
251	0x3d08028e	0.03320556
252	0x3d0521f7	0.032503095
253	0x3cd88880	0.026432276
254	0xbc21f1e5	-0.009884332
255	0xbe51e703	-0.2049828

critic_network.0.bias f4 [128]
0	0xbf011a7a	-0.50431025
1	0xbf05bdf7	-0.5224299
2	0xbf485e14	-0.7826855
3	0x3f6bd962	0.92128575
4	0x3f0d5486	0.552071
5	0xbf964754	-1.1740518
6	0x3f69e65b	0.9136712
7	0x3d8e2794	0.06941143
8	0xbe21221a	-0.15735665
9	0x3f8664e4	1.0499539
10	0x3f72bb1b	0.9481675
11	0x3f93e5ea	1.1554539
12	0xbf986c67	-1.1908082
13	0x3f19ec93	0.6012661
14	0xbf5ef6a7	-0.8709511
15	0xbdc1c8ea	-0.094621494
16	0x3f8062d6	1.0030162
17	0x3f2157a4	0.63024354
18	0x3f3efd58	0.7460532
19	0xbf0b9a93	-0.54532737
20	0xbf4bba6a	-0.7958132
21	0xbf3f4d4c	-0.7472732
22	0x3ef9299c	0.48664558
23	0x3f9929af	1.1965846
24	0x3f828d41	1.0199357
25	0xbee32125	-0.44361225
26	0x3f4c6f90	0.7985773
27	0x3f383e8e	0.7197045
28	0x3e36488e	0.17801115
29	0xbf2bc859	-0.6710258
30	0x3f33b35d	0.7019556
31	0x3f96413c	1.1738658
32	0x3f843c9b	1.0330995
33	0xbf8d8612	-1.105654
34	0xbf9ca5c3	-1.2238086
35	0xbfa08d49	-1.2543117
36	0xbe179fb4	-0.14807016
37	0xbfad0769	-1.3517886
38	0x3f369901	0.71327215
39	0x3dca1360	0.09866977
40	0xbf5787e8	-0.8419175
41	0xbf4de746	-0.8043102
42	0x3f77c495	0.96784335
43	0x3f279daf	0.6547498
44	0x3fa5ec90	1.2962818
45	0x3f5907db	0.8477761
46	0x3f3f7a4d	0.7479599
47	0x3f12754c	0.5721023
48	0x3f8a1438	1.078742
49	0x3f5c61e0	0.86086845
50	0x3f906b7a	1.1282799
51	0xbf0dca07	-0.55386394
52	0x3f685151	0.9074908
53	0xbf41d8c9	-0.7572141
54	0xbf670630	-0.90243816
55	0xbe512c14	-0.2042697
56	0xbf5a47b7	-0.8526568
57	0xbf0acc8c	-0.54218364
58	0xbf11f078	-0.5700755
59	0x3ef88092	0.4853559
60	0x3e686213	0.22693662
61	0x3f8c99c7	1.0984429
62	0xbf73bcc7	-0.95209926
63	0x3f7014f0	0.9378195
64	0xbf97ceb4	-1.1859956
65	0xbf69f03c	-0.91382194
66	0xbf21b277	-0.6316294
67	0xbf141a71	-0.57852846
68	0xbebdd855	-0.3707911
69	0xbe27e427	-0.16395627
70	0xbf510a75	-0.8165658
71	0x3f9dc0b0	1.2324429
72	0x3f7a26bb	0.9771535
73	0x3f4cd772	0.80016243
74	0x3f5962de	0.84916484
75	0xbf8aedad	-1.0853783
76	0x3f8cdbd6	1.1004589
77	0xbf00e804	-0.5035403
78	0xbf7765df	-0.9663982
79	0x3f810350	1.0079136
80	0xbf58797b	-0.84560364
81	0x3e3ad81c	0.18246502
82	0x3f540afe	0.8282927
83	0x3f577d13	0.84175223
84	0xbf4ac23b	-0.7920262
85	0x3f7af98d	0.98037034
86	0xbf3ede6c	-0.7455814
87	0x3f288896	0.65833414
88	0xbe050734	-0.12991029
89	0xbf53a4b8	-0.82673216
90	0x3f1e7b97	0.61907333
91	0x3f116b92	0.56804764
92	0x3f9d9ccf	1.2313479
93	0x3f38f3c7	0.72246975
94	0x3f8a6cfb	1.0814508
95	0xbf5ca078	-0.86182356
96	0xbf86f695	-1.0544001
97	0xbdf642dc	-0.12024471
98	0x3fb6b283	1.4273227
99	0xbf70b742	-0.9402963
100	0xbfa99e7c	-1.325149
101	0xbf4dc424	-0.8037741
102	0x3f93511b	1.1509126
103	0x3f26aeff	0.6511077
104	0xbf4262fc	-0.7593229
105	0x3f8b4a82	1.0882113
106	0x3e86725c	0.26259124
107	0x3f66dd40	0.9018135
108	0x3f425e71	0.75925356
109	0xbee8b6c0	-0.45451927
110	0xbf4f8744	-0.81065774
111	0x3e237f1e	0.1596646
112	0xbf495155	-0.7863973
113	0xbf54d666	-0.83139646
114	0xbf959c6b	-1.168836
115	0xbf0875bb	-0.5330464
116	0xbfacd683	-1.3502964
117	0xbf514962	-0.817526
118	0x3f7fe130	0.99952984
119	0x3f5686f0	0.8379965
120	0xbf32d533	-0.69856566
121	0xbf0a09be	-0.53921115
122	0xbdc6ef99	-0.097136684
123	0x3f4c3008	0.7976079
124	0xbf8c214f	-1.0947665
125	0xbf85b8b8	-1.0446997
126	0xbf8f4db9	-1.1195594
127	0xbed47c40	-0.41501045

critic_network.2.weight f4 [128, 128]
0	0x3eac7890	0.33685732
1	0x3f3c8678	0.73642683
2	0x3f0b1a2c	0.5433681
3	0xbf4a7956	-0.79091394
4	0xbf383d6e	-0.71968734
5	0x3faed339	1.365821
6	0xbe8c9da6	-0.27464026
7	0xbf35482b	-0.70813245
8	0x3f366490	0.71247196
9	0xbf94cb18	-1.1624479
10	0xbf5970a9	-0.8493753
11	0xbfa64fda	-1.2993119
12	0x3f94610f	1.159212
13	0xbf6ac8ad	-0.91712457
14	0x3f8c6f16	1.0971401
15	0x3f5b73d7	0.8572363
16	0xbf583702	-0.84458935
17	0xbf2ae1fe	-0.66751087
18	0xbf69cd06	-0.91328466
19	0x3ea1c3a9	0.3159459
20	0x3effd3b4	0.49966204
21	0x3f467731	0.7752562
22	0xbf53670c	-0.8257911
23	0xbf6cffd2	-0.9257785
24	0xbf90b8ce	-1.1306398
25	0x3f4a048b	0.7891318
26	0xbf5e3e44	-0.8681376
27	0xbf64a5a4	-0.8931525
28	0xbf69b2bd	-0.9128836
29	0x3f01a111	0.5063639
30	0xbf9ce755	-1.2258097
31	0xbfa54cc2	-1.291405
32	0xbfacea39	-1.3508979
33	0x3f31f8b3	0.6952011
34	0x3faf37c8	1.3688898
35	0x3fa0676e	1.2531564
36	0xbf348a0b	-0.70523137
37	0x3f7ac414	0.9795544
38	0xbf3db53d	-0.7410467
39	0xbf497fbf	-0.7871055
40	0x3f5f2f24	0.87181306
41	0x3f81fdc3	1.0155567
42	0xbfab2289	-1.3369914
43	0xbf1bb04f	-0.608159
44	0xbf9cefae	-1.2260644
45	0xbeff759f	-0.49894425
46	0xbf3dbbd1	-0.7411471
47	0xbfa52c02	-1.2904055
48	0xbfd85772	-1.6901686
49	0xbf6669a8	-0.9000497
50	0xbfaaec47	-1.3353356
51	0x3fa738a6	1.3064163
52	0xbf93ae3c	-1.1537547
53	0x3f8d89b1	1.1057645
54	0x3f65bc03	0.8974001
55	0x3f424676	0.75888765
56	0x3f0f1b44	0.5590098
57	0x3f7f4660	0.9971676
58	0x3f8b2490	1.0870533
59	0xbeacc5c4	-0.33744633
60	0xbf72389f	-0.94617647
61	0xbf600c40	-0.8751869
62	0x3f3cc91d	0.73744375
63	0xbf8012cb	-1.0005735
64	0x3fedf0ee	1.8589151
65	0x3f65191c	0.8949144
66	0x3fa12ed1	1.2592412
67	0x3f3fa6f6	0.7486414
68	0x3f63e1d2	0.8901645
69	0xbf95dd80	-1.1708221
70	0x3e946494	0.28982985
71	0xbf8bd642	-1.0924761
72	0xbf4de266	-0.8042358
73	0xbf492643	-0.7857401
74	0xbf8bf520	-1.0934181
75	0x3f7c49fa	0.9855038
76	0xbf45c1fd	-0.7724913
77	0x3f41e9ea	0.7574755
78	0x3f6dc4ca	0.928784
79	0xbf1c1f4b	-0.6098525
80	0x3ebbe43c	0.36697567
81	0xbf5c1af0	-0.85978603
82	0xbfa01253	-1.2505592
83	0xbf52d857	-0.8236136
84	0x3f79a79e	0.9752139
85	0xbf294fe2	-0.66137516
86	0x3f29310e	0.66090477
87	0xbf06a0ee	-0.5258931
88	0x3f24e77f	0.64415735
89	0x3f7e9b49	0.99455696
90	0xbf4158e6	-0.75526273
91	0xbf23db7e	-0.64006793
92	0xbf2f1c07	-0.6840214
93	0xbf5eee03	-0.8708193
94	0xbf42380b	-0.75866765
95	0x3f68b08b	0.90894383
96	0x3f60fe0c	0.87887645
97	0x3f15097e	0.5821761
98	0xbf449dcf	-0.76803297
99	0x3f8b0d34	1.0863404
100	0x3fb49716	1.4108608
101	0x3f0fd2f1	0.56181246
102	0xbf0b504b	-0.5441939
103	0xbf2c8cc5	-0.674023
104	0x3f13abd5	0.5768407
105	0xbfdfdc5a	-1.7489121
106	0xbf3aaa79	-0.7291637
107	0xbfa5f493	-1.2965263
108	0xbf732af0	-0.9498739
109	0x3f94b553	1.1617836
110	0x3f390c83	0.72284716
111	0xbf56ffc7	-0.83984035
112	0x3f3c4cb1	0.7355452
113	0x3f8944d0	1.0724125
114	0x3f82f549	1.0231105
115	0x3f7306b4	0.94932103
116	0x3f802dc8	1.0013971
117	0x3f4cb8af	0.79969305
118	0xbf45a508	-0.7720494
119	0xbf5313b1	-0.8245192
120	0x3f0c8eb6	0.5490526
121	0x3e8a4df3	0.27012596
122	0xbf32c0cd	-0.6982544
123	0xbd332c6d	-0.04374354
124	0x3fa7f4c0	1.3121567
125	0x3f58abed	0.8463734
126	0x3fb1ca01	1.3889772
127	0x3ebe47cb	0.3716415
128	0x3e964ce1	0.2935553
129	0x3efe9caa	0.497289
130	0x3f21e38a	0.6323782
131	0xbf5b15a6	-0.8557991
132	0xbf84ea24	-1.0383954
133	0x3fab1469	1.3365604
134	0xbf529b70	-0.8226843
135	0xbf0920cc	-0.5356567
136	0x3edbc405	0.4292299
137	0xbf6dda80	-0.9291153
138	0xbf8dc644	-1.1076131
139	0xbf5c1210	-0.8596506
140	0x3fa69b37	1.3016118
141	0xbf83ad6e	-1.0287302
142	0x3f9aee1b	1.2103914
143	0x3f40e8da	0.75355303
144	0xbf7271f2	-0.94705117
145	0xbf76975a	-0.96324694
146	0xbf654a46	-0.8956646
147	0x3e4a4026	0.19751033
148	0x3f0bf2df	0.54667467
149	0x3f4db5db	0.80355614
150	0xbf7bb52d	-0.9832333
151	0xbf4fee1d	-0.8122271
152	0xbf845d0f	-1.0340899
153	0x3f52f12d	0.82399255
154	0xbf9efd2c	-1.2421012
155	0xbf7cde17	-0.9877638
156	0xbf739f27	-0.9516472
157	0x3f37617e	0.71633136
158	0xbf80159e	-1.0006597
159	0xbf76de24	-0.9643271
160	0xbf55315a	-0.8327843
161	0x3f7322bd	0.9497488
162	0x3fcd2923	1.6028179
163	0x3f9120a4	1.1338086
164	0xbf3718aa	-0.7152201
165	0x3f60c654	0.87802625
166	0xbf37fb87	-0.71868175
167	0xbf4f7932	-0.81044304
168	0x3f319d98	0.69381094
169	0x3f99502e	1.1977594
170	0xbf9fe35e	-1.2491262
171	0xbf0ba684	-0.5455096
172	0xbfa3d4c2	-1.2799304
173	0xbf6abdb7	-0.9169573
174	0xbeb915ec	-0.36149538
175	0xbf3463ca	-0.70464766
176	0xbf7dacfe	-0.9909209
177	0xbf1ca69d	-0.6119173
178	0xbf997db4	-1.1991487
179	0x3f697509	0.91194206
180	0xbf7b0d38	-0.98067045
181	0x3f43977c	0.7640302
182	0x3f835bf8	1.0262442
183	0x3f4ccce9	0.8000017
184	0x3f273e53	0.65329474
185	0x3f0ef6bb	0.5584523
186	0x3f976f1b	1.1830782
187	0xbf04a79e	-0.51818264
188	0xbf601ffd	-0.8754881
189	0xbf42751c	-0.75959945
190	0x3f2f681d	0.6851824
191	0xbf8fe8dc	-1.1242938
192	0x3fc11b29	1.5086414
193	0x3fb513c6	1.4146659
194	0x3fabd95b	1.3425707
195	0x3f86d176	1.0532672
196	0x3fab7dc9	1.3397762
197	0xbf9c3a0b	-1.2205213
198	0x3ed646cd	0.41850892
199	0xbf9d80bb	-1.230491
200	0xbfa2dc0b	-1.2723402
201	0xbf16eda1	-0.5895634
202	0xbf65b261	-0.8972531
203	0x3f3b1a84	0.73087335
204	0xbf50076c	-0.81261325
205	0x3f041c1a	0.5160538
206	0x3fb48700	1.4103699
207	0xbf6ef684	-0.93344903
208	0x3f1af2dd	0.6052683
209	0xbf31d233	-0.69461364
210	0xbf8696b9	-1.0514747
211	0xbf6cc46e	-0.9248723
212	0x3f033a83	0.51261157
213	0xbf19abeb	-0.6002795
214	0x3edd1caa	0.4318593
215	0xbf2963bc	-0.6616781
216	0x3ecf6e27	0.40513727
217	0x3f25da56	0.6478628
218	0xbf6f25a5	-0.93416816
219	0xbf21946c	-0.631171
220	0xbf39b893	-0.7254726
221	0xbead4c62	-0.33847338
222	0xbf6e5afd	-0.9310759
223	0x3ebe8a8c	0.37215078
224	0x3f8d4a6d	1.1038338
225	0x3f309d74	0.68990254
226	0xbf83a4cf	-1.028467
227	0x3f44807e	0.76758564
228	0x3f9e8f6b	1.2387518
229	0x3f5943e8	0.8486924
230	0xbf9c1bd8	-1.2195997
231	0xbe7e8b4b	-0.24857824
232	0x3f48bf30	0.7841673
233	0xbfbf3baf	-1.4940089
234	0xbf502614	-0.813081
235	0xbf8f848a	-1.1212323
236	0xbf3bf9a2	-0.73427784
237	0x3f9ca860	1.2238884
238	0x3f3a1379	0.7268596
239	0xbf4f0945	-0.8087352
240	0x3ee8206e	0.45337242
241	0x3f66139f	0.8987369
242	0x3f95e963	1.1711849
243	0x3f40187f	0.7503738
244	0x3f692ccc	0.9108398
245	0x3f9124ef	1.1339396
246	0xbf657f98	-0.8964782
247	0xbf30c669	-0.6905275
248	0x3f5a77db	0.85339135
249	0x3eb75450	0.35806513
250	0xbf238a35	-0.6388276
251	0xbe88d5d3	-0.26725635
252	0x3f2ba124	0.67042756
253	0x3f57fd45	0.84370834
254	0x3f30e776	0.6910318
255	0x3e91c511	0.28470662

critic_network.2.bias f4 [128]
0	0x3f27a68a	0.65488493
1	0x3f12e621	0.573824
2	0x3f345108	0.70436144
3	0x3f3784f0	0.7168722
4	0x3ed61e92	0.41820198
5	0xbf030f03	-0.5119478
6	0x3ee989dc	0.4561299
7	0x3f2b9188	0.6701894
8	0xbf1534cd	-0.5828369
9	0xbef1b609	-0.47209194
10	0x3e2791e1	0.16364242
11	0x3f0965ac	0.53670764
12	0x3f171fc7	0.59032863
13	0xbe80fadd	-0.25191393
14	0x3e7e3494	0.24824744
15	0xbd803087	-0.06259256
16	0x3f186b5b	0.5953881
17	0x3e9a082c	0.3008436
18	0xbf14fa15	-0.58194095
19	0x3e65a21a	0.22425118
20	0x3ea53c48	0.32272553
21	0xbe8b8010	-0.2724614
22	0xbf1fee44	-0.6247294
23	0x3f2b3433	0.66876525
24	0xbebaad23	-0.36460218
25	0xbecbefdb	-0.39831433
26	0x3ef43812	0.47699028
27	0xbec56a1d	-0.3855752
28	0x3f2ffbe9	0.6874376
29	0xbf29ace8	-0.6627946
30	0xbedc44f6	-0.43021363
31	0x3f186171	0.59523684
32	0x3f21d8fc	0.63221717
33	0xbec896bb	-0.39177498
34	0x3dd97f9e	0.10620044
35	0xbf4b63de	-0.7944926
36	0x3e58263f	0.2110834
37	0x3efc4c53	0.4927698
38	0x3e919006	0.28430194
39	0x3ea574cb	0.32315668
40	0x3ec99e36	0.39378518
41	0x3eecdee6	0.46263808
42	0xbf03dab3	-0.51505584
43	0x3f211e0d	0.6293648
44	0xbf168baf	-0.5880689
45	0xbdc04b9d	-0.09389422
46	0xbf051592	-0.5198604
47	0x3e9670b8	0.29382873
48	0xbe0c642c	-0.13710088
49	0xbea85671	-0.3287845
50	0xbe65ae14	-0.22429687
51	0xbeebb9ea	-0.4604028
52	0x3f098be3	0.53729075
53	0xbf0247f0	-0.5089102
54	0x3f26ccd0	0.6515627
55	0xbea6856f	-0.32523677
56	0x3ed2c35d	0.41164675
57	0x3e13a287	0.14417468
58	0xbe891994	-0.26777327
59	0xbed236bd	-0.41057387
60	0x3e9503ab	0.2910436
61	0xbee10948	-0.43952394
62	0xbf413a2f	-0.75479406
63	0x3f06c270	0.5264044
64	0x3eafe572	0.3435474
65	0xbf03a256	-0.5141958
66	0xbf2a0270	-0.6640997
67	0xbe9f0798	-0.3106048
68	0x3e412979	0.18863477
69	0xbf1603dd	-0.58599645
70	0xbf1abd4d	-0.604451
71	0xbf1268ba	-0.5719105
72	0xbf2234ea	-0.6336199
73	0xbf16fc39	-0.5897861
74	0xbf18aeab	-0.5964152
75	0x3f19bc04	0.60052514
76	0x3ccac8a5	0.024753878
77	0xbe816fea	-0.25280696
78	0xbf044901	-0.51673895
79	0x3ef55bb7	0.47921535
80	0xbf29152b	-0.66047925
81	0xbeb940d6	-0.36182278
82	0x3d1967d7	0.037452545
83	0xbebf2564	-0.37333214
84	0xbf0717cc	-0.52770686
85	0xbeaa812f	-0.33301684
86	0x3ead71a6	0.3387577
87	0xbf447c30	-0.76751995
88	0x3e449264	0.19196469
89	0x3d835464	0.064125806
90	0x3f0f14ce	0.5589112
91	0xbe380ec2	-0.1797438
92	0xbf2d2be6	-0.6764511
93	0x3f03254c	0.51228786
94	0xbeb5f171	-0.35535768
95	0xbf13cf33	-0.57738036
96	0xbf4a8052	-0.7910205
97	0x3d8b91c1	0.0681491
98	0xbf0c112e	-0.54713714
99	0xbc90940b	-0.017648717
100	0x3ee5fb0d	0.449181
101	0x3e4f33a5	0.20234545
102	0xbf3f6099	-0.7475677
103	0x3eb48b55	0.35262552
104	0xbf19a499	-0.6001678
105	0x3e68103c	0.22662443
106	0xbf1e05be	-0.6172751
107	0xbf000604	-0.5000918
108	0xbe8df4c2	-0.27725798
109	0xbf3610e3	-0.7111952
110	0x3e737b11	0.23777415
111	0x3f1d298b	0.61391515
112	0xbf366d90	-0.7126093
113	0xbf14ef6a	-0.58177817
114	0x3f0a7494	0.54084134
115	0x3ee5609c	0.4480027
116	0xbe95ab6f	-0.29232356
117	0x3de5aca5	0.1121457
118	0xbe167552	-0.14693192
119	0xbe158718	-0.14602315
120	0xbf073c32	-0.52826226
121	0xbdd71327	-0.105017
122	0xbe79fefd	-0.24413677
123	0xbec2842e	-0.3799147
124	0x3f2bd8a2	0.6712743
125	0xbe83a713	-0.25713405
126	0xbf2a0f88	-0.6642995
127	0x3dfc05d3	0.123057984

critic_network.4.weight f4 [1, 128]
0	0xc173f16b	-15.24644
1	0xc174cbf8	-15.299797
2	0xc1753c71	-15.327256
3	0xc173cfcb	-15.238231
4	0xc174fb32	-15.311327
5	0x4174c10b	15.29713
6	0xc173fc19	-15.249047
7	0xc1754b95	-15.330953
8	0x4174e339	15.305474
9	0x417581c9	15.344186
10	0xc171f2cc	-15.121777
11	0xc1747628	-15.278847
12	0xc1744c17	-15.268577
13	0x41745064	15.269627
14	0xc17458be	-15.271666
15	0x417195e6	15.099096
16	0xc1753552	-15.325518
17	0xc1739c7a	-15.225702
18	0x4174108a	15.254038
19	0xc173f224	-15.246616
20	0xc173fd8c	-15.249401
21	0x41740e69	15.253518
22	0x41749a91	15.287736
23	0xc174dea3	-15.304355
24	0x4173b052	15.230547
25	0x417464a2	15.274569
26	0xc174b7f4	-15.29491
27	0x41740726	15.251745
28	0xc1747840	-15.279358
29	0x4173d8e6	15.240454
30	0x41742178	15.258171
31	0xc17461f0	-15.2739105
32	0xc174fd81	-15.311891
33	0x41745c19	15.272485
34	0xc172432e	-15.141401
35	0x4174391c	15.263943
36	0xc1736ce4	-15.214085
37	0xc17466ae	-15.275068
38	0xc1745d08	-15.272713
39	0xc1734505	-15.20435
40	0xc174fa0b	-15.311046
41	0xc174bcfe	-15.296141
42	0x41749ae2	15.287813
43	0xc17453df	-15.270476
44	0x417447ec	15.267559
45	0x41724f25	15.144322
46	0x4174b0ef	15.293197
47	0xc1737dcc	-15.218212
48	0x4172cdaf	15.175216
49	0x41745af4	15.272205
50	0x41734ee0	15.206757
51	0x41736983	15.21326
52	0xc174b018	-15.292992
53	0x4174f314	15.309345
54	0xc1740dcc	-15.253368
55	0x41740b17	15.2527075
56	0xc1751c73	-15.319446
57	0xc171009c	-15.062649
58	0x4174edd1	15.308061
59	0x417396ad	15.224286
60	0xc173bfb8	-15.234306
61	0x417433b3	15.262622
62	0x41747ebe	15.280943
63	0xc173a5e2	-15.227999
64	0xc1741274	-15.254505
65	0x4174b6ea	15.294657
66	0x41745dcb	15.272899
67	0x41739400	15.223633
68	0xc172b9ea	-15.170389
69	0x4174f0ba	15.308771
70	0x41756135	15.336232
71	0x4174fc70	15.31163
72	0x41750f10	15.316177
73	0x4174e028	15.304726
74	0x4174ae49	15.29255
75	0xc174bdf0	-15.296371
76	0xc1718887	-15.095832
77	0x41738557	15.220054
78	0x41751073	15.316516
79	0xc1749dec	-15.288555
80	0x4174ca64	15.299412
81	0x4172d17c	15.176144
82	0xc1728b52	-15.159014
83	0x4173f8bc	15.248226
84	0x41745a4a	15.272043
85	0x4173a881	15.228639
86	0xc173a5f2	-15.228014
87	0x4174a47d	15.290158
88	0xc1749de7	-15.28855
89	0xc17206db	-15.126674
90	0xc174b040	-15.29303
91	0x417392ab	15.223308
92	0x4174307d	15.261838
93	0xc1743fce	-15.265577
94	0x417425ea	15.259256
95	0x41747a4a	15.279856
96	0x41742d6a	15.261087
97	0x4171dc86	15.116339
98	0x4174fc96	15.3116665
99	0xc1724717	-15.142356
100	0xc1748a71	-15.283799
101	0xc173f3ce	-15.247023
102	0x41744cc0	15.268738
103	0xc174eed9	-15.308312
104	0x41744049	15.265695
105	0xc1730f02	-15.191164
106	0x4174ab57	15.291831
107	0x41741071	15.254014
108	0x4174caea	15.29954
109	0x41743363	15.262546
110	0xc17330ac	-15.199383
111	0xc1754f0a	-15.331797
112	0x4173f066	15.246191
113	0x41743090	15.261856
114	0xc174c602	-15.298342
115	0xc173e2a9	-15.242837
116	0x4174142d	15.254926
117	0xc172a0c3	-15.164248
118	0x41724125	15.140904
119	0x41735aae	15.209639
120	0x4174760e	15.278822
121	0x417240f4	15.140858
122	0x4173b80a	15.232431
123	0x417468d0	15.275589
124	0xc1749162	-15.285494
125	0x417393bf	15.223571
126	0x41751475	15.317494
127	0xc171026d	-15.063092
