test_uav/model/critic_model14-10-2023_11-21-29/330.pt (torch, 77879 bytes, 5 tensors)

critic_network.0.weight f4 [128, 17]
00000000: 35b1 0bbf 4e8f f73e e7b3 7ebe 541b c0bd
00000010: 93be 1cbd 4a7a 5c3f be71 283d 3e60 7bbd
00000020: 9880 683e 5d4d a83e 12ed 233f 3f80 8ebf
00000030: ca58 b7bf 069c bdbd 1a17 f1bd 0ba7 6ebd
00000040: 9c0f fcbd ee18 843d 214b f03d 5b8a a73e
00000050: ae40 473e 7b01 95be 41ba 463f 67d2 a4bc
00000060: 8e6a 0bbe e720 73bf 631b 4a3f 34ec 0abf
00000070: 925a 103e 44ad dd3e b049 3fbd 6ba0 093d
00000080: d801 babd 1226 f4bd ce5c ce3d 66ba ea3e
00000090: 6c50 243f 6724 1ebf cbcd 223d 3362 9d3f
000000a0: 7669 22bd c66e 65bd 1677 debe 3714 b9be
000000b0: 12f0 553f c161 e83e 25a4 693e a2e9 6ebe
000000c0: 870c febd 5820 13be 80f7 07be f519 b93d
000000d0: 3165 ccbd 8d82 cc3d c822 763e b743 07be
000000e0: 8151 423f 3152 15bd d0e1 a7bd 042f 303e
000000f0: 97db 33bc 64e0 e43e ba94 733e 4bbe ea3e
00000100: 0eb5 0cbd f827 72bd b6d7 40bd 5291 aabd
00000110: 4ea4 17be 1f56 c03c 0bc0 f9bf 26a9 f43c
00000120: 8e36 74bd 4a27 21be 999e de39 1900 6438
00000130: 5ef8 77bd 0a0d 09be d38c 263c 3834 d13d
00000140: f9f3 8ebd 7337 88bc ef26 0bbd 2d14 e6bc
00000150: d1f8 c9bb 30bd 343e 2abd 40be 3eb5 7dbe
00000160: a4be 17bc d027 5cbe dedf 99bf d709 b03c
00000170: 19ce 9f3d 2d4b fe3c 978b e3be 317f 353e
00000180: fa34 46be 82c3 8bbd 7d0e a73d dfb0 293d
00000190: 4ebe 943d 27cf 153e 00fc d13e 829b 993d
000001a0: 43a3 c93d f46b 533e c4f7 a43e a6ff 7cbf
000001b0: 178d 2bbe 7055 223e 41a2 94be aa28 0a3e
000001c0: 23a9 443f 1a6f 773e a1b6 7a3d 359d 143e
000001d0: 09a7 c53d 0740 f63d 846d 8e3e d0de 17bd
000001e0: 2c96 00bf 7569 763e 2ddb e43e 51f0 ba3e
000001f0: 2fc4 e2be 34eb 473e 1a91 913d a046 7ebd
00000200: f4b0 e13f cf45 eb3f 3bea 55be 2f73 bdbe
00000210: 0285 87bd 67e2 3f3e 476d 573d c8e6 68bd
00000220: 5041 b8be e4db bdbd 63d5 7e3e 46e4 623e
00000230: a752 ce3e 7cd9 e03e 8408 4c3d e79e 103d
00000240: df94 aabe 7c3e 4fbf 5ee1 43bf d863 043d
00000250: 51b5 71bf 56b7 35bf 081f 82bf 1183 6ebf
00000260: 8c56 83bf 7ad8 afbe e7aa 9cbf bccb 23be
00000270: 6749 23be 72ca 88be 1c97 1cbd a178 053c
00000280: c09a a1bc 2cd2 7dbe c1ce 9bbd 9cf7 e4bf
00000290: 9bea 0dbf 1813 a53f 6e7a cabd d28a 8abd
000002a0: b539 14bd afd2 2cbd 4460 06bf 23d2 5abe
000002b0: fb80 263e f14b 19be 43a0 c1be f87d 8b3f
000002c0: 9516 003d 4b9a c7bd c678 c7bd 27b9 913d
000002d0: 1ca7 af3c 13d3 14be 04c6 cc3e aafd 3b3c
000002e0: b145 e5bc 9fd8 efbd b6cc 06bd 91de 663e
000002f0: 694b 58be a20f ebbd 8be5 a13d d3ed 3cbe
00000300: 6157 853e 8dc7 0cbb b887 fb3d 2d85 0bbf
00000310: 4d36 17bf 49e5 8dbf c91c acbf 4cb1 1740
00000320: 91ef 4cbd fb4b 173d cafc bc3c 930c 9e3d
00000330: 2373 893d add6 a63e a68a 3d3d a7fd 773e
00000340: 9d14 2d3e 8612 9a3e 31dc 6a3c b400 59bc
00000350: 28e9 69be f16e 19c0 73c1 8fbf 07bb 253f
00000360: 3e7a 883e 80b3 7fbd abfb 89bd 4147 1abd
00000370: 4264 b6bc 6824 6e3d b31d cabf 5cc4 ecbe
00000380: d5fe d9bd 8b1c 8bbe adce 97bd d01b 1bbd
00000390: 9681 a8bc 39fb 47bc 64d3 f93d 31e7 753b
000003a0: 3b4b 04be b4cc 0d3e e6b9 973a 7030 33bd
000003b0: 44c5 bbbc 4bd9 983c 6013 a13e 951b 13bf
000003c0: ff74 0abf 446a 5b3f 2ac1 363f fba7 00be
000003d0: d8fd db3d 39b2 213e 93cc 6fbe 8b3e 13be
000003e0: 8f85 d1bf 8b4b d2bf 5c34 23bf 6676 58bd
000003f0: 5c95 873e 8ea3 2e3e 6710 9b3c c464 6ebe
-0.5456727 0.4835152 -0.24873315 -0.093802124 -0.038267683 0.861241 0.041124098 -0.06137108
0.22705305 0.32871523 0.64033616 -1.1132888 -1.4323971 -0.09258275 -0.117719844 -0.058264773
-0.12307665 0.064500675 0.1173308 0.32722744 0.19458267 -0.29102692 0.7762795 -0.020119859
-0.13614866 -0.9497208 0.7894804 -0.5426667 0.1409705 0.43296254 -0.046701133 0.033600252
-0.09082383 -0.11921324 0.10076295 0.45845336 0.64185214 -0.61774296 0.03974704 1.2295593
-0.039651357 -0.056013845 -0.4345023 -0.36148235 0.83569443 0.4538708 0.22816522 -0.23331311
-0.12404733 -0.14367807 -0.13278008 0.09038154 -0.09980238 0.09985838 0.24036705 -0.13209425
0.75905615 -0.036455337 -0.08197367 0.17205435 -0.010977647 0.44702446 0.23787203 0.45848307
-0.034352355 -0.05912015 -0.047080718 -0.08328499 -0.14808771 0.023478566 -1.9511732 0.029865813
-0.05962234 -0.15737644 0.00042461304 5.4359527e-05 -0.060539596 -0.1338388 0.010165411 0.10215038
-0.06980128 -0.016628003 -0.033972677 -0.028085792 -0.0061636944 0.17650294 -0.1882216 -0.2477617
-0.009261761 -0.21499562 -1.2021444 0.021489067 0.07802982 0.031041706 -0.44442436 0.17724301
-0.19356146 -0.068243995 0.0815706 0.041428443 0.0726286 0.14629804 0.41012573 0.07500364
0.09845593 0.2064665 0.3222028 -0.9882759 -0.1675304 0.15852904 -0.2903004 0.13492075
0.7682058 0.24163476 0.061209325 0.14513095 0.09651 0.12023931 0.2781793 -0.037077725
-0.50229144 0.24063666 0.44698468 0.36511472 -0.442903 0.19523317 0.07107754 -0.062079072
1.7632127 1.8380679 -0.20890133 -0.3700194 -0.06617166 0.1873871 0.05259445 -0.056860715
-0.3598733 -0.092704564 0.24886088 0.22157392 0.40297434 0.43915927 0.04981281 0.03530779
-0.33316705 -0.8095472 -0.7651576 0.03232178 -0.9441729 -0.70982873 -1.016572 -0.9316874
-1.0260787 -0.34344846 -1.2239655 -0.15995687 -0.1594597 -0.26716954 -0.038230047 0.008146436
-0.01972711 -0.24787205 -0.076077946 -1.7888064 -0.55436105 1.2896452 -0.09886633 -0.06764759
-0.036187846 -0.04219311 -0.5249064 -0.21369223 0.1626014 -0.14970376 -0.37817582 1.0897818
0.031271536 -0.09746226 -0.097398326 0.07115393 0.021441989 -0.14533643 0.39994824 0.011474052
-0.027987333 -0.11711239 -0.03291007 0.2254584 -0.21122517 -0.11477591 0.0790511 -0.18450098
0.26043227 -0.0021481246 0.12281746 -0.54500085 -0.5906723 -1.1085597 -1.3446285 2.3701963
-0.050033156 0.036937695 0.023069758 0.07717242 0.06711414 0.3258566 0.046274804 0.24217854
0.16902395 0.30092257 0.014334724 -0.013244797 -0.22842848 -2.3973963 -1.1230911 0.64738506
0.26655763 -0.062427044 -0.06737455 -0.03766561 -0.022264604 0.05814019 -1.5790313 -0.4624356
-0.106443085 -0.27170214 -0.07412467 -0.03786832 -0.020569604 -0.012205892 0.12198523 0.0037521834
-0.12919323 0.1384762 0.0011575788 -0.043747365 -0.022921212 0.0186583 0.31460094 -0.5746396
-0.5408477 0.85709023 0.71388495 -0.1256408 0.10741776 0.15790643 -0.23417883 -0.14379327
-1.6368884 -1.6429304 -0.6375177 -0.05284729 0.2648114 0.17054579 0.01892872 -0.23280627

critic_network.0.bias f4 [128]
00000000: 5637 48bf d98f ab3d 97e2 873e 5a33 1bbe
00000010: 978e 01bf 18b5 0ebe e807 263f bc6c ce3f
00000020: 76b6 c7bf 7a4f bfbf 5c87 f7bf 4d76 88bd
00000030: 0431 01bf c587 9dbf eeac 743f 6cee 8abf
00000040: a7f1 f93e 7f1f 6f3f f14f c4be 174c 493f
00000050: b7de 643f eba8 733f 2afb 1c40 c14c c6bd
00000060: 5223 943d d332 bfbf 0ed7 a4bf cd28 29bf
00000070: 27d1 29bf 62e9 29bf 3f91 0440 1244 df3e
00000080: 7592 ffbf daa1 8c3f 49ff 88bf 30dc ee3f
00000090: b617 813f dd08 f6bf 8c7e e33d 30f9 f03d
000000a0: 6b7b 8c3f 4f2c ea3f 2418 56bf 2b59 acbf
000000b0: 861a d5bf 31b7 0bbf c50d 48bd a3e0 013f
000000c0: f4a5 d9bd 3044 0bbf 3b37 b8bd d70a 38bf
000000d0: 3717 773f e54f 8abe b35a 0ebf 92c9 c0be
000000e0: 2b08 de3e 7917 5e3f 4c9c 993f 2517 02bf
000000f0: 888b 473f 68ca a0bd 134a 1cc0 d4be 683f
00000100: de9e 693e f94e fdbf 8249 873e 5e29 a13e
00000110: 3121 a53f a0e1 79bf 60f0 a5bf 0e18 5ebf
00000120: 88ac 3040 2939 82bf ed5b e33f 3f72 89bf
00000130: 6484 0b3f ae25 04bf 9968 be3e 5ed2 143f
00000140: 172c 37bf a3cf ac3f fe1f 183f 432b 1f40
00000150: 3b55 1740 51fc ba3f 37be 903f 59ab 12bf
00000160: 69b1 563f 448e 9b3f 8f8f a9bd fd04 a93e
00000170: 17fc 4fbf cf4a 99bf 57ac 34bf fa6c e93f
00000180: 4a81 623f c996 66bf ab9a c6be 70a8 8b3f
00000190: 9ea8 e3bd 64b7 9ebf 4715 953f 59db 90bf
000001a0: cee9 1cbf 56f4 82bf 9836 eabe 6133 1f3f
000001b0: d3bc 223f ce8f cebd d426 a4bf 5e4c ee3f
000001c0: 7396 023f 51b4 4cbf 37e0 79bf 278d c9bf
000001d0: 8098 48bf c92b b5be 6024 123f aaa1 6abf
000001e0: e170 253f aefc 183e 4e26 b7bf 9e81 e83f
000001f0: 7d55 9d3e 7a65 05bf dd20 22bf 9192 1c3f
-0.78209436 0.08377046 0.26540062 -0.15156308 -0.506082 -0.1393627 0.64855814 1.6126933
-1.5602558 -1.4946129 -1.9338183 -0.06663189 -0.50465417 -1.2307059 0.9557637 -1.085401
0.4881718 0.93407434 -0.3834224 0.7863173 0.89402336 0.95179623 2.4528298 -0.096826084
0.07233299 -1.4937385 -1.287813 -0.6607788 -0.66334766 -0.6637174 2.071365 0.4360662
-1.996657 1.0986893 -1.0702907 1.8660946 1.0085361 -1.9221455 0.11108121 0.11766279
1.0975164 1.8294772 -0.83630586 -1.3464712 -1.6648719 -0.545764 -0.048841257 0.50733393
-0.10627356 -0.5440092 -0.089949094 -0.7189154 0.965198 -0.2701408 -0.55607146 -0.37653786
0.43365607 0.86754566 1.2000823 -0.50816566 0.7794728 -0.07851106 -2.4420211 0.9091618
0.2281451 -1.9789726 0.2642327 0.31476873 1.2900754 -0.976099 -1.2963982 -0.86755455
2.7605305 -1.0173694 1.7762429 -1.073799 0.5449889 -0.51619995 0.37189177 0.58133495
-0.7155165 1.3500866 0.59423816 2.4870155 2.364577 1.4608251 1.1308049 -0.57292706
0.83864456 1.2152791 -0.08279335 0.33011618 -0.81244034 -1.1975955 -0.7057547 1.8236382
0.8847853 -0.9007383 -0.38789877 1.0910778 -0.111161456 -1.2399716 1.1647118 -1.131694
-0.6129426 -1.0230815 -0.45744777 0.62187773 0.6356937 -0.10086022 -1.2824349 1.8617055
0.5101082 -0.7996264 -0.9760775 -1.5746201 -0.78357697 -0.35384968 0.57086754 -0.9165293
0.64625365 0.1494014 -1.4308565 1.8164556 0.30729285 -0.52107966 -0.63331395 0.6116114

critic_network.2.weight f4 [128, 128]
00000000: a8c3 2a3f f412 dabd 09de 9abe e0e3 563f
00000010: 5781 c73f 0e4c 083f 8b65 2dbf c0b5 3f3f
00000020: d56e 78bf 45e9 9a3f b80f 42bf 1662 6ebf
00000030: 23f6 98bf fb5e 0140 e902 ffbe 63f6 0bbf
00000040: 2d7f adbe 4361 263f 8bc6 703f 7849 163f
00000050: 3545 1fbf 47eb 9ebf fb62 483f a690 1c3f
00000060: 2e30 d83e 331a 48bf 0cb7 883f 70c5 d23e
00000070: 17ed afbe 17b0 2a3f ce42 4d3f 612a 6abf
00000080: 5c4f 04bf d23d 6bbf 8ad6 54bf be48 4e3f
00000090: 0220 fa3e fc1f 55bf 5cb8 91bf 3a1e 193f
000000a0: 5604 cb3e f51b 303f 4f16 1bbe 1879 4d3f
000000b0: a8fa 1bbf bda6 0e3f 6e82 1dbf c8e4 42bf
000000c0: 0b87 b83e 955d babf e0de 653d f345 0c3f
000000d0: 5f01 fc3e feb0 ed3d d92b 9abf 5780 223f
000000e0: 9e1d 123f 6884 c2bf bb10 ef3e 7bbf 8b3f
000000f0: f746 1fbf b9d8 22bf ae25 39bf 21fb 41bf
00000100: a1e1 2f3e eb1c 3cbf 10de 2abf b26d c53e
00000110: df56 a63e f9ff 003f 3e57 2f3f d5b9 b83f
00000120: 44bc 5d3f 01fe a53f f5bd 333f 1293 533f
00000130: 16b2 573f caee 503f 91df 26bf 35b0 ad3e
00000140: 4285 813f 21bd 40bf 12d9 96be b155 683f
00000150: 6def 3b3f 8856 71bf 3c33 f2bf 3fa8 35bf
00000160: d99a 273f 8085 82bf 5ea0 1a3f e50f 3b3f
00000170: e967 5f3f 5b84 d13f 74e2 22bf 1deb 583f
00000180: c517 debf 9649 bd3f 8a3d 433f 9bf2 323f
00000190: ad05 21be 2b2d 1040 39d5 90bf 0526 febe
000001a0: a1f3 963f c802 1f3f f387 1c3f a087 49bf
000001b0: 2b91 753f 1a69 84be d6d7 be3f 7a57 223f
000001c0: 1838 1e3f 3729 093f 4048 debe a83a 77bf
000001d0: 9c32 3b3f 4f46 47bf b2e6 5d3f e047 dabe
000001e0: 8e7e 6fbf f2a9 62bf e6e7 883f 1b3b 553f
000001f0: 9d70 f5be 5b55 f4be 24bf 3f3f d1ca 63bf
00000200: 29d1 223e c069 66bb efe9 0f3e 375f 9e3e
00000210: 1dfa b03f cbb3 e93e c66c 17bf 771d 6a3e
00000220: fe2f 1abf 2c71 173f 638e 95be 1bde ddbe
00000230: 1bf3 a0bf 213f 9e3f 0ac6 3b3d 11e4 55bf
00000240: 1ccf f2be 5016 f03e 034d 353f 64c7 a73e
00000250: 001b 1cbf 804b eebe 753b 233f 0595 85be
00000260: cd72 173f 788d 09bf 18f2 813f f034 983e
00000270: 0e38 20bf b548 9a3e 07a0 ce3e a9ec 99bf
00000280: b8eb a7be ede8 09bf 362a 6ebf c61b 123f
00000290: 124f ce3e 7c34 06bf 2e16 58bf 7dcb 3d3f
000002a0: d4f7 913e 5958 bd3e 7545 913d c946 853f
000002b0: 7f59 8dbe 2229 113f 92b8 2b3e 7181 5ebf
000002c0: c4c7 df3e f668 22bf 9508 2b3f df1c 103f
000002d0: 728a 053f 577e 803e 629a 8cbf 46bd 6a3d
000002e0: d0e3 053f 00bf 8ebf 067e 883e 5348 e63e
000002f0: 1e54 46bf 69ec c7be 7355 29bf 7f50 75bf
00000300: 3c9a 1f3f 8856 d9be 4e39 98be 7813 c33d
00000310: 070e da3e bdaa d63e 94b1 c23f 6eef 6d3f
00000320: aace 013f fae9 9e3f de6c d03e 697d 0a3f
00000330: 0b4e 833e 1aa8 293e 5c7b 16bf 526b 5f3e
00000340: d275 553f 9336 15bf ebfe b93d 2eab 0c3f
00000350: 5adf e83e 610d 87bf 3959 f8bf e88c 0abd
00000360: 0d9e 2c3f 3f6c 2dbf aefb 1b3f 66a4 cd3c
00000370: 5faf 843f fb67 983f 729a 12be c366 063f
00000380: da2f 00c0 ac7e 1b3f b64b fe3e b675 393f
00000390: 12b0 68bd 4588 c93f b712 a7bf 2571 7bbe
000003a0: 0825 933f 5b6c 053f 8c76 263e 3b4d bbbe
000003b0: e5f2 873f 1304 eb3d 6ea5 8c3f 2e53 b63e
000003c0: 71ad 9e3e 8e2d 9f3e a16d f2be 7b2b 0abf
000003d0: 87e5 2e3f 2849 d4be e4c5 0a3f 71a4 49be
000003e0: 56a8 51bf 8034 59bf 68c5 b63f 57f2 e13e
000003f0: 0aad 40be 53ab e7be a655 033f 64f0 63bf
0.667048 -0.10648146 -0.30247524 0.8394146 1.5586346 0.5324105 -0.6773307 0.74886703
-0.97044116 1.2102438 -0.75805235 -0.9311842 -1.1950115 2.0214221 -0.49806908 -0.5467283
-0.3388609 0.6499216 0.9405295 0.58705854 -0.62214977 -1.2415551 0.7827603 0.61158216
0.42224258 -0.78164977 1.0680861 0.41166258 -0.34360573 0.6667494 0.8018006 -0.91470915
-0.5168359 -0.91891205 -0.8313986 0.80579746 0.48852545 -0.8325193 -1.1384387 0.5981175
0.39651746 0.6879266 -0.15145229 0.802629 -0.60929346 0.5572317 -0.61527145 -0.7613034
0.3604053 -1.4559809 0.056120753 0.54794234 0.49219796 0.11606024 -1.2044631 0.6347708
0.5707644 -1.5196657 0.46692452 1.091781 -0.6221766 -0.6361194 -0.7232312 -0.7577382
0.17175914 -0.73481625 -0.6674509 0.38560253 0.32488152 0.50390583 0.68492496 1.4431711
0.86615396 1.2968141 0.70211726 0.82646286 0.8425611 0.81614363 -0.65184885 0.33923498
1.0118792 -0.7528859 -0.29462487 0.90755755 0.7341221 -0.9427266 -1.8921885 -0.7095985
0.65470654 -1.0196991 0.6040095 0.7307113 0.8726793 1.6368517 -0.6362679 0.84733754
-1.7351004 1.4788082 0.76265776 0.69901437 -0.15724821 2.2527568 -1.131507 -0.49638382
1.17931 0.6211362 0.6114494 -0.7872257 0.95924634 -0.25861436 1.4909618 0.6341473
0.6180434 0.53578514 -0.43414497 -0.9657388 0.731241 -0.7784166 0.8668014 -0.4263296
-0.9355248 -0.88540566 1.069577 0.8329331 -0.4793748 -0.4772137 0.7490103 -0.8898135
0.15900101 -0.0035158247 0.14054082 0.30932018 1.3826329 0.45644984 -0.5915035 0.22862802
-0.6022948 0.5915706 -0.29210195 -0.43333516 -1.257419 1.2363015 0.04584316 -0.83551127
-0.47423637 0.46892023 0.70820636 0.3276931 -0.609787 -0.46541977 0.637626 -0.26090255
0.5915955 -0.5373149 1.0152006 0.29727888 -0.6258553 0.30133596 0.40356466 -1.2025348
-0.32797027 -0.5387104 -0.9303316 0.5707363 0.402947 -0.52423835 -0.84408844 0.74138623
0.2850939 0.36981466 0.07093326 1.0412227 -0.27607343 0.5670339 0.16769627 -0.8691626
0.43707097 -0.6344141 0.6680997 0.56294054 0.52164376 0.2509639 -1.0984614 0.05730941
0.5230074 -1.1152039 0.26658648 0.44977054 -0.774721 -0.39047554 -0.6614601 -0.9582595
0.6234472 -0.4244883 -0.2973122 0.09525198 0.42588827 0.41927138 1.5210443 0.92943466
0.5070597 1.2415154 0.4070806 0.5409761 0.2564548 0.16568032 -0.5878198 0.21818283
0.83382905 -0.582864 0.09081825 0.549487 0.45482904 -1.0550958 -1.9402229 -0.033825785
0.67428666 -0.67743295 0.6093091 0.025102805 1.0366019 1.1906732 -0.14316729 0.5250055
-2.0029206 0.6074016 0.49667138 0.7244524 -0.05680854 1.5744711 -1.3052586 -0.2455488
1.1495676 0.5211846 0.1625616 -0.3658236 1.0621 0.114753865 1.0987985 0.35610336
0.309917 0.31089443 -0.47349265 -0.53972596 0.6831898 -0.41462064 0.5420821 -0.19691636
-0.81897485 -0.84845734 1.4278994 0.44130203 -0.18816009 -0.45247898 0.51302564 -0.8903868

critic_network.2.bias f4 [128]
00000000: 1607 643f cf09 083f 8def 113f a1db 2d3f
00000010: e57a 4dbf 5a18 cfbe e356 35bf d585 4a3f
00000020: df38 09bf 4718 d03e bb89 0d3f b9f2 1f3f
00000030: 7fac 743f ba7a 1c3f b727 4e3f 1383 35bf
00000040: 6e47 ccbe 183b 44bf 8998 c83e 065c 11bf
00000050: 13d7 81bf 848a 21bf 6865 183f b341 2dbf
00000060: c8ef 1a3f ff90 7abf 2e30 163f 9526 c6be
00000070: 68c5 e03e e5f9 ca3e e831 093f e3a9 ea3e
00000080: a1be 133f bfb9 003f 86dd 1a3f c6a9 e6be
00000090: c109 45bf 5b32 04bf 790a 0ebf 693d 13bf
000000a0: f277 0e3f 5290 51bf e0a3 333f 5075 ea3e
000000b0: 5f31 2cbf 2417 4d3f 521f 2a3f cf0c 263f
000000c0: e621 763f 7aab 0d3f a618 56bf 7d2b 1dbf
000000d0: 7935 293f 7b94 f2be 1419 003f b6a7 043f
000000e0: 3162 0d3f 2110 103f 829c 3cbf 9f3f 0abf
000000f0: ca30 de3e 1279 27bf 03e5 583f fe5b 013f
00000100: b1ab 41bf c5f6 133f 40a9 0cbf d393 17bf
00000110: 8184 1f3f aa0c 01bf 3c8c 8dbe c0fd 54bf
00000120: 6b18 5e3f d5ec f13e 7f9d 493f 68db 02bf
00000130: 0576 0f3f 3722 0e3f 8fe5 25bf dcc5 e7be
00000140: f1a7 163f 2c7c 8ebe 2518 24bf 02dd 113f
00000150: c436 003f 8316 133f 2311 613f b450 23bf
00000160: 0eb5 04bf 6e30 d03e 077f 583f c9d9 bc3e
00000170: c1dd 05bf 6480 6d3f c448 6bbf 7f70 013f
00000180: 9101 f73e 6535 013f b54d f5be d6f6 22bf
00000190: 1f7d 49bf d7da 56bf f2f8 093f 9edf e33e
000001a0: b9ea 143f 133f e13e 2b9c 053f 1613 30bf
000001b0: 634f d73e eb8f e2be 2fc5 193f bebf 023f
000001c0: 5b4b cb3e b81c dabe 7478 0ebf 7e7f 3fbf
000001d0: 6758 b3be d35a 30bf 024b 1ebf 1c65 4dbf
000001e0: ae5f 08bf fc83 edbe 08dc 19bf 097f 1bbf
000001f0: c9df ea3e 817f 1bbf 35a8 53bf fce0 17bf
0.8907331 0.53139967 0.5700615 0.6791325 -0.8026565 -0.40448266 -0.70835704 0.7911046
-0.53602403 0.40643522 0.55288285 0.6247974 0.9557571 0.61124766 0.8052935 -0.7090313
-0.39898247 -0.7665267 0.39178875 -0.5678104 -1.014376 -0.63101983 0.59529734 -0.67678374
0.6052213 -0.97877496 0.58667266 -0.3870131 0.4390061 0.3964378 0.53591776 0.45832738
0.5771275 0.50283426 0.6049427 -0.45051402 -0.7696801 -0.51639336 -0.5548473 -0.5751558
0.5565177 -0.8186084 0.7017193 0.45792627 -0.67262834 0.80113435 0.6645404 0.64863294
0.96145475 0.5533978 -0.8363136 -0.6139448 0.6609722 -0.47378907 0.50038266 0.51818407
0.55227953 0.5627461 -0.7367631 -0.5400333 0.43396598 -0.65419114 0.84724444 0.50530994
-0.75652605 0.57798415 -0.54945755 -0.59209937 0.6231156 -0.5040995 -0.27646053 -0.8319969
0.8675601 0.47251 0.78755945 -0.5111604 0.5603946 0.5552096 -0.64803404 -0.45268142
0.5885001 -0.2782911 -0.6409934 0.56977856 0.50083566 0.57456225 0.87916774 -0.6379502
-0.5183877 0.4066195 0.8456883 0.36884907 -0.52291495 0.92774034 -0.91907907 0.5056228
0.48243383 0.504721 -0.47910848 -0.6365789 -0.78706545 -0.83927673 0.53895485 0.44506544
0.5817066 0.43993434 0.5219142 -0.6877912 0.42052755 -0.44250426 0.60066503 0.51073825
0.3970593 -0.42600036 -0.55652547 -0.7480391 -0.35028383 -0.68888587 -0.618332 -0.80232406
-0.53270996 -0.4638976 -0.60101366 -0.60740715 0.4587386 -0.6074143 -0.8267854 -0.59327674

critic_network.4.weight f4 [1, 128]
00000000: fbcc fcc1 c822 fdc1 0766 fdc1 e9b6 fcc1
00000010: 1ac0 fc41 577d fd41 1546 fd41 cfea fcc1
00000020: cb64 fd41 bd82 fdc1 960d fdc1 f8a6 fdc1
00000030: be71 fcc1 200e fdc1 e2de fcc1 3fc2 fc41
00000040: 1d29 fd41 1e9e fc41 e13d fdc1 6049 fd41
00000050: 1b78 fc41 73e6 fc41 ee80 fdc1 2284 fd41
00000060: eff9 fcc1 897f fc41 bf18 fdc1 d067 fd41
00000070: 69bd fdc1 465e fdc1 c91c fdc1 0535 fdc1
00000080: c1a0 fdc1 1a25 fdc1 9b4b fdc1 603a fd41
00000090: 23e7 fc41 ec2a fd41 d448 fd41 ed6d fd41
000000a0: 8b2d fdc1 b1c6 fc41 8aeb fcc1 6878 fdc1
000000b0: 75ba fc41 dde6 fcc1 2d2a fdc1 4a0e fdc1
000000c0: 0a7f fcc1 6f63 fdc1 7dd4 fc41 673d fd41
000000d0: 85c3 fcc1 2f2c fd41 ba88 fdc1 1af8 fcc1
000000e0: 388f fcc1 349a fdc1 62dc fc41 ce67 fd41
000000f0: a74d fdc1 cc28 fd41 8dab fcc1 7496 fdc1
00000100: d4ec fc41 9fed fcc1 8677 fd41 27f7 fc41
00000110: 3836 fdc1 6544 fd41 8af1 fc41 6198 fc41
00000120: 7a95 fcc1 3e25 fdc1 f498 fcc1 04a7 fd41
00000130: 6b10 fdc1 39cf fdc1 8774 fd41 266a fd41
00000140: 0a8e fdc1 b6a4 fd41 9a40 fd41 2f72 fdc1
00000150: 27cb fcc1 9b69 fdc1 6ba0 fcc1 cdd2 fc41
00000160: 2cd4 fd41 b747 fdc1 d1c3 fcc1 7007 fdc1
00000170: 7ff8 fc41 db6d fcc1 3f78 fc41 d850 fdc1
00000180: 051e fdc1 b20e fdc1 acb0 fd41 ce16 fd41
00000190: 0cce fc41 999e fc41 67ed fcc1 c203 fdc1
000001a0: 5a34 fdc1 2737 fdc1 35e2 fcc1 d2a2 fc41
000001b0: 2996 fdc1 4ecb fd41 9304 fdc1 4f33 fdc1
000001c0: 0c0a fdc1 a12b fd41 e47a fd41 68ad fc41
000001d0: 8ca3 fd41 3815 fd41 7b29 fd41 f5a4 fc41
000001e0: afcc fd41 3422 fd41 cdea fc41 fa12 fd41
000001f0: fb6e fdc1 161a fd41 30dc fc41 eeab fd41
-31.600088 -31.641983 -31.674818 -31.589312 31.5938 31.686201 31.65922 -31.614653
31.674215 -31.688837 -31.631634 -31.706528 -31.555538 -31.631897 -31.60883 31.594847
31.645075 31.577206 -31.655214 31.660828 31.558645 31.612524 -31.687954 31.689518
-31.622038 31.562273 -31.637083 31.67569 -31.717485 -31.671032 -31.639055 -31.650888
-31.703493 -31.643116 -31.661917 31.653503 31.61286 31.645958 31.66056 31.678675
-31.647238 31.597017 -31.61501 -31.683792 31.591043 -31.612726 -31.645594 -31.631977
-31.56203 -31.673552 31.603754 31.654982 -31.595469 31.646574 -31.691761 -31.621143
-31.569931 -31.700294 31.607609 31.675686 -31.662916 31.64492 -31.583765 -31.698463
31.615639 -31.616026 31.683361 31.62068 -31.651474 31.658396 31.617939 31.574404
-31.572987 -31.643185 -31.574684 31.70655 -31.633017 -31.726183 31.681898 31.67683
-31.694355 31.705425 31.656544 -31.680754 -31.599195 -31.676565 -31.57833 31.60293
31.7286 -31.660017 -31.595613 -31.628632 31.621336 -31.55364 31.558714 -31.664474
-31.639658 -31.632175 31.711266 31.636135 31.600609 31.57744 -31.61592 -31.626835
-31.650562 -31.65193 -31.610453 31.579502 -31.69832 31.72427 -31.627234 -31.650053
-31.629906 31.646303 31.685005 31.584671 31.704857 31.63536 31.645254 31.580545
31.724943 31.6417 31.614649 31.634266 -31.67919 31.637737 31.607513 31.70895
