test_uav/model/critic_model14-10-2023_11-21-29/600.pt (torch, 77879 bytes, 5 tensors)

critic_network.0.weight f4 [128, 17]
000000 bf 44 1a 3f 19 54 b8 bd 81 30 07 3f 26 7f 9c 3e
       0.6026115 -0.09000415 0.52808386 0.30565757
000010 c3 b4 94 3e 53 ed 78 bf 63 25 3e 3d aa 14 31 3e
       0.2904416 -0.9723713 0.046422374 0.17293039
000020 06 a4 f9 3e 21 33 ea be 96 9b 26 bf 0b 97 db 3e
       0.48757952 -0.45742133 -0.65081155 0.42888674
000030 70 c4 42 3f ba 25 92 3e 81 d4 a2 3e b5 4a 89 3e
       0.7608099 0.28544408 0.31802753 0.2681481
000040 ae 7e ae 3e d1 68 18 3f a1 9f 28 3f d9 8a fa bf
       0.34081024 0.5953494 0.65868574 -1.9573623
000050 42 6a 52 be ee d1 6c 3d 18 10 77 bf 54 64 f7 bc
       -0.20548347 0.057817392 -0.9650893 -0.030199207
000060 e9 3f 74 bd c8 aa bb 3e b6 71 84 3f 8c c4 aa bf
       -0.059631262 0.36653733 1.0347202 -1.3341231
000070 90 2e 11 3d c6 3d 5a 3e 88 e0 02 3e f0 8f 79 bd
       0.035444796 0.21312627 0.12780964 -0.060928285
000080 a2 e8 29 3d 2b 14 34 3e 0f dd 70 3e c0 a6 68 be
       0.04148162 0.17585818 0.23521827 -0.2271986
000090 85 ce c7 3c 74 e8 61 bf 35 ed 35 3f a9 f9 9f 3f
       0.024390468 -0.8824532 0.71065074 1.2498065
0000a0 df 2b 82 be 41 41 64 bd 2b e5 7e be ce 15 6b bf
       -0.25424096 -0.055726293 -0.24892108 -0.91830146
0000b0 cb 97 c1 3f 49 6e 2b 3f 6a 23 2f bf 8a 67 d6 be
       1.5124449 0.66965157 -0.6841341 -0.4187587
0000c0 2c 96 86 bf 3f 5a 65 be 50 6a 35 be f4 33 97 bf
       -1.0514579 -0.22397707 -0.17716336 -1.181273
0000d0 21 f8 f9 3d 79 16 e4 bd 4e 13 c4 be f1 17 8f 3e
       0.1220553 -0.11137099 -0.38295978 0.27947953
0000e0 50 ed 42 bb 23 35 50 bc 77 66 00 3d 21 20 44 be
       -0.00297435 -0.012707981 0.031347718 -0.19152881
0000f0 f0 d5 8a 3c bb 93 9f bd 00 50 49 3f b7 16 06 3f
       0.016947716 -0.07791849 0.78637695 0.5237841
000100 78 94 e4 bd 72 91 51 bd 18 83 83 bc 6e 43 a9 bd
       -0.11161131 -0.051164098 -0.016053721 -0.08264814
000110 80 ca 01 3e cf 89 9f 3e a8 81 9d 3e 45 95 ce 3e
       0.12674904 0.31159827 0.30762982 0.4034826
000120 ff 4e d9 be 34 d1 31 bf ba 94 01 3d 69 27 9b 3c
       -0.42443082 -0.69459844 0.031635977 0.01893969
000130 a0 0a 42 3e 09 ac 02 3f 9d c1 96 3d f0 37 01 3d
       0.18949366 0.51043755 0.073611476 0.031547487
000140 61 19 37 bf 4b 66 16 3e 10 4d ba 3e 05 a4 b1 bc
       -0.715231 0.14687459 0.3638692 -0.021684656
000150 5f f2 31 3e 78 d7 a0 3e ed ff d9 3d c0 e2 77 3e
       0.17377613 0.3141439 0.10644517 0.24207592
000160 91 19 17 3f ef 71 29 3d 28 c8 6f bf 23 ff 9b 3d
       0.59023386 0.04136842 -0.9366479 0.07617023
000170 5b 1e 3b 3e f6 16 5c 3e d8 b9 99 be ad 17 f3 bf
       0.18273298 0.21493134 -0.300246 -1.89916
000180 75 b7 11 be 0e 2a 5e 3f b3 8c bc 3e 58 93 d5 3e
       -0.1423014 0.8678292 0.36826095 0.41713977
000190 1a 7a 91 3e d3 d4 ca 3e b3 61 f2 bc 48 3e b3 be
       0.2841347 0.39615497 -0.029587602 -0.35008454
0001a0 9d b3 af 3f dc 4c 02 be f8 ec b5 3e ef b1 e1 3e
       1.3726689 -0.12724632 0.35532355 0.44081065
0001b0 50 99 6a be f6 44 b8 3d 52 8c ee be 2e 82 66 be
       -0.22910047 0.08997528 -0.4659143 -0.22510597
0001c0 8e 30 2c 3f 87 dc 9d bf 4b 99 d1 3d a6 9c 92 be
       0.6726159 -1.2332925 0.102343164 -0.28635138
0001d0 df 36 b8 be 15 aa 4f bd 26 fa fd be ab 88 47 3f
       -0.35979363 -0.050699312 -0.4960491 0.77942914
0001e0 28 0e 6e 3e 67 10 15 3f 29 c1 b7 bf e0 96 f3 be
       0.23247588 0.58228153 -1.4355823 -0.47576046
0001f0 3f b3 26 3f cf b7 3d be dd cf 56 bd 79 0b 0d bf
       0.6511726 -0.18527149 -0.052444328 -0.5509563
000200 fd 1e 05 bf 13 71 a6 3e 8d 7e 9e be 67 b2 f1 3e
       -0.5200041 0.32508144 -0.30955926 0.47206423
000210 1c 49 48 be 28 41 39 3d 3a 63 ab bc 1d c5 b5 3c
       -0.19559139 0.045228153 -0.020921338 0.022188717
000220 6f ca 01 bf 81 7c eb be 88 fc a2 bd 44 c2 1d be
       -0.50699514 -0.45993426 -0.07958323 -0.15406138
000230 cd 24 45 3e 0a eb f8 3e d5 5e f7 bd 55 20 a2 bd
       0.1925232 0.4861682 -0.12078635 -0.07916323
000240 29 e2 2a bd 06 72 16 c0 4b 2e 61 3f 31 45 81 be
       -0.04171959 -2.3507094 0.8796126 -0.252481
000250 06 6b cb bf 0d c6 9f be a8 cb 37 bf 81 c2 9a be
       -1.5892036 -0.31205788 -0.7179513 -0.3022652
000260 88 45 0d be 21 03 b3 3e f7 de d0 3c e1 1f 25 bd
       -0.13796055 0.34963325 0.025496943 -0.040313605
000270 b5 ea 5d 3e df 0e 06 3f c3 98 39 bf cb f7 19 bd
       0.21671565 0.5236644 -0.7249872 -0.03758983
000280 27 13 1e 3e 88 7b 07 3f 0e 3d e4 3f 0e a1 53 be
       0.15436994 0.5292287 1.7831132 -0.20666906
000290 31 a1 60 bf bd 63 b6 bd 66 ff ed 3d 35 c4 49 bd
       -0.8774596 -0.08905742 0.11620979 -0.049259383
0002a0 70 27 c5 3d 90 c9 7b 3e a4 86 92 be 72 d2 30 3c
       0.09626663 0.24588609 -0.28618348 0.010792362
0002b0 9b e4 56 be 22 7f 8e be 9d 0f fa 3e 38 30 21 3f
       -0.20985644 -0.2783137 0.48840037 0.629642
0002c0 12 6b 9a 3d a5 67 45 bd 2a c6 b3 be 22 50 89 3f
       0.07539953 -0.048194546 -0.35112125 1.072758
0002d0 76 98 dc be 78 c0 5c 3f 00 72 da 3e 63 ca bf bd
       -0.43085068 0.86231184 0.426651 -0.09364774
0002e0 5b cf dd be 4c 4a a6 bd 63 96 5f be 25 6e 67 bd
       -0.43322262 -0.0811964 -0.21834712 -0.056501526
0002f0 d4 b3 27 3e 45 b5 1a 3f 5a 3f 9d 3e f1 3f 08 be
       0.16377193 0.60432845 0.30712396 -0.13305642
000300 f1 3f 60 bf 73 28 8c 3e 20 5a 4c 3e 53 d4 a3 bc
       -0.87597567 0.2737461 0.19956255 -0.019998705
000310 34 25 88 3f 7e 89 4d bf 01 7c c6 3e 00 73 01 40
       1.0636353 -0.8028792 0.38766482 2.022644
000320 61 35 25 bd 5b 25 df bd 55 a9 24 3d 96 38 82 3d
       -0.04033411 -0.10895797 0.04020055 0.06358449
000330 1b f2 ca be 44 3f e1 3d c9 7b 22 be 70 4f cc bd
       -0.39637837 0.10998395 -0.15867533 -0.09976089
000340 48 1c e2 3e b2 02 19 bf ba a6 74 3e ef 0a 05 3e
       0.44162202 -0.5976974 0.23891726 0.12992452
000350 35 f0 b0 3e ee 52 51 bf 08 c0 c2 bf 96 26 43 3f
       0.34558263 -0.81767166 -1.5214853 0.7623075
000360 ef e4 5d 3e 9d 0a 3c bc 18 37 8a 3e 72 8b 19 3e
       0.21669362 -0.01147714 0.26995158 0.149946
000370 df 80 44 bd 6f d1 50 3f a4 be 9a be 3e 63 ce be
       -0.047974464 0.8156957 -0.30223572 -0.4031009
000380 85 22 38 bd 63 07 9c 3d 28 de a1 be d8 31 34 3d
       -0.044954795 0.076185964 -0.31614804 0.043992847
000390 01 8d c6 3d 26 62 fa 3d 11 6c d1 bc f6 fe a2 be
       0.09694863 0.122257516 -0.025564225 -0.31835145
0003a0 c3 17 aa bc 9e ea 84 bf b3 73 7e 3c d3 5a 92 3d
       -0.020763284 -1.03841 0.0155305145 0.071462296
0003b0 ec af 5e 3d 02 5f 2c 3d bd d5 40 be c3 3c 3c 3f
       0.05436699 0.042082794 -0.18831535 0.73530215
0003c0 20 75 b2 bd 46 b0 4f 3e 39 ec d7 3d 33 c7 82 bf
       -0.08713746 0.20282087 0.10543103 -1.0217041
0003d0 a5 61 62 3b b1 37 82 3e fd 10 0a 3f 1d a7 73 be
       0.0034543064 0.25433114 0.5393217 -0.23794217
0003e0 b9 89 93 bf 0a d3 1a bf 72 33 ba bf 72 78 39 3e
       -1.1526405 -0.6047827 -1.454695 0.18112352
0003f0 a2 f3 7d 3e af 07 e9 3d 0d b2 ac 3e 13 aa 10 bf
       0.2479997 0.11378419 0.33729592 -0.5650951

critic_network.0.bias f4 [128]
000000 97 85 fa 3e 8f 3a ec be f7 b4 aa bf 04 91 24 bf
       0.48930046 -0.46138427 -1.3336476 -0.64283776
000010 f2 6c 25 3f 1c 33 ae 3f a5 06 76 be 9d fd ef 3f
       0.6461936 1.3609347 -0.24025972 1.8749272
000020 5a 7a 1c c0 ef 03 99 bf 2d 92 31 c0 75 e0 6f be
       -2.4449677 -1.1954325 -2.7745469 -0.23425467
000030 c9 c6 a1 3b d5 d0 50 bf 9c c9 bf 3f 9c 90 ab be
       0.004937027 -0.8156865 1.4983401 -0.33508766
000040 2e ee 35 3f c4 c1 48 3f bb 48 13 3e fa 43 cc 3d
       0.7106656 0.7842066 0.14383213 0.09973903
000050 e9 27 93 3e 49 68 21 3f 75 61 4f 40 4b e8 7c 3f
       0.28741387 0.6304975 3.2403233 0.9879195
000060 75 4f b8 3e bd 94 d7 bf 90 ca b9 bf da c6 52 bf
       0.3599812 -1.6842266 -1.4514942 -0.82334673
000070 83 bf eb 3e 26 c3 9c bf bf 92 06 40 86 7b c1 3d
       0.4604455 -1.2247055 2.1027067 0.09447388
000080 9b 0c 12 c0 33 08 6a 3f 85 20 11 c0 d2 14 42 40
       -2.2820194 0.9141876 -2.2676098 3.0325208
000090 0b 7f 03 40 af 1a 21 c0 6a c8 31 3f 19 b3 f2 3e
       2.054629 -2.5172536 0.6944643 0.47402266
0000a0 2e fe 2a 3f 1d 3b 03 40 fa f7 5d 3e 41 9d bd bf
       0.667941 2.050483 0.21676627 -1.4813615
0000b0 d9 01 73 bf 1f 2b 5a bf 8a ca 50 3f d1 fe a2 3d
       -0.94924694 -0.8522205 0.8155905 0.079587586
0000c0 35 8f 84 3f 07 0c 4d bf 92 2b 5c bf 29 5e 70 bf
       1.0356203 -0.8009648 -0.86003983 -0.93893677
0000d0 ff 41 9b 3f 0e fa b0 be 03 14 ad bf 3a c4 94 3e
       1.2129515 -0.34565777 -1.3521732 0.2905596
0000e0 4a 25 9e 3f a0 de 65 3f 3d ff 0a 40 69 ff 0a bf
       1.235513 0.89792824 2.1718285 -0.54295975
0000f0 88 9a 9d 3f 27 3f 46 be 62 1e 25 c0 e3 2e 38 be
       1.2312784 -0.19360028 -2.5799794 -0.17986636
000100 e9 0c 83 3f af 36 35 c0 cf 3a fd be 0f 4d 29 be
       1.0238315 -2.8314626 -0.4945893 -0.16533302
000110 06 ae ba 3f 41 3c 8f bf 42 d1 31 bf a7 b1 18 3d
       1.4584358 -1.1190263 -0.6945993 0.037278797
000120 7c 6f 45 40 78 9c 5b bf d6 e4 9a 3f 54 5f 80 bf
       3.0849295 -0.8578563 1.2101085 -1.0029092
000130 c3 47 b4 3f 57 3b 00 bf 52 ed c5 be 90 b8 39 be
       1.40844 -0.50090545 -0.38657624 -0.18136811
000140 8d 61 37 3e ec 4a c4 be 2f 94 ae 3f ce 71 2b 40
       0.17908306 -0.3833841 1.3638972 2.678821
000150 58 b9 30 40 f2 5a e2 3f b6 a6 59 3f f4 45 f9 be
       2.7613125 1.7684004 0.85020006 -0.48686182
000160 d6 d3 b6 3f ce 2b b9 3f bd 29 9b 3d 3a b2 87 be
       1.4283397 1.4466493 0.0757632 -0.26503164
000170 58 a0 02 bf f5 5f 3d bf d0 00 11 3e a3 87 2e 40
       -0.51025915 -0.73974544 0.14160466 2.7270286
000180 6c 0b 72 3f df ad 85 bf 39 22 8a bf 92 09 31 3f
       0.9454868 -1.0443686 -1.0791694 0.6915523
000190 72 b3 8f bf 77 22 6d bf 9f ad 9c 3f ab 5a 39 bf
       -1.1226637 -0.92630714 1.2240485 -0.72403973
0001a0 f9 a1 fe be 6a 30 9f bf 38 85 a7 bf a6 65 6f 3f
       -0.4973295 -1.243665 -1.308753 0.9351448
0001b0 b0 c1 ff 3e 0c 4d 08 3f 7f fe ce bf 43 a7 22 40
       0.4995246 0.53242564 -1.6171416 2.5414588
0001c0 f9 b5 14 3f 6a e0 eb be b4 b7 ef bf 4d c1 13 c0
       0.5809017 -0.46069652 -1.8727937 -2.3086731
0001d0 f9 51 e8 be d2 e0 e8 bf ff 76 b1 3f 50 f8 c0 bf
       -0.4537504 -1.819361 1.386444 -1.5075779
0001e0 cf d2 23 3f 1a 56 07 bf a9 be af bf 21 ca 34 40
       0.63993543 -0.52865756 -1.373006 2.824837
0001f0 af f0 f0 3d 2b 4c d5 3d f3 a4 50 bf b4 30 c7 3e
       0.11764657 0.104149185 -0.8150169 0.38904345

critic_network.2.weight f4 [128, 128]
000000 d8 bb 36 3f f1 e5 f0 be 52 a6 01 bf c2 90 e0 3f
       0.71380377 -0.4705043 -0.5064441 1.7544177
000010 a6 e5 86 3f 21 cb 0e 3f 4d 5b 17 bf 10 7b 04 3f
       1.0538833 0.557787 -0.5912369 0.5175028
000020 b0 b3 85 bf 2b db 9e 3f 81 01 74 bf 09 2b 36 bf
       -1.0445461 1.2410635 -0.95314795 -0.71159416
000030 85 2e 98 bf ec 1d a6 3f 25 6f 3c bf 2b 48 52 bf
       -1.1889197 1.2977881 -0.73607093 -0.8214137
000040 c7 ce 58 be 14 2e 0a 3f 8b 27 5d 3f 8f 8b 1d 3f
       -0.2117263 0.5397656 0.8638846 0.61541075
000050 b3 f0 0a bf 0a bb 5a bf 5f bf 84 3f 1b a1 e4 3e
       -0.5427353 -0.8544165 1.0370902 0.44654164
000060 24 6f ee 3e 15 62 43 bf 45 9e e0 3f ff 30 37 3f
       0.4656917 -0.76321536 1.75483 0.7155914
000070 94 e3 1e bf 0b af 90 3f 15 e2 bd 3f 93 46 67 bf
       -0.62066007 1.1303419 1.483462 -0.9034206
000080 8c c6 06 bf 4f 79 66 bf 1c 20 40 bf 2c 4c 54 3f
       -0.5264671 -0.9002885 -0.75048995 0.8292873
000090 fe 02 2e 3f 9e e4 85 bf 03 d2 98 bf 84 9d 37 3f
       0.67973316 -1.0460393 -1.193909 0.71724725
0000a0 cd 5e 01 be 58 b7 e9 3e c0 de 06 be e2 ef 80 3f
       -0.1263382 0.45647693 -0.1317091 1.0073206
0000b0 cf 9d b0 be a5 d1 1e 3f dc 68 34 be 0e 71 52 bf
       -0.34495398 0.6203864 -0.17618126 -0.8220376
0000c0 64 d0 a3 3d ff 0d 85 bf 7d ef 8d 3e fe cf 92 3e
       0.07998732 -1.0394896 0.27721778 0.2867431
0000d0 f0 52 60 3f 78 8b 7f 3e d8 18 90 bf 62 81 c7 3e
       0.8762655 0.24955547 -1.1257582 0.389659
0000e0 93 ed 04 3f 67 6c d7 bf 65 91 fe 3e f8 06 1c 3f
       0.5192501 -1.6829957 0.49720302 0.60948133
0000f0 b1 0f 33 bf 9c d9 30 bf 1c 3b 80 bf 1c 89 fa be
       -0.6994582 -0.69082046 -1.0018039 -0.4893273
000100 a3 fa c8 3e ca 1b 65 bf 52 5c 7e 3d f0 56 57 3f
       0.3925372 -0.8949553 0.062099762 0.8411703
000110 a1 71 8c 3e 38 23 4d 3e f0 8d 11 3e 71 89 16 3f
       0.27430442 0.20032966 0.14214301 0.5880347
000120 1a 99 64 3f 3f 21 f9 3f 67 b5 92 3e 79 a4 cd 3d
       0.89296114 1.9463271 0.28654024 0.10041136
000130 d0 0d 42 3f e6 3d f7 3d 3c 40 1d bf b7 95 f4 3e
       0.75802326 0.12072353 -0.6142614 0.47770473
000140 54 b2 79 3f 77 7c 15 3d 8b 60 1f bf 34 f3 6a 3f
       0.9753773 0.036495652 -0.6225669 0.9177735
000150 6f 98 72 3f bf 5c af bf 8f 1e 52 c0 0f 12 82 bf
       0.94763845 -1.3700179 -3.2831151 -1.0161761
000160 0e fd 11 3f ef 8e f8 bf ac c9 fc 3e e9 46 39 3f
       0.57026756 -1.941862 0.49372613 0.72373825
000170 78 c9 7e 3f c9 46 bb 3f ad 0c 6a bf b0 60 7c 3f
       0.99526167 1.4630977 -0.9142559 0.98585033
000180 31 81 26 c0 2d cb 19 40 a1 0c 8f 3f 93 a3 5d 3f
       -2.6016352 2.4030259 1.1175729 0.8657772
000190 79 86 1d 3e 1b c0 2e 40 b5 ba aa bf dc 03 80 3e
       0.15383328 2.7304752 -1.3338228 0.25002944
0001a0 48 66 8b 3f 9e 78 5b 3f 04 02 24 3f 54 45 89 bf
       1.0890589 0.8573092 0.64065576 -1.0724282
0001b0 29 9e d4 3f 0e b3 c0 be de da 10 40 0e ca 50 3f
       1.6610767 -0.37636608 2.2633586 0.8155831
0001c0 df 8b 30 3f 6b bd 46 3f af 83 31 bf 1c 71 96 bf
       0.68963426 0.7763278 -0.6934156 -1.1753268
0001d0 c6 bf 98 3f 3b a9 64 bf ea 89 05 3f 5b 9b 2a bf
       1.1933525 -0.89320725 0.52163565 -0.66643304
0001e0 40 97 af bf f2 34 39 bf 0a 91 26 40 a1 50 83 3f
       -1.3718033 -0.72346413 2.6026025 1.0258981
0001f0 12 10 97 bd 83 4b a7 bd b3 e2 3a be 45 41 3f bf
       -0.07376112 -0.081686996 -0.18250541 -0.7470897
000200 e1 9f a5 be 5b f4 1b 3e e4 3c a3 3e 5f 47 24 3f
       -0.3234854 0.15229933 0.31882393 0.64171404
000210 e5 3e 27 3e 57 41 2e 3e 47 34 55 bf 37 a7 3b bf
       0.16332586 0.17017113 -0.83282894 -0.73302025
000220 7a 08 d2 be 18 b5 1a bf 47 c3 99 be 2b ed 71 be
       -0.41022092 -0.6043258 -0.30031797 -0.23625629
000230 20 4c 2c bf e6 1a e8 3e a0 b9 10 bf 45 0f b5 bd
       -0.6730366 0.45333022 -0.5653324 -0.08840803
000240 4a 38 82 3e 18 9a 39 3f ba 90 f4 3e fd 56 01 3f
       0.2543357 0.72500753 0.47766668 0.5052336
000250 cd 64 7a bf 1a 6c 6b 3c b8 52 0d 3f 48 2f c0 bf
       -0.9781006 0.014369035 0.55204344 -1.5014429
000260 c8 26 d1 3e a5 c8 7f be b1 b6 ec 3f fb c4 dd 3d
       0.408499 -0.24978884 1.8493253 0.10828587
000270 11 2a 03 bf 41 01 6a 3f 59 79 ff 3e 92 66 9b 3f
       -0.51236063 0.91408163 0.49897268 1.2140677
000280 56 3c 16 bf 7e 9a d5 3e cc 37 8a bf 14 b6 11 3f
       -0.58685815 0.4171943 -1.0798278 0.56918454
000290 8a c9 cc 3e 89 4e fb be 7b f8 90 bf 5a e2 72 3f
       0.39997512 -0.49083355 -1.132583 0.94876635
0002a0 84 c3 df 3e 4e 38 2f 3e d3 4f 5c bd ee 76 0a 3f
       0.43703854 0.17111322 -0.053787064 0.5408772
0002b0 17 41 0b 3f 33 f7 5e 3f 6c 85 eb 3d d0 62 1b bf
       0.54396194 0.87095946 0.115000576 -0.6069765
0002c0 46 a3 67 bf 70 9b e6 be a3 57 2e 3e 53 6f 03 40
       -0.9048351 -0.45040464 0.17025618 2.0536697
0002d0 9a 74 9f 3e 29 c1 fa be fc 3f 71 bf 75 bc db bd
       0.31143647 -0.48975495 -0.9423826 -0.10729305
0002e0 99 6b 86 3f 80 a0 d8 be d1 e4 fd 3d 8a c0 22 3f
       1.0501586 -0.42309952 0.12397159 0.6357504
0002f0 e8 eb 97 3e df 19 47 bf c4 9b 47 bf e7 37 3d be
       0.2967217 -0.7777385 -0.77972054 -0.18478356
000300 a8 03 b3 3e df 15 af be e2 a0 63 3f ef 7b 20 3f
       0.34963727 -0.34196374 0.8891736 0.6268911
000310 41 ee 7e 3f 2b ed d9 3e d8 ed 5a be 5a 47 a0 3e
       0.99582297 0.42563757 -0.21379793 0.31304437
000320 55 19 3d 3f a8 78 10 bf 95 0f 11 3f 83 49 f0 3e
       0.7386678 -0.56434107 0.566644 0.46931085
000330 ff 23 8e be 43 e4 8d 3d 04 b1 cc 3e 76 52 d9 3e
       -0.27761838 0.06928303 0.39978802 0.42445725
000340 bf 1e 16 3f b4 32 59 3f 26 ff ba 3e c5 ad a1 3e
       0.58640665 0.8484299 0.36522788 0.31577888
000350 10 c5 d7 3e d2 e8 69 be 08 0e 18 c0 f9 28 91 be
       0.42142534 -0.2284272 -2.3758564 -0.28351572
000360 81 6a c0 3e c8 83 b1 bd d1 d7 05 3e 3d e6 9c 3e
       0.37581256 -0.086677134 0.13070609 0.30644408
000370 0c 4e a0 3f f2 65 25 3f 5c e7 51 bf c3 0b f7 3e
       1.2523818 0.6460868 -0.8199365 0.4825116
000380 56 35 71 c0 d9 ba e0 3e 6c 2c 31 3f 7f cf b9 3f
       -3.7688804 0.43892553 0.6920841 1.4516448
000390 c9 c6 44 3c e0 07 ed 3f 6a 2c af bf db a7 f9 be
       0.012010285 1.8518028 -1.3685429 -0.48760876
0003a0 e1 c1 32 3f 8c 2a 8c 3f a8 8f 25 be 87 91 0a bf
       0.69827086 1.0950484 -0.16168082 -0.5412831
0003b0 02 e8 83 3f 0d 6c 3f 3e b7 59 88 3f 32 d1 a2 3e
       1.0305178 0.18693562 1.0652379 0.31800228
0003c0 07 8c 61 3f d5 64 15 3f 3b 4d c7 be 5d 79 04 bf
       0.8810429 0.5835698 -0.3892611 -0.51747686
0003d0 20 f7 ab 3f 8a ce d2 be 78 ee 17 be 6a 75 c9 3e
       1.3434792 -0.41173202 -0.14837062 0.39347392
0003e0 e6 af 5e bf aa 7c cb be c5 b9 4c 40 9a 0f d6 3e
       -0.8698715 -0.3974355 3.1988385 0.41808778
0003f0 6d 24 3c bf d0 69 15 bf 42 bf b6 be 35 52 0b 3e
       -0.7349308 -0.5836458 -0.35692793 0.13605578

critic_network.2.bias f4 [128]
000000 12 58 8d 3f ef f8 fe 3e e4 f4 16 3f 5e 67 f6 3e
       1.1042502 0.49799296 0.58967423 0.48125738
000010 52 3e 52 bf b2 af 3b 3d 77 7d d9 be 66 61 60 3f
       -0.82126343 0.045821853 -0.42478535 0.8764862
000020 55 56 bb be 02 4a d1 3e 89 e1 19 3f d7 68 06 3f
       -0.36589304 0.40876776 0.60109764 0.5250372
000030 01 96 94 3f 70 3b e0 3e 9f e5 4c 3f 13 1c 0f bf
       1.1608278 0.43795347 0.80037874 -0.5590221
000040 bc 5b a2 be 91 96 49 bf c9 5f 1d 3e e1 5e ae be
       -0.31710613 -0.7874537 0.1536857 -0.34056762
000050 89 21 8d bf ad 08 19 bf 33 ca 08 3f fe fc d6 be
       -1.1025859 -0.59778863 0.5343353 -0.41989893
000060 18 bd b8 3e 06 84 a5 bf b8 5c eb 3e 98 4b 07 3d
       0.36081767 -1.2930915 0.45969176 0.033031076
000070 2f 0e 56 bb a9 28 ee 3d ac 98 b6 3e 0a b3 87 3e
       -0.0032662263 0.11628849 0.35663354 0.26503783
000080 f5 3a 15 3f 23 26 51 3e 8e 54 87 3e 69 15 a2 be
       0.58293086 0.20424704 0.26431698 -0.3165696
000090 5c 89 3e bf 16 a9 22 bf 31 49 c3 be 3a 6a 19 bf
       -0.74428344 -0.63539255 -0.38141778 -0.59927714
0000a0 f1 7b af 3d 05 71 65 bf 99 05 4c 3e 87 97 84 3c
       0.08568562 -0.8962558 0.1992401 0.016185535
0000b0 1a f0 46 bf b3 cf 25 3f 56 10 e8 3e c3 42 b2 3e
       -0.77710116 0.6477005 0.45324963 0.3481656
0000c0 0a fa 7c 3f d7 3e c2 3e b0 a8 3b bf df 70 df be
       0.9881903 0.37938568 -0.7330427 -0.436408
0000d0 d1 c9 1e 3f 9d c6 2f bf dd e4 18 3f df bd 2c 3f
       0.620267 -0.68662435 0.5972422 0.6747722
0000e0 36 81 15 3f 4b 05 a8 3e 54 71 57 bf e3 63 1b bf
       0.58400285 0.32816538 -0.841573 -0.6069929
0000f0 ec 5c 31 3f 65 99 e0 be c8 23 8b 3f 22 67 06 3e
       0.6928241 -0.4386703 1.0870295 0.1312528
000100 9b ac 52 bf db 70 0a 3f a5 d5 e3 bd f1 77 0b bf
       -0.82294625 0.54078454 -0.11124734 -0.5447989
000110 23 0b aa 3e c0 4a 14 bf 23 2d 02 3d 32 55 75 bf
       0.33211622 -0.5792656 0.031781327 -0.9583312
000120 2e 0a 81 3f 9e cd 0d 3f 23 65 72 3f a5 b5 94 be
       1.0081232 0.5539187 0.9468557 -0.29044834
000130 29 a6 13 3f 7b 1d 23 3f 66 63 41 be 71 51 05 bf
       0.57675415 0.6371686 -0.18885574 -0.52077395
000140 a9 ad 6c 3e 48 ec 85 be e5 06 8d be e5 61 39 3e
       0.23113121 -0.2615683 -0.27544323 0.1810375
000150 28 49 fa 3e 81 86 df 3e 40 43 94 3f 18 fb 2b bf
       0.4888394 0.43657306 1.1583023 -0.67180014
000160 a6 27 77 be 88 95 43 3e 6d 03 3c 3f 2e 4b a1 3e
       -0.24136218 0.1910001 0.7344273 0.3150267
000170 04 66 4e be 70 16 97 3f 12 41 6c bf a3 71 fe 3d
       -0.20156103 1.1803722 -0.9228679 0.12424018
000180 32 3a 99 3e 7f 8d 0d 3f a0 a8 04 bf 50 a2 24 bd
       0.29927212 0.5529403 -0.518198 -0.040193856
000190 8d 9b 6c bf a6 54 86 bf 8f a8 0a 3f 5a 8f 18 3f
       -0.9242485 -1.0494583 0.5416345 0.5959374
0001a0 d8 0e f8 3e 59 32 b7 3e 11 38 7e 3e 1e 46 51 bf
       0.48448825 0.357806 0.24826075 -0.81747615
0001b0 36 dd 8a bd d6 9a 09 bd 41 1a f7 3e b9 15 c3 3e
       -0.06780474 -0.03359493 0.48262218 0.3810251
0001c0 83 21 b5 3e 8e 9b e4 be 72 4d 07 bf ab 3e 2d bf
       0.3537713 -0.4464993 -0.5285255 -0.6767375
0001d0 97 c0 51 be 2f 1d 4c bf cc 7e 17 bf 63 7e 8b bf
       -0.20483623 -0.7973203 -0.5917785 -1.0897945
0001e0 cd 8f e0 be b3 6e da be eb 65 18 bf 98 1e 8d be
       -0.4385971 -0.42662582 -0.59530514 -0.27562404
0001f0 28 84 bd 3e 58 f4 e4 be 1a 54 4c bf 6f ad b3 be
       0.3701489 -0.4471767 -0.7981583 -0.35093257

critic_network.4.weight f4 [1, 128]
000000 8f 54 58 c2 91 40 5e c2 ba 49 5d c2 5c 89 5e c2
       -54.082577 -55.563053 -55.322 -55.63414
000010 3e 6e 5c 42 e3 61 5b 42 fc 87 5d 42 83 eb 5c c2
       55.10766 54.845592 55.382797 -55.229992
000020 0a ec 59 42 90 29 5c c2 6c bf 5d c2 cb e6 5a c2
       54.480507 -55.04059 -55.436935 -54.725384
000030 53 b6 57 c2 35 08 5b c2 20 44 5d c2 07 c9 5c 42
       -53.92805 -54.758015 -55.31653 55.196316
000040 6d f8 5a 42 26 f4 5b 42 7e cb 5c c2 18 8a 5e 42
       54.742603 54.988426 -55.198723 55.634857
000050 e8 f0 5a 42 fa 25 5c 42 3b 43 5e c2 28 e5 5b 42
       54.73526 55.037086 -55.565655 54.973785
000060 f0 59 5e c2 90 c8 57 42 4a b4 5c c2 09 72 5d 42
       -55.58783 53.94586 -55.176064 55.361362
000070 13 57 5c c2 a5 d1 5b c2 34 e1 5b c2 93 6a 5b c2
       -55.085033 -54.95473 -54.969925 -54.854076
000080 3b a2 5c c2 7e a5 5c c2 cf ae 5b c2 cf 50 5c 42
       -55.15843 -55.161613 -54.92071 55.078915
000090 18 7b 5c 42 05 d2 5d 42 e4 ec 5c 42 a2 8e 5b 42
       55.12021 55.455097 55.23134 54.88929
0000a0 d3 6f 5b c2 35 0c 5c 42 1e 91 5a c2 bc af 5b c2
       -54.859203 55.01192 -54.641716 -54.921616
0000b0 de ae 5c 42 2a 9d 5b c2 92 25 5b c2 f6 b1 5c c2
       55.17077 -54.90348 -54.78669 -55.17379
0000c0 eb 23 5a c2 e0 ee 5b c2 bb 78 5c 42 97 63 5b 42
       -54.535076 -54.983276 55.1179 54.847256
0000d0 ee 5f 5c c2 97 a3 5b 42 4c 0e 5c c2 68 2e 5d c2
       -55.09368 54.909756 -55.01396 -55.29532
0000e0 ea f6 5b c2 a7 79 5e c2 a5 ae 5b 42 a9 d0 5b 42
       -54.991127 -55.6188 54.92055 54.95377
0000f0 98 37 5c c2 ec 9e 5b 42 fb 93 59 c2 24 0e 5c c2
       -55.05429 54.905197 -54.394512 -55.01381
000100 8c 58 5d 42 75 56 5d c2 5f 1f 5c 42 4e 39 5d 42
       55.33647 -55.33443 55.030636 55.30596
000110 5f e5 5c c2 8a c2 5c 42 f6 0c 5b 42 14 c0 59 42
       -55.223995 55.18998 54.762657 54.437576
000120 bf 97 5a c2 de dc 5e c2 27 9e 59 c2 2a 1a 5b 42
       -54.64819 -55.71569 -54.404446 54.77555
000130 68 bd 5b c2 1a fa 5b c2 b6 0c 5c 42 d0 75 5a 42
       -54.934967 -54.99424 55.012413 54.61505
000140 2c 68 5c c2 aa c8 5c 42 b2 43 5c 42 33 eb 5d c2
       -55.10173 55.19596 55.06611 -55.479687
000150 7c ae 5c c2 3b d6 5b c2 37 53 57 c2 2b e3 5a 42
       -55.170395 -54.95921 -53.831264 54.721844
000160 64 18 5b 42 5f ca 5c c2 a9 d6 5b c2 a6 42 5d c2
       54.77382 -55.197628 -54.95963 -55.315086
000170 91 2c 5b 42 80 3e 58 c2 45 a4 5b 42 5c 6a 5c c2
       54.79352 -54.061035 54.91042 -55.103867
000180 fe e0 5c c2 10 27 5d c2 be df 5a 42 35 44 5b 42
       -55.21972 -55.288147 54.7185 54.81661
000190 20 11 5b 42 fe d3 59 42 21 e9 5b c2 5d 69 5d c2
       54.766724 54.457024 -54.977665 -55.352894
0001a0 ea 6b 5d c2 ae ed 5a c2 83 be 5b c2 e0 57 5a 42
       -55.355385 -54.73211 -54.936047 54.585815
0001b0 b4 7e 5b c2 33 a6 5c 42 e1 eb 59 c2 96 a8 5b c2
       -54.873734 55.162304 -54.48035 -54.914635
0001c0 b7 37 5b c2 4f 53 5d 42 a0 a9 5d 42 6a 05 5e 42
       -54.80441 55.331356 55.41565 55.505287
0001d0 47 24 5c 42 a4 f0 5c 42 2a a9 5c 42 ca 29 58 42
       55.035427 55.235 55.1652 54.04081
0001e0 ad 11 5c 42 d2 b7 5c 42 38 70 5e 42 bd 2a 5d 42
       55.01726 55.179512 55.60959 55.291737
0001f0 78 e7 5a c2 ee 41 5c 42 9d b6 5d 42 be 04 5e 42
       -54.726044 55.064384 55.428333 55.50463
