test_uav/model/critic_model14-10-2023_11-21-29/80.pt (torch, 77807 bytes, 5 tensors)

critic_network.0.weight f4 [128, 17]
000000 e0 63 65 3e 6c 71 76 3e de 30 1b 3f 23 02 6c be
       0.2240138 0.24066705 0.6062144 -0.2304769
000010 d3 3b 20 bf 89 74 6c be 46 4e 49 3e ed 10 43 be
       -0.62591285 -0.2309133 0.19658765 -0.19049425
000020 a6 19 d2 3e c9 f7 22 be b4 e2 5e 3f 6d 5a 09 bf
       0.41035193 -0.15914835 0.8706467 -0.53653604
000030 02 4e e2 bd cf b2 87 3d 64 00 9d 3d fb cc f9 bc
       -0.11050035 0.06625902 0.0766609 -0.03049325
000040 09 c0 0d be c8 6d a9 3d 65 8c 63 3e 2e c7 b6 be
       -0.13842787 0.08272892 0.22221525 -0.35698837
000050 77 96 02 3f 59 d9 a1 bd 6b c0 36 bf ca ca 2d 3e
       0.5101084 -0.07902784 -0.71387357 0.16971889
000060 c0 47 a3 bd a6 2a dd 3e a2 54 8e be aa b2 da be
       -0.079726696 0.431966 -0.27798945 -0.42714435
000070 c0 77 07 3f 6c 47 3b bf fd 43 39 3e 7b 1c fd 3d
       0.529171 -0.73155856 0.18092342 0.12358948
000080 f7 33 21 3d 5c 6a 06 3d fd ed b2 3e 04 5b 11 bd
       0.0393562 0.032816276 0.34947196 -0.03548719
000090 09 dd 25 3f 3c 6a d9 3b 09 c5 19 bf 08 d2 63 3e
       0.647904 0.0066349786 -0.60066277 0.2224809
0000a0 34 e3 70 bc 9d c4 d1 bd c8 77 18 3f 99 83 0c 3e
       -0.014702607 -0.10242579 0.5955777 0.13722076
0000b0 b0 fd e7 3e 3a 43 a1 be 3d cb 23 3f b9 d5 db 3d
       0.45310736 -0.31496602 0.6398199 0.10734124
0000c0 45 15 d9 3c 3b 02 2f 3d 48 af 5a 3d 97 22 5d 3d
       0.0264994 0.042726737 0.053389817 0.053988066
0000d0 22 43 b7 3c ea cb fe 3e 43 b8 94 3c 3c 4d 34 be
       0.022370879 0.4976495 0.01815427 -0.17607588
0000e0 75 5f 38 bd f8 47 df 3d 74 9f 3e bc d2 7f 72 3e
       -0.04501291 0.10902399 -0.011634696 0.23681572
0000f0 62 99 d4 be ce 58 a2 3f 9b 46 df 3e 71 e2 78 be
       -0.41523272 1.2683351 0.43608555 -0.2430513
000100 0a 13 1b 3c 3c 84 85 3d 3a 10 21 3d 3e e9 f2 3b
       0.0094649885 0.06519362 0.039322115 0.0074130585
000110 bb 62 8e be e6 8b 89 be a4 98 9c be ab 54 4f 3c
       -0.278097 -0.26864547 -0.30585206 0.012654464
000120 f0 53 26 3e 67 27 34 3d e0 21 7e bd 2d 9d f1 3d
       0.16242957 0.04398289 -0.062044024 0.11797557
000130 c5 e5 f0 bd 0d 99 a8 3e e6 0c 3c be 02 11 95 be
       -0.11762575 0.32929268 -0.18364295 -0.29114538
000140 6d 6d fb 3e 54 30 01 3c b7 4f 4c 3d bc 99 b4 3d
       0.49106923 0.0078850575 0.04988071 0.08818385
000150 06 72 0b 3e c8 b1 bc be a2 39 83 bf 79 33 28 bf
       0.13617715 -0.36854386 -1.0251963 -0.6570354
000160 45 3c 1e bd c2 a1 11 be ed e2 e7 3c 92 30 62 bc
       -0.038631696 -0.14221862 0.028306449 -0.013805525
000170 c3 33 0c bc 18 e4 1e be d4 27 49 be fc b4 a2 3c
       -0.008557263 -0.15516698 -0.196441 0.01986169
000180 a3 34 b1 bc 9d 21 26 bc 60 00 8c 3c 58 0f b5 bc
       -0.021631544 -0.01013985 0.017090023 -0.022102043
000190 d6 29 1f bc b5 dc 92 b8 1c 1a 31 3f e3 50 e5 bd
       -0.009714564 -7.0029324e-05 0.69180465 -0.111970685
0001a0 f4 2a 82 bc 3f fd 57 3f 66 0f 9c be 48 d9 82 be
       -0.015889622 0.843708 -0.30480498 -0.25556397
0001b0 97 aa 0c 3c 0f 27 a3 3d 6b 8a 22 3e 3a f7 db 3d
       0.008585594 0.07966434 0.15873115 0.10740514
0001c0 f2 04 3e 3f cc bd 33 3d 93 9b ba 3d 46 26 b6 3d
       0.74226296 0.043882176 0.09111705 0.08894019
0001d0 84 5b b1 3d 59 f7 a1 3d 68 ed 9b 3d 90 cd 07 3a
       0.08660033 0.07908506 0.07613641 0.00051804725
0001e0 ed cc 72 3d fe 52 9c bb b7 58 a2 bd 76 5c 19 be
       0.059277464 -0.0047706356 -0.07927077 -0.14976677
0001f0 ff 3d b5 be 30 74 1e 3d 5f ef a5 bc 23 2b cf 3e
       -0.35398862 0.038685024 -0.020255743 0.40462598
000200 7a 69 85 3f 3c 57 2a be 7c 2b 86 3c b2 f2 39 3e
       1.0422814 -0.1663484 0.016378157 0.18158987
000210 1a 35 1a 3f 83 25 38 3f 8b ec c4 3e 22 69 ec 3e
       0.60237277 0.7193224 0.38461718 0.4617396
000220 c1 b4 42 bc 26 13 87 3d fd 43 06 bc d9 02 83 3d
       -0.011883915 0.06595449 -0.008194921 0.063970275
000230 a6 73 f1 bb 86 d4 81 3e 37 78 8f bd 81 7a 47 3d
       -0.0073685227 0.25357455 -0.07005351 0.048700813
000240 f6 96 81 be d8 49 2b bf 1d 7d 68 be 9b ab 6d bc
       -0.25310487 -0.6690955 -0.22703977 -0.014506246
000250 e3 90 3e be a2 41 fe be 7a d0 32 bf f8 61 2d bf
       -0.18609957 -0.4965945 -0.6984936 -0.67727613
000260 24 dd 3a bf 6d 58 ee bd c8 b6 4d 3b e9 47 c0 3e
       -0.72993684 -0.1163796 0.0031389464 0.37554863
000270 dd ce 72 3e 46 1a 49 3f 3e e8 85 3e cb b7 a2 bd
       0.23711725 0.78555715 0.2615375 -0.07945212
000280 f7 94 2d 3e 56 ef ee bc 5e 17 80 bd ed 59 ad bf
       0.16951357 -0.029166859 -0.06254457 -1.3543068
000290 1b 6e 6b 3f ba 91 5b 3f d8 f1 25 bd 9d fe cc 3c
       0.9196488 0.85769236 -0.040513843 0.025023753
0002a0 05 15 29 3d 46 1e 85 3d 4a 46 68 bd d0 c8 f9 3d
       0.04127981 0.06499915 -0.056707658 0.12196505
0002b0 0a a1 ae 3d f9 04 17 3d 71 11 89 3d 71 b0 9c 3e
       0.085268095 0.036869977 0.0669278 0.30603364
0002c0 df bb 83 bd b5 46 0f 3d e0 f6 b3 be 1d c6 7c bf
       -0.06432318 0.03497954 -0.35149288 -0.98739797
0002d0 73 d7 a3 be d6 56 d2 bd f8 54 59 be 06 e7 22 bf
       -0.32000312 -0.10270469 -0.2122382 -0.63633764
0002e0 c6 fe 29 bf bd 17 34 bf b5 e4 10 bf c9 2c 45 3e
       -0.6640438 -0.7034872 -0.5659898 0.19255365
0002f0 56 83 60 3e 1a ab e7 be d5 68 04 3c 00 28 06 bf
       0.219251 -0.45247728 0.0080816345 -0.52404785
000300 10 ce c7 be ec eb 19 3d f2 d6 65 bd ed a0 66 3e
       -0.390244 0.03757851 -0.05611319 0.22522326
000310 0a 99 86 be f0 8d c7 3f ec 2c 44 bf f1 63 99 3e
       -0.26288635 1.5590191 -0.76631045 0.29959062
000320 d9 ea 72 3d 20 0c 0f 3c e3 c1 a1 bc a0 ec 73 bc
       0.059306 0.008730918 -0.019745773 -0.014887959
000330 9d 93 d2 3e f5 cd 67 3e cc 62 9c 3e 76 a9 d8 3a
       0.41128245 0.2263716 0.30544126 0.0016529995
000340 4d f0 ae 3d ab 62 b2 3d ec 46 d8 bc 5f 6c 08 bd
       0.085419275 0.08710226 -0.026401006 -0.033306476
000350 b5 83 9e 3d 0d 3c b0 bf a1 28 e3 3e 8f 8a 50 be
       0.07739965 -1.3768326 0.44366935 -0.20365356
000360 2f 31 1c 3f 80 99 83 bc 5e bb ca bc bb 8d 1c bc
       0.6101255 -0.016064405 -0.024747547 -0.009555276
000370 3f b9 db bc 66 92 2a 3c ca 9b c3 be 4a 27 83 3e
       -0.02682173 0.010410881 -0.38204795 0.25615913
000380 08 fc 0d 3e bf f5 02 3e ae 9d ac 3c 17 c6 11 3d
       0.13865674 0.12789057 0.021071281 0.035589304
000390 1f 8e 17 bc ef ba c0 3e 89 43 ee bd dc a8 24 3e
       -0.009250193 0.3764262 -0.11633975 0.1608004
0003a0 cf d2 ce 3e d0 e5 77 3e 72 e8 64 3d aa f9 00 3d
       0.4039521 0.2420876 0.05588574 0.0314881
0003b0 d2 01 87 3c 1a ca aa bc 91 76 aa be 68 41 11 bd
       0.01648036 -0.020848323 -0.33293584 -0.035462767
0003c0 c7 da c5 be c3 03 0a be 2f aa a3 be 44 c2 7f be
       -0.38643476 -0.13477997 -0.31965777 -0.2497645
0003d0 4b 69 7a 3e 50 12 77 3e 5d 8d f7 be c0 cc 32 3e
       0.24454229 0.2412808 -0.4835004 0.17460918
0003e0 6e 91 ad 3d 6d 05 c6 bc b3 40 28 bf 7b f5 32 be
       0.08475004 -0.02417251 -0.65723723 -0.17476456
0003f0 ad 6d bb 3d 4d 93 f6 3d 91 8b a7 bd c8 2c be bd
       0.09151778 0.12039814 -0.08180917 -0.09285885

critic_network.0.bias f4 [128]
000000 ed 25 b4 be b0 e8 64 3e b8 40 01 3f d5 b7 a2 be
       -0.35185185 0.22354388 0.5048938 -0.31780878
000010 bf 36 ab 3e 7b 33 70 bf 27 df b4 3e 66 52 5c 3f
       0.33440205 -0.9382855 0.35326502 0.8606323
000020 89 c4 83 bf e0 66 47 bf bb ab 7c bf ab 1d bc 3e
       -1.0294353 -0.7789135 -0.9869954 0.36741385
000030 a1 e2 97 3e 72 99 17 bf ea 26 18 3f f8 0a 88 3e
       0.29665092 -0.59218514 0.5943438 0.26570868
000040 cd f1 36 3f 08 dc 9f bd e6 64 7f bf e7 8a 81 be
       0.7146271 -0.078056395 -0.99763334 -0.25301287
000050 6c 7c 3f 3f 04 33 23 3f 59 ec 65 3f 1f a1 d0 3e
       0.7479923 0.6374972 0.8981376 0.40747926
000060 11 3d 6b bd d2 10 83 bf 0d 1e 38 bf ee e4 21 bf
       -0.057431284 -1.0239508 -0.71920854 -0.63239944
000070 61 e8 c3 be f5 ad 71 bf 29 f0 50 3f 42 ff 12 3f
       -0.3826323 -0.9440606 0.81616455 0.5742074
000080 9d 28 0e bf 09 eb 86 3f 45 f7 d0 be 44 2c 85 3f
       -0.5553072 1.0540477 -0.40813652 1.0404134
000090 51 ba 49 bf 87 4e 47 bf 3f 57 37 3e 96 b0 44 bf
       -0.7879992 -0.778542 0.17904375 -0.7683195
0000a0 66 db 67 be 95 0d 15 be bf 79 1e bf e9 dd 55 bf
       -0.22642288 -0.14555962 -0.6190452 -0.83541733
0000b0 1b 62 8b bf 55 5e 08 bf 1f b9 d6 3e ea a9 dc 3e
       -1.0889314 -0.5326894 0.4193811 0.43098384
0000c0 08 25 8a bf b1 78 9a 3d d0 e4 f6 3e 5c f6 62 bf
       -1.0792551 0.07542551 0.48221445 -0.88657165
0000d0 98 84 d1 bd 3d b2 94 bf d6 b3 21 3f 8c dc 3f bf
       -0.102303684 -1.1616894 0.6316503 -0.749459
0000e0 5c 7a ab be 79 2a 1c 3f 15 dc 1a 3d f5 66 65 bf
       -0.3349179 0.6100231 0.037807543 -0.89610225
0000f0 59 a7 4b 3f 97 ef 62 3e f7 df 91 bf dc 6a 5a 3f
       0.7955223 0.22161709 -1.1396474 0.85319304
000100 64 d9 d8 be c6 43 8c bf 97 ec 00 3f 61 67 17 bf
       -0.42353356 -1.0958183 0.5036101 -0.5914212
000110 c5 9a 02 3e 5d 62 26 bf 36 5d 69 bf d4 81 9c bf
       0.12754352 -0.6499384 -0.91157854 -1.222712
000120 fa 6b 91 3f fb 34 f2 bd d9 a6 52 3f d4 6b 01 bf
       1.1361077 -0.118265115 0.8228584 -0.5055516
000130 71 fa 09 bf 0c 42 18 bf 54 5e e7 3e 14 c8 26 bf
       -0.5389777 -0.5947578 0.45189154 -0.65149045
000140 01 50 6e bf 57 28 2d 3f ee c3 d1 3e b5 6c 73 3f
       -0.93090826 0.6763968 0.40969795 0.9508775
000150 59 e5 4a 3f 90 8a 25 3f 79 8f 8c 3f e9 2c 1b 3f
       0.79256207 0.64664555 1.0981284 0.606154
000160 6b 39 1e bf 16 40 32 3f 8d b8 3c bf 8e 8c ca 3c
       -0.6180636 0.6962904 -0.737191 0.024725225
000170 f1 95 83 bf d9 c7 05 bf 35 a1 86 bf 76 7b 82 3f
       -1.0280133 -0.5225807 -1.0517946 1.0193927
000180 ba da 66 3f ab 9a 6e bf 24 4c bf be 73 c0 a2 bd
       0.901775 -0.93204755 -0.37362778 -0.07946863
000190 45 c0 84 3f 4c 58 4f bf ff fe e8 3e bb 06 8e 3d
       1.0371176 -0.80994105 0.45507047 0.069348775
0001a0 fb bc 88 bf d1 92 0c bf 3c 9c a2 be 4e 6f ba 3e
       -1.0682672 -0.54911524 -0.31759822 0.36413044
0001b0 a5 5f 4c 3e 17 fe 57 3f 78 20 36 bf c4 05 92 3f
       0.1995836 0.84372085 -0.71143293 1.140801
0001c0 bc 08 6a be f3 ca 57 be 1b 2b 2a 3f 9a 84 53 bf
       -0.22854894 -0.21073513 0.66472024 -0.8262421
0001d0 6b 70 24 bf 45 38 80 3f f9 c0 1c bf 7c d2 f1 3e
       -0.64234036 1.0017172 -0.6123195 0.472309
0001e0 bf 50 be 3e 09 ff 3c 3f 74 73 78 bf 8c 83 5e 3f
       0.3717098 0.7382665 -0.9705117 0.86919475
0001f0 b6 56 e4 3c 8c 54 0f 3e da 6f 3d bf 1b 24 67 3f
       0.027873378 0.13997096 -0.73998797 0.9028947

critic_network.2.weight f4 [128, 128]
000000 76 a6 7e 3e c5 e4 b7 be f7 6e 6f be dc ae 18 3f
       0.24868187 -0.35916725 -0.23382173 0.59641814
000010 14 1a cf 3e d4 a7 4f 3f 02 a6 03 bf e9 03 f5 3e
       0.40449584 0.8111546 -0.5142518 0.47854546
000020 3f 2a 28 bf 93 36 16 3f 18 40 1b bf c8 cc 24 bf
       -0.6568946 0.58677024 -0.60644674 -0.6437497
000030 db d6 85 bf 19 6a 00 3f 34 41 72 be e1 64 d9 be
       -1.0456194 0.5016189 -0.23657686 -0.42459777
000040 ca 8d 1f bd 8f 5d e0 3e 2e 0a 8b 3f e9 e1 c0 3e
       -0.03895358 0.4382138 1.0862482 0.37672356
000050 74 00 bb be 80 f7 12 bf fb 69 ad 3e 9d 69 6f 3e
       -0.36523783 -0.57408905 0.3386992 0.23380132
000060 79 ff e7 3e a3 da ef be 51 08 13 3f ba 00 a3 3e
       0.45312098 -0.46846494 0.57434565 0.31836492
000070 6d 09 8b be 44 56 4c 3f 78 3b 20 3f 48 9f fa be
       -0.2715563 0.7981913 0.6259074 -0.48949647
000080 8d bf 31 be 41 aa 3e bf 22 43 fe be d1 d3 fb 3e
       -0.17358227 -0.74478537 -0.49660593 0.4918504
000090 52 98 2d 3f 43 c6 04 bf e3 93 0e bf d7 0a 1c 3f
       0.6781055 -0.51865023 -0.5569441 0.6095404
0000a0 88 e9 95 3e e1 e5 14 3f f3 b8 36 be 29 b6 50 3f
       0.29279733 0.5816327 -0.1784399 0.81527954
0000b0 a2 42 89 be 0d bd ba 3e a0 5d 83 be b7 45 ad be
       -0.2680865 0.3647236 -0.25657368 -0.3384225
0000c0 2d a5 8e 3f 9b 92 fb be c7 99 8e 3d f4 d1 4d 3f
       1.1144158 -0.4913529 0.069629245 0.8039849
0000d0 04 a0 91 3e a4 bf 0b 3f ab d2 3d bf 4f d8 29 3f
       0.28442395 0.54589295 -0.7414958 0.66345686
0000e0 bf 4a c6 3e c7 f2 04 bf 4d 08 50 3e 2b 24 57 3f
       0.38728902 -0.5193295 0.20315666 0.8403956
0000f0 94 77 f4 be a4 e4 0b bf 10 8f eb be 8e 3c 37 bf
       -0.4774748 -0.5464575 -0.46007586 -0.71576774
000100 5c fa d2 3e c7 ef d7 be 7f ad b2 be 51 47 e6 3e
       0.41206634 -0.42175123 -0.34897992 0.44976285
000110 00 81 5d 3e e5 e7 4f 3e 98 7b 13 3f 31 4e 53 3f
       0.21631241 0.20303304 0.57610464 0.82541186
000120 94 b8 0a 3f 93 e4 93 3e 64 b4 00 3f 0a 77 89 3e
       0.54187894 0.28885326 0.50275254 0.26848632
000130 fe 67 3b 3f 78 1e 13 3d 01 92 ce be 72 f5 2c 3f
       0.73205554 0.03591773 -0.40345767 0.6756202
000140 80 53 80 3f 09 12 06 bf 1a fd 09 be 30 27 1f 3f
       1.0025482 -0.5237127 -0.13475457 0.6216917
000150 65 54 d7 3e eb 02 0c bf b9 6a 87 bf 0c a4 38 bf
       0.42056575 -0.5469195 -1.0579444 -0.72125316
000160 d5 dd 6e 3f 59 b5 01 bf 8a f5 39 3f ef ae f7 3e
       0.9330724 -0.5066734 0.7264029 0.4837565
000170 4b df 25 3f 0d 8f 29 3f 7c 7e f5 be 29 af 08 3f
       0.64793843 0.66233903 -0.47948062 0.53392273
000180 56 0a 46 bf d3 73 83 3f 7b 0a 9e 3e 4a fe 49 3f
       -0.7735952 1.0269722 0.3086737 0.7890364
000190 de cd e8 be e7 ed 94 3f 1f e5 cf be 20 3a 8a be
       -0.45469564 1.1635102 -0.40604493 -0.2699747
0001a0 27 4c 8a 3f 96 ef a7 3e 89 bb 38 3e 66 2a b8 be
       1.080449 0.32799977 0.18040289 -0.35969847
0001b0 b8 73 cb 3e cc d1 02 bf 6b 59 fc 3e d4 2c a5 3e
       0.39736724 -0.51101375 0.4928697 0.32260764
0001c0 22 8b 87 3e 4f 74 0c 3f 2b 97 02 bf bf a6 28 bf
       0.26473337 0.5486497 -0.51011914 -0.65879434
0001d0 23 34 04 3f 58 db 3a bf 88 89 e0 3e d5 e5 02 bf
       0.51642054 -0.7299094 0.43854928 -0.51131946
0001e0 48 49 ae be 59 65 37 bf 37 ff e9 3e ef 47 03 3f
       -0.34040284 -0.7163902 0.45702526 0.51281637
0001f0 a3 be 8b be 33 1c c3 be 31 8f 50 3f 46 37 1b bf
       -0.27293882 -0.38107452 0.8146849 -0.60631216
000200 4c 17 70 3e 32 6e 9a be 5a 8c 68 be 4f 8d f0 3e
       0.23446387 -0.30162197 -0.2270979 0.4698281
000210 61 2e b1 3e e8 b2 36 3f fa 19 06 bf 10 64 cd 3e
       0.34605697 0.7136674 -0.5238339 0.40115404
000220 41 61 0b bf 7b 62 0c 3f 39 b9 18 bf 0b d5 0e bf
       -0.5444527 0.5483777 -0.5965763 -0.5579383
000230 bd ca 7d bf 47 c0 b9 3e 95 e5 c1 bd c2 de 6f be
       -0.9913748 0.36279508 -0.094676174 -0.23424819
000240 87 54 64 be 6a b8 c8 3e b5 fd 85 3f 47 3b b3 3e
       -0.2229787 0.39203197 1.046805 0.35006163
000250 92 f3 0c bf f5 41 0e bf 62 90 a5 3e 3f b3 88 3e
       -0.5505916 -0.5556939 0.32336718 0.26699254
000260 db 58 ae 3e 3b d5 f5 be 96 fa 2b 3f b5 e1 95 3e
       0.34052166 -0.48014244 0.6717924 0.29273763
000270 5d 64 79 be 21 d1 54 3f 50 d6 02 3f c8 3b fe be
       -0.24354692 0.83131605 0.51108265 -0.49654984
000280 0c 94 d1 bd 33 57 31 bf 19 50 e0 be f5 96 fb 3e
       -0.10233316 -0.6927368 -0.4381111 0.4913861
000290 a8 14 1e 3f ee 0c f0 be d9 a8 10 bf e8 c0 22 3f
       0.6175027 -0.46884865 -0.5650764 0.635756
0002a0 b0 0a b2 3e 37 91 c8 3e 26 fa 08 bd 7e 3a 61 3f
       0.3477378 0.3917329 -0.033441685 0.87979877
0002b0 ad 76 41 be 40 aa 5e 3e c8 f8 93 bd 69 c8 ea be
       -0.18892927 0.21744633 -0.07225186 -0.45856026
0002c0 38 4c 83 3f 2e 19 dc be ec 15 ef 3d 07 59 3b 3f
       1.0257635 -0.4298796 0.11674103 0.7318272
0002d0 a9 4f db 3e 84 b4 1f 3f 1e 36 1c bf 52 3a 28 3f
       0.42834213 0.6238482 -0.61020076 0.6571399
0002e0 05 48 02 3e b7 be f2 be bf f0 00 3e 7e 35 3c 3f
       0.12722786 -0.4741113 0.12591837 0.7351912
0002f0 35 db e0 be af 3e 16 bf b8 4f 0b bf ec 14 32 bf
       -0.43917242 -0.586894 -0.54418516 -0.69563174
000300 9c a6 04 3f b9 57 bb be 7a e8 ad be 0e fa 5c 3e
       0.51816726 -0.36590365 -0.33966428 0.21579763
000310 f3 e1 1c 3e 15 5c a4 3e d6 6d 12 3f 85 20 68 3f
       0.15320568 0.32101503 0.57198846 0.9067462
000320 ad 2f 00 3f 4a 3f 67 3e ab 0f e4 3e a1 ab a4 3e
       0.5007275 0.22582737 0.44543204 0.32162192
000330 95 df 1c 3f 8a 31 1f 3e b7 1d 01 bf 52 80 0a 3f
       0.6127866 0.15546241 -0.50435966 0.5410205
000340 fc 86 8c 3f 21 53 0e bf 21 7c b4 bc d9 dd ff 3e
       1.0978694 -0.55595595 -0.022031846 0.49973944
000350 d1 22 cb 3e 42 89 3c bf a0 5b 78 bf 75 c2 29 bf
       0.39675 -0.7364694 -0.9701481 -0.6631234
000360 1e 89 4f 3f b7 84 2b bf ae 6b 2d 3f d9 1f ca 3e
       0.810686 -0.6699938 0.6774243 0.39477423
000370 f4 2c 0d 3f 17 09 2e 3f 9c 99 e3 be 17 c2 ee 3e
       0.5514672 0.6798262 -0.44453132 0.46632454
000380 eb a8 52 bf 83 af 49 3f 70 7b aa 3e 8c aa 3f 3f
       -0.82289 0.78783435 0.332973 0.7486961
000390 fe ee df be e7 0c 82 3f 44 2d 09 bf 4f 46 44 be
       -0.43737024 1.0160187 -0.53584695 -0.19167446
0003a0 f1 4a 91 3f 82 bf 04 3f 0d 7e bb 3d 06 72 ab be
       1.1350995 0.5185472 0.09154902 -0.3348543
0003b0 38 ec 8d 3e 60 75 10 bf 1f 46 16 3f 20 ec 99 3e
       0.27719283 -0.564291 0.58700746 0.30062962
0003c0 d1 5b 2c 3e 91 9d c8 3e 72 5a 03 bf f3 73 fc be
       0.168319 0.39182714 -0.51309884 -0.49307212
0003d0 85 7f 17 3f 6f f0 48 bf c2 df de 3e 2d 84 96 be
       0.59178954 -0.7849187 0.4353009 -0.29397717
0003e0 b7 af ab be 61 d4 2c bf cf 24 0d 3f 29 21 f0 3e
       -0.33532497 -0.67511564 0.5513429 0.469003
0003f0 93 94 3c be 72 23 df be 0f fb 55 3f a7 df 1b bf
       -0.18416052 -0.4358173 0.8358621 -0.6088814

critic_network.2.bias f4 [128]
000000 a1 bc 13 3f 2d 17 f2 3e d5 82 ae 3e 1c 09 0b 3f
       0.577097 0.47283307 0.34084192 0.54310775
000010 b0 d6 11 bf 0f 87 ad be dd a7 eb be 53 2c 17 3f
       -0.5696821 -0.33892104 -0.46026507 0.5905201
000020 ba 80 02 bf da 9f b2 3e 10 96 ea 3e fc 26 01 3f
       -0.5097767 0.34887582 0.45817614 0.5045011
000030 c4 41 06 3f 6c c7 cf 3e 73 27 07 3f b2 44 14 bf
       0.524441 0.40581834 0.5279457 -0.5791732
000040 1b 8e e6 be e1 d2 00 bf b8 9e ea 3e 8b dc b7 be
       -0.45030293 -0.50321776 0.45824218 -0.35910448
000050 d4 58 21 bf 2d 6d 12 bf 73 69 dc 3e 2b 3c fc be
       -0.63026166 -0.5719784 0.430492 -0.49264655
000060 bd 84 e5 3e 6a d6 0f bf 7c fa 06 3f 6f 54 ad be
       0.44827834 -0.56186545 0.5272596 -0.3385348
000070 cc 8f c3 3e 7f ee a1 3e 93 09 f2 3e 15 d6 cf 3e
       0.38195646 0.3162727 0.4727293 0.4059302
000080 dc c9 b1 3e ba 7a ec 3e 5d 2e d3 3e 3d a8 a9 be
       0.3472432 0.46187383 0.4124631 -0.33136168
000090 33 fd fa be 49 30 08 bf 3e 98 c9 be fd 24 08 bf
       -0.490213 -0.5319868 -0.39373964 -0.5318144
0000a0 0d 01 ff 3e 49 43 ff be b1 ed 20 3f cf 10 b2 3e
       0.4980549 -0.49856022 0.6286269 0.3477845
0000b0 9c 53 0b bf 85 a2 01 3f 28 89 10 3f 4f d1 05 3f
       -0.5442445 0.5063861 0.56459284 0.52272505
0000c0 12 4c 0a 3f 11 bd b1 3e c6 77 08 bf bd 66 04 bf
       0.54022324 0.3471456 -0.5330776 -0.51719266
0000d0 0d 20 05 3f 75 1a b9 be f8 a3 b5 3e 6b b8 1b 3f
       0.5200203 -0.36152998 0.3547666 0.60828274
0000e0 f7 81 03 3f 2a 6e ca 3e 45 ca 05 bf 44 55 bc be
       0.51370186 0.39537174 -0.52261764 -0.36783803
0000f0 6a 12 fb 3e 7a 80 ee be f8 19 06 3f 34 cf db 3e
       0.49037486 -0.46582395 0.52383375 0.4293152
000100 80 53 03 bf 01 fb f6 3e f7 89 de be 80 0e f9 be
       -0.51299286 0.48238376 -0.43464634 -0.48643875
000110 dc 5a 03 3f 12 18 e0 be 65 9d 9a be a9 26 f2 be
       0.51310515 -0.43768364 -0.30198207 -0.4729512
000120 55 67 03 3f 7b 33 d8 3e 0f 49 00 3f 37 a4 e6 be
       0.5132955 0.42226776 0.5011148 -0.4504716
000130 7d d4 03 3f 33 82 d5 3e f0 50 f9 be 3e fe cd be
       0.51496106 0.41700897 -0.48694563 -0.40233034
000140 48 8b f2 3e c0 eb b7 be 23 d8 cc be 26 76 e9 3e
       0.47371888 -0.3592205 -0.4000865 0.45597953
000150 6d 1e 02 3f 23 de a7 3e d2 a7 02 3f b6 3a 05 bf
       0.50827676 0.32786664 0.51037323 -0.5204271
000160 57 86 c9 be ef d8 ca 3e 76 de 20 3f 27 18 bd 3e
       -0.39360306 0.39618632 0.6283945 0.3693249
000170 83 8b 00 bf db 59 14 3f 3d c6 11 bf a7 07 cf 3e
       -0.5021288 0.5794961 -0.5694311 0.40435526
000180 c6 d0 d3 3e df 92 18 3f e1 fd f3 be 2c 82 1a bf
       0.4137022 0.5959911 -0.47654632 -0.60354877
000190 db e0 0e bf a0 cf e9 be 4a 25 00 3f 8b dc e3 3e
       -0.5581185 -0.45666218 0.500569 0.44504198
0001a0 03 8c f6 3e c3 cc cb 3e 35 2f f2 3e 12 de e3 be
       0.48153695 0.39804658 0.4730164 -0.44505364
0001b0 99 1e b8 3e 15 67 e1 be 58 f0 e4 3e 99 ee d6 3e
       0.35960844 -0.44023958 0.44714618 0.4197891
0001c0 bd 00 e8 3e 22 f8 e0 be 8f 05 00 bf 57 3a 24 bf
       0.45313063 -0.4393931 -0.5000848 -0.6415152
0001d0 7e 06 b1 be b9 f4 1f bf a6 44 0f bf d5 92 10 bf
       -0.34575266 -0.6248279 -0.55964124 -0.5647405
0001e0 87 e3 e6 be b6 d2 9f be c3 64 04 bf f5 f2 fc be
       -0.45095465 -0.31215447 -0.5171625 -0.49404112
0001f0 ae c9 ae 3e 8c 94 e9 be c5 db 19 bf ea b2 cb be
       0.34138244 -0.45621145 -0.60100967 -0.39784938

critic_network.4.weight f4 [1, 128]
000000 d3 05 00 c1 a7 54 00 c1 87 ca 00 c1 05 f9 ff c0
       -8.001422 -8.020667 -8.049445 -7.999148
000010 0b 1c ff 40 b5 88 00 41 bf a8 00 41 66 d0 ff c0
       7.972173 8.033376 8.041198 -7.9941893
000020 f6 12 00 41 20 d0 00 c1 3c 0e 00 c1 e0 f3 00 c1
       8.004629 -8.050812 -8.003475 -8.05954
000030 2a 7b ff c0 6b 4c 00 c1 9a 30 00 c1 9e 30 ff 40
       -7.9837847 -8.018657 -8.011866 7.9746847
000040 48 60 00 41 a2 06 ff 40 04 2d 00 c1 bb 99 00 41
       8.023506 7.9695597 -8.01099 8.037532
000050 67 4b ff 40 81 48 ff 40 08 b1 00 c1 31 1d 01 41
       7.9779544 7.9776006 -8.0432205 8.069627
000060 60 1a 00 c1 f9 a9 ff 40 47 42 00 c1 21 9c 00 41
       -8.006439 7.9894986 -8.016181 8.038117
000070 20 b3 00 c1 f4 ff 00 c1 bd 01 00 c1 ad b8 00 c1
       -8.043732 -8.062489 -8.000424 -8.045087
000080 40 f6 00 c1 1b b2 ff c0 1e 63 00 c1 9b c5 00 41
       -8.06012 -7.9904914 -8.024199 8.0482435
000090 a5 f7 ff 40 56 35 00 41 8d b3 00 41 c3 5b 00 41
       7.99898 8.013021 8.043836 8.022403
0000a0 ff 41 00 c1 26 ea ff 40 b1 89 ff c0 a8 8c 00 c1
       -8.016112 7.9973326 -7.985558 -8.03434
0000b0 cf 23 ff 40 96 c7 ff c0 ba 58 00 c1 bb d2 ff c0
       7.973121 -7.9931135 -8.021662 -7.994474
0000c0 b4 93 ff c0 0f ab 00 c1 27 f3 ff 40 d9 2b 00 41
       -7.98678 -8.041762 7.9984317 8.010705
0000d0 3b 40 ff c0 48 0c 01 41 62 e3 00 c1 01 aa ff c0
       -7.9765906 8.065498 -8.055513 -7.9895024
0000e0 8f 71 ff c0 b0 0b 01 c1 b5 44 00 41 08 d2 00 41
       -7.982612 -8.065353 8.016774 8.051277
0000f0 08 d4 00 c1 ba 5b 00 41 11 a8 ff c0 31 75 00 c1
       -8.051765 8.022394 -7.989266 -8.028611
000100 d8 98 00 41 5e 54 00 c1 8f e6 00 41 c2 6b 00 41
       8.037315 -8.020597 8.056289 8.026308
000110 81 fa ff c0 a4 48 00 41 1f 5d 00 41 8b 7c ff 40
       -7.999329 8.017735 8.022735 7.983953
000120 9f 97 ff c0 74 91 00 c1 34 08 ff c0 d3 d3 00 41
       -7.9872584 -8.035511 -7.9697514 8.051715
000130 0a 2d 00 c1 93 23 01 c1 26 ad 00 41 06 8c 00 41
       -8.010996 -8.071185 8.042273 8.034185
000140 73 c5 00 c1 73 ee 00 41 64 96 00 41 7e 05 01 c1
       -8.048205 8.058215 8.036716 -8.063841
000150 d0 31 00 c1 a7 ee 00 c1 17 d5 ff c0 b4 18 ff 40
       -8.012161 -8.058265 -7.994762 7.9717655
000160 83 15 01 41 cd d9 00 c1 a5 f9 fe c0 db 43 00 c1
       8.067752 -8.053174 -7.967974 -8.016566
000170 6e f8 ff 40 65 f2 fe c0 88 08 ff 40 60 bf 00 c1
       7.999076 -7.967089 7.9697914 -8.046722
000180 5e 36 00 c1 f3 8f ff c0 2d aa 00 41 e1 1c ff 40
       -8.013273 -7.986322 8.041547 7.9722753
000190 12 cb ff 40 d6 ca ff 40 89 40 00 c1 95 fd ff c0
       7.993539 7.9935102 -8.015756 -7.999705
0001a0 42 35 00 c1 31 b8 00 c1 ce 26 00 c1 27 49 ff 40
       -8.013002 -8.044969 -8.009474 7.9776797
0001b0 0e 84 00 c1 62 fa 00 41 c0 ab 00 c1 5b 11 00 c1
       -8.03224 8.061129 -8.041931 -8.004237
0001c0 a2 9f ff c0 26 99 00 41 d5 a2 00 41 73 07 ff 40
       -7.9882364 8.03739 8.039754 7.9696593
0001d0 6b 9f 00 41 41 11 00 41 09 95 ff 40 c5 15 ff 40
       8.03892 8.004212 7.986943 7.9714074
0001e0 8e bf 00 41 7b 99 00 41 5d 06 00 41 86 30 00 41
       8.046766 8.037471 8.001554 8.011847
0001f0 fd dd 00 c1 61 81 00 41 71 31 00 41 dd de 00 41
       -8.054196 8.031587 8.012071 8.05441
