test_uav/model/actor_model12-10-2023_14-57-52/870.pt (torch, 79599 bytes, 7 tensors)

logstd f4 [4]
000000 23 b3 0a c0 8d a2 4a c0 21 4c e6 bf 9f 04 5b c0
       -2.1671836 -3.1661713 -1.7991983 -3.422157

mean_net.0.weight f4 [128, 17]
000000 45 49 80 bf 64 93 54 3d a8 bc 4e 3e 66 b6 a4 3f
       -1.002236 0.051898375 0.20189154 1.2868164
000010 98 5f de 3e 88 71 15 3f aa db 24 3f 3e e9 08 3f
       0.43432307 0.5837636 0.6439768 0.534809
000020 b8 b1 73 be c6 6a c8 3b d3 b0 69 be c0 84 e9 3e
       -0.23798263 0.006116244 -0.2282136 0.45609093
000030 88 4a 02 3f 90 20 9c bd 2e 19 03 3e 85 3f da 3d
       0.50894976 -0.07623398 0.12802574 0.10656647
000040 c5 a5 e5 3e 74 b6 ce bd ed 7b 20 3e 8a c2 89 3c
       0.44853035 -0.10093394 0.15672274 0.016816396
000050 ca 58 b7 3c 52 a4 22 3d f4 5e 10 bf d5 c9 b4 be
       0.022381205 0.03970749 -0.56394887 -0.35310236
000060 41 69 1e 3a d2 65 b0 be a3 be 4a be e9 3e 84 bf
       0.0006042906 -0.34452683 -0.19799285 -1.0331699
000070 49 ca 73 bf 89 4b 7e 3e 58 5c 96 bd a2 98 e0 3c
       -0.9523054 0.24833502 -0.07341832 0.027416531
000080 40 5b 45 be 42 b1 40 3e 2a cb 13 be 5b ac 53 3e
       -0.1927309 0.18817618 -0.1443297 0.20671217
000090 a0 d6 93 be c4 84 0f 3e 20 f5 9c 3d 77 25 58 bd
       -0.28874683 0.1401549 0.076639414 -0.052770104
0000a0 9b 89 18 3e a1 b2 06 be b2 71 0b 3d 60 a2 cb be
       0.14896242 -0.13154079 0.034043975 -0.3977232
0000b0 04 3b ff bd ab ec 22 bf b8 46 a9 3b 5d 45 75 3e
       -0.12462428 -0.63642377 0.005165901 0.23952241
0000c0 4e ec 90 3e d6 db 66 3c 82 b6 ea bd 58 31 99 bd
       0.28305286 0.014090499 -0.11460592 -0.07480115
0000d0 0c 24 33 3e eb 0c 05 3c da f6 bd bc 27 97 3f 3e
       0.1749422 0.008120756 -0.023188997 0.18710004
0000e0 79 f3 d8 3e 4f 4a 70 bd 73 85 00 3e 1f 12 33 3e
       0.42373255 -0.058664616 0.12550907 0.17487381
0000f0 dc 27 07 3e 50 e6 88 be 86 44 b8 3f 22 52 86 3e
       0.13198799 -0.26738214 1.4395912 0.26234537
000100 34 2c c2 bd bf 83 4a be fd 5e ab 3e f0 07 06 bd
       -0.09481087 -0.1977682 0.33470908 -0.032722414
000110 d5 05 b7 be e4 87 14 3d 86 83 7a be 68 94 c1 bd
       -0.35746637 0.036262408 -0.24464235 -0.09452134
000120 e4 b0 b5 3c 23 46 76 3d 57 3c f1 be 45 74 3c be
       0.022179075 0.06012548 -0.47116348 -0.18403728
000130 b7 24 78 be ee 7a f6 bc 18 d6 82 bf c1 48 3c bf
       -0.24232756 -0.030087914 -1.0221586 -0.73548514
000140 2e 58 34 3f 23 9a 10 3e ad 44 84 bc 00 03 40 be
       0.7044705 0.14121298 -0.016146028 -0.18751144
000150 fe 47 74 3e 19 37 1e bf 2b 16 89 be df 18 99 3d
       0.23855588 -0.6180282 -0.26774725 0.07475447
000160 38 a0 28 bf 6f 66 c3 3d d1 82 7c be 9d b6 5f bd
       -0.65869474 0.09541022 -0.24659277 -0.054617513
000170 5b a9 59 3f d1 a8 a3 bd c9 da 76 bd 9b 85 d5 3e
       0.8502404 -0.079911835 -0.060267244 0.41703495
000180 c7 43 a8 bf 46 a9 4c 3e 8c 03 0b 3d 4e 04 f7 bd
       -1.3145684 0.19986448 0.03393893 -0.12061368
000190 4e 90 09 3e 63 6d 08 be 56 a9 82 3d f5 e4 1f 3e
       0.13433954 -0.13322978 0.063799545 0.15614684
0001a0 f4 35 40 bd e3 0c 8d bd 82 f5 2c 3e 6a eb ed 3e
       -0.046926454 -0.068872236 0.16890529 0.4646867
0001b0 c3 92 01 be 6d f0 cd 3e 8c 9d 5b be 5d d1 23 3e
       -0.12653641 0.40222493 -0.21446818 0.15997835
0001c0 94 c5 c2 bf 5f f4 86 be f6 27 05 bf 97 e3 64 3e
       -1.5216546 -0.26358315 -0.520141 0.22352444
0001d0 bb 2a 19 be 86 ba 83 3b c0 a5 2e 3e 88 0d ed be
       -0.14957707 0.004020038 0.17055416 -0.46299386
0001e0 7a 89 8e be 0c ff 37 bd 9f 16 0f 3d 01 dd 52 3e
       -0.2783926 -0.044920966 0.034933683 0.20592119
0001f0 97 7a 30 3e 54 f1 d3 bd 07 6b b8 3e 67 0a c0 be
       0.17234264 -0.10348764 0.36019155 -0.37507936
000200 0c 2d bd bc bc 95 a9 bf 25 a8 89 3e cc dd 59 bf
       -0.02309277 -1.324882 0.26886097 -0.8510406
000210 1c d3 5d 3e 32 ff 85 3d e1 e9 9b 3d 2a 6f 9f 3e
       0.21662563 0.06542815 0.07612968 0.311395
000220 d0 17 a8 be d4 fc 7e 3e af 9e 86 be 1e be 19 3e
       -0.32830667 0.24901134 -0.2629294 0.1501393
000230 d6 46 0b 3d 52 c0 37 ba a5 36 bd bb fc d5 6f be
       0.0340031 -0.0007009554 -0.0057743364 -0.23421472
000240 23 76 94 3e 99 bb d0 be e5 d1 e2 be 2b 2f 35 be
       0.2899638 -0.40768126 -0.44300762 -0.17693774
000250 30 b2 20 3e 48 f8 3e 3d 3b 2c b1 bb e8 b2 27 3e
       0.15692973 0.0466235 -0.005406884 0.16376841
000260 e8 60 59 3d c3 83 85 3e 89 eb 5e 3d e1 17 51 be
       0.053070933 0.2607709 0.054423843 -0.20419265
000270 6a c8 45 be a3 70 3e be 37 b7 2c be 60 0e 3e 3e
       -0.19314733 -0.18597655 -0.16866766 0.18560171
000280 93 7a d1 bd a6 a4 33 be e3 c9 62 be 1d 2f 0e be
       -0.10228457 -0.17543277 -0.22147326 -0.1388516
000290 20 c6 13 bf b1 ac c7 bd b8 8e b3 3e 70 51 63 3e
       -0.5772419 -0.09749735 0.35069823 0.22199035
0002a0 11 4f 67 be eb 1e 4d 3e 75 b9 8a 3e ab e5 2e bd
       -0.22588755 0.20031326 0.27094617 -0.042699497
0002b0 06 e7 c2 3d a3 d0 f3 bd 9a aa 1e 3e dc 64 d1 3e
       0.095167205 -0.11905029 0.15494767 0.40897262
0002c0 0d 12 bb be 91 a8 d7 3d 36 60 51 3e b0 24 4b 3d
       -0.3653721 0.10530198 0.20446858 0.049595535
0002d0 d2 d6 98 3f a9 8f 18 3f b6 c3 d4 bd a2 b7 00 be
       1.1940558 0.5959421 -0.103888914 -0.1257005
0002e0 25 a8 58 3e a3 77 9e 3c a4 02 95 be c5 e5 79 3e
       0.21157892 0.019344157 -0.29103577 0.24404056
0002f0 f8 cc d3 3d 35 51 2a 3d 4d e5 80 3e 96 f1 76 3e
       0.10341829 0.04158135 0.25174943 0.24115595
000300 44 a7 0c 3f a7 f8 88 be ca 51 eb 3d 6b 2c 8a 3e
       0.5494273 -0.26752207 0.114902094 0.26987013
000310 5a 72 01 bd 91 d8 13 bf 79 69 b1 3f d1 4e 91 3d
       -0.031603195 -0.5775233 1.3860313 0.07095111
000320 fc b0 dd bd da 12 9b bc b1 43 33 3d c0 0f 89 3e
       -0.10824773 -0.018929888 0.043765727 0.2676983
000330 9d d9 06 bf d5 7b a8 be 0b 79 fe 3b dd 7c 03 3f
       -0.526758 -0.32906976 0.0077658943 0.513624
000340 3e 90 ff be f5 8b 87 be a9 42 91 be f0 51 0b bf
       -0.49914736 -0.26473966 -0.2837117 -0.544219
000350 c5 85 fe bd e7 2e d8 3d 07 d8 a1 3e 23 6e 80 3f
       -0.12427858 0.10555821 0.31610128 1.0033611
000360 b7 1b 74 be 80 91 a5 bd d9 78 5f 3e 93 66 97 be
       -0.23838697 -0.080843925 0.21823443 -0.29570445
000370 bd 89 30 be 81 8f 27 be 04 98 df bb c8 38 a8 3e
       -0.17240043 -0.16363336 -0.0068235416 0.3285582
000380 56 2e 43 be 93 c4 81 bc fe 93 78 3e 5f 96 c9 3d
       -0.19060645 -0.015840804 0.24275205 0.09843134
000390 eb 90 53 3e 95 13 31 3e 57 6d b7 3e 41 3a 5f be
       0.2066075 0.17292626 0.35825607 -0.21799566
0003a0 3e 13 36 3f 1c 62 4e 3e bf 31 61 bd 25 6b a3 be
       0.7112311 0.20154613 -0.054979082 -0.31917682
0003b0 6e 85 3b 3e 57 4f 92 be 5e 7f c2 be 98 aa 00 bc
       0.18312618 -0.28576156 -0.37987798 -0.007853173
0003c0 1e 03 ee be e7 ef 37 3c 58 75 c7 3e 29 e0 51 3d
       -0.46486753 0.011226631 0.38956714 0.051239166
0003d0 96 c5 85 3e 45 0c c5 3b 47 31 79 3e 51 ca f5 be
       0.2612731 0.0060134255 0.24335204 -0.48005918
0003e0 a8 6e be 3d 9a 85 92 3e 19 26 71 3d 06 35 e4 3d
       0.0929845 0.28617555 0.058874223 0.11142926
0003f0 1d b1 84 3e 92 e1 83 bd 67 17 3b 3e 49 c2 30 3e
       0.25916377 -0.064395085 0.18270646 0.17261614

mean_net.0.bias f4 [128]
000000 16 78 3a be 96 b1 8e 3d 9f bd 96 be 91 55 91 bd
       -0.18209872 0.069674656 -0.29441544 -0.070963986
000010 3c 90 61 be 19 19 46 be 97 c6 35 be 22 0f 8f 3e
       -0.22027677 -0.19345511 -0.17751537 0.27941233
000020 7b b9 be bd 78 d5 62 3d 41 d7 e9 bc 62 e6 81 be
       -0.09312721 0.05537936 -0.028545024 -0.2537108
000030 7c e8 00 3e 28 75 71 3d c7 43 02 be 26 83 94 bc
       0.12588686 0.05894962 -0.12721168 -0.018128943
000040 ea 41 b5 3d 8c b1 a6 3d 44 51 97 bd dc 61 bb bc
       0.08850463 0.08139333 -0.07388547 -0.022873811
000050 fc a6 83 3d d4 e1 78 be 43 30 d5 bc ae ef 25 be
       0.06428334 -0.24304897 -0.02602399 -0.16204712
000060 3f 3d 97 bd 2c 0e 46 be 9f 0e 1d bd a6 e0 52 be
       -0.07384729 -0.19341344 -0.038344022 -0.20593509
000070 a6 a3 85 be dd 79 ac 3d 8c 05 39 bb 62 9f ea bd
       -0.26101416 0.08421681 -0.0028232066 -0.11456181
000080 55 21 6e be 30 35 4b be 2b 14 7a be 19 77 1f be
       -0.23254903 -0.19844508 -0.24421756 -0.15572776
000090 51 67 46 3e 1d 9b 3c be dc 82 91 3e c6 ba e4 3d
       0.1937535 -0.18418546 0.2842015 0.11168437
0000a0 a5 a5 ba 3e a1 12 5c be 1e 56 a3 bd b6 8a 8a 3d
       0.36454502 -0.21491481 -0.0797541 0.06764738
0000b0 37 bc 83 3e 86 14 11 be 35 e1 38 bd 54 89 bb 3e
       0.25729534 -0.14167985 -0.04513665 0.3662821
0000c0 ba 93 25 3f 8a 6d 40 be 08 d0 4f 3d f4 f0 a8 3e
       0.6467854 -0.18791786 0.050735503 0.32996333
0000d0 e2 8a 77 be 69 7e fa 3d f7 72 31 be a1 02 bd 3d
       -0.24174073 0.12231142 -0.17329012 0.09229017
0000e0 d0 ec 19 3e 1c 79 17 be b5 29 a2 bd 00 96 51 3e
       0.15031743 -0.14792293 -0.07918111 0.20467377
0000f0 45 14 b9 3d c7 b8 1f 3e ba a7 82 3d 20 fc 23 bc
       0.09037069 0.1559783 0.063796476 -0.010008842
000100 26 d4 a7 3e 57 4e a2 3e 4f 7d 5b 3e b5 19 fc bd
       0.32779044 0.31700394 0.2143452 -0.12309591
000110 8c c1 60 3d f3 b6 55 3d d8 49 a0 3c 40 a8 da be
       0.05487208 0.052176427 0.019566461 -0.4270649
000120 3a 9e 28 be cd e3 47 be d5 21 dc bd f3 f9 e6 3e
       -0.16466609 -0.19520493 -0.107486404 0.4511257
000130 6b f6 1a 3e cf 2b 44 bc d7 c5 92 be 57 56 3d 3b
       0.15133063 -0.011973335 -0.28666565 0.0028890574
000140 77 2f 22 be 91 bc 2c 3e 0b cb 4b 3e 7e a5 5d 3e
       -0.15838419 0.16868807 0.19901673 0.21645162
000150 7d 0e 66 be 10 3d c4 3e 52 05 aa bd 4b 08 6b be
       -0.22466464 0.38327837 -0.08301796 -0.22952382
000160 fa 25 77 bd 6b d2 60 be 8c 7f 58 bb da b0 4b 3e
       -0.06033895 -0.21955268 -0.0033035008 0.19891682
000170 c8 b0 35 3b 2e ce df bd 38 94 7c 3d 8b 9a 00 3e
       0.0027723778 -0.109279975 0.06166479 0.12558953
000180 d6 f0 3a 3e 03 90 85 be 4b 12 42 be 57 af 0c be
       0.18255934 -0.26086435 -0.1895229 -0.13738762
000190 4f dc d3 bd ca 0c 55 be 40 fd 39 3e 4a b5 0f 3d
       -0.10344755 -0.2080566 0.18163013 0.035085
0001a0 d4 82 e8 3d 61 69 29 3e 9e 27 6a 3d 30 43 8f be
       0.113530785 0.16544105 0.05716669 -0.27980947
0001b0 3b cc 83 3d b2 32 8f be 03 e1 d7 3d f0 6c 77 be
       0.06435438 -0.27968365 0.105409645 -0.2416265
0001c0 a2 0c 60 be fe 1e 8e 3e ce 2b e8 3d 8d 68 30 be
       -0.21879819 0.2775802 0.1133648 -0.17227383
0001d0 6d a6 4f 3e 13 0e 8d 3e 3b 1d 9d bc 83 45 83 be
       0.2027833 0.275498 -0.019178977 -0.2563897
0001e0 b3 1f b8 3d d9 43 60 3d 5a ac 48 3d e9 f2 01 bd
       0.08990421 0.054752205 0.048992492 -0.031725798
0001f0 63 a6 c2 be 6b ad 4b 3d bd 88 28 be d2 cb fd 3d
       -0.38017568 0.04972593 -0.16458412 0.12392391

mean_net.2.weight f4 [128, 128]
000000 a7 67 04 3d fc 8f 8e 3e 30 6e 35 bd 1f b6 92 bc
       0.032325413 0.27844226 -0.044294536 -0.017909108
000010 1e 3b c5 bd 6a 32 8e 3e c4 00 e9 3e 29 d6 ec 3e
       -0.09630416 0.27772838 0.45508397 0.4625714
000020 90 90 86 be 16 3d ae 3d 1b 52 96 3e bd 8e 9a 3d
       -0.26282167 0.08507745 0.29359517 0.075467564
000030 0c 88 d2 bd e8 d1 73 be 3c 1b cf 3d 91 d1 44 be
       -0.10279855 -0.23810542 0.101126164 -0.19220568
000040 e0 9f 7d bd d4 50 64 3d 79 ad 20 3e ce 57 31 3e
       -0.061920047 0.055741146 0.15691175 0.17318651
000050 9f 03 96 3d 08 63 5b be 41 4f 05 3e 3e f0 72 be
       0.073249094 -0.21424496 0.13018514 -0.23724458
000060 0b 61 bc 3e 73 3d b9 3e aa a2 9b 3e 49 10 03 be
       0.36792788 0.36179695 0.3039754 -0.12799181
000070 97 d1 58 be e3 c4 a1 3e 46 78 8e bd 26 eb 16 3e
       -0.21173702 0.31595525 -0.06956534 0.1473814
000080 48 55 78 bd ea f3 9c bd 9c 83 2a be 09 83 d2 3e
       -0.060628206 -0.076637104 -0.16651767 0.41115597
000090 ed 31 22 bd 85 89 a3 3d 3a 9e 05 3d 15 84 21 be
       -0.039598394 0.07985214 0.0326216 -0.15773042
0000a0 54 3b 11 3e 83 ba c8 bd 73 f8 c6 be 8f 9e 64 be
       0.14182788 -0.09801199 -0.38861427 -0.2232611
0000b0 62 ac 4f 3e ae 1d 4b bc a0 23 1a 3e 39 44 54 be
       0.20280603 -0.012397213 0.15052652 -0.2072915
0000c0 89 52 01 3e 09 9f 77 bd 04 73 63 be 08 59 e3 3d
       0.12629141 -0.060454402 -0.22211844 0.11100966
0000d0 42 21 c8 be 71 26 c7 bd 80 27 26 bd b6 0d 2f 3e
       -0.39087874 -0.09724129 -0.040565014 0.17095074
0000e0 1a d9 ea bd d5 3d dd 3d 22 66 cf 3e 31 9a a6 bd
       -0.1146719 0.10802809 0.4050761 -0.081348784
0000f0 b9 8c 7d 3e 1c 61 cf bc f8 41 31 3e 02 5f ee be
       0.24760713 -0.02531486 0.17310321 -0.4655686
000100 e7 27 6e 3d 23 4a 11 3e 1a 81 e8 3e 39 d5 58 3e
       0.058143523 0.14188437 0.45410997 0.21175088
000110 f0 bf a8 bc c0 97 81 be 67 82 a0 bd ca cb 9b be
       -0.020599335 -0.2531109 -0.07837372 -0.30428916
000120 dc 7c 85 3d 3d 95 b3 3e 1d 85 0e bf 33 c9 eb 3d
       0.06517956 0.35074797 -0.55671865 0.11512985
000130 a9 dd 48 bd e4 df 60 be 5a 7b 49 be 70 ff a1 bd
       -0.049039517 -0.21960407 -0.19675961 -0.07910049
000140 b4 04 90 bd d0 0d dd bd 50 d4 95 3c 50 8f 94 3e
       -0.07032147 -0.1079365 0.018289715 0.2901559
000150 f8 49 c1 bb f0 dc c7 3c 6a 7d 1a 3e 7d 37 03 3e
       -0.0058987103 0.024397343 0.15086904 0.12814136
000160 be ea 19 3c 76 a5 65 bc 78 f6 b4 be 8b b0 1f be
       0.009394346 -0.0140165 -0.3534429 -0.1559469
000170 f5 50 54 be e2 a7 db be c9 76 71 bb cf 38 7b 3e
       -0.20734008 -0.42901522 -0.0036844483 0.2453339
000180 fb f8 75 be 31 fd b8 be 76 a6 8a be e7 04 5e bd
       -0.2402076 -0.3613067 -0.27080125 -0.054203894
000190 8c ce 86 3e bd a8 a6 bd f9 da a3 3d fd a6 a3 3e
       0.26329458 -0.08137653 0.0800075 0.3196334
0001a0 fd c1 09 bf ed d1 ae bc a6 52 8c 3d d6 19 d0 be
       -0.5381163 -0.021340335 0.068517014 -0.4064471
0001b0 76 41 72 bc bc 5c d1 3d 88 59 5f be 97 fa 87 3e
       -0.014786115 0.10222766 -0.21811497 0.26558372
0001c0 46 2e b5 bb b2 7b ac bd 79 7d c2 3e 8a 5f be 3e
       -0.005529198 -0.084220305 0.37986353 0.37182266
0001d0 a3 ab 0d 3f 11 b3 2a 3f 00 ba a9 3e d4 90 73 be
       0.5534002 0.66679484 0.3314972 -0.23785716
0001e0 fe 29 e7 be b8 1a 3f be e3 ed d0 3e e4 85 ee bd
       -0.45149225 -0.18662536 0.40806493 -0.11646631
0001f0 40 92 0e be 40 1e 8b be e7 8f 1b be 84 7a 0b 3e
       -0.13922977 -0.27171516 -0.15191613 0.13620955
000200 de d5 24 bd 94 c1 c7 3d 35 6f 9f 3e ac c8 41 be
       -0.040243022 0.09753719 0.31139532 -0.18924206
000210 7b 08 cf 3d aa e0 bb 3e 9d 56 83 3e a7 fa 53 3e
       0.101090394 0.36694843 0.25652018 0.20701085
000220 9f 6e 85 3e 03 a7 2b bd a6 a3 63 3e f1 dc ce bd
       0.2606096 -0.04190732 0.22230396 -0.10100735
000230 40 9c 13 3d 96 ee 44 be 01 fd dc 3e cc f1 af bd
       0.036037683 -0.19231638 0.43161777 -0.08591041
000240 66 a1 b4 3e a7 de a1 3d 0c 06 d0 3e 63 d5 1f 3e
       0.35279387 0.07903796 0.40629613 0.15608744
000250 d1 27 a3 be 0c ac 80 3d 85 d9 55 bd 0f b8 90 be
       -0.31866315 0.06282815 -0.052209396 -0.28265426
000260 10 06 b8 be f4 f8 c1 3d bb e4 7b 3d 74 0d 6a be
       -0.35942125 0.09471312 0.06149743 -0.22856694
000270 5c 90 ca 3d 77 48 a1 bd f0 f5 eb bd fb b9 c3 bd
       0.098908156 -0.0787515 -0.11521518 -0.09556957
000280 ea 31 87 bc 26 ba 0b be 29 69 9e 3e 8a be 66 3d
       -0.016503293 -0.13645229 0.30939606 0.056334056
000290 f6 7b 58 be db 09 4f 3d fe 24 65 bc 12 bf 59 3e
       -0.21141037 0.05054651 -0.01398587 0.21264294
0002a0 88 26 98 3d 26 b4 40 be 1a ad d3 be 27 8a 30 bf
       0.07429224 -0.18818721 -0.41343004 -0.68960804
0002b0 20 86 a9 3c 99 85 a2 3e f7 a9 a1 3d d0 c3 ae be
       0.020693839 0.31742552 0.07893746 -0.34133768
0002c0 ff 96 13 be d9 f7 c7 be ed 8a 9a 3c ed 91 83 be
       -0.14413069 -0.3905628 0.018865073 -0.2569727
0002d0 be f2 d5 3d 54 49 14 be 27 7a b7 3d 6f f9 12 3d
       0.1044669 -0.14481097 0.089588456 0.03588241
0002e0 36 b3 cb 3d 37 b6 e3 3d 57 d3 a8 3e 3b 86 08 be
       0.09946291 0.11118739 0.3297374 -0.13332455
0002f0 9a 46 75 bc 02 44 3d be 99 52 95 3d 5b c9 4b be
       -0.014970446 -0.18482974 0.07291145 -0.1990103
000300 b3 0f c7 3d 25 fa 62 3e 02 22 f8 3d 72 71 43 3e
       0.09719791 0.22165735 0.121158615 0.19086245
000310 f8 f8 be 3e 37 0e b2 be 68 c3 16 be 59 65 51 3d
       0.37299323 -0.3477647 -0.14722979 0.051122043
000320 95 b4 95 be 49 9e 61 3e 58 3b ab be fb c4 0e bc
       -0.29239336 0.22033037 -0.33443713 -0.008713956
000330 ac 31 01 3f 17 fe 99 bd a5 c2 a4 3e 7a 4f 82 be
       0.5046642 -0.07519167 0.32179752 -0.2545126
000340 dd f3 e9 3d 39 1b aa 3e 31 00 03 bd b4 1c d6 3d
       0.11423466 0.33223894 -0.031982604 0.104546934
000350 e0 12 c6 3d 01 af 67 bd 52 54 1d bf 65 ad bf bd
       0.09671569 -0.05656338 -0.6145679 -0.09359244
000360 3b bc e7 3e 5b e2 a5 bc 3f f3 2e bd 72 30 dd be
       0.45260796 -0.020249536 -0.042712446 -0.43201023
000370 09 2b 48 3e 27 91 13 3e e7 e1 70 be 78 cb 3b be
       0.19547667 0.1441084 -0.23523675 -0.18339336
000380 e6 2b 0f 3d 49 56 0a be ab 83 11 3e 79 1c 43 3e
       0.034953974 -0.13509478 0.14210384 0.1905383
000390 29 6c 00 3f bd df c1 3e 62 a4 93 3a 1a 24 96 bd
       0.5016504 0.3786601 0.00112642 -0.073311046
0003a0 e3 0f 6a be c0 10 9a 3e a0 ac 4d 3e be 5b 31 be
       -0.22857623 0.30090904 0.20085382 -0.17320153
0003b0 20 57 f3 bd 30 e8 e7 bd 1a 41 87 be b3 3a f0 3e
       -0.11881852 -0.11323583 -0.26416856 0.46919784
0003c0 b9 30 3c 3e d4 6a 41 bf a3 5c e6 3e 72 3e 0f 3e
       0.18377961 -0.7555363 0.4499255 0.13988665
0003d0 82 8b 83 3e 3e 4a 1e 3d 5c 50 64 3e b0 8e c3 3d
       0.25692374 0.03864502 0.2229628 0.095487
0003e0 8e b6 e2 bb 68 9a de 3e 91 bd 8d 3d b5 ce 4a bd
       -0.006918735 0.43477178 0.069209225 -0.049513537
0003f0 05 85 3e 3e ee 18 eb bd ad 00 9c 3d a7 6e 1a 3d
       0.1860543 -0.11479364 0.076173164 0.037703183

mean_net.2.bias f4 [128]
000000 d5 90 fc 3d 6e 77 db bd 2c db 9d bd c3 ba 27 be
       0.12332312 -0.10716139 -0.07707819 -0.16379838
000010 d7 ae b5 3d 82 ac 39 3e 14 d6 f3 bd d6 af 4c 3c
       0.08871239 0.18132213 -0.119060665 0.012493094
000020 5c 34 00 3e 3e 82 9d be a4 71 83 bd 35 c5 5b 3d
       0.12519974 -0.3076343 -0.064181596 0.05365487
000030 b0 ad 1d 3e 87 54 af 3e 1b 17 1b 3e fe 26 09 3b
       0.15398288 0.34244177 0.15145533 0.0020927782
000040 71 95 bb bd 6a 90 19 3e 55 37 61 3d 16 d0 4d 3c
       -0.09159363 0.14996496 0.05498441 0.012561819
000050 4b fa b9 3d 69 95 c4 3d b3 5c ef 3c 52 74 de 3d
       0.09080943 0.0959881 0.029219007 0.1086203
000060 45 d4 b3 bc 6a e7 d5 bc 26 3e 3a be 03 0b 87 3d
       -0.021951804 -0.026111323 -0.1818777 0.06593897
000070 93 39 88 3e 26 02 3d bd 61 67 3c 3c 98 34 d8 bd
       0.26606426 -0.046144627 0.011499257 -0.105569065
000080 78 d4 c4 be 79 1e 45 bd 8b 18 cb bd 4b 46 3f 3b
       -0.3844335 -0.048124764 -0.099167906 0.0029186185
000090 60 81 7e 3d 81 ae 22 3e 47 ee d2 3d 09 47 cf 3c
       0.0621351 0.1588688 0.10299354 0.025302427
0000a0 5a 83 9f be 3e 64 b8 3c 77 09 10 3d 33 c5 90 bd
       -0.311549 0.022508737 0.035165276 -0.07068863
0000b0 da a1 c5 bd 5e 26 a4 3c 3f 60 1f be 72 9e 3f 3e
       -0.09650011 0.020037826 -0.15564059 0.18712786
0000c0 b8 23 a1 bc d4 7f 94 3e 80 2e 1d 3e 09 7a fb bb
       -0.019670352 0.29003775 0.1534977 -0.00767446
0000d0 89 6d 1d be a9 79 e1 bd a2 c7 a3 bc 8f 0d 8f 3e
       -0.15373816 -0.11009533 -0.019992653 0.27940032
0000e0 77 35 af bd 29 9b 07 3e 21 cb 10 bd 99 cf 20 3e
       -0.085551195 0.13242783 -0.03534997 0.15704192
0000f0 25 41 3b be 78 10 0a be ea 30 a7 3b 1e 4f 81 bd
       -0.1828657 -0.13482845 0.0051022666 -0.063139185
000100 3b 8d cb bd 0f 1f e4 bd 22 d3 f0 3d fb ed fb 3d
       -0.09939047 -0.111387365 0.117590204 0.123012505
000110 3b 27 02 3e 6a a9 b6 be 2f 32 73 bd 08 e6 74 3d
       0.12710278 -0.35676128 -0.05937403 0.059789687
000120 f7 e5 43 bd 06 95 c0 bd c3 58 ac 3e 98 f4 a3 bb
       -0.047826733 -0.09403424 0.3366147 -0.005003523
000130 0d 86 ee 3c 95 05 b4 3d fd 2c fd 3d 05 b0 b9 3d
       0.029116655 0.08790127 0.123620965 0.09066776
000140 0f 5a aa bd 54 a2 27 be 76 8f ac 3d ad 92 25 3d
       -0.083179586 -0.16370517 0.084258005 0.040423084
000150 49 7c 35 bd ca c4 11 be 57 71 f6 3c 37 dc 93 be
       -0.04430798 -0.14235225 0.030083342 -0.28878948
000160 78 7e f1 bd 4a f0 ba bd 1e b3 f0 3c a8 46 5f be
       -0.117917 -0.09127863 0.029382285 -0.21804297
000170 04 f3 7f 3d d9 97 3c 3e 0b bf 00 be 09 24 f0 3b
       0.062487617 0.184173 -0.12572877 0.0073285145
000180 1e d3 8a be 80 70 d8 3d 76 49 70 3b a2 37 26 3e
       -0.27114195 0.10568333 0.003666488 0.1623216
000190 e0 b7 29 3e 39 4b e6 bc 5f 48 0d 3e 0f a0 df 3c
       0.16574049 -0.02811204 0.13797139 0.027298002
0001a0 70 c9 09 3e b8 fc c9 3b 37 4d b5 3d d8 ce 55 be
       0.13455749 0.0061641596 0.08852618 -0.20879686
0001b0 b7 b8 9f 3d 8d 10 88 be bf ef 35 be c5 d9 37 3c
       0.077989034 -0.26575127 -0.17767237 0.011221354
0001c0 c2 62 a4 bd 94 ea 04 3e b3 f8 a3 3c 96 1c 1b 3e
       -0.08026649 0.1298011 0.02001605 0.15147623
0001d0 12 06 fa be 8a c7 1b be 5f 75 85 bd 56 2f 2e 3d
       -0.48832756 -0.15212837 -0.065165274 0.04252561
0001e0 37 cf cf bd 98 85 67 3e 67 6a d8 3d e9 ac 09 3e
       -0.10146945 0.22609556 0.1056717 0.13444866
0001f0 ec c1 00 3e a1 7b a1 bd 6b b6 fa 3c 82 79 1f 3d
       0.12573975 -0.078849085 0.030604562 0.03893424

mean_net.4.weight f4 [4, 128]
000000 4a 99 87 be ea 51 04 3e e9 07 59 be 4c 75 69 3e
       -0.26484138 0.12921873 -0.21194424 0.22798651
000010 83 f1 a5 bc ac 2a 4e be 1a 6f dd bd 49 6f 86 3e
       -0.020256763 -0.20133466 -0.108122066 0.2625678
000020 a4 28 16 3f 96 6e f2 bd 57 41 00 bf da 07 8e 3e
       0.5865576 -0.11837499 -0.500997 0.27740365
000030 83 bf 85 be d0 d2 66 3d 0b c5 3d 3e cf ef 9d 3e
       -0.26122674 0.05635339 0.18532197 0.30847022
000040 86 55 40 3d f0 01 80 be 5f 29 7e 3e e4 d6 1d 3e
       0.04695656 -0.25001478 0.2482047 0.15414006
000050 2f 84 20 3f ae 3a a2 3d 6b e8 eb be 55 11 78 bc
       0.62701696 0.079213485 -0.46075758 -0.015140851
000060 4f 8c 97 3e 70 fe 6e be 0a ea a8 3e 8c c4 9a bd
       0.29599234 -0.23339248 0.32991058 -0.075570196
000070 5e df 18 be 10 31 1c 3f a2 79 dd 3d 4c 69 84 3e
       -0.14928958 0.61012363 0.10814215 0.25861585
000080 53 55 7d 3e 78 fe b4 3e a7 08 84 be 2e 74 85 3d
       0.2473958 0.35350394 -0.2578785 0.065163
000090 47 98 84 3e 1a 07 38 3f 56 49 cb be a4 b9 0c 3f
       0.25897428 0.71885836 -0.39704388 0.54970765
0000a0 f7 b5 1a 3e 1d c6 2f 3e 04 a7 a3 be 37 73 d5 bd
       0.15108477 0.17165418 -0.3196336 -0.10422366
0000b0 e3 af 65 3e c5 bc 2a 3e b6 82 d5 3e 39 a9 fc 3d
       0.22430377 0.16673572 0.41701287 0.12336964
0000c0 a1 d3 89 be 48 05 0b be b5 89 ea 3c 7c b2 b8 3e
       -0.26919273 -0.13576233 0.028630117 0.36073673
0000d0 d4 3c 9c be 13 33 32 3e 13 b7 5b be b7 1d f2 3d
       -0.30515158 0.17402296 -0.21456556 0.11822074
0000e0 d4 ca e4 bc 7f 0b 5c 3e dc bb 07 3f 9f c3 e5 3e
       -0.027928747 0.2148876 0.53021026 0.4487581
0000f0 f7 34 39 bd 87 55 a9 bd ef 05 88 be d8 ad 64 be
       -0.045216527 -0.08268266 -0.26567027 -0.22331941
000100 bb ca 37 be bd 35 52 be 47 f4 78 bd d0 ed 09 3f
       -0.1794843 -0.20528312 -0.060779836 0.538785
000110 1c 25 27 3d c2 4c 1f 3e 5f 26 a3 3d 63 1c 87 be
       0.040806875 0.15556625 0.07966303 -0.26388845
000120 47 b9 07 3f 48 68 6e 3c a6 5a 2a bc 16 b8 5f bd
       0.53017086 0.01455123 -0.010397589 -0.054618917
000130 44 a7 c8 3e d6 54 c3 3e a6 b9 f4 3e a0 93 d4 3e
       0.39190114 0.38150662 0.4779789 0.4151888
000140 e3 71 37 be b5 41 28 3e a5 04 a2 bd 9e 84 37 bd
       -0.17914538 0.16431315 -0.07911042 -0.044804208
000150 60 b5 b4 be 6c 67 89 be d4 91 7f 3e e0 79 13 3e
       -0.35294628 -0.26836717 0.24957973 0.1440196
000160 57 5e 9f 3e 16 6b e7 be 88 19 83 3e 68 15 81 3d
       0.31126663 -0.45198888 0.25605416 0.06302911
000170 b8 69 c8 bd 59 e0 2c 3d 81 f9 90 be 1f d1 60 3d
       -0.09785789 0.042206142 -0.28315356 0.054886933
000180 7d 24 6c 3e 82 81 10 be 92 b1 ce be 2b a1 d1 3e
       0.23060794 -0.14111903 -0.4036985 0.40943274
000190 67 1c 66 3e 9f 30 c2 be 9c c4 a3 3e ea fd fa bd
       0.22471772 -0.3792772 0.3198594 -0.122554615
0001a0 73 02 99 3e 9e 18 30 be af 5c b9 be 9e 81 2f 3e
       0.2988468 -0.1719689 -0.36203524 0.17139289
0001b0 87 57 0c 3d 2b 9d 85 3e 14 5e 58 3d 71 e2 1e 3e
       0.03426316 0.26096472 0.052824095 0.15516068
0001c0 4e 8c 67 be 21 84 80 bd ac ce d0 bc 7e 26 9e be
       -0.22612116 -0.062752016 -0.025489174 -0.30888742
0001d0 44 33 fd bd 4c 10 7d 3b 68 75 a9 be 63 61 a0 3e
       -0.12363294 0.003861445 -0.33097386 0.313243
0001e0 96 38 53 be 67 8f eb 3e 95 c5 f1 3d e4 84 8e 3e
       -0.20627055 0.46007845 0.11805264 0.27835763
0001f0 73 db b4 3e e6 a1 75 be 12 0c 10 be bd ba 10 be
       0.35323676 -0.2398754 -0.14067104 -0.14133735
000200 a0 cf e3 3d cf ce 0b be 75 fe 07 bf 13 d9 04 3c
       0.11123586 -0.1365311 -0.53122646 0.008108395
000210 71 f9 17 be c4 dc 62 be e3 65 04 bd 70 7a 00 3e
       -0.14841248 -0.22154528 -0.03232373 0.12546706
000220 8d 7f c1 3d a3 2c 4b 3e 5d 8e 0f be 67 27 fc 3d
       0.094481565 0.19841246 -0.14019151 0.12312203
000230 59 c5 ee be 52 53 12 bb 16 35 f8 3e bc c9 54 be
       -0.4663494 -0.0022327495 0.48478 -0.2078008
000240 22 2a 2c bd 2f ef 80 3d 26 4c 2c bb 8b 15 75 3e
       -0.04203237 0.06295621 -0.0026290505 0.23933999
000250 08 45 87 3e c4 21 7e 3e ae ee d1 be 20 16 dc be
       0.26419854 0.24817568 -0.4100241 -0.4298563
000260 3d 2f 97 3d 6d d2 9b be c3 6b 9b 3e 44 ad 07 bf
       0.07382057 -0.3043398 0.30355653 -0.5299876
000270 1f 41 a5 3d 72 12 ab bc ae 76 17 bf e0 27 40 3d
       0.080690615 -0.020882819 -0.59165466 0.046913028
000280 20 7e c4 3d 79 16 5f 3e ab 41 98 3e ba 24 97 be
       0.09594369 0.21785916 0.297376 -0.29520208
000290 6b a5 28 bd 00 2b b3 3d 4d 6b 71 3e 1f da e1 3e
       -0.04117338 0.08748436 0.23576088 0.44111726
0002a0 94 13 38 3d a7 d0 e3 bc 40 48 95 bd 4b 6f 98 3d
       0.044940546 -0.027809454 -0.07289171 0.074431024
0002b0 b3 e7 cd bd aa 1f 10 be 28 fd b5 3e 8d 73 0d 3f
       -0.10053959 -0.14074579 0.35544705 0.5525444
0002c0 d5 7e 3e be d0 f7 26 3e d4 b3 8e 3e ce 20 7f bd
       -0.1860307 0.1630547 0.27871573 -0.062287144
0002d0 80 a4 ab 3e 03 e5 c8 3e 4e ba 17 be 90 fb 1d 3e
       0.3352394 0.39237222 -0.14817163 0.15427995
0002e0 86 4d 6d 3e 4b 78 e4 3e 63 5b bf be 61 32 ca 3e
       0.23174104 0.44623026 -0.3737441 0.3949156
0002f0 a1 86 05 be d2 cf eb 3d ab de 89 be d0 fc e8 3d
       -0.13039638 0.11514248 -0.26927695 0.11376345
000300 3c 8e df 3d bf e6 27 3c e4 96 12 bf 82 dc ff bd
       0.10915801 0.010247885 -0.5726149 -0.124932304
000310 e6 71 0e 3e 5e f4 12 3d c6 5d 1c 3e 8f cf dd 3d
       0.13910636 0.035877578 0.15270147 0.10830604
000320 b7 73 23 3e b1 7c 06 be 0e c8 8a bb 73 e6 2f 3e
       0.1596211 -0.13133503 -0.004235274 0.17177753
000330 93 44 68 be 9c 15 16 3f 5c 27 38 bc d3 73 4e be
       -0.22682409 0.58626723 -0.011239853 -0.20161371
000340 9e 83 c5 be 85 b8 8a 3e 66 fe b4 be 3f 61 9f bd
       -0.38576978 0.27093902 -0.3535034 -0.0778222
000350 d5 14 31 be 5b 32 13 bf 88 e9 0c 3f 44 c9 f2 3c
       -0.17293103 -0.5749871 0.5504384 0.029636987
000360 d0 44 4e bd 27 8a 96 be 7f a3 96 3d b9 38 1a be
       -0.050358593 -0.29402277 0.07355403 -0.150607
000370 0a 62 93 3e 9f 2e f6 3d 62 ce 9f 3c 94 83 2a 3e
       0.28785735 0.12020611 0.01950759 0.16651756
000380 27 36 24 3e 31 4a eb bd 79 73 c0 bd 48 f5 37 3d
       0.16036282 -0.1148876 -0.09397025 0.044911653
000390 3e ca cb bd d9 34 1f be 06 3b 95 be fc 6b ec bd
       -0.09950684 -0.15547504 -0.29146594 -0.11544034
0003a0 7e 81 03 3f 66 27 ac 3d 94 18 2d 3d ae 34 10 bc
       0.51369464 0.08405952 0.042259768 -0.008801622
0003b0 bd e9 7a 3e f9 cb 2f 3e 89 05 ff 3d cf 1e 03 3e
       0.24503227 0.17167653 0.124522276 0.12804721
0003c0 18 12 86 3d 76 b1 87 be 89 b7 64 3e a6 4d e4 3d
       0.0654642 -0.2650258 0.22335638 0.11147623
0003d0 fa a5 b7 3e 86 b9 9d be e0 b4 6a 3e 2e 5d 05 bd
       0.35868818 -0.30805606 0.22920561 -0.032559566
0003e0 8d 3f 77 3e 9b aa 78 be c9 f7 a2 3d bc c8 44 be
       0.24145336 -0.24283831 0.079574175 -0.19217199
0003f0 d9 25 d4 3d fa 02 85 be 5f 8a 14 be d6 4e 16 be
       0.10358781 -0.25978833 -0.1450591 -0.14678511

mean_net.4.bias f4 [4]
000000 7b 55 2e 3d 45 68 3b bc e3 d3 60 bd 3f 3f cc bd
       0.04256199 -0.011438434 -0.05488957 -0.09973001
