test_uav/model/critic_model14-10-2023_13-56-54/100.pt (torch, 77879 bytes, 5 tensors)

critic_network.0.weight f4 [128, 17]
0	0x3e824450	0.25442743
1	0xbe6bc248	-0.23023331
2	0x3eef334f	0.46718833
3	0x3e99dd6d	0.30051747
4	0xbd566b30	-0.052348316
5	0x3e4fda27	0.20298062
6	0x3e3caeb6	0.18426022
7	0xbecc39c5	-0.39887825
8	0x3d975c55	0.07390658
9	0xbf63e4db	-0.8902108
10	0x3d2349ba	0.039865233
11	0xbe804991	-0.25056127
12	0xbe0866df	-0.13320492
13	0x3e37bbf5	0.17942794
14	0x3e3234e0	0.17402983
15	0xbe0bb7a2	-0.13644269
16	0xbe2b5cfc	-0.1673469
17	0xbe1ef73f	-0.15524004
18	0x3d8cb9cc	0.068713754
19	0x3e6ac5cb	0.22927015
20	0x3d582bb1	0.052776042
21	0x3c8e4be9	0.017370181
22	0x3d52bcd9	0.05144963
23	0xbdaa83b8	-0.083259046
24	0x3e02599d	0.12729497
25	0x3e9c9f52	0.30590302
26	0x3e84d944	0.2594701
27	0xbee11c3a	-0.43966848
28	0xbf26e596	-0.6519407
29	0x3f27829a	0.6543366
30	0x3f3272d1	0.69706446
31	0x3f14c0f9	0.5810695
32	0x3ea2cf9a	0.31799012
33	0x3ec66b47	0.3875372
34	0x3e8441e9	0.25831535
35	0x3dd48902	0.10377695
36	0xbee1d60b	-0.44108614
37	0x3d493cc7	0.049130227
38	0x3dbd93f5	0.09256736
39	0xbe07cdda	-0.1326212
40	0xbe40ebc6	-0.1883994
41	0xbea3e6e7	-0.32012102
42	0xbc11d12a	-0.008899966
43	0x3f2764ec	0.6538837
44	0x3e2d9b58	0.1695379
45	0xbe997d88	-0.29978585
46	0x3dabd5dd	0.083904006
47	0x3e1410de	0.1445956
48	0xbd8e9b61	-0.0696323
49	0xbd40ad46	-0.047040246
50	0x3e05398d	0.13010235
51	0xbe98faf4	-0.29878962
52	0xbf460ccd	-0.7736328
53	0x3e4e9089	0.20172323
54	0x3ce391ec	0.027779542
55	0xbef6d343	-0.48208055
56	0xbdfbef40	-0.12301493
57	0x3e6143c1	0.21998502
58	0x3ee84b53	0.45369968
59	0xbea6155b	-0.32438168
60	0x3e2c17fe	0.16806027
61	0xbe45ffbd	-0.19335838
62	0xbe59d9b5	-0.21274455
63	0xbebce842	-0.3689595
64	0xbe13fc77	-0.14451776
65	0xbd8f916e	-0.070101604
66	0x3db471f9	0.08810801
67	0xbd5376f4	-0.051627114
68	0xbd614e3a	-0.055006243
69	0xbee341d3	-0.44386157
70	0x3e803eb7	0.25047848
71	0xbe3767dd	-0.17910714
72	0x3ec2f38a	0.3807643
73	0xbe501557	-0.2032064
74	0x3d418f75	0.047255952
75	0x3d8289c5	0.06373934
76	0x3e6c9e1b	0.23107187
77	0xbe54afcc	-0.20770186
78	0xbf6a4266	-0.91507566
79	0xbecf6a38	-0.40510726
80	0x3e1db1c6	0.15399846
81	0xbc824621	-0.01590258
82	0x3da31d5b	0.079645835
83	0x3e00be90	0.12572694
84	0xbd2dc55f	-0.042424556
85	0xbf5c274d	-0.8599747
86	0x3eca7b29	0.3954709
87	0xbf026475	-0.50934535
88	0xbe8df06d	-0.27722493
89	0xbdbf7217	-0.09347933
90	0xbe7996ef	-0.24373983
91	0x3e44f6bc	0.19234747
92	0xbe28a89e	-0.16470572
93	0x3ef7c6a2	0.48393732
94	0x3f29c682	0.66318524
95	0x3e6d4c9e	0.23173758
96	0xbf0b982e	-0.5452908
97	0x3eaf431f	0.34230897
98	0x3d76bc04	0.0602379
99	0x3d444a2c	0.0479223
100	0xbd75cb3d	-0.060008276
101	0xbe2da4f6	-0.16957459
102	0xbf0bb7c8	-0.545773
103	0xbe2b12f5	-0.1670645
104	0x3eb6ead3	0.35726032
105	0xbe2c4561	-0.16823341
106	0xbdcea8cb	-0.100907885
107	0x3d2511aa	0.04030005
108	0xbe026e3e	-0.12737367
109	0xbea684aa	-0.3252309
110	0xbdfebd20	-0.124384165
111	0xbf053309	-0.52031
112	0x3e9884ac	0.2978872
113	0x3e808a43	0.25105485
114	0x3d96ec00	0.07369232
115	0x3e1bf8cd	0.15231629
116	0xbdd8c25e	-0.105839476
117	0xbdfa2061	-0.12213207
118	0xb8b7b1da	-8.7592474e-05
119	0xbdf1cece	-0.11807023
120	0x3f12779f	0.5721378
121	0xbf074733	-0.52843016
122	0xbd637de2	-0.055539973
123	0x3df6401a	0.12023945
124	0xbdaa2c07	-0.08309179
125	0xbe443464	-0.1916061
126	0xbf0d5793	-0.5521175
127	0x3c943cd8	0.018095419
128	0x3eeb2302	0.45925146
129	0x3e9e910f	0.30970046
130	0xbd8df20f	-0.06930935
131	0x3f2c085a	0.67200243
132	0x3e1f80ea	0.1557652
133	0x3babc6f0	0.005242221
134	0xbe035e45	-0.1282893
135	0x3d664e76	0.05622717
136	0x3ed6dcd9	0.41965368
137	0x3e2272f0	0.15864158
138	0x3d8cd345	0.06876234
139	0xbdbc54a4	-0.091958314
140	0x3ef89a1e	0.48555082
141	0xbe3af44f	-0.18257259
142	0x3dc88971	0.0979184
143	0x3d5f12c4	0.054461256
144	0xbd6ca009	-0.05776981
145	0xbe109b01	-0.1412163
146	0xbeeaaf87	-0.45837042
147	0x3daa86e1	0.08326507
148	0x3e81476e	0.2524981
149	0xbdd151d1	-0.10220683
150	0xbd94fe64	-0.07275084
151	0xbd96890b	-0.073503576
152	0xbd7ee5c7	-0.06223085
153	0x3e89eb6c	0.26937425
154	0xbed49695	-0.41521135
155	0x3f038173	0.513694
156	0x3dbe9d94	0.093073994
157	0xbe604095	-0.21899636
158	0x3eaeb86c	0.34125078
159	0x3e80e6be	0.25176042
160	0x3c620300	0.013794661
161	0x3da13b30	0.07872617
162	0xbf514105	-0.81739837
163	0x3f303691	0.6883326
164	0xbce98b11	-0.028508695
165	0xbe172bf8	-0.14762866
166	0xbdea865a	-0.11451407
167	0x3d937715	0.072004475
168	0xbcc34a8b	-0.023839256
169	0xbe2d9c3b	-0.16954128
170	0x3f1a9f88	0.60399675
171	0x3f40edd0	0.75362873
172	0x3dfb7a7a	0.1227922
173	0x3e550869	0.2080399
174	0x3e6e0cc0	0.23247051
175	0x3e314091	0.17309786
176	0x3c0e5f10	0.008689657
177	0x3eb7c8da	0.35895425
178	0xbe9882ba	-0.29787236
179	0x3f0bf127	0.54664844
180	0xbe864fc9	-0.26232746
181	0x3e918b77	0.28426716
182	0xba491faa	-0.000767226
183	0xbdf6de72	-0.12054147
184	0x3d7f67e7	0.06235495
185	0x3dd2cca8	0.10292941
186	0x3d854fa3	0.0650933
187	0x3e03d8b9	0.12875642
188	0xbe86afd4	-0.2630602
189	0x3e9d4170	0.30713987
190	0xbde461f4	-0.111514956
191	0x3e0c6959	0.13712062
192	0x3dcacf70	0.09902847
193	0x3b9b8ae6	0.0047467826
194	0x3cb55dfc	0.022139542
195	0x3c803043	0.015648013
196	0x3f17c09b	0.5927827
197	0xbf1e1e5e	-0.61765087
198	0x3e2cfc68	0.1689316
199	0xbe6e5381	-0.23274042
200	0x3ea42d07	0.32065603
201	0x3ef5e47c	0.48025882
202	0x3e8a0dc2	0.2696362
203	0x3f117d82	0.56832135
204	0x3f50aea1	0.8151646
205	0xbeb4f24a	-0.35341102
206	0xbe61943c	-0.22029203
207	0x3ef6a8c2	0.48175627
208	0x3e3a1011	0.18170191
209	0x3cb4756b	0.022028646
210	0x3e38d858	0.18051279
211	0xbf1eb44f	-0.6199388
212	0xbdbce3d3	-0.092231415
213	0xbe7a8daa	-0.24468103
214	0xbdde8ed9	-0.1086709
215	0xbdbb7180	-0.09152508
216	0xbef20ae6	-0.4727394
217	0x3e4fba09	0.2028581
218	0x3e7adc37	0.24498068
219	0xbe2bd5e0	-0.16780806
220	0xbdd0f00e	-0.10202037
221	0x3f0f3204	0.5593569
222	0x3cb95bc6	0.022626769
223	0xbe959464	-0.29214776
224	0x3e8e3c02	0.27780157
225	0xbed11b33	-0.40841064
226	0x3d1a494f	0.03766757
227	0xbe0219fc	-0.12705225
228	0x3ca60739	0.020267116
229	0x3c747774	0.014921058
230	0xbc41a30b	-0.011818658
231	0x3f0b45c4	0.5440333
232	0xbe9845d5	-0.29740778
233	0x3f7c175d	0.9847315
234	0x39fb0058	0.00047874707
235	0xbdad2ce2	-0.08455826
236	0xbb71b404	-0.003688098
237	0x3d2b55a8	0.041829735
238	0x3d6a3d77	0.057187524
239	0x3dfb93ab	0.12284025
240	0xbe56810f	-0.2094767
241	0xbcc430e6	-0.023949098
242	0xbdb2f1ed	-0.0873755
243	0xbe196637	-0.14980398
244	0xbddf32d3	-0.10898366
245	0xbd8a3290	-0.06747925
246	0xbebd9388	-0.3702662
247	0xbec95547	-0.39322874
248	0x3dbb6d24	0.09151676
249	0x3db54887	0.08851724
250	0xbdfb6abb	-0.122762166
251	0xbf27557d	-0.6536482
252	0xbf144e98	-0.57932425
253	0xbea7f590	-0.32804537
254	0xbf29705d	-0.6618708
255	0xbeeaa70a	-0.45830566

critic_network.0.bias f4 [128]
0	0xbf4280c1	-0.7597771
1	0x3ee57dfe	0.44822687
2	0x3f83b91a	1.0290864
3	0x3e820965	0.25397792
4	0xbeb57ed1	-0.35448316
5	0x3f77d7dc	0.9681375
6	0xbf928ee7	-1.144986
7	0x3f85bac5	1.0447623
8	0x3f184cc0	0.5949211
9	0xbf881c1a	-1.0633576
10	0x3f31c2a9	0.6943765
11	0x3f0db7f7	0.55358833
12	0xbecbe220	-0.39820957
13	0x3e6ede37	0.23326956
14	0xbf247a84	-0.64249444
15	0x3e0bef4c	0.13665503
16	0xbe78a507	-0.24281703
17	0x3fa02a87	1.2512978
18	0x3ea41cb8	0.3205316
19	0xbf1e97ce	-0.61950386
20	0xbe9e408d	-0.30908623
21	0x3f674056	0.90332544
22	0xbf34589e	-0.7044772
23	0x3f1804a2	0.5938207
24	0x3f71ef27	0.9450554
25	0x3f64cf88	0.8937917
26	0x3d3855ec	0.045003816
27	0x3e4b694c	0.19864386
28	0xbf59e952	-0.85121644
29	0xbe99b0a9	-0.30017594
30	0xbf00dfd9	-0.50341564
31	0x3f6bf8e6	0.92176664
32	0x3f1a8f61	0.6037503
33	0x3f6a1a94	0.91446805
34	0xbe95b884	-0.29242337
35	0xbea1f3c3	-0.31631288
36	0xbf2bb19e	-0.670679
37	0xbf87b1d7	-1.0601147
38	0x3f8287da	1.0197709
39	0xbeff4561	-0.4985762
40	0xbf46b786	-0.77623785
41	0x3ea21192	0.3165403
42	0xbedaa41c	-0.4270333
43	0x3ded7164	0.11593893
44	0x3e90420a	0.28175384
45	0x3f5e6172	0.8686744
46	0x3fa4900e	1.2856462
47	0xbec7366c	-0.38908708
48	0x3f7906d6	0.97276056
49	0x3f811e3f	1.0087355
50	0xbf03a3f7	-0.51422065
51	0x3ef4e445	0.47830406
52	0x3f110950	0.56654835
53	0x3f1b66bc	0.60703635
54	0xbf33f15b	-0.70290154
55	0x3f0fe3a9	0.56206757
56	0x3de30dcb	0.11086615
57	0xbeba33a4	-0.36367524
58	0x3f281e25	0.65670997
59	0x3f276eda	0.6540352
60	0xbfa36457	-1.2764996
61	0x3efdcd65	0.49570766
62	0xbf67945a	-0.9046074
63	0xbf18638f	-0.59526914
64	0x3f1b59ba	0.60683787
65	0x3f664206	0.89944494
66	0xbf2b3c11	-0.6688853
67	0x3e0b83f3	0.13624553
68	0xbf16d601	-0.58920294
69	0x3f3e31ee	0.74294937
70	0x3e732d50	0.23747754
71	0xbf6e2f15	-0.9304059
72	0x3f21dc85	0.6322711
73	0x3f03f1f0	0.5154104
74	0xbf94a508	-1.1612864
75	0x3ed168c5	0.40900245
76	0x3f720aa2	0.94547474
77	0xbf1b9679	-0.6077648
78	0x3f479020	0.7795429
79	0x3f5356e7	0.8255448
80	0x3af21eeb	0.0018472349
81	0xbdfc4674	-0.12318125
82	0x3e4a44dd	0.19752832
83	0xbeceb8c7	-0.4037535
84	0x3f0f88b3	0.5606796
85	0xbf923231	-1.1421567
86	0xbe4d2cf0	-0.20036674
87	0xbeccff1f	-0.40038392
88	0xbf8502c5	-1.039147
89	0xbe267b99	-0.16258086
90	0x3f492167	0.7856659
91	0x3f978c62	1.1839716
92	0xbf3dd113	-0.74147147
93	0xbe248d93	-0.16069631
94	0x3f09bdef	0.5380544
95	0xbcfe0491	-0.031008037
96	0x3d29ee13	0.04148681
97	0x3f92d813	1.1472191
98	0xbeb55c0c	-0.3542179
99	0xbf3e283e	-0.74280155
100	0x3f6cec5d	0.9254816
101	0xbf61c14d	-0.8818558
102	0xbf499561	-0.7874356
103	0xbf3f9380	-0.7483444
104	0xbf58b13e	-0.8464545
105	0x3eed41f1	0.46339372
106	0xbee0a776	-0.43877763
107	0x3f302369	0.6880403
108	0xbebbbbed	-0.36666813
109	0xbf492adb	-0.7858102
110	0x3f611ca4	0.8793433
111	0x3f741be4	0.9535506
112	0xbf1d59f0	-0.6146536
113	0xbf124d8d	-0.57149583
114	0xbebd7102	-0.3700028
115	0xbefd0891	-0.49420598
116	0xbf761bec	-0.96136355
117	0x3efce946	0.49396724
118	0xbf8b4c5e	-1.088268
119	0xbd66e32f	-0.056369003
120	0xbf106414	-0.5640271
121	0xbd18100a	-0.03712467
122	0xbf5194ab	-0.81867474
123	0xbd883efc	-0.06652638
124	0xbf54db20	-0.8314686
125	0xbd9c2650	-0.07624495
126	0x3f429d17	0.7602095
127	0x3dcf59bf	0.101245396

critic_network.2.weight f4 [128, 128]
0	0xbf00a3b5	-0.502498
1	0xbee03960	-0.43793774
2	0x3ebd5f46	0.3698675
3	0x3eb2e892	0.34943062
4	0xbf048d3d	-0.5177801
5	0x3e876e2a	0.26451236
6	0xbf0748f3	-0.52845687
7	0x3f1f222b	0.6216151
8	0x3f3cf788	0.738152
9	0xbf33ef4c	-0.70287013
10	0x3f111707	0.5667576
11	0xbed7d4de	-0.42154592
12	0xbf020438	-0.5078769
13	0x3f0c3912	0.5477458
14	0x3ec17fb8	0.37792754
15	0x3f2d3b60	0.67668724
16	0xbf101c2d	-0.5629299
17	0x3fb20645	1.3908163
18	0x3f1863ba	0.5952717
19	0xbecfc219	-0.40577772
20	0xbb4395d1	-0.0029843936
21	0xbf03a6cd	-0.5142639
22	0x3efee349	0.4978278
23	0x3f0133a9	0.5046945
24	0x3f2f6f37	0.68529075
25	0x3f31b4eb	0.69416684
26	0xbe7f8321	-0.24952365
27	0x3f3b68cd	0.7320679
28	0xbe8e98ab	-0.2785085
29	0xbf142c55	-0.57880145
30	0x3eda8e3b	0.42686638
31	0x3f59c316	0.850633
32	0x3ee7d238	0.45277572
33	0xbec675af	-0.3876166
34	0xbe697dea	-0.22801939
35	0xbf1ee3ba	-0.62066233
36	0xbea129c2	-0.3147717
37	0xbf1172b7	-0.56815666
38	0x3f2d406f	0.6767644
39	0xbf2f36ab	-0.6844279
40	0x3ed1ac52	0.40951782
41	0x3f26dc1b	0.65179604
42	0x3eef7dfc	0.46775806
43	0x3f395887	0.72400707
44	0x3f3265a7	0.6968636
45	0x3f229224	0.6350424
46	0x3fc55862	1.5417597
47	0xbe9f87dd	-0.31158343
48	0x3f19c617	0.60067886
49	0x3f62d832	0.8861114
50	0x3dbd4989	0.09242541
51	0x3f511622	0.81674397
52	0x3e543c50	0.20726132
53	0xbecf2a3f	-0.4046192
54	0xbf08c12e	-0.5341977
55	0x3d8e9704	0.06962398
56	0x3eaa9b98	0.33321834
57	0xbf66f1a6	-0.90212476
58	0xbec51970	-0.3849597
59	0x3f2f842e	0.68561065
60	0xbfb1f3d1	-1.3902532
61	0xbec979fb	-0.39350876
62	0xbf2c6077	-0.67334694
63	0xbf0d4907	-0.55189556
64	0xbee02573	-0.4377857
65	0x3f11a279	0.5688854
66	0x3efd87fa	0.49517804
67	0x3ec5b66e	0.38615745
68	0xbf23e4d5	-0.64021045
69	0x3f1070a4	0.56421876
70	0x3f090185	0.53517944
71	0xbfa1bd97	-1.2635983
72	0x3ede5a2c	0.4342817
73	0x3f19db85	0.60100585
74	0xbf657632	-0.89633477
75	0x3ea87c3b	0.3290728
76	0x3ef704cb	0.48245844
77	0x3ebfe0a7	0.37476084
78	0xbedfc0b2	-0.43701702
79	0x3f579aa7	0.84220356
80	0x3f54dc2c	0.83148456
81	0xbf0a977e	-0.5413741
82	0xbf0c6b58	-0.54851294
83	0xbea746ba	-0.32671148
84	0xbf05efbd	-0.52318937
85	0xbef5b70d	-0.4799122
86	0x3f0ab715	0.5418561
87	0xbe8ba4a5	-0.2727405
88	0xbf4a793e	-0.7909125
89	0x3f1380fe	0.576187
90	0x3f010e8f	0.5041284
91	0x3f62a041	0.8852578
92	0xbe309d3e	-0.17247483
93	0xbec5b7a7	-0.38616678
94	0xbf019f96	-0.50634134
95	0xbf746c0c	-0.95477366
96	0x3f0522bc	0.52006125
97	0x3f52681d	0.82190114
98	0xbe6ca114	-0.23108321
99	0xbf45c2be	-0.7725028
100	0x3f310c46	0.6915935
101	0xbeaa9257	-0.33314773
102	0xbf95bfb9	-1.1699134
103	0xbed62400	-0.4182434
104	0xbf3f0de6	-0.7463058
105	0x3ece0c55	0.40243784
106	0xbecf8e1c	-0.40538108
107	0x3f600e07	0.87521404
108	0x3ef1c4e6	0.47220534
109	0xbef7e9d6	-0.4842059
110	0x3f43f249	0.7654157
111	0x3edd974b	0.4327949
112	0xbf3ec998	-0.7452636
113	0x3ed2e679	0.41191462
114	0x3eb66d8c	0.35630453
115	0xbf63b7f0	-0.8895254
116	0xbf2318f5	-0.63709956
117	0x3f4d5d12	0.8022014
118	0xbf6d8f88	-0.92797136
119	0xbf01976a	-0.50621665
120	0x3eea8e9f	0.45811936
121	0x3ec5b661	0.38615707
122	0xbe102723	-0.1407743
123	0x3f85924a	1.0435269
124	0xbefacc43	-0.48983964
125	0x3f111f96	0.5668882
126	0x3ec50bfd	0.3848571
127	0x3ec06947	0.3758032
128	0x3ef6ca48	0.48201203
129	0x3f1ef64e	0.6209458
130	0xbf8cf088	-1.1010904
131	0xbf35b8d8	-0.70985174
132	0x3f068079	0.52539784
133	0xbf3333b9	-0.700008
134	0x3ea87f8f	0.3290982
135	0xbf5fbe62	-0.87399876
136	0xbef34fc9	-0.4752181
137	0x3f7ab72d	0.97935754
138	0xbf36858c	-0.71297526
139	0x3eb7cc05	0.35897842
140	0x3eaf35ba	0.34220678
141	0xbf029b3f	-0.51018137
142	0xbefa628e	-0.48903316
143	0xbf391a83	-0.7230608
144	0x3f1147b2	0.56750023
145	0xbf62d134	-0.8860047
146	0xbf633228	-0.8874841
147	0x3eb5289a	0.3538254
148	0x3d2127f1	0.03934473
149	0x3f0b7d24	0.54487824
150	0xbef5136e	-0.47866386
151	0xbf02e115	-0.511247
152	0xbf02f794	-0.51159024
153	0xbf3a32db	-0.7273385
154	0x3e5e8934	0.21732026
155	0xbee7fb0f	-0.4530873
156	0x3e62aadf	0.22135495
157	0x3ed2a2ac	0.41139734
158	0xbeefa2ce	-0.46803898
159	0xbf391a1a	-0.7230545
160	0xbf01b802	-0.506714
161	0x3eff219b	0.49830326
162	0x3dbcd166	0.09219627
163	0x3eeb6ae9	0.45980003
164	0x3ebe1032	0.3712173
165	0x3f386359	0.7202659
166	0xbf2bc74b	-0.6710097
167	0x3eefe194	0.4685179
168	0xbee2356e	-0.4418139
169	0xbe2c23ba	-0.16810504
170	0xbf1c6a5e	-0.61099803
171	0xbed4ff19	-0.41600874
172	0xbf077f44	-0.52928567
173	0xbf0c2f17	-0.54759353
174	0xbf235df7	-0.63815254
175	0x3effe175	0.49976698
176	0xbf1e2949	-0.61781746
177	0xbf6782c5	-0.90433913
178	0x3e9572ae	0.29189056
179	0xbee05b78	-0.43819785
180	0xbeb4c293	-0.35304698
181	0x3efb7de7	0.49119493
182	0x3f23dccd	0.6400879
183	0xbdf2d6a3	-0.11857345
184	0xbe586d84	-0.21135527
185	0x3ed5fd6a	0.41794902
186	0x3ef2b634	0.47404635
187	0xbe8510a9	-0.25989273
188	0x3f4219c2	0.75820553
189	0x3ef2f3be	0.47451586
190	0x3f3b6610	0.7320261
191	0x3f07e53a	0.53084147
192	0x3f13cd95	0.5773557
193	0xbf3dbbe3	-0.7411482
194	0xbf1e1ed2	-0.6176578
195	0xbefa2f50	-0.48864222
196	0x3f48ec82	0.7848588
197	0xbdf218b9	-0.11821122
198	0xbeb70c81	-0.35751727
199	0x3f3f55d5	0.74740344
200	0xbed82c0e	-0.4222111
201	0xbf30f9f9	-0.6913143
202	0x3ee33927	0.4437954
203	0xbede31dc	-0.43397415
204	0xbf753354	-0.95781446
205	0xbefde983	-0.49592218
206	0x3ee8dde6	0.45481795
207	0xbf2cbba8	-0.6747384
208	0xbf5236af	-0.8211469
209	0x3f003fb7	0.5009722
210	0x3eec396e	0.46137565
211	0x3efce63c	0.49394405
212	0x3eedc728	0.46441007
213	0x3f14ce3b	0.5812718
214	0xbf22c5ba	-0.63582957
215	0x3f4bfc6c	0.7968204
216	0x3e20bd8d	0.15697308
217	0xbed90b0b	-0.42391238
218	0xbf223578	-0.63362837
219	0xbf87739b	-1.0582155
220	0x3eca4ac4	0.39510167
221	0x3ed159e1	0.40888885
222	0x3eee06b7	0.46489498
223	0x3e92baa3	0.28658018
224	0xbf14ec82	-0.5817338
225	0xbf36d1f7	-0.7141413
226	0x3eb9194a	0.36152107
227	0x3ed1ad1e	0.4095239
228	0xbec9106b	-0.39270338
229	0x3ece76ab	0.4032491
230	0x3eff6145	0.49878898
231	0x3e8804f2	0.26566273
232	0x3f2182e0	0.63090324
233	0xbf2460c3	-0.64210147
234	0x3f17b245	0.5925639
235	0xbf1a9ea3	-0.6039831
236	0xbefdc0f7	-0.49561283
237	0x3f08c18e	0.5342034
238	0xbf1fad01	-0.6237336
239	0xbf770541	-0.9649239
240	0x3edbfcc9	0.42966297
241	0xbee76506	-0.45194262
242	0xbecd27fa	-0.40069562
243	0x3f139047	0.57642025
244	0x3eee3121	0.46521857
245	0xbee3ce05	-0.44493118
246	0x3efe55d4	0.49674857
247	0x3ea7086d	0.32623616
248	0xbefe8b48	-0.49715638
249	0xbe91707e	-0.28406137
250	0x3f319566	0.6936859
251	0xbf41f466	-0.7576355
252	0x3e9df867	0.30853578
253	0xbec5f357	-0.38662216
254	0xbf4dcab4	-0.80387425
255	0xbf3b63b2	-0.73199

critic_network.2.bias f4 [128]
0	0xbefb1396	-0.4903838
1	0x3eff1f47	0.4982855
2	0x3ee55ed4	0.4479891
3	0x3f000a4e	0.50015724
4	0xbee84bb4	-0.45370257
5	0x3ebf8655	0.37407175
6	0x3ec18714	0.3779837
7	0xbeee1287	-0.4649851
8	0xbf063e96	-0.5243925
9	0x3ecb0bf2	0.3965755
10	0xbee0d174	-0.439098
11	0xbe9d82c8	-0.3076384
12	0xbeeb271b	-0.45928273
13	0x3ed2f572	0.41202885
14	0xbefef46e	-0.4979586
15	0x3efe3f42	0.49657637
16	0x3ed7036d	0.419948
17	0x3efb03d9	0.49026373
18	0x3f0ea3af	0.5571851
19	0xbf032c75	-0.5123971
20	0xbf000719	-0.5001083
21	0xbf142d4f	-0.57881635
22	0x3ef244fb	0.47318253
23	0x3eead307	0.45864126
24	0x3f06ead8	0.52702093
25	0xbf07e62c	-0.5308559
26	0x3f0ea22b	0.557162
27	0x3f00199b	0.5003907
28	0x3efecf7b	0.4976767
29	0x3eca00e5	0.39453807
30	0x3eec16c5	0.46111122
31	0xbed83a1f	-0.42231843
32	0x3ee25235	0.44203344
33	0x3f01c446	0.50690114
34	0xbed25bc2	-0.4108563
35	0x3ee603e1	0.44924834
36	0xbec436e3	-0.38323125
37	0x3effef36	0.4998719
38	0xbed264c1	-0.41092494
39	0xbf165522	-0.5872365
40	0x3f1e8b93	0.61931723
41	0xbee391fa	-0.4444731
42	0x3f06355d	0.52425176
43	0x3ece0802	0.40240484
44	0xbed32507	-0.41239187
45	0x3ecb91e9	0.39759758
46	0x3f1e36a2	0.61802113
47	0xbef0e4f8	-0.4704969
48	0xbef63b63	-0.48092183
49	0x3ee84956	0.4536845
50	0xbf0a8588	-0.5411
51	0xbed380b1	-0.4130912
52	0xbf1c3094	-0.61011624
53	0x3f045926	0.5169853
54	0x3f03acc6	0.51435506
55	0xbef68c6d	-0.4815401
56	0x3ee59ab5	0.44844595
57	0xbed5bfd7	-0.41747925
58	0xbed3dfc7	-0.41381666
59	0xbf0107c0	-0.5040245
60	0xbf17ce02	-0.5929872
61	0x3eec958a	0.4620784
62	0xbecbd7a1	-0.3981295
63	0xbeff8310	-0.4990468
64	0xbf06599d	-0.5248049
65	0xbf08782c	-0.5330837
66	0xbeb7737f	-0.35830304
67	0xbed60f43	-0.4180852
68	0x3f116a83	0.5680315
69	0x3f0556cc	0.52085567
70	0xbf0f0485	-0.5586627
71	0xbeedea03	-0.464676
72	0xbec42949	-0.38312748
73	0x3ef77e4b	0.4833854
74	0xbed9a15e	-0.42505926
75	0xbef6d8fc	-0.4821242
76	0x3eec0fa2	0.46105677
77	0x3ed776fe	0.4208297
78	0x3ed0e615	0.4080054
79	0x3f169343	0.58818454
80	0x3f04dd09	0.5189977
81	0xbed086ab	-0.40727744
82	0xbed5dd07	-0.41770193
83	0x3ec7f9fb	0.39057907
84	0x3eccc2d6	0.39992398
85	0x3efebb4c	0.4975227
86	0x3f07127b	0.52762574
87	0xbeefdcf9	-0.46848276
88	0x3ecdf07a	0.40222532
89	0x3ef05478	0.46939445
90	0x3eeb22cb	0.45924982
91	0x3ed361a8	0.41285443
92	0x3ef549c7	0.4790785
93	0xbeb35608	-0.35026574
94	0xbf0eec7c	-0.55829597
95	0x3eea4807	0.45758078
96	0x3f0641b8	0.5244403
97	0xbee153b8	-0.44009185
98	0x3f0c6e15	0.5485547
99	0xbf0d32df	-0.5515575
100	0x3ee64577	0.44974872
101	0x3f080b1b	0.53141946
102	0x3f0f4ffc	0.5598142
103	0x3f011303	0.50419635
104	0x3f03920a	0.5139471
105	0x3eac15f0	0.33610487
106	0x3ecf99c8	0.40547013
107	0x3f050cf8	0.51972914
108	0xbf10888b	-0.5645835
109	0x3ec504ab	0.38480124
110	0xbefdd7fd	-0.49578848
111	0xbeef3808	-0.46722436
112	0x3f137f30	0.5761595
113	0xbede6042	-0.43432814
114	0x3efbda9a	0.49190217
115	0xbef8ffd9	-0.48632696
116	0xbeb7b638	-0.3588121
117	0x3ef2612a	0.47339755
118	0xbf0249a6	-0.5089363
119	0xbedc1d8b	-0.4299129
120	0xbf0485c2	-0.517666
121	0xbeb1cdb2	-0.34727246
122	0xbf0711be	-0.5276145
123	0xbecb85f5	-0.3975064
124	0xbf00351e	-0.5008105
125	0x3ebf6982	0.37385184
126	0xbef06a9b	-0.46956334
127	0xbf0929bd	-0.5357931

critic_network.4.weight f4 [1, 128]
0	0x41205674	10.021107
1	0xc11fc325	-9.985143
2	0xc120ff8f	-10.062392
3	0xc120a0a5	-10.03922
4	0x412153df	10.082976
5	0xc120ff17	-10.062278
6	0xc1210671	-10.064073
7	0x4120da86	10.05335
8	0x411fabb6	9.979422
9	0xc1212a48	-10.072823
10	0x412000f4	10.000233
11	0x411fda25	9.990758
12	0x4121246a	10.07139
13	0xc120e2ea	-10.055399
14	0x412008ef	10.002181
15	0xc1207bee	-10.030256
16	0xc1204a26	-10.018103
17	0xc120dc26	-10.053747
18	0xc1210f93	-10.066302
19	0x41206546	10.024725
20	0x412120ee	10.070539
21	0x41203380	10.012573
22	0xc11fbe37	-9.983939
23	0xc120b9c1	-10.04535
24	0xc120f83e	-10.060606
25	0x41204187	10.015998
26	0xc1204a3f	-10.0181265
27	0xc1210ced	-10.065656
28	0xc120c2c1	-10.047547
29	0xc11fef6b	-9.995952
30	0xc1204fd5	-10.01949
31	0x41209567	10.036475
32	0xc1206783	-10.025271
33	0xc11fe95d	-9.994473
34	0x41210dcb	10.065867
35	0xc11fcd7e	-9.987669
36	0x41214f0c	10.081799
37	0xc120bb8f	-10.045791
38	0x411fac2d	9.979535
39	0x4120f65a	10.060144
40	0xc1203ab3	-10.014331
41	0x4121204b	10.070384
42	0xc1202e81	-10.0113535
43	0xc11f9418	-9.973656
44	0x412065c1	10.024842
45	0xc12056b0	-10.021164
46	0xc120dbb2	-10.053637
47	0x41212161	10.070649
48	0x4120c8f5	10.049062
49	0xc1204864	-10.0176735
50	0x41215c4d	10.085034
51	0x4120992d	10.037396
52	0x411ff442	9.997133
53	0xc11fa716	-9.978292
54	0xc12050be	-10.019712
55	0x4120a0a9	10.039224
56	0xc1201f96	-10.007711
57	0x41201e60	10.007416
58	0x412047f0	10.017563
59	0x4120ff71	10.062364
60	0x411fbc5f	9.983489
61	0xc1215659	-10.083581
62	0x411ff55a	9.9974
63	0x4120ae03	10.042483
64	0x411f8c2a	9.97172
65	0x4120aa82	10.041628
66	0x412093a6	10.036047
67	0x41206891	10.025529
68	0xc1209960	-10.037445
69	0xc11fd6df	-9.989959
70	0x411fb0b5	9.980641
71	0x41213986	10.076544
72	0x41207b24	10.030064
73	0xc120dad3	-10.053424
74	0x412011a1	10.004304
75	0x412101f0	10.062973
76	0xc11fd487	-9.989387
77	0xc120fc6c	-10.061626
78	0xc12012af	-10.004561
79	0xc12135c0	-10.075623
80	0xc121665c	-10.08749
81	0x41200fb0	10.00383
82	0x41201002	10.003908
83	0xc12002ed	-10.000714
84	0xc1202d11	-10.011003
85	0xc120d3f3	-10.051745
86	0xc120ce96	-10.050436
87	0x412187b9	10.095635
88	0xc1215c1a	-10.084986
89	0xc12104c1	-10.063661
90	0xc11fdd70	-9.991562
91	0xc121150c	-10.067638
92	0xc11fccd5	-9.987508
93	0x4120896d	10.033551
94	0x41200d79	10.003289
95	0xc120e59d	-10.056058
96	0xc11fb9ac	-9.98283
97	0x4120fac4	10.061222
98	0xc1207aca	-10.029978
99	0x41205ec9	10.023141
100	0xc120ab8d	-10.0418825
101	0xc120a6db	-10.040736
102	0xc12094e6	-10.036352
103	0xc12035d7	-10.0131445
104	0xc12083d0	-10.032181
105	0xc1214c3c	-10.081112
106	0xc1211869	-10.0684595
107	0xc120a072	-10.039171
108	0x41208199	10.03164
109	0xc120ea75	-10.0572405
110	0x4121762a	10.091349
111	0x411fe358	9.993004
112	0xc1206fa1	-10.027253
113	0x4120b53d	10.044248
114	0xc12177c6	-10.091742
115	0x41215036	10.082083
116	0x411fdc1f	9.9912405
117	0xc12070c0	-10.027527
118	0x411fce3e	9.987852
119	0x4120bc19	10.045922
120	0x41203407	10.012702
121	0x41204c11	10.018571
122	0x4120b72a	10.044718
123	0x41200871	10.002061
124	0x41201396	10.004782
125	0xc1209dfc	-10.03857
126	0x4120023c	10.0005455
127	0x412076b5	10.028981
