test_uav/model/critic_model14-10-2023_13-56-54/40.pt (torch, 77807 bytes, 5 tensors)

critic_network.0.weight f4 [128, 17]
0	0x3e060093	0.13086157
1	0xbda3123f	-0.079624645
2	0x3ea2c440	0.31790352
3	0x3e1114ef	0.14168142
4	0xbd71975a	-0.05898223
5	0x3ea2b7f0	0.31780958
6	0x3ef10ba4	0.47079194
7	0xbe774feb	-0.2415158
8	0xbd92879f	-0.07154774
9	0xbf6b07d8	-0.91808844
10	0xbd495b76	-0.04915949
11	0xbe9b7fed	-0.30371037
12	0xbed02a81	-0.40657428
13	0x3cc87133	0.02446804
14	0x3e34d70a	0.17660156
15	0xbe84b210	-0.259171
16	0xbe90bd49	-0.28269413
17	0xbd585213	-0.052812647
18	0x3dfafb00	0.12254906
19	0x3ddfe146	0.109316394
20	0xbd5c484d	-0.05377989
21	0xbd2d501b	-0.042312723
22	0x3d2b5cdd	0.04183661
23	0xbdce48ec	-0.100725025
24	0x3e0001ee	0.12500736
25	0x3ea3a770	0.31963682
26	0xbdccadfd	-0.09994123
27	0xbe9fcf20	-0.3121271
28	0xbf10898d	-0.56459886
29	0x3f3087f0	0.68957424
30	0x3eeccc83	0.4624978
31	0x3ed9f70d	0.42571297
32	0x3e3ef5a5	0.18648393
33	0x3e783953	0.24240617
34	0x3eb80503	0.35941324
35	0x3d8fed39	0.070276685
36	0xbf069d10	-0.5258341
37	0x3db1570c	0.08659181
38	0x3df8c611	0.12147153
39	0xbcaf4462	-0.021394912
40	0xbe86da62	-0.26338488
41	0xbe7fbb69	-0.24973835
42	0x3c40aa05	0.011759286
43	0x3f2c91af	0.67409796
44	0x3e56503c	0.20929044
45	0xbecb0f37	-0.39660046
46	0xbdc066dc	-0.09394619
47	0x3e2d6d9c	0.16936344
48	0xbd2177e3	-0.039420974
49	0x3d03487d	0.032051552
50	0x3e5b0095	0.21386941
51	0xbe928213	-0.28614864
52	0xbecc84ae	-0.39944977
53	0x3ef2ff20	0.4746027
54	0x3cf9ebf0	0.030508012
55	0xbe952442	-0.29129225
56	0x3d55726b	0.05211107
57	0xbe90dee2	-0.28295046
58	0x3f1b4867	0.6065735
59	0xbd390f68	-0.04518071
60	0x3ecb5640	0.3971424
61	0xbd33623f	-0.043794867
62	0x3df42ac5	0.1192222
63	0x3d832b63	0.0640476
64	0xbd40d55a	-0.047078468
65	0xbdf45538	-0.11930317
66	0x3e864753	0.2622629
67	0x3ecb774a	0.39739448
68	0x3daf7a2f	0.085682265
69	0xbd6e2092	-0.05813653
70	0x3e624006	0.22094736
71	0xba4bdad7	-0.0007776445
72	0x3e8df1d1	0.27723554
73	0x3d4826a2	0.048864968
74	0xbdaae07a	-0.08343597
75	0x3ee14878	0.44000602
76	0x3ebd9dac	0.37034357
77	0xbec59422	-0.3858958
78	0xbe6b5b7b	-0.22984116
79	0x3e13c105	0.144291
80	0x3e7c1002	0.24615481
81	0xbd457d27	-0.048215058
82	0x3c99a45e	0.018755134
83	0x3eb871ad	0.36024228
84	0x3daac25b	0.083378516
85	0xbf5634dc	-0.83674407
86	0x3ea6cf9c	0.32580268
87	0xbf057ae7	-0.5214066
88	0xbdab37e1	-0.083602674
89	0x3e0f0bd7	0.1396936
90	0xbc9ee72c	-0.01939734
91	0x3e1b8d5d	0.15190645
92	0xbe931454	-0.28726447
93	0x3e82b0c3	0.25525483
94	0x3f711b1e	0.94182
95	0x3e8b265a	0.27177697
96	0x3da47b7e	0.08031367
97	0xbe61f475	-0.22065909
98	0x3d31a469	0.043369684
99	0x3e1031a0	0.1408143
100	0x3cca60d1	0.024704369
101	0xbd9d2d18	-0.076746166
102	0xbecc7fa3	-0.3994113
103	0xbe426803	-0.1898499
104	0x3eb4bae0	0.35298824
105	0xbe50b991	-0.20383288
106	0x3c1f5719	0.009725356
107	0x3d08108d	0.03321891
108	0x3e89b2ed	0.26894322
109	0xbecf5711	-0.40496114
110	0xbe2f7274	-0.17133504
111	0xbf1ab8c4	-0.6043818
112	0x3ef4b419	0.47793654
113	0x3ebc892e	0.3682341
114	0xbe334c3c	-0.1750955
115	0x3dce1a05	0.100635566
116	0x3e2534e0	0.16133451
117	0xbe8274d5	-0.2547976
118	0xbdf30365	-0.11865882
119	0x3da6024f	0.08105909
120	0x3e9d002e	0.306642
121	0xbf0cb806	-0.549683
122	0xbe689344	-0.22712427
123	0x3e047aa7	0.12937413
124	0xbd8ef99f	-0.06981205
125	0x3e9ecdbf	0.31016347
126	0xbddc45b8	-0.10755485
127	0xbdfe5de2	-0.124202505
128	0x3f002187	0.5005116
129	0x3e680ee3	0.22661929
130	0x3c15fb29	0.0091541195
131	0x3e858bf6	0.26083344
132	0x3e2eb070	0.17059493
133	0x3db704ca	0.0893646
134	0x3e2c66c9	0.16836084
135	0x3d01a1a1	0.031648282
136	0x3e0b4b35	0.13602908
137	0xbd604962	-0.054757483
138	0x3c9714dd	0.018442566
139	0x3d63fcb1	0.055660907
140	0x3de14621	0.10999704
141	0x3c901392	0.017587457
142	0xbd1b192e	-0.03786581
143	0x3c54d7f2	0.0129909385
144	0x3e7b74f9	0.2455634
145	0x3e5fa840	0.21841526
146	0xbd0c7260	-0.034288764
147	0x3e5cc0b4	0.21557885
148	0x3ed03e87	0.40672705
149	0xbd8637ee	-0.065536365
150	0x3bd85d8b	0.006602948
151	0xbe741c33	-0.23838882
152	0xbe09bb28	-0.134503
153	0x3ec6783c	0.38763607
154	0xbea769c3	-0.32697877
155	0x3f15f155	0.5857137
156	0x3e18d2de	0.1492419
157	0xbd0d885c	-0.03455387
158	0x3dd1cf85	0.10244659
159	0x3e952fb6	0.29137963
160	0x3cd002e2	0.025392
161	0x3cc40af6	0.023931008
162	0xbf3ae45a	-0.73004687
163	0x3ea098d4	0.313666
164	0xbe932244	-0.2873708
165	0xbcf79843	-0.030223971
166	0xbe1df034	-0.15423661
167	0x3d68a59e	0.05679857
168	0xbad6aa55	-0.0016377667
169	0xbeb47641	-0.3524647
170	0x3e6948e4	0.22781712
171	0x3eaf60c8	0.34253526
172	0x3dc4423c	0.09582946
173	0xbd471720	-0.048606038
174	0x3cdadeeb	0.026717624
175	0x3e44430a	0.19166198
176	0xbd3b4497	-0.04571971
177	0x3e650a8d	0.22367306
178	0xbdcc43ef	-0.09973895
179	0x3f291584	0.66048455
180	0xbe13a1c2	-0.14417174
181	0x3de53d67	0.11193352
182	0x3e1f7cd7	0.15574966
183	0x3dfaf5b0	0.122538924
184	0xbe5ba444	-0.21449381
185	0xbe683bd7	-0.22679077
186	0x3e2b928d	0.16755123
187	0x3e27e62c	0.16396397
188	0xbedfdaa6	-0.43721503
189	0x3def6dcc	0.11690864
190	0xbe65ff3d	-0.22460647
191	0x3e678ee2	0.22613099
192	0x3c2687bb	0.010164197
193	0xbe024577	-0.12721811
194	0x3e2729b2	0.16324499
195	0xbe798797	-0.2436813
196	0x3e3bd4e3	0.18342929
197	0xbf105777	-0.5638346
198	0x3e2f26ad	0.17104597
199	0xbe83f1cc	-0.25770414
200	0x3e4af2a3	0.19819121
201	0x3e85ad5a	0.2610882
202	0x3e21d807	0.15805064
203	0x3ed09887	0.4074137
204	0x3f13e53d	0.57771665
205	0xbee79048	-0.45227265
206	0x3cc6d61d	0.024272019
207	0x3e5454ba	0.20735446
208	0x3d3a2035	0.04544087
209	0x3dea72f1	0.114477046
210	0x3dbe7ecf	0.093015306
211	0xbefd38b7	-0.49457332
212	0x3dbbeb27	0.09175711
213	0xbefd1a9b	-0.4943436
214	0xbef8ad09	-0.48569515
215	0xbf324e24	-0.69650483
216	0xbea5d371	-0.3238788
217	0xbe8a8d2a	-0.27060825
218	0xbe1a0b3d	-0.1504335
219	0xbea959ac	-0.33076227
220	0xbf14e622	-0.58163655
221	0x3e4d808b	0.20068567
222	0x3ea8f45f	0.3299894
223	0xbdd470f0	-0.103731036
224	0x3d845b6f	0.06462752
225	0xbe6bc63d	-0.2302484
226	0x3d9352f2	0.07193555
227	0x3db74a6d	0.089497425
228	0x3d8ab2bd	0.06772373
229	0xbcacd427	-0.021097256
230	0x3ec8f65f	0.39250466
231	0x3e7740e5	0.24145849
232	0x3d8bff3f	0.06835794
233	0x3f143021	0.5788594
234	0x3ddcad41	0.10775233
235	0xbe7002ab	-0.23438518
236	0xbe8593c5	-0.26089302
237	0xbe00f5b3	-0.12593727
238	0xbc514710	-0.01277329
239	0x3e2cc965	0.16873701
240	0xbdaff281	-0.08591176
241	0x3de47ae9	0.11156256
242	0xbdeca216	-0.11554353
243	0xbe17d4c4	-0.14827257
244	0xbb90afc3	-0.0044154837
245	0xbdafa755	-0.08576838
246	0xbea4b9ff	-0.32173154
247	0x3d83e15c	0.06439468
248	0x3e2f834f	0.17139934
249	0x3de639ba	0.11241479
250	0xbe191c5e	-0.14952227
251	0xbed2b9c8	-0.41157365
252	0xbecafb88	-0.39645028
253	0xbe23119b	-0.15924685
254	0xbefe0e7f	-0.49620435
255	0xbef74e34	-0.48301852

critic_network.0.bias f4 [128]
0	0xbf14e677	-0.5816416
1	0x3e05166c	0.12996835
2	0x3f36bcba	0.71381724
3	0x3e53f81f	0.2070012
4	0xbe8ec86e	-0.2788729
5	0x3f6219b2	0.8832046
6	0xbf7a1144	-0.97682595
7	0x3f2b5194	0.66921353
8	0x3f1a9349	0.6038099
9	0xbf27bf8d	-0.6552666
10	0x3f0576b5	0.5213426
11	0x3e528f8b	0.2056257
12	0xbe8fe71c	-0.2810601
13	0x3e70f6ae	0.23531601
14	0xbe94cf5f	-0.29064462
15	0xbd9f85a5	-0.077891625
16	0xbe890b75	-0.26766554
17	0x3f809048	1.0044031
18	0x3dcb7c33	0.099357985
19	0xbf0bca30	-0.5460539
20	0xbe125874	-0.14291555
21	0x3ef2dab8	0.47432494
22	0xbea7b4a0	-0.32754993
23	0x3edc9132	0.43079525
24	0x3f1c7a2c	0.6112392
25	0x3f24d7d1	0.6439181
26	0x3e3969fe	0.18106839
27	0x3d4da279	0.050203774
28	0xbf1a22a0	-0.60209084
29	0xbee372f4	-0.4442364
30	0xbda4ccd0	-0.080468774
31	0x3f022f8f	0.5085382
32	0x3e9e6ad8	0.3094089
33	0x3f042c52	0.5163013
34	0xbeb889b5	-0.36042562
35	0xbe834aaf	-0.25642917
36	0xbf2a8b13	-0.6661846
37	0xbf3c4993	-0.73549765
38	0x3f0b5dcf	0.54440016
39	0xbe952135	-0.29126897
40	0xbec6834f	-0.38772056
41	0x3ec99946	0.3937475
42	0xbde1c554	-0.110239655
43	0xba8e4c46	-0.0010856471
44	0x3e8db9df	0.2768087
45	0x3f470235	0.7773774
46	0x3f6bf01e	0.92163265
47	0xbebd0b38	-0.36922622
48	0x3f322e2f	0.6960172
49	0x3f11c130	0.56935406
50	0xbec32e16	-0.38121098
51	0x3eba48a3	0.36383542
52	0x3f38376a	0.71959555
53	0x3e49f7e3	0.19723468
54	0xbee66020	-0.44995213
55	0x3eb6a37e	0.3567161
56	0xbda2e5aa	-0.07953961
57	0xbe8d3b99	-0.27584532
58	0x3ed60a6a	0.4180482
59	0x3f07e5e7	0.5308518
60	0xbf61abbd	-0.88152677
61	0x3de44837	0.111465864
62	0xbf210cef	-0.6291036
63	0xbeef2f0a	-0.46715575
64	0x3e99f337	0.3006837
65	0x3f1cc4d0	0.6123781
66	0xbe7d8c94	-0.24760658
67	0x3dba92d5	0.09110037
68	0xbeee19fb	-0.46504197
69	0x3f165225	0.5871909
70	0x3e5dcba1	0.2165971
71	0xbf237021	-0.6384297
72	0x3e669719	0.22518577
73	0x3ebb9207	0.36634848
74	0xbf3b9218	-0.73269796
75	0x3ebcd592	0.3688169
76	0x3f0ad411	0.5422984
77	0xbe97ab59	-0.29622915
78	0x3ec07f90	0.37597322
79	0x3eee141d	0.4649972
80	0xbe31ef41	-0.17376424
81	0xbea7359c	-0.32658088
82	0x3e71ca53	0.23612337
83	0xbe6f5854	-0.23373538
84	0x3ece68c4	0.40314305
85	0xbf4fbf75	-0.81151515
86	0xbdf7c457	-0.12097996
87	0xbe7fa6fe	-0.24966046
88	0xbf4d8c6d	-0.802924
89	0xbd640a5c	-0.055673942
90	0x3f164afc	0.5870817
91	0x3f72d4ef	0.9485616
92	0xbf0a9f94	-0.54149747
93	0xbe9aa710	-0.30205584
94	0x3e7ba5e3	0.24575
95	0x3e999895	0.29999223
96	0x3e7ac0bc	0.24487585
97	0x3f42b736	0.7606081
98	0xbdb18a14	-0.086689144
99	0xbec5dfbb	-0.38647255
100	0x3f467f26	0.77537763
101	0xbed6ca9a	-0.41951448
102	0xbee3266a	-0.44365245
103	0xbf21d48d	-0.6321495
104	0xbf03cdc3	-0.5148584
105	0x3ea6d679	0.32585505
106	0xbf0a4160	-0.54006004
107	0x3f187a90	0.59562016
108	0xbe7ae1d5	-0.2450021
109	0xbf2c64f5	-0.6734155
110	0x3f07a481	0.5298539
111	0x3f3acff1	0.72973543
112	0xbeee2849	-0.4651511
113	0xbe278e98	-0.16362989
114	0xbcd9fc82	-0.026609663
115	0xbf295a4a	-0.66153395
116	0xbf275966	-0.65370786
117	0x3eb58cd1	0.35458997
118	0xbf69bd10	-0.9130411
119	0xbdeeb8b9	-0.11656327
120	0xbe51e663	-0.20498042
121	0xbe053932	-0.130101
122	0xbf1abfe6	-0.60449064
123	0x3e443399	0.19160308
124	0xbf1e22ba	-0.6177174
125	0x3df480fb	0.119386636
126	0x3f29f4e5	0.66389304
127	0x3d8efa50	0.06981337

critic_network.2.weight f4 [128, 128]
0	0xbf019a8d	-0.5062645
1	0xbeac3d61	-0.33640578
2	0x3f0fa954	0.5611775
3	0x3ec3ea90	0.38264894
4	0xbed26b8a	-0.4109767
5	0x3f269b3d	0.65080625
6	0xbecd08b1	-0.40045694
7	0x3e6339fa	0.22190085
8	0x3f01744f	0.505681
9	0xbf4900cb	-0.78516835
10	0x3e97d0b4	0.29651415
11	0xbeaa5d79	-0.3327444
12	0xbebf0da5	-0.37315097
13	0x3eb3f514	0.35147917
14	0x3e8ce1eb	0.27516112
15	0x3ef03588	0.4691584
16	0xbedc69e8	-0.4304955
17	0x3f7c1a73	0.9847786
18	0x3eb5d5c7	0.35514662
19	0xbee386a8	-0.44438672
20	0xbe50510a	-0.20343414
21	0xbed2bf7e	-0.41161722
22	0x3eca37e0	0.39495754
23	0x3effc415	0.49954286
24	0x3f18aa93	0.59635276
25	0x3ec71d45	0.38889518
26	0xbec222fb	-0.37917313
27	0x3f0b695f	0.5445766
28	0xbeec435d	-0.46145144
29	0xbf280909	-0.65638787
30	0x3ea60274	0.32423747
31	0x3f234d27	0.637896
32	0x3f087616	0.53305185
33	0xbe91cf49	-0.2847846
34	0xbe4171ce	-0.1889107
35	0xbeae9497	-0.3409774
36	0xbf1ffc99	-0.6249481
37	0xbed21e50	-0.41038752
38	0x3f0f002f	0.55859655
39	0xbe91865f	-0.2842283
40	0x3e9cffc9	0.306639
41	0x3ec6a26e	0.387958
42	0x3ebb5d5a	0.3659466
43	0x3e9ce1d9	0.30641058
44	0x3ed6a46a	0.41922313
45	0x3f06be21	0.52633864
46	0x3f977147	1.1831445
47	0xbeb37633	-0.35051116
48	0x3edf9abc	0.4367274
49	0x3f0be1e8	0.5464158
50	0xbe3adf9f	-0.18249367
51	0x3ee57a85	0.44820037
52	0x3edfbf38	0.43700576
53	0xbe9a83a0	-0.30178547
54	0xbeddd0f7	-0.4332349
55	0x3f0428b9	0.5162464
56	0x3e817568	0.25284886
57	0xbf511bd3	-0.8168308
58	0xbe8fe6c9	-0.28105763
59	0x3f34cadb	0.7062203
60	0xbf757f0e	-0.95896995
61	0xbe95101e	-0.2911386
62	0xbeb24f8c	-0.34826314
63	0xbebfec82	-0.3748513
64	0xbeabcacd	-0.33553162
65	0x3f287fd6	0.6582006
66	0x3ec94ac5	0.39314857
67	0x3edcc8d5	0.43121973
68	0xbefe43f7	-0.49661228
69	0x3ee06ffb	0.43835434
70	0x3ed7d824	0.4215709
71	0xbf5f6d04	-0.8727572
72	0x3e712337	0.2354859
73	0x3f173da5	0.5907844
74	0xbf0c83cb	-0.548886
75	0x3ec9c879	0.3941076
76	0x3edc6499	0.430455
77	0x3e8b290e	0.2717976
78	0xbeab0f82	-0.3341027
79	0x3f0cb369	0.5496126
80	0x3ee332a8	0.44374585
81	0xbefe8d37	-0.49717113
82	0xbeb1d574	-0.34733164
83	0xbeb5dafa	-0.35518628
84	0xbed29e47	-0.4113638
85	0xbeb8cbad	-0.36092892
86	0x3ebc5003	0.36779794
87	0xbe9025d3	-0.28153858
88	0xbf2453aa	-0.6419016
89	0x3eda47ab	0.42632803
90	0x3eb97ee3	0.3622962
91	0x3f30f113	0.6911785
92	0xbefc22cd	-0.492453
93	0xbea8a560	-0.3293867
94	0xbeca78b3	-0.3954521
95	0xbed940c9	-0.4243224
96	0x3ee29695	0.4425551
97	0x3f2a4d1e	0.6652392
98	0xbdfb788a	-0.122788504
99	0xbe600b14	-0.21879226
100	0x3ed28a4c	0.41121137
101	0xbeb660ac	-0.3562063
102	0xbef04e10	-0.46934557
103	0xbecc8f23	-0.39952955
104	0xbf1584df	-0.5840587
105	0x3ec5857c	0.38578403
106	0xbf342f25	-0.70384437
107	0x3f2a1d0b	0.66450566
108	0x3ebb3aca	0.3656829
109	0xbe37fcae	-0.17967483
110	0x3eb1590f	0.3463826
111	0x3f04e796	0.5191587
112	0xbf096d00	-0.53681946
113	0x3e9e598a	0.30927688
114	0x3e8a7a6e	0.2704653
115	0xbf390309	-0.72270256
116	0xbedb3a49	-0.42817906
117	0x3e8246dd	0.2544469
118	0xbf4902e5	-0.7852004
119	0xbee778d5	-0.45209375
120	0x3eb5efb5	0.35534444
121	0x3ea2c1fb	0.3178862
122	0xbec7860b	-0.38969454
123	0x3f2ab7f9	0.6668697
124	0xbecdbc34	-0.4018265
125	0x3ee52a16	0.44758672
126	0x3ed21a23	0.41035566
127	0x3eb11c41	0.3459187
128	0x3ee6a8ba	0.45050603
129	0x3eeaab3e	0.45833772
130	0xbf742b96	-0.95379007
131	0xbefbb389	-0.49160412
132	0x3f04c1a8	0.51857996
133	0xbf1e842c	-0.6192043
134	0x3f44a8ab	0.76819867
135	0xbf093ae3	-0.5360548
136	0xbeb4511a	-0.35218126
137	0x3f2861e7	0.6577439
138	0xbf0a2653	-0.5396473
139	0x3e62caf3	0.22147731
140	0x3eecb5c5	0.4623243
141	0xbec4e5eb	-0.38456663
142	0xbea6501c	-0.32482994
143	0xbee87ef6	-0.45409364
144	0x3ed2f9ac	0.4120611
145	0xbf31e0f9	-0.69483906
146	0xbe885c34	-0.26632845
147	0x3e938ec8	0.2881987
148	0x3ec33d4e	0.3813271
149	0x3ec2933c	0.38002956
150	0xbea090c0	-0.31360435
151	0xbeba00ec	-0.36328828
152	0xbf602bf1	-0.8756705
153	0xbe846e36	-0.25865334
154	0x3ea16ff7	0.31530735
155	0xbedfd951	-0.43720487
156	0x3ee70d55	0.4512736
157	0x3ef3bbdd	0.47604266
158	0xbe9bbd13	-0.3041769
159	0xbf00b470	-0.50275326
160	0xbf0f678c	-0.56017375
161	0x3eaaa142	0.33326155
162	0x3da32d69	0.07967646
163	0x3e963a42	0.29341322
164	0x3efdb97c	0.49555576
165	0x3f5683e3	0.83794993
166	0xbf1b3427	-0.60626453
167	0x3ec6dec9	0.38841847
168	0xbe8e627c	-0.27809513
169	0xbe8029ee	-0.2503199
170	0xbee5c5df	-0.44877526
171	0xbeb093a3	-0.34487638
172	0xbeb4665f	-0.35234353
173	0xbed76722	-0.42070872
174	0xbf2ca6ba	-0.67441905
175	0x3f02494d	0.508931
176	0xbeb5aea1	-0.35484794
177	0xbefa5d18	-0.4889915
178	0x3e922a8f	0.28548095
179	0xbec4e828	-0.3845837
180	0xbf0e2585	-0.55526
181	0x3ea7c642	0.32768446
182	0x3f08ff0a	0.5351416
183	0xbec25400	-0.37954712
184	0xbe93d871	-0.2887607
185	0x3ecc51f0	0.39906263
186	0x3ea03a7a	0.31294614
187	0xbef2a99a	-0.4739502
188	0x3f373148	0.7155957
189	0x3e9ea69f	0.30986497
190	0x3e9dccda	0.30820352
191	0x3efb88b9	0.4912775
192	0x3ed43ce4	0.41452706
193	0xbf4c8e61	-0.7990475
194	0xbee8ff0a	-0.4550708
195	0xbe8e04b3	-0.2773796
196	0x3eeaca59	0.45857504
197	0xbf0f773a	-0.560413
198	0xbec2564b	-0.3795646
199	0x3f265cd7	0.6498541
200	0xbdc163da	-0.09442873
201	0xbeff6082	-0.49878317
202	0x3ea84292	0.3286329
203	0xbeb151c1	-0.34632686
204	0xbf2d3f2e	-0.6767453
205	0xbea9ca29	-0.33162048
206	0x3e946d6b	0.2898973
207	0xbf1b4b55	-0.6066182
208	0xbee03023	-0.43786725
209	0x3eda7e01	0.42674258
210	0x3e99b2dc	0.3001927
211	0x3ebb3f48	0.36571717
212	0x3eae4cb6	0.340429
213	0x3ef89ad9	0.4855564
214	0xbf0752c6	-0.5286068
215	0x3efcfd72	0.49412113
216	0x3eb3e3b7	0.3513467
217	0xbecc7868	-0.39935613
218	0xbf1accf4	-0.60468984
219	0xbf74f9b7	-0.95693535
220	0x3f0468ca	0.51722395
221	0x3e893b49	0.26803043
222	0x3e9c73b0	0.30557013
223	0x3eb59202	0.35462958
224	0xbf21ef6c	-0.63255954
225	0xbefb3c36	-0.49069375
226	0x3cf2d6ca	0.029643435
227	0x3e931068	0.28723454
228	0xbf0b4932	-0.5440856
229	0x3ed0769c	0.40715492
230	0x3ec9c224	0.3940593
231	0x3eaeb2b3	0.34120712
232	0x3f422063	0.7583067
233	0xbebec2f3	-0.3725811
234	0x3f0bc125	0.5459159
235	0xbf15cda1	-0.5851689
236	0xbeaae206	-0.33375567
237	0x3e970181	0.29493335
238	0xbef762b3	-0.4831749
239	0xbf34cf64	-0.7062895
240	0x3f06ed18	0.52705526
241	0xbe93e5f4	-0.28886378
242	0xbe8ef2c6	-0.27919596
243	0x3f080d3c	0.53145194
244	0x3e9f8c1a	0.31161577
245	0xbf0d0574	-0.55086446
246	0x3edebb65	0.43502346
247	0x3e903f66	0.2817337
248	0xbeaa4ed3	-0.33263263
249	0xbeb9635c	-0.36208618
250	0x3ee8d85a	0.45477563
251	0xbf0fd0d6	-0.56178033
252	0x3e671271	0.22565629
253	0xbec5e338	-0.38649917
254	0xbed90d60	-0.42393017
255	0xbedeebc6	-0.43539256

critic_network.2.bias f4 [128]
0	0xbec65732	-0.387384
1	0x3eaa4c64	0.33261406
2	0x3e7ede33	0.2488945
3	0x3ea9cc86	0.33163851
4	0xbeacfcf3	-0.33786735
5	0x3e8c0c03	0.27352914
6	0x3e858bbc	0.2608317
7	0xbeacc139	-0.33741167
8	0xbeb2c72d	-0.34917584
9	0x3e7b2bec	0.24528474
10	0xbe8eb4ff	-0.27872464
11	0xbe7ae234	-0.24500352
12	0xbeb75c78	-0.35812736
13	0x3e9bed9a	0.30454713
14	0xbec2cc50	-0.38046503
15	0x3ea40be0	0.3204031
16	0x3e79af43	0.24383263
17	0x3eb6402d	0.35595837
18	0x3ec753bc	0.38931072
19	0xbead97a1	-0.33904746
20	0xbea90321	-0.330102
21	0xbec206fd	-0.37895957
22	0x3ea635f5	0.3246304
23	0x3ea187a5	0.315488
24	0x3eb51a99	0.35371855
25	0xbeb8ffff	-0.3613281
26	0x3ebe5424	0.3717357
27	0x3ec01b6b	0.37520918
28	0x3ea539f4	0.32270777
29	0x3e946645	0.28984275
30	0x3ebb4a12	0.3657995
31	0xbe9489cf	-0.2901139
32	0x3e8ecdcb	0.27891383
33	0x3eb0273e	0.3440494
34	0xbe8a807c	-0.2705115
35	0x3e9cdeae	0.3063864
36	0xbe8d2ad6	-0.27571744
37	0x3ecd6179	0.40113428
38	0xbe86000e	-0.26171917
39	0xbec21291	-0.3790479
40	0x3ec6e8bd	0.3884944
41	0xbe8fc5ac	-0.280805
42	0x3ebb80c6	0.36621684
43	0x3e7222db	0.23646109
44	0xbe9a9fa1	-0.30199912
45	0x3e9d7459	0.3075283
46	0x3ec857ad	0.3912939
47	0xbe857542	-0.26066023
48	0xbe814c08	-0.2525332
49	0x3e92d9b7	0.28681728
50	0xbed148ff	-0.40876004
51	0xbe712880	-0.23550606
52	0xbec90bfa	-0.3926695
53	0x3eb29bd8	0.34884524
54	0x3ea8d418	0.32974315
55	0xbe8c6d3c	-0.2742709
56	0x3e9570c7	0.29187605
57	0xbe9da84e	-0.3079247
58	0xbe9ee3dc	-0.31033218
59	0xbea2c864	-0.3179351
60	0xbebade99	-0.36497954
61	0x3e985c64	0.29757988
62	0xbe6e0fab	-0.23248164
63	0xbeb5271a	-0.35381395
64	0xbe9d5f7b	-0.30736908
65	0xbec8b9aa	-0.3920415
66	0xbe71a440	-0.23597813
67	0xbea48b2c	-0.3213743
68	0x3eb28dca	0.348738
69	0x3ea8414f	0.32862327
70	0xbed25f05	-0.4108812
71	0xbeb21168	-0.34778905
72	0xbe70070b	-0.23440187
73	0x3ec2f942	0.38080794
74	0xbe8ae1c3	-0.27125368
75	0xbeb0faca	-0.34566337
76	0x3e841a9f	0.2580156
77	0x3e974681	0.29545978
78	0x3e82650e	0.25467724
79	0x3ecbaa9a	0.39778596
80	0x3ec40496	0.3828475
81	0xbe8417d6	-0.25799435
82	0xbe99e65e	-0.3005857
83	0x3e86dcca	0.26340324
84	0x3e79ba43	0.2438746
85	0x3eb5c72d	0.35503522
86	0x3ecfbbb0	0.40572882
87	0xbead27bf	-0.33819386
88	0x3e9643b6	0.29348534
89	0x3ea1a5d8	0.3157184
90	0x3ea3ef4d	0.3201851
91	0x3ea600f2	0.32422596
92	0x3eb31ecf	0.34984443
93	0xbe834121	-0.25635627
94	0xbecf0b0e	-0.40438122
95	0x3e92aac6	0.28645915
96	0x3ebc9156	0.36829633
97	0xbea1875c	-0.31548584
98	0x3ecb862d	0.39750805
99	0xbec20292	-0.37892586
100	0x3eb71a5c	0.35762298
101	0x3ec2fe9c	0.38084877
102	0x3ec993a8	0.39370465
103	0x3eb11829	0.34588745
104	0x3e94f361	0.29091933
105	0x3e6d9f19	0.23205222
106	0x3e610176	0.21973214
107	0x3ebc1cc2	0.3674069
108	0xbedb0d11	-0.42783406
109	0x3ea7c651	0.3276849
110	0xbebf8e9d	-0.37413493
111	0xbea7e7b9	-0.32793978
112	0x3ecd2343	0.40065965
113	0xbe9fb364	-0.31191552
114	0x3eac9fcf	0.33715674
115	0xbea1c452	-0.31595093
116	0xbe624aae	-0.220988
117	0x3eb664b0	0.35623693
118	0xbea42ed7	-0.32066986
119	0xbe963491	-0.2933698
120	0xbebfc5e1	-0.37455657
121	0xbe80d70e	-0.25164074
122	0xbec748c4	-0.38922703
123	0xbe80f05d	-0.25183383
124	0xbeba2c4f	-0.3636193
125	0x3e73d285	0.23810776
126	0xbeaef757	-0.3417308
127	0xbeb42519	-0.35184553

critic_network.4.weight f4 [1, 128]
0	0x40882441	4.2544255
1	0xc08701ca	-4.2189684
2	0xc0897e9a	-4.2967043
3	0xc088b8f0	-4.2725754
4	0x408a2251	4.316689
5	0xc0897bd7	-4.296367
6	0xc0898745	-4.2977624
7	0x40892859	4.2861753
8	0x4086d76a	4.2137957
9	0xc089cdb2	-4.3063593
10	0x408778b4	4.2334843
11	0x408727dc	4.2236156
12	0x4089c02f	4.30471
13	0xc0893a90	-4.2883987
14	0x40878cf1	4.2359548
15	0xc0887406	-4.264163
16	0xc08808cf	-4.2510753
17	0xc0892dcf	-4.286842
18	0xc0899c89	-4.3003583
19	0x408844a8	4.258381
20	0x4089bfe4	4.304674
21	0x4087e59e	4.2467794
22	0xc086f3d7	-4.2172656
23	0xc088eba5	-4.278765
24	0xc08969e8	-4.294178
25	0x408802e5	4.2503533
26	0xc0881033	-4.2519774
27	0xc0898b9f	-4.2982936
28	0xc088ff64	-4.2811756
29	0xc0875acf	-4.229835
30	0xc0881207	-4.2522006
31	0x4088a235	4.2698007
32	0xc0884b42	-4.2591867
33	0xc0874868	-4.2275887
34	0x40899c47	4.300327
35	0xc0870f8e	-4.220649
36	0x408a1431	4.314965
37	0xc088edf7	-4.2790484
38	0x4086d589	4.2135663
39	0x40896e48	4.294712
40	0xc087f887	-4.249088
41	0x4089bd66	4.30437
42	0xc087e0ee	-4.246207
43	0xc086a49b	-4.2075934
44	0x4088413b	4.2579627
45	0xc0881f8b	-4.2538505
46	0xc089395a	-4.288251
47	0x4089bbbb	4.3041663
48	0x40891394	4.28364
49	0xc0880be1	-4.25145
50	0x408a3157	4.318523
51	0x4088aed2	4.2713404
52	0x40876bf6	4.231929
53	0xc086ccfc	-4.2125225
54	0xc0881bfd	-4.2534165
55	0x4088c0b7	4.2735248
56	0xc087bd2b	-4.241842
57	0x4087abe7	4.239734
58	0x40880094	4.2500706
59	0x40897c2a	4.2964067
60	0x4086fccd	4.2183595
61	0xc08a2222	-4.3166666
62	0x4087657c	4.231138
63	0x4088d42c	4.2759
64	0x408696ac	4.2058926
65	0x4088cd50	4.2750626
66	0x40889dcb	4.269262
67	0x40884aed	4.259146
68	0xc088b56b	-4.2721457
69	0xc0872a55	-4.2239175
70	0x4086d2e1	4.213242
71	0x4089ec7b	4.3101172
72	0x4088692f	4.26284
73	0xc0892e28	-4.2868843
74	0x4087a62e	4.2390356
75	0x40897629	4.295674
76	0xc0872734	-4.2235355
77	0xc0896bd4	-4.2944126
78	0xc087a5bc	-4.2389812
79	0xc089e8a4	-4.3096485
80	0xc08a4850	-4.321327
81	0x4087964f	4.237098
82	0x4087986b	4.2373557
83	0xc0877e23	-4.2341475
84	0xc087d21a	-4.244397
85	0xc0891e06	-4.284915
86	0xc0890a62	-4.2825174
87	0x408a86f2	4.328973
88	0xc08a3461	-4.318894
89	0xc08984fb	-4.297483
90	0xc087289f	-4.2237086
91	0xc089a090	-4.30085
92	0xc0870f22	-4.2205973
93	0x40888ceb	4.267202
94	0x40879966	4.2374754
95	0xc0894c71	-4.290581
96	0xc086e5dd	-4.2155595
97	0x40896b40	4.294342
98	0xc0886fe7	-4.26366
99	0x408833f8	4.256344
100	0xc088cd89	-4.2750897
101	0xc088c856	-4.274455
102	0xc0889f87	-4.2694736
103	0xc087eb29	-4.247456
104	0xc0888918	-4.266735
105	0xc08a0d33	-4.314111
106	0xc089a6d9	-4.301617
107	0xc088b985	-4.2726464
108	0x40887556	4.264323
109	0xc089411c	-4.289198
110	0x408a6415	4.324717
111	0x40874200	4.2268066
112	0xc0885ddb	-4.261457
113	0x4088e6f0	4.2781906
114	0xc08a6ceb	-4.3257957
115	0x408a1919	4.3155637
116	0x40872fd7	4.22459
117	0xc08855a0	-4.2604523
118	0x4087135f	4.2211146
119	0x4088f9e3	4.2805037
120	0x4087dbae	4.2455664
121	0x408817dd	4.252913
122	0x4088dee4	4.2772083
123	0x408786c2	4.2352
124	0x4087a2d8	4.2386284
125	0xc088ad95	-4.271189
126	0x40877890	4.233467
127	0x40886ba3	4.2631392
