test_uav/model/critic_model14-10-2023_13-56-54/860.pt (torch, 77879 bytes, 5 tensors)

critic_network.0.weight f4 [128, 17]
0	0x3dc66ddf	0.09688925
1	0x3fa92148	1.3213282
2	0xbc81fbc9	-0.01586713
3	0xbc45b59f	-0.012067228
4	0x3f10e7fa	0.5660397
5	0x3e05605f	0.13025044
6	0x3e0137d9	0.1261896
7	0x3d0d1095	0.034439642
8	0x3d98f03c	0.07467696
9	0xbdc7d585	-0.097575225
10	0xbe19cd94	-0.15019828
11	0xbdbeefa6	-0.09323053
12	0x3e421f6b	0.18957298
13	0x3c1381c7	0.009003109
14	0x3d02c188	0.031922847
15	0xbb0929d1	-0.0020929466
16	0x3cb36f15	0.021903554
17	0xbe9de65d	-0.30839816
18	0xbe21e5b1	-0.15810277
19	0xbe0d3a4b	-0.13791768
20	0x3ee317f6	0.44354218
21	0x3f1abbf8	0.6044307
22	0x3edc7e3d	0.43065062
23	0xbd3b930b	-0.045794528
24	0xbdc58e35	-0.096462645
25	0xbe6101c2	-0.21973327
26	0x3f4de7ad	0.80431634
27	0x3fc7abd2	1.559931
28	0xbf880204	-1.0625615
29	0xbf4610f8	-0.7736964
30	0x3c78e20d	0.015190613
31	0x3dcd92ce	0.100377664
32	0xbd5941e3	-0.05304135
33	0x3d182037	0.037140097
34	0x3e58e330	0.21180415
35	0x3facb30d	1.3492142
36	0x3e80323d	0.2503833
37	0xbc152a95	-0.009104391
38	0x3f0a9bdf	0.5414409
39	0x3e1c9094	0.15289527
40	0x3d6aea69	0.057352457
41	0xbc0b4590	-0.008500472
42	0xbd144181	-0.036195282
43	0xbe11e9bf	-0.14249323
44	0xbe60303b	-0.21893398
45	0x3fcdaadd	1.6067768
46	0xbdf47a21	-0.11937357
47	0xbb873eb2	-0.004127347
48	0xbc7ddc48	-0.015494414
49	0xbc39e48e	-0.011345996
50	0xbbc185fc	-0.0059058648
51	0x3f6d4895	0.92688876
52	0xbea80b77	-0.32821247
53	0xbe535482	-0.20637706
54	0xbed04068	-0.40674138
55	0xbef2e0ba	-0.47437078
56	0x3f066cc2	0.525097
57	0xbe8dd3a5	-0.27700534
58	0x3e12ff4a	0.14355198
59	0x3ea288ba	0.3174494
60	0xbf27a97f	-0.65493006
61	0xbed8fa6f	-0.42378566
62	0xbebca5ba	-0.3684519
63	0xbf04893b	-0.517719
64	0x3d1b1a87	0.037867095
65	0xbe08c377	-0.13355814
66	0x3deb08bc	0.11476275
67	0x3dcf788f	0.101304166
68	0xbe313f45	-0.17309292
69	0x3dd0b7e2	0.10191323
70	0xbe85cffb	-0.2613524
71	0x3eec2a29	0.46125916
72	0xbe97292b	-0.29523596
73	0xbdeda2fb	-0.11603352
74	0x3d116370	0.03549522
75	0x3e0d3152	0.13788345
76	0xbe22f4d1	-0.15913703
77	0x4002077a	2.0317063
78	0xbf899847	-1.0749596
79	0xbf6ab0ab	-0.91675824
80	0xbf0a8015	-0.5410169
81	0x3bd8da18	0.0066177957
82	0xbc175738	-0.009237103
83	0xbc2d9a3a	-0.0105958525
84	0x3d4e2958	0.050332397
85	0xbe34c86f	-0.17654584
86	0xbd1513b4	-0.036395743
87	0x3ea03949	0.31293705
88	0xbecd1b77	-0.40060017
89	0x3e7e54aa	0.24836984
90	0xbe9cb419	-0.30606154
91	0xbe878235	-0.26466528
92	0xbd193589	-0.03740457
93	0xbdfa5197	-0.12222593
94	0x3f5ae233	0.855014
95	0x3fd81499	1.6881286
96	0xc047ac56	-3.1198936
97	0xbf36e973	-0.71449965
98	0xbc968dce	-0.018378165
99	0xbde5968b	-0.112103544
100	0x3c7f24e7	0.015572763
101	0x3ce3e545	0.027819285
102	0xbcf2e699	-0.029650973
103	0x3e3f7d8b	0.18700235
104	0x3ee5f763	0.44915304
105	0xbf677574	-0.90413594
106	0xbe81df45	-0.25365654
107	0xbe74bfaf	-0.23901246
108	0x3e58956f	0.21150754
109	0x3cbc2a50	0.022969395
110	0x3e03e115	0.1287883
111	0x3ea81d40	0.32834816
112	0xbfdf854f	-1.7462558
113	0xbe7f5345	-0.24934109
114	0x3e8b0cb7	0.27158138
115	0xbab09303	-0.0013471547
116	0x3ccef47f	0.02526307
117	0x3c4ab607	0.0123725
118	0xbe12ef22	-0.14349034
119	0x3e2839cf	0.16428302
120	0xbe76ad7f	-0.24089621
121	0xbc997d80	-0.0187366
122	0xbe643417	-0.22285496
123	0x3d4714a1	0.048603658
124	0xbe6197dc	-0.22030586
125	0xbc6d9540	-0.014500916
126	0x3e0278d3	0.12741403
127	0xbe5b9b7e	-0.21446034
128	0xbfabc316	-1.341891
129	0xc085e857	-4.184612
130	0xbfb76740	-1.4328384
131	0xbd87e0c7	-0.0663467
132	0xbd43fb8e	-0.047847323
133	0xbd8bdcfd	-0.068292595
134	0x3c6bb6c1	0.014386834
135	0x3bd31641	0.006441862
136	0xbf959c74	-1.1688371
137	0x3e3c8bd1	0.1841271
138	0xbd734c18	-0.05939874
139	0xbf31d0a3	-0.6945898
140	0x3dc33f13	0.09533515
141	0x3c35fc2c	0.011107486
142	0x3e523de2	0.20531419
143	0x3d333285	0.04374935
144	0x3e041c4a	0.12901416
145	0x3e11def5	0.14245208
146	0xbff61e1c	-1.9227939
147	0x3f6df58f	0.9295282
148	0x3e8f6832	0.28009182
149	0xbd326f18	-0.04356298
150	0x3cd67028	0.026176527
151	0xbc8c77b5	-0.017146925
152	0xbd93a5c4	-0.07209352
153	0x3f55a2df	0.83451647
154	0xbd1e38a6	-0.038628243
155	0xbeb49851	-0.35272458
156	0xbecb7455	-0.39737192
157	0xbccf909a	-0.025337506
158	0x3e40878e	0.1880171
159	0x3f161785	0.5862964
160	0xbd9e7969	-0.07738001
161	0x3e682957	0.2267202
162	0xbe455c9c	-0.19273609
163	0xc0306630	-2.756237
164	0x3ee81a33	0.45332488
165	0xbe59de0b	-0.21276109
166	0x3cb1a169	0.021683412
167	0x3e1175e8	0.14205134
168	0xbc8cce4e	-0.017188217
169	0xbdb7c172	-0.08972444
170	0x3c3f1b9e	0.011664299
171	0xbdc392e6	-0.09549503
172	0x3f80fe4f	1.0077609
173	0x3e1fba0d	0.15598316
174	0x3e46b1bd	0.1940374
175	0x3ea89fc4	0.32934391
176	0x3d3723d6	0.04471191
177	0x3d9cf8dd	0.076646544
178	0x3ddd9699	0.1081974
179	0x3ee69b8b	0.45040545
180	0xc0292397	-2.6427972
181	0xbdbbd58b	-0.091715895
182	0xbea691a9	-0.32533005
183	0x3ab4e3c1	0.0013800786
184	0x3c43e63f	0.01195675
185	0x3c330bda	0.010928119
186	0x3d1328f1	0.035927717
187	0x3f26e20f	0.6518869
188	0xbeed67f1	-0.46368363
189	0xbd7b0384	-0.06128265
190	0xbeda19b4	-0.42597735
191	0xbee0bdc6	-0.43894786
192	0x3e11e436	0.14247212
193	0xbdc5b596	-0.096537754
194	0x3e473dd6	0.19457182
195	0xbc4eba3a	-0.012617642
196	0xbe1caf8e	-0.15301344
197	0xc00eeae8	-2.2330875
198	0xbf815c2d	-1.0106255
199	0xbf18844e	-0.5957688
200	0xbd986ea1	-0.07442976
201	0xbda1d374	-0.079016596
202	0x3bcb5ba1	0.0062059914
203	0xbd08d9f1	-0.03341097
204	0x3f294b0c	0.6613014
205	0xbe797e1a	-0.2436451
206	0x3f008507	0.50202984
207	0xbe260576	-0.1621302
208	0x3eb9bf6d	0.3627886
209	0xbee223de	-0.4416799
210	0xbef54bab	-0.47909293
211	0x3e3662e3	0.1781116
212	0x3d84685e	0.06465219
213	0x3f0ece42	0.55783474
214	0xc053a3bb	-3.3068683
215	0xbf017e1a	-0.5058304
216	0xbf147a6b	-0.57999295
217	0x3c91dd4c	0.017805718
218	0xbe467b1a	-0.19382897
219	0x3df5b4b5	0.11997358
220	0x3e2873a9	0.16450371
221	0xbd5bd5ae	-0.053670578
222	0xbdf2f9cc	-0.11864051
223	0x3e680365	0.22657545
224	0x3fa385a2	1.2775156
225	0xbe36457b	-0.17799942
226	0xbb1a0c02	-0.0023505692
227	0xbdc3167f	-0.09525775
228	0x3d183579	0.03716037
229	0xbed6a5b8	-0.41923308
230	0x3f9907af	1.195547
231	0x3f4ce344	0.8003428
232	0x3d6d3348	0.057910234
233	0x3f5645d3	0.83700293
234	0xbca41dc7	-0.02003373
235	0x3cfb0c60	0.03064555
236	0x3c738ac3	0.014864626
237	0x3cb81b23	0.022473877
238	0x3ea7d87c	0.32782352
239	0xbeafb6e9	-0.34319237
240	0xbf079ea8	-0.52976465
241	0xbf554549	-0.83308846
242	0xbd29fbe6	-0.041499995
243	0xbefc0078	-0.49219108
244	0x3e82dfe7	0.2556145
245	0xbd686c4b	-0.0567439
246	0x3e01311b	0.12616388
247	0xc0207855	-2.5073445
248	0x3e8d0f88	0.27550912
249	0x3f2f4ac2	0.68473446
250	0xbe596278	-0.21228969
251	0xbc443010	-0.01197435
252	0x3d97b224	0.074070245
253	0xbc13afe3	-0.009014103
254	0xbd7b57e0	-0.0613631
255	0x3d82b426	0.06382017

critic_network.0.bias f4 [128]
0	0xbfc71ee6	-1.5556304
1	0x3f8cf7ea	1.1013157
2	0x3fa43404	1.2828374
3	0x3e89a72f	0.26885363
4	0x3f885489	1.0650798
5	0x3f019486	0.50617254
6	0xbf90c7fb	-1.1311029
7	0x3f4f0ed7	0.8088202
8	0x3f541a5a	0.8285271
9	0x3d7b5f58	0.061370224
10	0x3fa0bddf	1.2557944
11	0x3f8ff400	1.1246338
12	0xbdeb25bc	-0.11481807
13	0x3ebe372d	0.3715147
14	0xbfffc177	-1.9980916
15	0xbfb17a88	-1.3865519
16	0xbe83ab47	-0.25716612
17	0x3f5801dd	0.84377843
18	0x3ec47b30	0.38375235
19	0x3e37a2bb	0.1793317
20	0xbf6fe6f6	-0.93711793
21	0x40211eea	2.5175118
22	0xc006a56c	-2.1038465
23	0x3dc2401f	0.094848864
24	0x3f07895e	0.5294398
25	0x3f7e9e61	0.9946042
26	0xbca6bbec	-0.02035328
27	0xc0178624	-2.3675623
28	0xbfada649	-1.3566371
29	0xbf36251a	-0.7115036
30	0xc003cfe4	-2.0595636
31	0x3fa4a93d	1.2864147
32	0xbf4c7daf	-0.7987928
33	0x401abe0c	2.4178495
34	0xbe49c903	-0.19705586
35	0xbf063e28	-0.5243859
36	0xbf84bc88	-1.0370035
37	0xbfc3ff9d	-1.5312382
38	0x3fb568b0	1.4172573
39	0x3ddc38f7	0.10753053
40	0xc020ff7e	-2.515594
41	0x3e197b39	0.14988412
42	0xbf17b198	-0.5925536
43	0x3f068dcf	0.5256013
44	0xbe9800f7	-0.29688236
45	0x3f7e91af	0.99441046
46	0x3fd036ca	1.626672
47	0xbe894c10	-0.26815844
48	0x3f194cdd	0.5988291
49	0x3f2016c0	0.62534714
50	0xbf095ad2	-0.53654206
51	0xbdfd1d03	-0.12359049
52	0x3f5869b4	0.8453629
53	0x3f75c89e	0.9600924
54	0x3eaae6a7	0.333791
55	0x3e9e966c	0.30974138
56	0x3eea89ab	0.45808157
57	0x3fe9baf3	1.8260177
58	0x3ebd2d4c	0.3694862
59	0xbd98dd5d	-0.07464097
60	0xbf658578	-0.8965678
61	0x40058d65	2.086755
62	0xbf4d7882	-0.80262005
63	0xbd90364a	-0.07041605
64	0x403d0c05	2.9538586
65	0x3f39fdc0	0.72652817
66	0xc0380c62	-2.8757558
67	0x3f09e9db	0.5387246
68	0xbf449d6a	-0.76802695
69	0x3f08347e	0.53205097
70	0xbec7dc8f	-0.3903546
71	0xbf9e82a9	-1.2383624
72	0x3ebc06d5	0.36723962
73	0xbf49013b	-0.785175
74	0xbfb46021	-1.4091836
75	0x3f60c23a	0.87796366
76	0xbf0ccab7	-0.5499682
77	0xbf533309	-0.8249975
78	0x4038f1be	2.8897548
79	0x3faf5df1	1.3700544
80	0xbdd46434	-0.10370675
81	0x3f49b373	0.7878944
82	0x3d5bed83	0.053693306
83	0x3ed80ef2	0.42198902
84	0x3f1eadff	0.61984247
85	0xbfa7ba58	-1.3103743
86	0xbedce5f7	-0.431442
87	0xbe6c5b07	-0.23081599
88	0xbf28e705	-0.6597751
89	0xbedef24d	-0.43544236
90	0x3f16297e	0.5865706
91	0x3f522b25	0.82097083
92	0xbf1f56b6	-0.62241685
93	0xbe8177c3	-0.25286683
94	0x3fff281d	1.9934117
95	0x3f098369	0.5371614
96	0xbe920ad2	-0.2852388
97	0x3f89cf1b	1.0766329
98	0xbef74319	-0.4829338
99	0xbf85b198	-1.0444822
100	0x3f88302f	1.0639704
101	0xbf617069	-0.8806215
102	0xbf4b82ba	-0.7949635
103	0xbee7ac70	-0.45248747
104	0xbf8e8491	-1.1134206
105	0xbee60620	-0.44926548
106	0xbf72d1d8	-0.94851446
107	0xbdc8feed	-0.09814248
108	0xbff924f1	-1.9464399
109	0x3e990946	0.29889888
110	0xbebce4a9	-0.36893204
111	0x3f8b94ae	1.0904748
112	0xbe55870f	-0.20852302
113	0xbf947852	-1.1599219
114	0xc00c8314	-2.1955004
115	0xbdc46982	-0.095904365
116	0xbf144815	-0.5792249
117	0xbf027f35	-0.5097535
118	0xbe95d029	-0.29260376
119	0xbf615080	-0.8801346
120	0xbf036d3d	-0.5133856
121	0xbf1afb32	-0.60539544
122	0x3f15ba71	0.5848761
123	0xbf1b4c2f	-0.6066312
124	0xbe0a64c7	-0.13515006
125	0x3d9d3a16	0.07677095
126	0x3e831a0e	0.25605816
127	0x3f5b354f	0.8562822

critic_network.2.weight f4 [128, 128]
0	0xbfbd49cc	-1.4788146
1	0xbef8d3a7	-0.48598978
2	0x3f85e716	1.0461147
3	0x3f056fef	0.5212392
4	0xbf6462a0	-0.8921299
5	0xbf7dff48	-0.99217653
6	0xbffd59df	-1.9793051
7	0x3fe57948	1.7927637
8	0x3fd2e1d7	1.6475171
9	0x3dea80a6	0.11450319
10	0x3fccf3a3	1.6011852
11	0xbe82a705	-0.2551805
12	0x3f1aad19	0.60420376
13	0x3f060e23	0.5236532
14	0x3f23c28f	0.6396875
15	0x3f510889	0.8165365
16	0xbf60e68c	-0.87851787
17	0x3eb89c1f	0.3605661
18	0x3f662bd0	0.899106
19	0xbfc4c0e1	-1.5371362
20	0xbfaf99f6	-1.371886
21	0xbf84df4d	-1.0380646
22	0x3f81946a	1.0123417
23	0x3ffb5ea3	1.9638256
24	0x3e625259	0.22101726
25	0x3f2cf44c	0.6756027
26	0xbda4e61b	-0.08051702
27	0x3f126085	0.5717853
28	0xbf93282b	-1.1496633
29	0xbf4f59ec	-0.80996585
30	0x3f505da2	0.8139287
31	0x3fa10fb3	1.2582916
32	0x3f2ff5b3	0.6873428
33	0xbf220f88	-0.6330495
34	0x3f89a9ff	1.0755004
35	0x3cd66562	0.02617139
36	0xbd296051	-0.04135162
37	0xbff10de5	-1.8832365
38	0xbea11d04	-0.3146745
39	0xbf5ede23	-0.87057704
40	0x3f6d8fe9	0.92797714
41	0x3fa7474a	1.3068631
42	0x3fadb42d	1.357061
43	0x3f3cc6ea	0.7374102
44	0x3e1a8e20	0.15093279
45	0x3fa70cb1	1.3050748
46	0x3fe95d1a	1.8231537
47	0xbe885710	-0.26628923
48	0xbea59228	-0.3233807
49	0x3febf869	1.8435184
50	0xbe4a7eaf	-0.19774888
51	0x3f70b443	0.9402506
52	0x3f12270c	0.5709083
53	0xbfb9ca2d	-1.4514824
54	0xbf20b359	-0.6277366
55	0x3eeab5dd	0.45841876
56	0x3edc2ac1	0.4300137
57	0xbf28a029	-0.65869385
58	0x3f75dec9	0.9604307
59	0x3f46faa7	0.77726215
60	0xbfa3987b	-1.2780908
61	0xbf6a1cd6	-0.9145025
62	0xbfab9d23	-1.3407329
63	0xbdf16ff5	-0.11788932
64	0xbf768885	-0.9630206
65	0x3f5c1bb3	0.85979766
66	0x3f7a88eb	0.9786517
67	0x3f80b1e6	1.005429
68	0xbf9a6aa3	-1.2063793
69	0x3f507648	0.8143048
70	0x3f78427e	0.9697646
71	0xc00d4ede	-2.2079387
72	0x3fc1c41f	1.5137976
73	0xbd6b220c	-0.057405517
74	0xbf9a23c4	-1.2042165
75	0x3fb413d3	1.406855
76	0x3d6386ab	0.05554835
77	0x3f9c070b	1.2189649
78	0xbf7674e9	-0.9627214
79	0x3f045890	0.51697636
80	0x3f3e5e62	0.74362767
81	0xbf2ee4c0	-0.68317795
82	0xbf85b0ef	-1.0444621
83	0xbefc5601	-0.49284366
84	0xbf42ca73	-0.76090163
85	0xbe445934	-0.19174653
86	0xbe369a8f	-0.17832397
87	0x3f2cd027	0.67505115
88	0xbf14388b	-0.5789878
89	0x3c1299d5	0.008947809
90	0x3efc213a	0.492441
91	0x3fd1d9f8	1.6394644
92	0xbeddfe89	-0.43358257
93	0xbfa8ece1	-1.319729
94	0xbf8ae2dc	-1.0850482
95	0xc01bf8ae	-2.4370532
96	0x3eb36f90	0.35046053
97	0x3de6cf91	0.11270059
98	0xbe55e58c	-0.20888346
99	0xbf55e29b	-0.835489
100	0xbedd2792	-0.43194252
101	0xbe62947a	-0.22126952
102	0xbf8647e7	-1.0490693
103	0xbf858b9e	-1.0433233
104	0xc0079e3f	-2.1190336
105	0x3f32c3b4	0.6982987
106	0xbea40830	-0.32037497
107	0xbd8f8621	-0.07008005
108	0x3f7de6f3	0.99180526
109	0x3eb977c5	0.3622419
110	0x3ef08f1c	0.46984184
111	0x4007cd53	2.121907
112	0xbf4c886d	-0.7989567
113	0x3f6d6966	0.9273895
114	0x3f2e282b	0.6803004
115	0xbe584301	-0.2111931
116	0xbf9ff7ff	-1.2497557
117	0x3ffed860	1.9909782
118	0xbf78191a	-0.969133
119	0xbf6a56d7	-0.9153876
120	0x3fb161ea	1.3858006
121	0x3ecc338f	0.39883086
122	0xbf1b0a06	-0.6056217
123	0x3f871066	1.055188
124	0x3eb0f091	0.34558538
125	0x3fb39317	1.4029263
126	0x3e81d2fb	0.25356278
127	0xbd7e62e1	-0.062106017
128	0x3f621af5	0.88322383
129	0x3fe7bd7b	1.81047
130	0xc00f048e	-2.234653
131	0x3c48b4d5	0.012250145
132	0x3f6a913c	0.9162786
133	0xbee21526	-0.4415676
134	0x3de96b76	0.1139745
135	0xc00389b8	-2.0552807
136	0xbfe569ec	-1.792295
137	0xbf0a2c58	-0.53973913
138	0xbe648531	-0.22316433
139	0x3f12ac16	0.5729383
140	0x3f77ffbe	0.96874607
141	0x3c97bfd2	0.018524084
142	0xbf8df4b6	-1.1090305
143	0xbf055178	-0.52077436
144	0x3f65d652	0.8978015
145	0xbe14863b	-0.1450433
146	0x3ee272dc	0.44228256
147	0x3e602cfa	0.21892157
148	0x3fcbe478	1.5929098
149	0x3f3e4249	0.74319893
150	0xbf2baf4d	-0.6706436
151	0x3ebb4f53	0.36583957
152	0x3d032aa3	0.032023083
153	0xbf128a5e	-0.5724238
154	0x3da43126	0.08017187
155	0xbeab7610	-0.33488512
156	0x3f5182a7	0.81839985
157	0x3f8cf353	1.1011757
158	0xbf1a4c6d	-0.60272866
159	0xc00ebbb7	-2.2302072
160	0x3f043018	0.51635885
161	0x3e16294e	0.14664194
162	0x3f4e7248	0.8064313
163	0x3ee6b871	0.45062593
164	0x3fa2fc15	1.2733179
165	0x4016b222	2.3546224
166	0xbffc0381	-1.9688569
167	0x3ebbfdad	0.36716977
168	0xbf1e0ad1	-0.61735255
169	0xbfa0e8d7	-1.2571057
170	0xbfb60361	-1.4219781
171	0xbf7bc53f	-0.9834785
172	0xbf54e94b	-0.83168477
173	0xbfb659df	-1.4246176
174	0xc00606cc	-2.0941648
175	0x3e0e5f62	0.13903573
176	0xbf504939	-0.8136173
177	0xbf8fa059	-1.1220809
178	0x3f3efe1c	0.7460649
179	0x3f31c214	0.69436765
180	0xbf895d58	-1.0731611
181	0x3eee08b9	0.4649103
182	0x3f11f904	0.5702059
183	0xbdc42774	-0.095778376
184	0xbfa77827	-1.3083543
185	0x3f7209f2	0.94546425
186	0x3fba7843	1.4567951
187	0xbc491d13	-0.012274998
188	0x3f823f34	1.0175538
189	0x3f2adfd4	0.66747785
190	0x3f70e8ec	0.9410541
191	0x3fb88c0e	1.4417741
192	0x3f455d6b	0.7709567
193	0xbfadb23c	-1.3570018
194	0xbf4a76c1	-0.79087454
195	0x3eab6461	0.3347502
196	0x3e5fbe2c	0.21849889
197	0xbdfd8b83	-0.123801254
198	0xbef3daee	-0.47627968
199	0x3f9b8b78	1.2151937
200	0xbf4f08c4	-0.8087275
201	0xbe9084b0	-0.28226233
202	0x3f54b360	0.83086205
203	0xbfb677af	-1.4255275
204	0xbe9bb947	-0.30414793
205	0x3d424bad	0.04743545
206	0x3f252412	0.64508164
207	0xc01e8f99	-2.4775145
208	0xbe3da60b	-0.18520372
209	0x3f0d7caa	0.5526835
210	0xbee16555	-0.44022623
211	0x3f3746ef	0.7159261
212	0x3ea337bf	0.31878468
213	0x3fb95b03	1.44809
214	0xbea013bb	-0.31265053
215	0xbf68d78b	-0.9095389
216	0x3ecf24a4	0.40457642
217	0x3e10eb2c	0.14152211
218	0xbf87169e	-1.0553777
219	0xbfbc0c92	-1.4691336
220	0xbf21c0c6	-0.63184774
221	0x3fd4b28e	1.661699
222	0x3f3769c3	0.71645755
223	0xbd847bc6	-0.064689204
224	0x3e93897a	0.28815824
225	0xbf929680	-1.1452179
226	0x3eff2282	0.49831015
227	0x3f6bf8e0	0.9217663
228	0x3e838277	0.25685474
229	0x3f0a429f	0.54007906
230	0x3f7b1658	0.9808097
231	0x3f855c72	1.0418837
232	0x3fb07758	1.3786421
233	0xbdf614fa	-0.1201572
234	0x3fac9a93	1.3484672
235	0xbf834e38	-1.0258245
236	0xbf2e89b6	-0.6817888
237	0x3e0e73c1	0.13911344
238	0xbf2e7179	-0.68141896
239	0xbfba2c9c	-1.4544864
240	0x3f3c720a	0.7361151
241	0xbf21f896	-0.6326994
242	0xbf0fc68b	-0.5616233
243	0x3ef8d291	0.4859815
244	0x3fce6d9f	1.6127204
245	0xbf9093cd	-1.1295105
246	0x3f3220aa	0.6958109
247	0x40402b1a	3.0026307
248	0x3d14a471	0.036289636
249	0xbf80b26e	-1.0054452
250	0x3f06646e	0.52496994
251	0xbed581a7	-0.4170048
252	0x3f4fe0bd	0.812023
253	0xbfbce5f1	-1.4757673
254	0xbde58e43	-0.11208775
255	0xbf1fa2bd	-0.62357694

critic_network.2.bias f4 [128]
0	0xbf820cc5	-1.0160147
1	0x3f315c39	0.69281346
2	0x40073764	2.1127558
3	0x3ecba501	0.39774325
4	0xbf23fad6	-0.6405462
5	0x3f7ae64f	0.98007673
6	0x3f50e7a0	0.8160343
7	0xbf7d9e30	-0.990695
8	0xbf6091bd	-0.8772238
9	0x3f4596a9	0.77183014
10	0xbf2616f7	-0.6487879
11	0xbfb896d7	-1.4421033
12	0xbed6a465	-0.41922298
13	0x3ea1df63	0.31615743
14	0xbf2dcfad	-0.67895013
15	0x3eed6968	0.4636948
16	0x3f960d12	1.1722739
17	0x3f3aeef3	0.7302086
18	0x3f788f13	0.97093314
19	0xbf9526d9	-1.165248
20	0xbf5f5e26	-0.87253034
21	0xbe6c93ca	-0.23103252
22	0x3e8982c6	0.26857585
23	0x3e2de298	0.1698097
24	0x3ead8bdb	0.33895764
25	0xbf2c4c25	-0.6730369
26	0x3f0b3546	0.54378164
27	0x3f5a72f8	0.8533168
28	0x3f203840	0.6258583
29	0x3f34c955	0.7061971
30	0x3f48bc87	0.7841267
31	0xbf321cf1	-0.6957541
32	0x3f2cbf11	0.67479044
33	0x3f709f08	0.9399266
34	0xbf0fb352	-0.56132996
35	0xbdd07818	-0.10179156
36	0xbf0d1360	-0.5510769
37	0x3f548dfd	0.83029157
38	0xbf16f525	-0.5896781
39	0xbfac08cd	-1.3440186
40	0x400dac28	2.2136326
41	0xbf2b6f5f	-0.66966814
42	0x3fae0c54	1.3597512
43	0x3f4051ab	0.75124615
44	0x3e372387	0.17884646
45	0x3fa77d12	1.3085043
46	0x3fc0db2b	1.5066885
47	0xbe9fe1a9	-0.31226853
48	0xbfda5f4d	-1.7060333
49	0x3f81845e	1.011852
50	0xbf7e65d5	-0.99374133
51	0xbf85b803	-1.0446781
52	0xbf593200	-0.8484192
53	0x3f93f567	1.1559266
54	0x3f1175c4	0.5682032
55	0xbf3f0cf6	-0.7462915
56	0x3f3416ba	0.7034718
57	0xbeb7e83c	-0.35919368
58	0xbea1101c	-0.31457603
59	0xbf0f5ffd	-0.5600584
60	0xc016d19f	-2.3565443
61	0x3f65580f	0.8958749
62	0xbf8bc8fa	-1.0920708
63	0xbf8271c1	-1.0190965
64	0xbf8ea2b0	-1.1143398
65	0xbeebf61a	-0.46086198
66	0xbf8d0d74	-1.101973
67	0xbf639dde	-0.8891276
68	0x3f92050a	1.1407788
69	0x3fa56d99	1.2924072
70	0xbf8b5c87	-1.0887612
71	0xbf9a415f	-1.20512
72	0xbf174f7f	-0.59105676
73	0x3f4c86e5	0.7989333
74	0xbf294f93	-0.66137046
75	0xbf181ca2	-0.5941869
76	0x3ff72ce9	1.931058
77	0x3f342744	0.70372415
78	0x3e934499	0.28763273
79	0x3fa9b452	1.3258154
80	0x3f24e251	0.6440783
81	0xbf6f3b51	-0.93449885
82	0xbf7aef9e	-0.98021877
83	0x3f644b42	0.89177334
84	0x3f596a9a	0.84928286
85	0x3e66067c	0.22463411
86	0x3f86dd13	1.0536216
87	0xbf2a9dda	-0.6664711
88	0x3ea0574d	0.31316605
89	0x3d8d6942	0.06904842
90	0x3f8ba755	1.0910441
91	0x3f528a18	0.82241964
92	0x3ee4080b	0.44537386
93	0xbe06dacb	-0.131694
94	0xbf9f1dee	-1.2431009
95	0x3f02da30	0.5111418
96	0x3f3a6c7d	0.7282179
97	0x3e301705	0.17196281
98	0x3edbf344	0.42959034
99	0xbf7fe671	-0.99961
100	0x3f5eec1c	0.87079024
101	0x3f768894	0.9630215
102	0x3f5b176b	0.8558261
103	0x3f6fa316	0.93608224
104	0x3fa23e31	1.2675229
105	0x3f803333	1.0015625
106	0x3f67dcd8	0.90571356
107	0x3eadc18f	0.33936736
108	0xbf83e54d	-1.0304352
109	0x3ed026c1	0.40654567
110	0xbf46e21d	-0.7768877
111	0xbf62032d	-0.88286096
112	0x3f441cbc	0.76606345
113	0xbea7e2d7	-0.32790253
114	0x3f8c5efd	1.0966488
115	0xbf92f0b0	-1.1479702
116	0xbe5d6690	-0.21621156
117	0x3f92bf5c	1.1464648
118	0xbf883fec	-1.0644507
119	0xbf2553fe	-0.64581287
120	0xbf92b91e	-1.1462743
121	0xbeacc285	-0.33742157
122	0xbea868fd	-0.328926
123	0xbf727904	-0.94715905
124	0xbed4e54e	-0.41581196
125	0x3f6ac820	0.91711617
126	0xbf8636bf	-1.0485457
127	0xc0093684	-2.1439524

critic_network.4.weight f4 [1, 128]
0	0x42a76c65	83.71171
1	0xc2a7446a	-83.63362
2	0xc2a6f85d	-83.485085
3	0xc2a75bde	-83.67943
4	0x42a75c17	83.67986
5	0xc2a7466d	-83.63755
6	0xc2a7629a	-83.69258
7	0x42a7333a	83.60005
8	0x42a73384	83.60062
9	0xc2a76032	-83.68788
10	0x42a713cc	83.538666
11	0x42a73ecc	83.62265
12	0x42a73b9b	83.61642
13	0xc2a74e57	-83.65301
14	0x42a7678e	83.702255
15	0xc2a737ba	-83.60884
16	0xc2a717a8	-83.5462
17	0xc2a769d0	-83.706665
18	0xc2a76a6b	-83.70785
19	0x42a75555	83.666664
20	0x42a7517a	83.659134
21	0x42a75d63	83.682396
22	0xc2a73249	-83.59821
23	0xc2a71f1e	-83.560776
24	0xc2a752a4	-83.66141
25	0x42a70b8d	83.52256
26	0xc2a70c2d	-83.52378
27	0xc2a76402	-83.69533
28	0xc2a747d6	-83.640305
29	0xc2a73672	-83.60634
30	0xc2a7196f	-83.549675
31	0x42a75a9d	83.67698
32	0xc2a746cc	-83.638275
33	0xc2a72e22	-83.5901
34	0x42a72beb	83.58578
35	0xc2a6f223	-83.47292
36	0x42a74cb9	83.64985
37	0xc2a75df2	-83.68349
38	0x42a74275	83.6298
39	0x42a749b0	83.64392
40	0xc2a6f219	-83.47285
41	0x42a768a1	83.70435
42	0xc2a74505	-83.6348
43	0xc2a72de6	-83.589645
44	0x42a72432	83.570694
45	0xc2a74023	-83.62527
46	0xc2a754f4	-83.665924
47	0x42a759b5	83.67521
48	0x42a72b33	83.58437
49	0xc2a73945	-83.611855
50	0x42a72e23	83.59011
51	0x42a7494c	83.64316
52	0x42a75a32	83.67616
53	0xc2a72747	-83.57671
54	0xc2a732a5	-83.598915
55	0x42a73df2	83.62099
56	0xc2a71093	-83.53237
57	0x42a6fe39	83.49653
58	0x42a75ac7	83.6773
59	0x42a75b8a	83.67879
60	0x42a6c69e	83.387924
61	0xc2a7544b	-83.664635
62	0x42a72677	83.57513
63	0x42a75d0d	83.68174
64	0x42a73d46	83.619675
65	0x42a75d2e	83.68199
66	0x42a74d37	83.65081
67	0x42a74fc7	83.655815
68	0xc2a76a74	-83.70792
69	0xc2a740c0	-83.626465
70	0x42a73262	83.598404
71	0x42a77792	83.733536
72	0x42a75091	83.65736
73	0xc2a75333	-83.6625
74	0x42a7678c	83.70224
75	0x42a76911	83.70521
76	0xc2a6e704	-83.4512
77	0xc2a753d8	-83.66376
78	0xc2a71543	-83.54153
79	0xc2a753a4	-83.66336
80	0xc2a734f8	-83.603455
81	0x42a7305a	83.59444
82	0x42a72ecc	83.5914
83	0xc2a7297b	-83.58102
84	0xc2a75a6e	-83.67662
85	0xc2a769e8	-83.70685
86	0xc2a75b41	-83.67823
87	0x42a77582	83.72951
88	0xc2a736e3	-83.6072
89	0xc2a74c53	-83.64907
90	0xc2a71bde	-83.55443
91	0xc2a76451	-83.69593
92	0xc2a757ce	-83.67149
93	0x42a74e11	83.65247
94	0x42a73537	83.603935
95	0xc2a76bf8	-83.71088
96	0xc2a7527d	-83.66111
97	0x42a76c66	83.711716
98	0xc2a77a2b	-83.73861
99	0x42a73e93	83.622215
100	0xc2a77c3f	-83.74267
101	0xc2a7336e	-83.60045
102	0xc2a75791	-83.67103
103	0xc2a74f49	-83.654854
104	0xc2a75f3c	-83.686005
105	0xc2a728ac	-83.57944
106	0xc2a75192	-83.65932
107	0xc2a75adb	-83.67745
108	0x42a74e52	83.65297
109	0xc2a75531	-83.66639
110	0x42a74f0c	83.65439
111	0x42a72738	83.5766
112	0xc2a7427a	-83.62984
113	0x42a75ec8	83.68512
114	0xc2a74fe5	-83.656044
115	0x42a75e50	83.684204
116	0x42a72736	83.576584
117	0xc2a74731	-83.639046
118	0x42a73b10	83.61536
119	0x42a772de	83.72435
120	0x42a74b5e	83.6472
121	0x42a7550f	83.66613
122	0x42a7329c	83.59885
123	0x42a753c8	83.663635
124	0x42a72190	83.56555
125	0xc2a768a6	-83.70439
126	0x42a74b0c	83.646576
127	0x42a6dd84	83.43265
