test_uav/model/critic_model14-10-2023_13-56-54/920.pt (torch, 77879 bytes, 5 tensors)

critic_network.0.weight f4 [128, 17]
0.13535446 0.52956074 0.103036 0.13731396 0.7906659 0.2101435 -0.072348826 -0.01865559
0.13181742 -0.42788163 -0.43353888 0.68309844 0.38730213 0.03187693 0.025120033 0.0035436007
0.09811854 -0.38733196 0.01937443 -0.083693616 0.4066571 0.62369794 0.50120133 0.22349025
-0.2299751 -0.30817297 0.54020417 1.7527946 -0.50380456 -0.84169954 0.048370168 0.15573643
-0.07000268 -0.049295492 0.14819549 1.254442 0.22008617 0.08474198 0.5603847 0.24404858
-0.017592182 0.02359459 -0.062492717 0.0029097418 -0.9065935 1.0084578 0.018809557 0.007441212
0.025044747 0.0029120047 -0.000103054066 0.28550494 0.7221641 -0.7865331 -0.17990075 -0.71017015
-0.066685185 0.08887003 0.2920351 0.1454234 -0.13961843 -0.28496867 -2.296707 -1.0026529
-0.05910836 -0.1905238 0.050021514 0.14790173 -0.20723797 0.08153914 -0.19014075 0.4298525
-0.047959674 -0.09494312 0.107708886 -0.036329478 -0.22218338 1.9924829 -0.94124746 -1.1080256
-0.66533506 0.015106303 0.018856876 -0.013161343 0.013410133 -0.084478915 -0.2922398 0.2560949
-0.45188028 0.52246535 -0.20961455 0.12267856 -0.16241613 -0.13023321 0.3284333 1.6305851
-2.388608 -0.7456223 0.044222888 -0.0070315623 -0.0008391096 0.036856696 0.13559419 0.065221295
0.9360422 -0.47489804 0.019984758 0.43124226 0.027051441 -0.07257728 0.14393081 0.15597418
-2.3262784 0.004562161 0.35244226 0.036656566 0.03742356 0.017818578 -0.027897473 0.2927928
-0.16698363 -0.134145 0.14181246 0.0688468 -0.2758147 -0.2583601 0.17246477 -0.15086444
-1.4552824 -3.7120543 -1.5471227 -0.047897868 -0.035362102 -0.08661631 0.039369732 0.059286445
-0.73148715 0.0830767 -0.21731792 -0.9758661 0.2287019 0.14497668 0.12555033 -0.016251098
0.07314132 -0.17027536 -2.876219 0.25695616 0.10703494 0.0026357858 0.039792605 -0.0063647535
-0.06456985 1.141138 0.030288382 -0.3784105 0.15627503 -0.21305475 -0.022774078 -0.2848139
-0.2141788 0.07388112 -0.23154554 -2.4169405 -1.265429 -0.26297933 -0.0011237789 0.043420497
0.007612237 -0.13810879 -0.21755275 0.077270225 1.1807523 -0.059865315 0.24493626 0.42617902
0.12438135 0.08687129 -0.0070722736 0.5472238 -2.6195602 -0.33246568 -0.3564883 0.024631694
0.05154135 -0.006624192 -0.0015194349 0.5007715 -0.14009365 0.057836857 -0.21238665 -0.8301912
0.16387074 -0.26561865 0.123535894 -0.11875887 -0.0611162 -2.140572 -1.7959582 -0.57909894
-0.05795946 -0.07231178 0.030919723 0.099593036 0.8288027 -0.21983545 0.2336184 0.73290896
0.389179 -0.3413505 0.009143206 -0.2248446 0.12802668 0.45653895 -2.8698757 -0.21230316
-0.61797166 0.049762726 -0.0468644 0.012741537 0.18144128 -0.38010734 0.21489784 0.53564847
0.7121164 -0.20577286 0.097567834 -0.0174848 -0.041344997 -0.578375 1.4944668 1.2407414
-0.010231675 0.76857865 -0.0012645451 0.010294372 -0.03845182 0.09383028 0.5341525 -0.24168727
-0.46892455 -0.4635313 -0.12967604 -0.77806014 -0.1785802 -0.022902012 0.44654697 -2.6147761
-0.22880358 0.03212055 -0.121806 -0.017638888 -0.109274045 0.05609147 -0.09798146 0.33645716
00000000: 5c9a 0a3e 4b91 073f 8a04 d33d 089c 0c3e
00000010: 1569 4a3f dc2f 573e 9f2b 94bd 9cd3 98bc
00000020: 25fb 063e 4d13 dbbe cff8 ddbe 8adf 2e3f
00000030: 774c c63e 6291 023d 87c8 cd3c c13b 683b
00000040: 60f2 c83d 6050 c6be 20b7 9e3c 8f67 abbd
00000050: 5c35 d03e abaa 1f3f bb4e 003f a1da 643e
00000060: 987e 6bbe d9c8 9dbe d24a 0a3f 935b e03f
00000070: 56f9 00bf 9f79 57bf cc1f 463d 5f79 1f3e
00000080: 915d 8fbd 12ea 49bd 8fc0 173e 8e91 a03f
00000090: 455e 613e 348d ad3d 5f75 0f3f dfe7 793e
000000a0: 7b1d 90bc 7149 c13c 5df8 7fbd 5eb1 3e3b
000000b0: 8316 68bf 2515 813f 8016 9a3c 69d5 f33b
000000c0: a42a cd3c 55d7 3e3b bb1e d8b8 b42d 923e
000000d0: bfdf 383f 3c5a 49bf e737 38be b6cd 35bf
000000e0: 3e92 88bd 7e01 b63d a085 953e dfe9 143e
000000f0: 22f8 0ebe 6ae7 91be 3ffd 12c0 ee56 80bf
00000100: 9c1b 72bd ac18 43be 5ce3 4c3d 8d73 173e
00000110: 3136 54be fefd a63d 42b4 42be a015 dc3e
00000120: 5d71 44bd 8a71 c2bd 7a96 dc3d 38ce 14bd
00000130: 0a84 63be ae09 ff3f 98f5 70bf c8d3 8dbf
00000140: 6653 2abf 6d80 773c bc79 9a3c aca2 57bc
00000150: 2db6 5b3c 4803 adbd 74a0 95be df1e 833e
00000160: da5c e7be 4ac0 053f 32a5 56be e63e fb3d
00000170: 6a50 26be db5b 05be 6928 a83e 03b7 d03f
00000180: f4de 18c0 1ae1 3ebf 0f23 353d 0569 e6bb
00000190: b1f7 5bba 0cf7 163d 34d9 0a3e be92 853d
000001a0: 76a0 6f3f d625 f3be 13b7 a33c c9cb dc3e
000001b0: fc9a dd3c 66a3 94bd 9962 133e b2b7 1f3e
000001c0: bfe1 14c0 2e7e 953b 5073 b43e 3225 163d
000001d0: 7249 193d 44f8 913c 3e89 e4bc f0e8 953e
000001e0: c2fd 2abe 4f5d 09be 4937 113e 8dff 8c3d
000001f0: 9637 8dbe c647 84be 9b9a 303e 357c 1abe
00000200: b246 babf 4c92 6dc0 1e08 c6bf 8e30 44bd
00000210: dad7 10bd e463 b1bd 2842 213d 58d6 723d
00000220: be42 3bbf 1e24 aa3d 9788 5ebe 5cd2 79bf
00000230: d530 6a3e c474 143e 4490 003e 0621 85bc
00000240: 1ecb 953d aa5c 2ebe f913 38c0 c28f 833e
00000250: 2235 db3d 26bd 2c3b 92fd 223d 6c8f d0bb
00000260: 333d 84bd cf10 923f 571f f83c 05bf c1be
00000270: 9006 203e 062b 5abe b490 babc 21d3 91be
00000280: b051 5bbe fc4e 973d 461a 6dbe 27af 1ac0
00000290: 94f9 a1bf 3aa5 86be c34b 93ba b1d9 313d
000002a0: 1270 f93b 646c 0dbe 26c6 5ebe da3f 9e3d
000002b0: e422 973f 5535 75bd 92d0 7a3e 2334 da3e
000002c0: a6bb fe3d 93e9 b13d 88be e7bb dc16 0c3f
000002d0: e0a6 27c0 f138 aabe a285 b6be 68c8 c93c
000002e0: 061d 533d c00f d9bb c627 c7ba 9032 003f
000002f0: b674 0fbe 57e6 6c3d e37b 59be 6987 54bf
00000300: bbcd 273e 2bff 87be 6300 fd3d da37 f3bd
00000310: fb54 7abd 22ff 08c0 f5e1 e5bf d43f 14bf
00000320: e666 6dbd 3318 94bd 5c4b fd3c 6ff7 cb3d
00000330: 6a2c 543f 8b1c 61be a939 6f3e ec9f 3b3f
00000340: 7842 c73e 7ec5 aebe 63cd 153c aa3d 66be
00000350: 6d19 033e 79bf e93e 0bac 37c0 0066 59be
00000360: 6433 1ebf 00d4 4b3d e3f4 3fbd e1c1 503c
00000370: becb 393e 6e9d c2be 2e0e 5c3e 4220 093f
00000380: 434d 363f 1fb6 52be a5d1 c73d 493c 8fbc
00000390: 5f59 29bd 6210 14bf b04a bf3f 9dd0 9e3f
000003a0: c1a2 27bc 92c1 443f 18bf a5ba baa9 283c
000003b0: a87f 1dbd 172a c03d 38be 083f de7c 77be
000003c0: e116 f0be f953 edbe ccc9 04be f32e 47bf
000003d0: badd 36be 009d bbbc cea1 e43e 7e58 27c0
000003e0: 7c4b 6abe d690 033d 6d75 f9bd 6e7f 90bc
000003f0: 12cb dfbd 2bc0 653d 81aa c8bd 1d44 ac3e

critic_network.0.bias f4 [128]
-1.4433198 0.995624 1.2194418 -0.10382548 1.0324274 0.5305235 -1.0243154 0.82763666
0.7807515 -0.15501292 1.2600733 1.1096654 0.0036713632 0.27332115 -1.8488418 -1.21365
-0.2991582 0.82874995 0.28732443 -0.0537539 -0.8695328 2.751633 -1.3027987 -0.03035111
0.51770025 0.9086954 -0.06962912 -2.1466722 -1.5661093 -0.9051663 -1.8765179 1.3377137
-0.58338875 2.3793375 -0.038052868 -0.22567694 -0.92245954 -1.4558796 1.4489105 0.053037997
-2.5495589 0.22593893 -0.5294476 0.39384523 -0.45854753 1.0221965 1.6297601 -0.06880949
0.87790823 0.6252618 -0.22870198 -0.29158372 0.93169045 0.8909389 0.8836336 -0.14869139
0.31338817 1.5361989 -0.1885409 -1.2447284 -0.86745197 2.1620984 -0.687221 0.006106134
2.9103165 0.6880571 -2.9909072 0.46933287 -0.765774 0.64746475 -0.2534664 -1.2643199
0.27041978 -0.7773176 -1.4469274 0.61317205 -0.56122303 -0.97304034 3.032706 1.3963078
-0.22664255 0.35417274 0.08140502 0.5883019 0.55522215 -1.3968265 -0.5578128 -1.1193779
-0.76984286 -0.42556348 0.5632387 0.7189562 -0.37714922 -0.2752916 2.0020342 0.48014936
-0.5867088 1.2584265 -0.40562803 -0.9929128 1.3023926 -0.6186937 -0.98914814 -0.30320546
-1.0919594 -0.45178056 -0.78213227 -0.07148554 -1.9067059 0.3416495 -0.6825676 0.88356686
-0.31418544 -1.1500868 -1.8983966 -0.25593063 -0.5707877 -0.5362299 -0.43455237 -0.8636027
-0.5417248 -0.31788224 0.62170196 -0.62184054 -0.30264628 -0.14439955 0.36438993 0.5476728
00000000: b4be b8bf 37e1 7e3f ab16 9c3f 74a2 d4bd
00000010: 9526 843f 63d0 073f c41c 83bf ffdf 533f
00000020: 55df 473f b5bb 1ebe 154a a13f 8409 8e3f
00000030: 419b 703b c0f0 8b3e d9a6 ecbf e258 9bbf
00000040: 432b 99be f528 543f 301c 933e 0d2d 5cbd
00000050: b499 5ebf c11a 3040 1cc2 a6bf e4a2 f8bc
00000060: 0188 043f 43a0 683f b699 8ebd 1463 09c0
00000070: 4576 c8bf fbb8 67bf bd31 f0bf 343a ab3f
00000080: f758 15bf 1147 1840 53dd 1bbd db17 67be
00000090: 4f26 6cbf 435a babf e675 b93f 5f3e 593d
000000a0: f92b 23c0 895c 673e e189 07bf 15a6 c93e
000000b0: bec6 eabe 56d7 823f fb9b d03f fdeb 8cbd
000000c0: 98be 603f 2811 203f da30 6abe 764a 95be
000000d0: 4483 6e3f 9214 643f d035 623f 8e42 18be
000000e0: 6a74 a03e 2aa2 c43f de10 41be 4353 9fbf
000000f0: 5511 5ebf d25f 0a40 b7ed 2fbf f715 c83b
00000100: a042 3a40 8324 303f 066b 3fc0 664c f03e
00000110: c409 44bf 40c0 253f 59c6 81be 3cd5 a1bf
00000120: 7674 8a3e 49fe 46bf eb34 b9bf d8f8 1c3f
00000130: 50ac 0fbf 2c19 79bf db17 4240 37ba b23f
00000140: fc14 68be 2156 b53e adb7 a63d f49a 163f
00000150: 0a23 0e3f 36cb b2bf d2cc 0ebf c647 8fbf
00000160: 6c14 45bf 75e3 d9be 6930 103f 830d 383f
00000170: b419 c1be 05f3 8cbe 5421 0040 23d6 f53e
00000180: 8c32 16bf 1f14 a13f 7aae cfbe 892f 7ebf
00000190: cdb4 a63f b662 1ebf d038 7dbf bf3d 9bbe
000001a0: 53c5 8bbf c84f e7be d239 48bf 0367 92bd
000001b0: f00e f4bf afec ae3e c0bc 2ebf 7031 623f
000001c0: eadc a0be 0b36 93bf a9fe f2bf 5709 83be
000001d0: 251f 12bf 5d46 09bf a67d debe 1115 5dbf
000001e0: 7aae 0abf 76c1 a2be dc27 1f3f f130 1fbf
000001f0: 74f4 9abe 7add 13be 5191 ba3e 4934 0c3f

critic_network.2.weight f4 [128, 128]
-1.212846 -0.45783404 1.0751793 0.039692014 -0.822286 -0.60523504 -1.8202684 1.2434883
2.1549556 -0.8457543 1.5514249 -0.35417348 0.037254516 0.5970319 0.40197733 0.8723222
-0.87240404 0.32705474 1.0944983 -1.2298222 -1.4868423 -1.2994766 0.81337994 2.043467
0.3808409 0.60229707 -0.5655485 0.66418743 -1.0379055 -0.26208714 0.6739258 0.6551359
0.93435425 -0.58926946 0.90321606 0.18435147 0.12850122 -1.932264 0.5981804 -0.8712429
1.1858674 0.9470092 1.3336688 0.45921674 -0.13449769 1.4542643 2.2281892 -0.0057469546
-0.3106738 1.9332738 -0.03475988 1.1901207 -0.05759896 -1.053708 -0.76062435 0.47406152
0.15475658 -0.6903634 0.8919229 -0.18250462 -1.2999072 -1.1722313 -1.4148439 -0.121998735
-1.2208754 0.5134375 1.23658 1.0060183 -1.6905808 1.1807901 1.0827663 -2.1203446
1.1678635 0.1883311 -1.0135866 1.1612566 0.5991043 0.9705114 -1.2196794 0.8752166
0.6909792 -0.21955179 -1.0099757 -0.12235102 -1.0307186 -0.57915294 -0.2650322 1.0315374
-0.67247206 -0.024744721 0.71473104 1.5923598 -0.09153062 -1.0791621 -1.1289258 -2.3277304
0.17775916 0.1208551 -0.5996305 -0.54765755 -0.36523527 -0.1485812 -0.9325126 -0.9465634
-1.8672473 0.5045894 0.10287022 0.02972885 1.2495526 0.40130767 0.42549443 1.604818
-0.33779708 0.7878027 0.6617486 -0.23335 -1.5527775 2.4537618 -0.9976675 -1.3909122
1.1946737 0.40320697 -0.38057253 0.7768602 0.28514874 1.2795104 -0.033381082 -0.39472738
1.1038227 1.9452283 -1.8305444 0.32664272 0.87121713 0.01936557 0.011463366 -2.5741642
-1.1892419 -0.056909878 -0.30576232 0.88581467 0.5892222 -0.13342808 -1.1687497 -0.78503543
1.6366032 -0.31882802 0.44958064 0.53008795 1.3423454 0.3501344 -0.66403025 1.3270625
0.11999318 -0.2310138 -0.35881603 -0.15110518 1.1325097 1.1083705 -0.51947474 -1.9222506
0.6740763 0.76835537 0.8034602 0.5657421 1.5520395 1.9434204 -1.719205 0.28836563
-0.25917533 -0.90677655 -1.224215 -0.8263755 -0.8433214 -1.797908 -1.8186605 -0.46299765
-1.1447923 -0.7592005 0.2536085 1.706191 -1.639674 0.90165496 -0.32604197 0.5858703
-1.3007498 1.1743752 1.9824111 0.35967144 0.6300518 0.3100978 0.9066083 1.3061022
0.41300097 -2.3328707 -0.43290702 0.9147908 0.55057263 0.102828056 -0.55760324 1.3458725
-1.4923081 -0.4561376 0.7209771 -1.6241136 0.25047603 -0.17905353 0.291413 -2.6270173
-0.44448182 1.3699843 -0.5317811 -0.1012146 0.4199495 1.2639128 -0.45640028 -0.10879215
-0.021981236 -0.103671476 -0.87337697 -1.4174373 -0.52608776 1.358463 0.34115762 0.60067123
0.21479931 -0.43335146 0.19734561 1.4108975 -0.25407836 0.13955954 1.1826669 0.9155782
1.3661002 -0.69638264 1.0979127 -0.8457581 -0.32440582 0.07077331 -0.18314287 -1.4174021
1.267829 -0.554783 -0.25220025 -0.3010963 0.98820305 -0.49565378 0.6419046 2.2774096
0.3637053 -1.3652117 0.9635306 -0.10137218 0.09957007 -1.8005539 -0.612731 -0.721533
00000000: 8a3e 9bbf 3969 eabe 7a9f 893f 1894 223d
00000010: 5681 52bf aff0 1abf 8efe e8bf a02a 9f3f
00000020: cbea 0940 5b83 58bf 1795 c63f 3a56 b5be
00000030: 3198 183d 15d7 183f f9cf cd3e 8250 5f3f
00000040: df55 5fbf b873 a73e 8518 8c3f d06a 9dbf
00000050: d950 bebf 4055 a6bf ab39 503f 2ac8 0240
00000060: 94fd c23e 2430 1a3f c9c7 10bf 3008 2a3f
00000070: 16da 84bf 4930 86be 6786 2c3f fdb6 273f
00000080: d731 6f3f 5dda 16bf 2b39 673f a2c6 3c3e
00000090: d395 033e 6d54 f7bf 5a22 193f c609 5fbf
000000a0: 81ca 973f 326f 723f a9b5 aa3f 751e eb3e
000000b0: c3b9 09be 5525 ba3f a79a 0e40 f350 bcbb
000000c0: a310 9fbe 8475 f73f 6060 0ebd e055 983f
000000d0: e3ec 6bbd e7df 86bf 47b8 42bf 31b8 f23e
000000e0: 8278 1e3e a8bb 30bf 0f55 643f 7ee2 3abe
000000f0: 5c63 a6bf ad0b 96bf 9b19 b5bf 79da f9bd
00000100: a545 9cbf a470 033f 4148 9e3f 35c5 803f
00000110: f464 d8bf 2124 973f 1698 8a3f bab3 07c0
00000120: 8d7c 953f ded9 403e 35bd 81bf 0ea4 943f
00000130: e65e 193f 6f73 783f 741e 9cbf 320e 603f
00000140: 03e4 303f 2fd2 60be e246 81bf 2c93 fabd
00000150: 96ee 83bf 5e43 14bf 4db2 87be 6b09 843f
00000160: 2127 2cbf 71b5 cabc 9df8 363f 72d2 cb3f
00000170: 6874 bbbd fc21 8abf a480 90bf 89f9 14c0
00000180: 7f06 363e e182 f73d 6281 19bf 4933 0cbf
00000190: 1e00 bbbe ac25 18be 25b9 6ebf fb51 72bf
000001a0: f601 efbf c52c 013f 9fad d23d eb89 f33c
000001b0: 57f1 9f3f 3378 cd3e 68da d93e ad6a cd3f
000001c0: bdf3 acbe 70ad 493f 5b68 293f 4df3 6ebe
000001d0: 6ac1 c6bf 6f0a 1d40 2367 7fbf 6909 b2bf
000001e0: 11eb 983f 2571 ce3e 67da c2be 4fe0 463f
000001f0: 04ff 913e ffc6 a33f 9aba 08bd b519 cabe
00000200: 104a 8d3f 3efd f83f 474f eabf b73d a73e
00000210: 1608 5f3f 8ba4 9e3c d8d0 3b3c 1bbf 24c0
00000220: 1439 98bf 551a 69bd e18c 9cbe c0c4 623f
00000230: 44d7 163f 5fa1 08be 9799 95bf 15f8 48bf
00000240: 377c d13f 6d3d a3be 6f2f e63e d8b3 073f
00000250: f9d1 ab3f d144 b33e e3fd 29bf 2fdd a93f
00000260: fcbe f53d e28e 6cbe bcb6 b7be 51bb 1abe
00000270: 14f6 903f 16df 8d3f 4cfc 04bf 4f0c f6bf
00000280: 4490 2c3f f0b2 443f 91af 4d3f 79d4 103f
00000290: 3ba9 c63f 00c2 f83f e90e dcbf a9a4 933e
000002a0: a1b2 84be 8222 68bf 14b3 9cbf 588d 53bf
000002b0: e9e3 57bf d921 e6bf dec9 e8bf 070e edbe
000002c0: 8e88 92bf f75a 42bf f9d8 813e 7764 da3f
000002d0: d6e0 d1bf dcd2 663f f9ee a6be 99fb 153f
000002e0: f87e a6bf ed51 963f a6bf fd3f db26 b83e
000002f0: 134b 213f 24c5 9e3e 7b17 683f 5b2e a73f
00000300: dd74 d33e c14d 15c0 fda5 ddbe bb2f 6a3f
00000310: 54f2 0c3f 8497 d23d 16bf 0ebf 8d45 ac3f
00000320: f403 bfbf de8a e9be f591 383f f4e2 cfbf
00000330: 653e 803e cf59 37be 1634 953e 0d21 28c0
00000340: 1f93 e3be a55b af3f ce22 08bf 9a49 cfbd
00000350: 9f03 d73e e5c7 a13f 4cad e9be 6bce debd
00000360: fe11 b4bc b651 d4bd a295 5fbf 966e b5bf
00000370: b0ad 06bf 1ee2 ad3f 36ac ae3e 97c5 193f
00000380: 5af4 5b3e 3ee0 ddbe f814 4a3e 4a98 b43f
00000390: 8f16 82be b2e8 0e3e a161 973f 5563 6a3f
000003a0: 5fdc ae3f 2246 32bf 6788 8c3f 9a83 58bf
000003b0: 8518 a6be 99f1 903d ce89 3bbe 6f6d b5bf
000003c0: 3848 a23f 4206 0ebf 6420 81be 4b29 9abe
000003d0: e0fa 7c3f 55c6 fdbe dc53 243f 14c1 1140
000003e0: 9537 ba3e 42bf aebf f1a9 763f 389c cfbd
000003f0: 65eb cb3d 8d78 e6bf f0db 1cbf 63b6 38bf

critic_network.2.bias f4 [128]
-1.2738737 0.33485812 2.243807 -0.068760306 -1.0241565 0.95749897 1.1744676 -0.64031
-1.1325561 0.9867987 -0.5487804 -1.6789688 -0.33005968 0.58253014 -0.8125177 0.62603545
1.0205705 0.24135648 1.0710276 -1.1284992 -0.6531116 0.04653735 0.30012175 0.55829155
0.18797958 -0.55510765 0.53497803 0.9509583 0.74978095 0.37304053 1.0580436 -0.8038371
0.60216105 1.120568 -0.4818988 -0.41938627 -0.6611362 0.59227204 -0.882809 -1.51802
2.4938455 -1.255413 1.4649321 0.6035657 0.0885281 1.2417996 1.6509311 -0.57707995
-1.8627439 1.2312348 -0.88695 -0.80235815 -1.1173556 1.1520277 0.4135028 -0.6377629
0.7771206 -0.4439271 -0.79594904 -0.6472918 -2.543156 1.2115895 -1.2150435 -0.9083848
-1.131378 -0.66578484 -1.259401 -0.8581668 1.3098245 1.3869683 -0.9662861 -1.2533616
-0.47841328 0.7270738 -0.8124131 -0.5473121 1.972043 0.64206916 0.6416668 1.4088398
0.8070186 -0.8139576 -1.3332636 1.0374889 1.0234365 0.2465707 1.0945475 -0.5054317
0.33524314 0.41556063 1.4630787 1.1515342 0.483804 -0.45414457 -1.0214341 0.45535138
0.55382705 0.26791328 0.47724113 -0.58582085 0.823309 0.85775805 0.8355742 0.66520053
1.2269754 1.1910899 1.0436878 0.24069025 -0.8753406 0.7907351 -0.8103377 -0.6401686
0.7286094 -0.6084761 1.3204432 -1.4244704 -0.28555852 1.1986943 -1.0913594 -1.0270841
-1.0029045 -0.01831744 -0.034520846 -1.0232377 -0.7494554 0.7294893 -1.2585781 -2.2443564
00000000: 4b0e a3bf 8672 ab3e 899a 0f40 34d2 8cbd
00000010: 8f17 83bf a71e 753f f454 963f 5beb 23bf
00000020: 99f7 90bf d79e 7c3f df7c 0cbf 73e8 d6bf
00000030: 95fd a8be b220 153f 2901 50bf dc43 203f
00000040: 0ea2 823f 2726 773e 6f17 893f a972 90bf
00000050: 5232 27bf f39d 3e3d 8fa9 993e 32ec 0e3f
00000060: b87d 403e 891b 0ebf 52f4 083f 0172 733f
00000070: a5f1 3f3f 2bff be3e f96d 873f 45c8 4dbf
00000080: 3a27 1a3f c66e 8f3f 71bb f6be ccb9 d6be
00000090: 3940 29bf 249f 173f c5ff 61bf 7b4e c2bf
000000a0: 2a9b 1f40 60b1 a0bf e582 bb3f 4883 1a3f
000000b0: 384e b53d 4af3 9e3f b651 d33f 83bb 13bf
000000c0: 646e eebf 1a99 9d3f 280f 63bf 5867 4dbf
000000d0: 8205 8fbf a575 933f a4b6 d33e 6e44 23bf
000000e0: 60f1 463f 6a4a e3be 51c3 4bbf eab4 25bf
000000f0: 11c3 22c0 5d15 9b3f 8c86 9bbf e88b 68bf
00000100: ffd0 90bf e070 2abf 0d34 a1bf d2b0 5bbf
00000110: 54a8 a73f 2d88 b13f 875e 77bf 276e a0bf
00000120: 96f2 f4be 8221 3a3f 4efa 4fbf a51c 0cbf
00000130: e86b fc3f a55e 243f 4744 243f dd54 b43f
00000140: c598 4e3f 865f 50bf 62a8 aabf 70cc 843f
00000150: f8ff 823f 087d 7c3e 221a 8c3f f963 01bf
00000160: fda4 ab3e 5dc4 d43e 2a46 bb3f 7965 933f
00000170: 28b5 f73e a385 e8be 5abe 82bf d123 e93e
00000180: 9cc7 0d3f ee2b 893e f358 f43e 5bf8 15bf
00000190: 61c4 523f 0896 5b3f 31e8 553f 954a 2a3f
000001a0: 880d 9d3f a275 983f 9097 853f 8177 763e
000001b0: 5216 60bf 9e6d 4a3f 4b72 4fbf 17e2 23bf
000001c0: 2586 3a3f 17c5 1bbf 4804 a93f 0c55 b6bf
000001d0: ba34 92be d16e 993f aab1 8bbf 7e77 83bf
000001e0: 2d5f 80bf 750e 96bc bb65 0dbd 74f9 82bf
000001f0: 4fdc 3fbf d0bf 3a3f 1619 a1bf 89a3 0fc0

critic_network.4.weight f4 [1, 128]
89.178085 -89.187164 -88.942444 -89.15416 89.11091 -89.21017 -89.16928 89.17969
89.05301 -89.22807 89.11021 89.09591 89.126335 -89.17994 89.14814 -89.12689
-89.0833 -89.296646 -89.17484 89.25612 89.188095 89.147316 -89.04117 -89.01555
-89.18671 89.09869 -89.12695 -89.15213 -89.101456 -89.1555 -89.01839 89.15386
-89.15698 -89.04316 89.10624 -88.98565 89.19549 -89.26864 89.070145 89.13026
-88.89253 89.13382 -89.20572 -89.14297 89.00808 -89.17421 -89.15612 89.0506
89.07273 -89.101234 89.13239 89.231865 89.11911 -89.109215 -89.125885 89.20466
-88.98239 88.99848 89.12503 89.14479 88.81628 -89.09359 89.10491 89.25958
89.16358 89.10998 89.151825 89.229004 -89.2371 -89.13834 89.134674 89.229805
89.226395 -89.14336 89.20035 89.23014 -88.955246 -89.16169 -88.98117 -89.152145
-89.082344 89.1752 89.086784 -89.04684 -89.14091 -89.15477 -89.242 89.29883
-89.091156 -89.064896 -89.044106 -89.206215 -89.12296 89.07845 89.130554 -89.15141
-89.16259 89.18946 -89.18215 89.23436 -89.26252 -89.1544 -89.22708 -89.268776
-89.2259 -89.07816 -89.16097 -89.24142 89.198326 -89.0546 89.22609 89.14466
-89.15844 89.11263 -89.11988 89.15659 89.0301 -89.192116 89.216866 89.14528
89.206894 89.22793 89.05511 89.16056 88.98884 -89.228645 89.07047 88.86566
00000000: 2e5b b242 d45f b2c2 88e2 b1c2 ee4e b2c2
00000010: c938 b242 9b6b b2c2 ac56 b2c2 005c b242
00000020: 241b b242 c674 b2c2 6d38 b242 1b31 b242
00000030: af40 b242 215c b2c2 d94b b242 f840 b2c2
00000040: a62a b2c2 e297 b2c2 8559 b2c2 2283 b242
00000050: 4e60 b242 6d4b b242 1415 b2c2 f607 b2c2
00000060: 985f b2c2 8732 b242 0041 b2c2 e44d b2c2
00000070: f233 b2c2 9e4f b2c2 6a09 b2c2 c74e b242
00000080: 6050 b2c2 1916 b2c2 6536 b242 a7f8 b1c2
00000090: 1764 b242 8b89 b2c2 ea23 b242 b142 b242
000000a0: fac8 b1c2 8444 b242 5469 b2c2 3349 b2c2
000000b0: 2304 b242 3259 b2c2 ef4f b2c2 e819 b242
000000c0: 3d25 b242 d533 b2c2 c943 b242 b776 b242
000000d0: fc3c b242 eb37 b2c2 7440 b2c2 c968 b242
000000e0: fcf6 b1c2 39ff b142 0440 b242 224a b242
000000f0: efa1 b142 eb2f b2c2 b735 b242 e884 b242
00000100: c153 b242 4f38 b242 bc4d b242 4075 b242
00000110: 6579 b2c2 d546 b2c2 f444 b242 a975 b242
00000120: ea73 b242 6649 b2c2 9466 b242 d575 b242
00000130: 16e9 b1c2 c952 b2c2 5cf6 b1c2 e64d b2c2
00000140: 292a b2c2 b459 b242 6f2c b242 fb17 b2c2
00000150: 2548 b2c2 3e4f b2c2 e77b b2c2 0099 b242
00000160: ac2e b2c2 3a21 b2c2 9516 b2c2 9569 b2c2
00000170: f53e b2c2 2b28 b242 d842 b242 864d b2c2
00000180: 3f53 b2c2 0161 b242 435d b2c2 fe77 b242
00000190: 6986 b2c2 0e4f b2c2 4474 b2c2 9d89 b2c2
000001a0: a973 b2c2 0528 b2c2 6b52 b2c2 9b7b b2c2
000001b0: 8b65 b242 f51b b2c2 c273 b242 114a b242
000001c0: 1f51 b2c2 ab39 b242 613d b2c2 2d50 b242
000001d0: 690f b242 5d62 b2c2 096f b242 624a b242
000001e0: ee69 b242 b374 b242 371c b242 3552 b242
000001f0: 49fa b142 1175 b2c2 1524 b242 38bb b142
