test_uav/model/critic_model12-10-2023_13-02-55/290.pt (torch, 77879 bytes, 5 tensors)

critic_network.0.weight f4 [128, 17]
000000 98 b2 2b be d5 f0 1e be c2 1c c5 bd da 1d 45 be
       -0.16767347 -0.15521558 -0.09624626 -0.19249669
000010 9c b5 37 3f 19 d8 89 3f 0d 0a be bd 40 38 04 3e
       0.7176149 1.0769073 -0.09279261 0.12912083
000020 46 95 ed 3e 59 3b 5f bf 54 61 20 c0 2a 91 96 be
       0.4640295 -0.8719993 -2.5059404 -0.29407626
000030 cb 5d 54 3e 2a 32 33 3d ee c8 f1 3a 2f 61 c6 3d
       0.20738904 0.043749012 0.0018446723 0.09686505
000040 ef 2a 97 3c e2 e4 7d be d9 b7 b3 be 43 6a 80 be
       0.01845309 -0.24794343 -0.35101202 -0.2508107
000050 50 a9 b5 3e 21 f4 24 3e ae 05 07 3e 9e ea 12 be
       0.35480738 0.16108753 0.1318576 -0.14347312
000060 fe f5 c8 3d 42 73 3b bd eb 15 8c 3e bb 7f 12 c0
       0.09812544 -0.045764215 0.27360472 -2.289046
000070 e2 de 36 40 89 91 1f 3e 58 a1 da bc 92 7f d9 bd
       2.8573537 0.15582861 -0.026688263 -0.10620035
000080 09 2e ac 3d 12 a7 53 3d bb a3 6a 3e 3a 5d 55 bf
       0.08407218 0.051673003 0.2291402 -0.8334538
000090 ba 57 1f 3b e1 77 3d 3f 80 85 a5 3e 5c f2 8c be
       0.0024313764 0.74011046 0.32328415 -0.27528656
0000a0 37 ec c7 bc 00 fc 08 be 82 2f 03 3f ad f6 a7 be
       -0.024404628 -0.1337738 0.51244366 -0.32805386
0000b0 40 b0 09 c0 32 f6 4a 3f 6d eb 3a 3e 75 fa 9b 3d
       -2.1513824 0.79281914 0.1825387 0.0761613
0000c0 bf cc 59 bd 6b eb eb bc 65 d3 12 bd 78 00 46 3e
       -0.053173777 -0.02879878 -0.035846133 0.19336116
0000d0 ce cb 5d be 59 3c 87 be 55 25 91 be 97 23 0e be
       -0.21659777 -0.2641323 -0.28348795 -0.13880764
0000e0 6f 4d 61 3e e3 40 d9 bd 97 94 9d bb 74 0e cf 3e
       0.22002195 -0.10608079 -0.004808973 0.40440714
0000f0 4d 3d 12 3f 9d cc af 3f 32 2a cb bf 5a 72 99 3e
       0.5712479 1.3734318 -1.5872252 0.29970056
000100 05 f7 35 3c 6b bc 46 bc a9 b2 d3 3c 40 8b ef 3c
       0.011106257 -0.012129883 0.025842028 0.029241204
000110 70 a7 91 3e 10 e5 27 bd 24 4b 92 be f2 85 d1 3e
       0.28448057 -0.040989935 -0.28572953 0.40922505
000120 67 21 01 bf 66 a3 09 bf cd da c1 3c 98 80 dc bd
       -0.5044159 -0.5376495 0.023663903 -0.10766715
000130 b8 76 86 bd f9 f6 d9 3e c7 79 b2 3f dd 34 69 3c
       -0.065656126 0.42571238 1.3943413 0.014233795
000140 c1 c3 40 3f d3 93 18 3c e5 41 72 3c 4b c4 e0 3c
       0.75298697 0.009312588 0.014786218 0.02743735
000150 d3 d9 94 3c 48 2b 07 be 8d 50 98 be 99 b9 71 be
       0.018170273 -0.13200104 -0.29748955 -0.23605956
000160 31 e0 ad 3e 44 19 2c 3e d1 a0 a5 3d 98 ec 2c bd
       0.33960107 0.16806513 0.08087314 -0.04221782
000170 37 ec 1d be 3f b8 77 3e 1d b2 b9 3e cd 17 3a c0
       -0.1542214 0.24191378 0.36268702 -2.9077027
000180 e1 ce 06 be 4d 27 12 3f 93 89 98 3c bc 04 81 bd
       -0.13164856 0.5709122 0.018620288 -0.06299731
000190 88 b2 61 bd 28 a3 ca 3c ea 00 2d be ee 38 05 3f
       -0.0551019 0.024736002 -0.1689488 0.5203999
0001a0 6b 7a 99 3e 5c 1e 93 be 9c b6 0e 3f 44 8e 2f 3e
       0.2997621 -0.287341 0.5574739 0.17144114
0001b0 d5 1b 1a 3c 1b 27 b8 bd 6e f1 8d bd 8d cd 06 3d
       0.00940605 -0.08991834 -0.06930815 0.032910872
0001c0 4f 14 56 bf 09 5d 4c bf 7b 23 8b bf 07 74 bf bc
       -0.8362474 -0.7982946 -1.0870203 -0.023370756
0001d0 ba f4 90 3c 9f 79 08 bd 0f b8 27 bb ab 4b 4e be
       0.01769482 -0.033319112 -0.0025591885 -0.20146053
0001e0 ff 84 b5 3e 98 3c f3 bc 76 9f 82 3e 9c e0 31 bf
       0.3545303 -0.02969198 0.25512284 -0.6948335
0001f0 5e 25 98 bf 05 84 90 bd f7 ee 97 bd 62 0c 9f be
       -1.1886404 -0.07056431 -0.07418626 -0.31064135
000200 7f 46 5f be f6 b7 29 be 98 dc 11 3d 42 3a 3f bf
       -0.21804236 -0.16574082 0.035610765 -0.7469827
000210 d6 8b fc 3b f9 57 09 bd ec 74 0c bd 41 88 19 3c
       0.0077070994 -0.033531163 -0.034291193 0.009370864
000220 7c 11 3b be 89 d5 83 bd 69 7c 3a be 95 2c 01 bd
       -0.18268389 -0.06437213 -0.18211521 -0.031536657
000230 c6 13 d3 be 5f cc 56 bf e1 1a e7 3d 41 d9 16 be
       -0.41226023 -0.83905596 0.112844236 -0.14731313
000240 1b 68 ec 3d d6 e3 9f 3e 29 40 a6 3f 74 05 cd bf
       0.11543294 0.31228513 1.298833 -1.6017289
000250 82 94 83 be c8 9e 95 3d 72 b5 4a 3d ac d0 0c bd
       -0.2569924 0.07305676 0.049489446 -0.034378693
000260 ad d1 c0 bc 43 e9 22 3c 0c ae d9 3c 0c 5f 42 bf
       -0.023537481 0.009943309 0.02657225 -0.7592628
000270 f2 93 60 3d 62 90 63 3d e0 d1 de 3b db bb c4 3e
       0.05482859 0.055557616 0.0067999214 0.38424572
000280 01 5e 9c be e9 ea e1 3e 43 1e 61 bf 4a 60 43 3f
       -0.3054047 0.44124535 -0.879368 0.763188
000290 0b 29 1c bf 8d a5 ea 3e a8 dc e9 be a4 4c 10 bf
       -0.61000127 0.4582943 -0.4567616 -0.56366944
0002a0 fe ae 59 bf 88 0d 1d bf e3 5d 6e 3e 21 da 50 3e
       -0.8503264 -0.6134877 0.23278002 0.2039571
0002b0 23 f4 ff bd 68 b5 8d be 85 b4 c5 3e 10 5d 53 3f
       -0.12497737 -0.27677464 0.38614288 0.8256388
0002c0 86 a4 89 bd 11 87 f4 bd fe 21 82 3e c0 24 00 bf
       -0.067208335 -0.119398244 0.2541656 -0.50056076
0002d0 b6 7b 96 bf e5 4a d0 bf 96 82 64 3e cc 58 75 3d
       -1.1756504 -1.6272856 0.2231544 0.059899136
0002e0 c0 84 60 bc 7e 51 16 be 42 bf 6e bd 1d 16 a0 be
       -0.013703525 -0.14679524 -0.058287866 -0.3126687
0002f0 4e 3f 9d be f3 89 8b 3e 08 09 fb be d7 69 e4 bd
       -0.3071236 0.27253684 -0.49030328 -0.11153
000300 6c cc 86 3f 45 ca 32 3d 7c 4f b9 bc 77 15 f6 bc
       1.0531135 0.04364993 -0.022620909 -0.030039532
000310 b4 b1 c0 3d 37 a8 ad 3e 24 33 a6 be 44 c2 82 bf
       0.09408894 0.339174 -0.32460892 -1.0215535
000320 38 8d a4 bb ff da 42 3d 4f aa 2d b9 41 3a 33 3b
       -0.0050217174 0.047572132 -0.0001656201 0.0027347954
000330 7e 3b 99 3e f4 66 8e be c7 5d 3d 3f b6 79 15 be
       0.299282 -0.27812922 0.7397122 -0.1459721
000340 d4 6c 1a be 57 9c ab bc bc 50 9c be 10 d1 e3 3c
       -0.15080577 -0.020948572 -0.30530345 0.02780965
000350 39 06 03 be 96 85 3b 3f e3 a5 9f 3e 52 ea c4 3e
       -0.12795343 0.7325071 0.3118125 0.38460022
000360 de 42 60 3d 67 6c 71 3f c4 1c 41 3f bc 99 5a 3f
       0.05475127 0.94306034 0.7543452 0.8539083
000370 86 15 00 3f 72 78 8a 3e 79 31 1e 3f 5f 36 4b 3e
       0.5003284 0.27045017 0.6179424 0.1984496
000380 00 1c e9 be e3 d3 d3 3e 9c 2b e3 bd 44 c3 8b 3d
       -0.45529175 0.41372594 -0.11092302 0.06824353
000390 c8 61 b7 3c 6d dd 00 be 50 c7 67 3d 35 de 96 3f
       0.022385493 -0.12584467 0.056586564 1.1786562
0003a0 ff 42 b5 bf 4e 60 89 3f 1c fe c9 bb 25 39 bc 3c
       -1.416107 1.0732515 -0.0061643254 0.022976467
0003b0 9c 91 20 bd 4b 93 e5 bc 50 b4 8b bd 9c 59 16 bf
       -0.039201364 -0.028024336 -0.06821501 -0.58730483
0003c0 ab fb 34 3e 16 16 fb 3e 91 97 fb be 04 83 89 be
       0.17674129 0.49040288 -0.49139073 -0.2685777
0003d0 34 28 33 3e d6 17 24 3e da d4 63 bd e8 49 fe 3d
       0.17495805 0.16024718 -0.055622913 0.1241644
0003e0 08 38 90 3f 0b 7f 39 3f cf e3 0b bf 5d c3 bb bd
       1.1267099 0.7245948 -0.54644483 -0.09168122
0003f0 cc ab 30 3e 08 d6 1e 3e 8d 99 c6 bd b8 34 41 bf
       0.17253035 0.15511334 -0.09697256 -0.7547107

critic_network.0.bias f4 [128]
000000 5c a4 f0 be dd af 36 3e de 62 e7 be 1e 16 89 3f
       -0.47000396 0.17840524 -0.45192617 1.0709875
000010 b8 89 57 3f 24 6a 9e 3d 77 67 39 3f 17 dc 1d 3f
       0.8419452 0.077350885 0.724235 0.61663955
000020 21 e4 22 3d 85 f5 86 bf 90 ca d1 be ff 60 d3 3e
       0.039768342 -1.0543677 -0.40974855 0.4128494
000030 47 b0 8e 3f 0c 03 24 be 7e 50 16 3f f8 b8 99 bf
       1.1147546 -0.16016787 0.5871657 -1.2009573
000040 f5 ed 26 3f 07 36 42 3f 08 16 55 3f 44 7e 18 3f
       0.65206844 0.7586369 0.8323674 0.59567666
000050 b7 98 82 3f e0 56 81 3e 97 7e 6a 3e ed 6d b1 be
       1.0202855 0.25261593 0.22899853 -0.3465418
000060 60 dd f9 3e 0f e2 f2 bc 9c 3d 02 3e 4a 6e 82 3e
       0.48801708 -0.029648809 0.12718815 0.2547477
000070 85 b1 03 3e 0c 0c ca be 92 68 7c 3f cd e8 6b 3f
       0.12860687 -0.39462316 0.9859706 0.921521
000080 1d 96 95 3f 87 72 2c bf fc 4a 0a be a6 71 08 3f
       1.1686436 -0.67362255 -0.13505167 0.53298414
000090 41 27 9d 3f 7b d8 23 3f 96 d4 02 3f b1 9d 94 3f
       1.2277604 0.640022 0.5110563 1.1610624
0000a0 67 5e 97 be 1e 2a 58 3f a7 5d f5 be 13 58 b8 3e
       -0.2956421 0.84439266 -0.47923014 0.36004695
0000b0 f5 a4 f5 be c1 3c 82 bf d0 80 19 3f fb 9d 57 be
       -0.47977415 -1.0174791 0.5996218 -0.21056359
0000c0 50 17 74 bf 13 95 b6 be ed de fa 3d 17 c5 57 3f
       -0.9534807 -0.3566061 0.12249551 0.8428511
0000d0 c2 d1 e2 3e 00 57 31 bf 9e 86 5c 3f 6b f2 da bd
       0.44300658 -0.69273376 0.8614291 -0.10690769
0000e0 6d 02 37 be 80 ad 82 3f c3 7d 4a bf 78 d4 4e 3d
       -0.17872019 1.0209198 -0.7909815 0.050495595
0000f0 2f e7 88 3d a0 84 b2 bf 99 cb 00 3f ce 23 b2 be
       0.0668472 -1.3946724 0.50310665 -0.34792942
000100 90 8f eb be 6a 29 8d bf d0 bd 44 bf bb 99 54 3e
       -0.46007967 -1.1028264 -0.7685213 0.20761769
000110 cd 9b 40 3e a5 75 8b 3f a4 46 71 3f 8a f5 2e 3f
       0.18809433 1.0895277 0.94248414 0.6834341
000120 2c a9 ea 3e 41 e4 c2 3e 82 1d 49 3d a5 aa a0 3f
       0.45832193 0.3806477 0.049100406 1.2552077
000130 6d cd 8c 3f 50 17 d9 3e f5 dc 47 3f 3e 9e fb 3e
       1.1000191 0.424006 0.7807153 0.49144167
000140 57 8b 9c bf 9b 2f f3 bd bf 52 4c bf b4 ef 02 3f
       -1.2230023 -0.118743144 -0.7981376 0.5114701
000150 f6 d3 c6 be 8c e6 84 3f 61 77 b2 3f ef ec 5b 3f
       -0.38833588 1.0382857 1.3942682 0.85908407
000160 aa 6a 0c be c9 35 3c bf 03 55 a3 3f fc 60 1d 3f
       -0.13712564 -0.7351957 1.2760319 0.6147611
000170 a3 ea 8d 3f 90 6a 9a bd 60 1d 91 3f 63 9f f1 be
       1.108723 -0.075398564 1.133709 -0.47191915
000180 05 3d eb be f8 55 61 bf 88 d1 39 3f e3 be 6d 3e
       -0.45944992 -0.880218 0.72585344 0.23217349
000190 e3 1e ef be fe 2c 8c be 1a a0 58 3d b5 ac f1 bc
       -0.46703252 -0.27378076 0.05288706 -0.029501298
0001a0 4d 43 ae 3d 96 3c c2 bf c4 48 6c 3f 82 6b 37 bf
       0.0850893 -1.5174739 0.9229853 -0.7164842
0001b0 8e fb 46 3f 74 b3 b4 3f 31 dd d7 bf 10 39 89 3f
       0.7772759 1.4117265 -1.6864377 1.0720539
0001c0 cf 70 e2 3e 79 5a ae 3e b3 4a de 3f c0 d2 1b bf
       0.4422669 0.340534 1.7366546 -0.60868454
0001d0 b2 39 85 3f 48 6c 1d 3f c0 6c 82 bf 0a d6 39 bf
       1.0408232 0.6149335 -1.0189438 -0.7259222
0001e0 e9 20 e9 bd 04 f1 99 3e 43 fe 8b 3f bb aa 8e bf
       -0.1138323 0.30066693 1.093697 -1.1145853
0001f0 35 2f c6 3e 2f a2 5c 3f cc 06 31 3c 0e e0 c5 bf
       0.3870789 0.8618497 0.010804843 -1.5459001

critic_network.2.weight f4 [128, 128]
000000 40 a7 60 bf cc cb d6 be e7 31 55 3e 95 7b f4 3d
       -0.87755203 -0.4195236 0.20819817 0.11937634
000010 71 6a b0 be 64 84 a3 be 03 ad 6e bf bb b4 71 bf
       -0.34456208 -0.31936944 -0.93232745 -0.944164
000020 2c 7b a4 3f 9e 04 85 bf a9 28 80 be 60 a3 b2 bf
       1.2850089 -1.0392034 -0.2503102 -1.3956108
000030 4d 69 5f 3f 8e 67 89 3f fe b8 e9 be 36 e1 9a 3f
       0.8727005 1.0734727 -0.4564895 1.2099979
000040 cf 77 95 bf 1e a1 f0 be dc 33 4f 3f e2 75 d6 3d
       -1.1677188 -0.46997923 0.80938506 0.10471703
000050 1c fa f5 be 23 fb 2d 3e 6b 6e b7 bc 3e 1d 23 3f
       -0.4804238 0.16990332 -0.022391519 0.63716495
000060 45 8d aa bf 1e 42 3a be 1d 53 4f bf 68 2c af bf
       -1.3324362 -0.18189284 -0.80986196 -1.3685427
000070 0a 0a d0 3e 01 89 c8 3e 7f a9 8a 3f a8 b1 0f bf
       0.4063266 0.39167026 1.0832976 -0.56130457
000080 15 91 2d bf 6c 2b 28 3f e5 71 1f 3f 16 d9 4e bf
       -0.677995 0.65691257 0.62283164 -0.80799997
000090 f9 b4 a2 bf bd a2 17 bf 78 f9 47 be d9 d2 5d bf
       -1.2711478 -0.59232694 -0.19528759 -0.86649853
0000a0 e6 7a cb be 63 e3 d3 bd ed 82 38 3e 5c 87 4f be
       -0.39742202 -0.10346105 0.18018694 -0.20266479
0000b0 b8 bd 40 3e ad 15 3c bf 79 f9 67 3f fe 53 e6 bf
       0.18822372 -0.73470575 0.9061504 -1.7994382
0000c0 f1 0a 0d 3f 74 41 19 3e e5 7b a7 be 6c 0c a8 be
       0.5509482 0.14966375 -0.32711712 -0.32821977
0000d0 5d 1c e8 3e 93 9e 35 3f 4e cb b2 bf 5f b4 3c 3f
       0.4533414 0.7094509 -1.3968294 0.73712724
0000e0 8e 46 54 bd 55 53 56 3f 5f 74 70 bf c0 9d 95 3e
       -0.0518251 0.83720905 -0.9392757 0.29221916
0000f0 41 de ba bf e1 7d 37 3f b5 06 44 3f fd 61 af 3e
       -1.4599077 0.7167645 0.76572734 0.34254447
000100 bd ef 10 3f 41 6f 96 3f 0d 1b 4a 3f 94 bf b6 3e
       0.5661581 1.1752702 0.78947526 0.35693038
000110 e4 dd 4c 3f d7 3b 8e 3f 06 60 39 bf 3d e0 6d be
       0.8002608 1.1112012 -0.72412145 -0.23230071
000120 cf 4c 82 3e 1c aa 25 be 66 82 1a 3e bf 45 a8 bf
       0.25449225 -0.16178173 0.15088806 -1.3146285
000130 df 12 50 bf 7b a2 90 3e 77 ee f8 be 23 5a 7e 3e
       -0.81278795 0.28248963 -0.48619434 0.24839072
000140 c8 45 b5 3f 46 b7 4c 3d 6f 5a a4 3f 92 18 12 bf
       1.416192 0.04997947 1.2840098 -0.5706874
000150 01 c4 40 3f a5 c0 56 3f bf 1c 78 bf f1 2b e4 bc
       0.7529908 0.838877 -0.96918863 -0.027852984
000160 24 8b 38 be ed 5f 92 3c ac a0 aa bf 8d ad 17 bf
       -0.18021828 0.017868007 -1.3330283 -0.5924919
000170 03 33 4a 3f c0 c9 45 be ab fa ff 3c a5 8a a4 3e
       0.7898409 -0.19315243 0.031247457 0.32137027
000180 8b 08 e7 be 15 7a 6a bf 07 0b 4b be f4 50 2a 3e
       -0.45123705 -0.9159253 -0.19828425 0.16632444
000190 53 b0 8a 3e 9a 47 ee 3d aa cb 17 bf f7 94 03 bf
       0.2708765 0.11634751 -0.5929514 -0.5139918
0001a0 cc fd 04 bf 23 a1 ba 3f 6d e5 92 bf de 6a f1 bd
       -0.51949763 1.4580425 -1.1476265 -0.117879614
0001b0 8d 2c ad bf 55 c9 b5 bf 77 62 77 3f 23 e6 71 bf
       -1.3529221 -1.4202067 0.9663462 -0.94491786
0001c0 41 c3 61 3f 9e 23 3c bf 46 24 55 bf f2 e9 b0 3f
       0.8818856 -0.7349185 -0.83258474 1.3821394
0001d0 be 87 28 bf 3a a0 37 bf cb e7 20 3f 5f b0 c6 3d
       -0.65832126 -0.7172886 0.6285369 0.09701609
0001e0 a0 31 ac 3e 4c 4a 85 be 39 b8 12 bf db cc 35 3f
       0.3363161 -0.26033247 -0.5731235 0.7101571
0001f0 21 a7 84 bf 31 01 1b 3e 35 63 1a 3f a8 fd bc 3e
       -1.0363504 0.15137173 0.6030763 0.36912274
000200 ac 43 9d bd df 59 0c bf 99 80 82 3e c0 5c a7 be
       -0.07678923 -0.5482463 0.25488737 -0.3268795
000210 ed 7d 5d bf 1e 08 44 be 43 10 63 bf 31 c5 01 bf
       -0.8652027 -0.19143721 -0.8869669 -0.50691515
000220 19 b8 90 3f 11 2b 8f bf 4b 3c 8c be fc bf 75 bf
       1.1306182 -1.1185018 -0.2738975 -0.9599607
000230 fc f8 52 3f 7a 24 67 3f 75 10 e2 3d e3 48 b4 3f
       0.8241117 0.90290034 0.11038295 1.4084743
000240 f3 52 27 bf ff 38 b8 3d 12 43 70 3f a4 93 2c 3e
       -0.65360945 0.08995246 0.9385234 0.16853195
000250 39 32 49 bd 2b 16 18 3e 4e 4e 99 be 98 5c 1d 3f
       -0.04912016 0.14852206 -0.29942554 0.6146941
000260 ad 43 82 bf 3a f7 e0 3c fc 7b 0f bf 85 10 b3 bf
       -1.0176903 0.027461637 -0.5604856 -1.3989416
000270 f6 12 be 3e a7 ae f3 bd 27 18 8b 3f f3 3c 4c bf
       0.3712384 -0.11898547 1.0866746 -0.797805
000280 1c 4f 52 bf 8a 74 91 3f db e8 60 3f c8 bb 82 be
       -0.8215196 1.136369 0.8785531 -0.2553389
000290 d6 60 ee be 84 4e 71 bf df ff 5c bd 49 fa af be
       -0.46558255 -0.9426043 -0.053954955 -0.3437064
0002a0 3d fb 43 be 26 d1 0b bf 15 7d 95 bd 5e f4 00 bf
       -0.19138809 -0.5461601 -0.07299248 -0.50372875
0002b0 36 7a 49 3f 8f db 51 bf c9 d4 80 3f f3 97 ae bf
       0.78702104 -0.81975645 1.0064937 -1.3640121
0002c0 d7 0c d5 3e bc cd 96 be 56 93 b7 bd 93 3b 36 bf
       0.4161136 -0.29453838 -0.08963649 -0.71184653
0002d0 9a 2a 03 3f eb cb 02 3f 93 19 38 bf 5b b8 4e 3e
       0.5123688 0.51092404 -0.71914023 0.20187514
0002e0 79 94 00 bd 47 13 55 3f ac ee 88 bf ef 82 05 3f
       -0.031391595 0.8323254 -1.0697837 0.52152914
0002f0 95 d1 96 bf ce bc 40 3f 33 4b 97 3f 93 d1 1e bd
       -1.1782709 0.75288093 1.1819824 -0.038774084
000300 e9 f2 d5 3e 09 a4 98 3f 8b b5 01 3f bb 68 1e 3e
       0.41786888 1.192506 0.5066764 0.15469639
000310 2d cb 9a 3f ef da 93 3f ca 9c 04 bf 94 74 05 3f
       1.2093254 1.1551188 -0.5180174 0.5213101
000320 51 93 eb 3e 3b 1a f2 be 9e fa 8e be 5f f7 d3 bf
       0.4601083 -0.47285637 -0.2792558 -1.6559867
000330 da 08 32 be 59 c8 81 3e 81 ed 97 be cb ba e5 bd
       -0.17386189 0.25348166 -0.2967339 -0.112172686
000340 62 cf ae 3f 8e f9 85 3e 3f 88 47 3f 9b 85 c5 3d
       1.3657038 0.26166958 0.7794227 0.09644624
000350 d3 c9 b8 3e 83 0f 66 3f 74 cb b4 bf 99 43 2b bf
       0.3609148 0.8986742 -1.4124589 -0.6690002
000360 e3 1b ae be 11 92 a9 3e 17 e6 1f bf 41 d7 c5 be
       -0.3400565 0.33119252 -0.62460464 -0.38640788
000370 b3 e0 68 3f 4e 31 4b bd 72 b9 86 be c6 c5 83 3e
       0.90967864 -0.049607567 -0.2631336 0.25736827
000380 98 d8 0e bf ab 38 79 bf d7 8e e3 be 3b b5 03 3f
       -0.55799246 -0.97352093 -0.44444916 0.5144841
000390 1c df 40 3f 6b 6a a0 bd 27 21 4b bf 4a a0 68 bf
       0.7534044 -0.078327976 -0.7934746 -0.9086958
0003a0 d2 7a 3d bf 22 f9 41 3f 34 53 14 be e3 69 24 3e
       -0.74015534 0.7577077 -0.14484864 0.16056018
0003b0 3b 84 95 be be 69 72 bf d9 45 50 3f 63 ba 3a bf
       -0.29202446 -0.946926 0.8135658 -0.72940654
0003c0 af 68 17 3f 71 30 9d be 06 dd a4 bf 70 83 88 3f
       0.5914411 -0.3070102 -1.2879951 1.0665112
0003d0 ab 02 1b bf 80 bc 61 bf 20 80 47 3f 18 9b ed 3e
       -0.60550946 -0.88178253 0.7792988 0.4640739
0003e0 e8 bb f0 3e 4c 06 de 3e 45 0f 79 bf 14 48 6c 3f
       0.4701836 0.4336418 -0.97288924 0.9229748
0003f0 ec e7 75 bf 98 e0 ab be 5c 34 bc 3d 1c df 9f 3f
       -0.9605701 -0.3356979 0.09189674 1.2489963

critic_network.2.bias f4 [128]
000000 a7 6d 34 3f a1 a3 64 3f f4 28 50 3f 1d c9 34 bf
       0.70479816 0.8931218 0.8131249 -0.70619375
000010 30 69 38 3f 58 84 7a 3f 5b b2 3d bf 40 8f 70 bf
       0.72035503 0.9785819 -0.74100274 -0.9396858
000020 c4 b4 2d 3f 91 e0 52 bf 80 63 6d 3f 38 df 67 3f
       0.6785395 -0.8237391 0.9272995 0.9057498
000030 ba 3c 73 bf a4 d4 33 bf 4c 02 19 3f ff 1e 5b 3f
       -0.95014536 -0.7024634 0.5976913 0.8559417
000040 94 8c 3f 3f 65 97 17 3f 26 d0 7f bf 1c ec 6b 3f
       0.7482388 0.59215385 -0.99926984 0.9215715
000050 6c 03 59 bf a3 9b 2f 3f 08 04 3e bf 0b a6 4a 3f
       -0.84770846 0.6859686 -0.742249 0.7915961
000060 6b f1 28 bf e0 d5 4b bf 42 b4 28 bf 23 69 2c 3f
       -0.65993375 -0.7962322 -0.6590005 0.67347926
000070 6c df 45 3f c2 22 24 3f 06 67 5a bf dc eb 4c bf
       0.7729404 0.64115536 -0.8531345 -0.8004739
000080 cb 16 79 bf f6 f5 2b 3f 41 c1 4a 3f 7e a9 51 bf
       -0.97300404 0.6717218 0.7920113 -0.8189925
000090 85 f5 5c 3f 09 9e 66 bf 76 ef 22 3f d8 5b 3d bf
       0.86312133 -0.9008489 0.6364664 -0.7396827
0000a0 5c 5d 47 bf a4 57 53 3f 4e 8a 5e 3f ae e3 6e 3f
       -0.7787683 0.82555604 0.86929786 0.9331616
0000b0 19 c1 4e 3f fc 51 0e 3f 58 05 48 bf c2 b7 58 bf
       0.80763394 0.5559385 -0.78133154 -0.8465539
0000c0 9f 54 43 bf 5c 0a 5e bf 5b 4d 70 bf 2e 12 6f bf
       -0.76300997 -0.8673456 -0.93868035 -0.93387115
0000d0 f0 b7 95 bf c9 87 3a 3f c7 ab 40 3f f9 c8 68 bf
       -1.1696758 0.7286344 0.7526211 -0.9093166
0000e0 6a 46 16 bf 78 c9 66 3f c1 d6 67 bf fe 4c 53 3f
       -0.58701193 0.90151167 -0.90562063 0.82539356
0000f0 7e de 6d 3f 28 dd 54 bf f3 de 4a bf ce b9 53 3f
       0.9291762 -0.8314996 -0.79246444 0.8270539
000100 04 24 81 3f ba 1a 40 bf 96 9b 66 bf c9 ae 2f bf
       1.0089116 -0.7504078 -0.90081155 -0.68626076
000110 70 e4 3c 3f 7c 1f 62 3f fa 0a 65 bf e9 a2 54 3f
       0.7378607 0.8832929 -0.89469874 0.8306108
000120 e2 f6 38 3f 5f 10 66 bf 04 2e 82 bf b4 b5 29 bf
       0.72251713 -0.8986873 -1.0170293 -0.6629288
000130 2b 3a 3f bf ad b7 4a bf 3e 55 59 bf d0 14 80 bf
       -0.7469813 -0.79186517 -0.84895694 -1.0006351
000140 3c 76 50 bf 2e af 69 bf 8b 13 36 3f 51 e4 29 bf
       -0.8143041 -0.9128293 0.7112357 -0.6636401
000150 8b 76 55 3f 9c 7c 3d bf cf b9 7d 3f 33 31 67 3f
       0.8338401 -0.74018264 0.99111646 0.9030945
000160 85 5d 3a 3f 29 ba 53 3f 97 36 22 bf 36 8b 46 bf
       0.7279895 0.8270593 -0.6336455 -0.7755617
000170 0c ec 61 3f 56 a6 35 bf 33 24 25 bf 3a 48 83 3f
       0.88250804 -0.70956933 -0.6450836 1.0256417
000180 47 41 31 3f 6c 0a 47 bf 7c 83 56 bf 31 d5 57 bf
       0.6924023 -0.7775028 -0.8379438 -0.8430968
000190 5a 68 4d 3f 8a 02 81 3f f7 fc 7a 3f 1f 57 53 bf
       0.8023735 1.00789 0.98042244 -0.8255481
0001a0 a7 e4 47 bf 81 07 65 3f f8 a8 4d bf a1 88 87 bf
       -0.7808327 0.89464575 -0.8033595 -1.0588571
0001b0 3e 48 7a bf 14 b2 4a 3f 4d 0a 5e bf ae d9 68 bf
       -0.9776648 0.79177976 -0.8673447 -0.9095715
0001c0 d8 b4 55 3f 48 8c 6b 3f af da 54 3f 87 5b 6d 3f
       0.8347907 0.9201093 0.83146185 0.92717785
0001d0 f1 d2 54 bf 21 1f 30 bf aa 79 59 bf 2b 76 6b bf
       -0.8313437 -0.687975 -0.8495127 -0.91977185
0001e0 dd 46 21 bf 0f 23 57 bf e0 8c 4a 3f 71 c5 82 bf
       -0.62998754 -0.8403787 0.7912121 -1.0216504
0001f0 5e 38 5c bf db 01 34 3f e9 98 7d 3f 16 bd 69 3f
       -0.8602351 0.7031533 0.9906145 0.9130415

critic_network.4.weight f4 [1, 128]
000000 a1 77 cc c1 97 4d cd c1 7e b2 cd c1 7a 44 cc 41
       -25.558413 -25.662886 -25.712154 25.533436
000010 bf 38 cd c1 e2 d2 cc c1 7f 46 cd 41 0f 9d cc 41
       -25.652708 -25.60297 25.659422 25.576689
000020 48 6c cd c1 51 62 cd 41 fd 25 cd c1 4a 06 cd c1
       -25.677872 25.673006 -25.643549 -25.62807
000030 df e5 cc 41 80 93 cd 41 7e d1 cc c1 cc 76 cd c1
       25.612242 25.697021 -25.602291 -25.683006
000040 79 39 cc c1 3e bd cc c1 ef d8 ce 41 89 fe cc c1
       -25.528063 -25.592403 25.855925 -25.624285
000050 6b 7e cd 41 a9 93 cc c1 63 5e cd 41 4e 10 cd c1
       25.686728 -25.5721 25.671087 -25.632961
000060 61 50 cc 41 d8 68 cc 41 e1 5e cc 41 ca 89 cd c1
       25.539248 25.551193 25.546328 -25.69228
000070 a6 55 cd c1 7b 76 cc c1 4e a4 cd 41 a3 0c cd 41
       -25.66682 -25.557852 25.705227 25.63117
000080 3a 2b cd 41 83 5d cc c1 ae 96 cd c1 5a 26 cd 41
       25.646107 -25.54566 -25.698574 25.643726
000090 5a 2b cd c1 c8 05 cc 41 be 6b cd c1 c5 63 cd 41
       -25.646168 25.502823 -25.677608 25.673716
0000a0 52 5b cd 41 4d c1 cd c1 21 e8 cc c1 6d 18 cd c1
       25.66959 -25.719385 -25.613344 -25.636927
0000b0 78 62 cd c1 a5 9f cc c1 f2 b0 cd 41 29 eb cd 41
       -25.67308 -25.577951 25.7114 25.739824
0000c0 23 9c cd 41 4b 7e cd 41 be 61 cd 41 e3 a1 cd 41
       25.701239 25.686666 25.672726 25.704046
0000d0 08 b0 cc 41 81 0b cd c1 77 ae cd c1 f3 75 cc 41
       25.585953 -25.630617 -25.710188 25.557592
0000e0 34 b5 cc 41 cf f5 cc c1 d8 ce cd 41 e5 0c cd c1
       25.588478 -25.620024 25.725998 -25.631296
0000f0 68 80 cd c1 77 ac cd 41 06 cb cd 41 1e 75 cd c1
       -25.687698 25.709211 25.724133 -25.682186
000100 04 c8 cc c1 07 a5 cd 41 01 15 cd 41 17 e5 cc 41
       -25.597664 25.70558 25.635256 25.61186
000110 ce 15 cd c1 bd 5a cd c1 3e e0 cc 41 7e 58 cd c1
       -25.635647 -25.669306 25.609493 -25.66821
000120 d0 b6 cc c1 b8 e4 cc 41 59 f9 cc 41 45 73 cc 41
       -25.589264 25.61168 25.621752 25.556284
000130 a0 e0 cc 41 d4 ae cd 41 06 89 cd 41 30 92 cd 41
       25.60968 25.710365 25.691906 25.69638
000140 41 44 cd 41 ad 31 cd 41 58 2f cd c1 1e ae cc 41
       25.658327 25.649256 -25.648117 25.585018
000150 a8 9e cc c1 fe d3 cc 41 35 a5 cd c1 70 15 cd c1
       -25.577469 25.603512 -25.705667 -25.635468
000160 5f f6 cc c1 ac f9 cc c1 d1 c6 cd 41 52 66 cd 41
       -25.620298 -25.62191 25.722078 25.674961
000170 24 24 cd c1 d4 a3 cc 41 8b e1 cc 41 31 f5 cc c1
       -25.642647 25.579994 25.610128 -25.619722
000180 34 d3 cc c1 57 02 cd 41 c7 f0 cc 41 58 aa cd 41
       -25.603127 25.626143 25.617567 25.708176
000190 15 9a cc c1 e5 57 cd c1 1f c3 cd c1 bf ee cc 41
       -25.575235 -25.667917 -25.720274 25.616575
0001a0 01 32 cd 41 de f3 cc c1 f6 73 cd 41 d4 09 cd 41
       25.649416 -25.619076 25.681622 25.629799
0001b0 32 30 cd 41 6f d4 cc c1 5a eb cc 41 f9 6f cd 41
       25.648533 -25.603727 25.614918 25.679674
0001c0 28 6f cd c1 28 e6 cc c1 02 41 cc c1 25 d7 cd c1
       -25.679276 -25.612381 -25.531742 -25.730051
0001d0 b2 17 cd 41 3d 4e cd 41 cd e4 cc 41 71 d9 cc 41
       25.63657 25.663202 25.61172 25.606173
0001e0 49 59 cc 41 c0 73 cd 41 3a 27 cd c1 49 20 cd 41
       25.543596 25.681519 -25.644154 25.640764
0001f0 64 d6 cc 41 75 9c cd c1 76 22 cd c1 d0 7a cd c1
       25.604683 -25.701395 -25.641827 -25.684967
