test_uav/model/actor_model11-10-2023_19-03-22/350.pt (torch, 79535 bytes, 7 tensors)

logstd f4 [4]
0	0xbfed0215	-1.851626
1	0xbfc2c140	-1.5215225
2	0xc00d837d	-2.2111504
3	0xc038dc62	-2.888451

mean_net.0.weight f4 [128, 17]
0	0xbe2210e9	-0.15826763
1	0xbdc742f0	-0.09729564
2	0x3e9dba10	0.30806017
3	0xbc94d08b	-0.018165847
4	0xbe908b9a	-0.28231508
5	0xbdc45759	-0.09586973
6	0xbeed67c2	-0.46368223
7	0xbe349b7c	-0.17637438
8	0xbddff169	-0.10934717
9	0x3ef61538	0.48063064
10	0xbf57af2f	-0.84251684
11	0x3df855b9	0.12125725
12	0xbe514d77	-0.20439707
13	0x3d2203dd	0.039554466
14	0xbe8bfc4e	-0.2734093
15	0x3e201d79	0.15636243
16	0x3e5ae4f6	0.21376404
17	0xbdf1e41f	-0.11811089
18	0xbe8e110a	-0.27747375
19	0xbe4de3b7	-0.20106398
20	0x3eb48c2f	0.35263202
21	0x3e452251	0.19251372
22	0xbe4ae917	-0.19815479
23	0x3f0adbca	0.5424162
24	0xbf0bcaaf	-0.54606146
25	0x3e2c8cdd	0.1685061
26	0xbdda4089	-0.1065684
27	0xbe4bc7eb	-0.19900481
28	0xbf3889f7	-0.7208552
29	0x3e9c55a8	0.305341
30	0x3eaaa16f	0.3332629
31	0x3ecd73f0	0.40127516
32	0xbd8248b9	-0.06361527
33	0x3e1b81a6	0.15186176
34	0xbedaebf9	-0.42758158
35	0xbe3c37f5	-0.18380721
36	0x3d37f75e	0.044913642
37	0xbc5fdcd2	-0.0136634875
38	0xbea55bbf	-0.3229656
39	0x3e63b073	0.22235279
40	0xbe9096e4	-0.2824012
41	0xbe0a1551	-0.13484694
42	0x3ea02f0e	0.312859
43	0x3de6e531	0.112741835
44	0x3e14fa59	0.14548625
45	0xbf4bc621	-0.79599196
46	0x3eff50a4	0.4986621
47	0x3ddee942	0.10884334
48	0x3ae23250	0.0017257426
49	0xbe7fcc95	-0.24980386
50	0xbc66c641	-0.014085353
51	0x3dce7901	0.100816734
52	0x3f1fbe2f	0.6239957
53	0x3d5fb730	0.05461806
54	0x3d8aaf54	0.067717224
55	0x3e794f8c	0.24346751
56	0x3eeac950	0.45856714
57	0x3e1771aa	0.14789453
58	0x3d1fde15	0.039030153
59	0xbd48472e	-0.048896007
60	0x3f18888c	0.59583354
61	0x3f7c1ca6	0.98481214
62	0xbe9a138e	-0.30093044
63	0xbe90002f	-0.2812514
64	0x3d72e3ce	0.059299283
65	0x3e503e84	0.20336348
66	0x3e05ff0c	0.13085574
67	0xbdc14e14	-0.0943872
68	0xbe89b29a	-0.26894075
69	0xbe10c8e3	-0.14139132
70	0xbe6415f7	-0.22274004
71	0xbe74d89d	-0.23910756
72	0xbe7682b4	-0.24073297
73	0xbed9917d	-0.4249381
74	0xbda859ba	-0.08220239
75	0x3ea5ec52	0.3240686
76	0x3f073181	0.5280991
77	0xbe8fac25	-0.28061023
78	0xbf5882ef	-0.8457479
79	0x3e85c5e4	0.2612754
80	0x3f734856	0.9503225
81	0xbe2e1e02	-0.17003635
82	0xbe6b9796	-0.23007044
83	0x3e05c955	0.13065083
84	0x3cbce663	0.023059076
85	0x3ea84b74	0.32870066
86	0xbd01edf8	-0.031721085
87	0xbdd37e9d	-0.10326884
88	0xbdd88484	-0.1057215
89	0xbdb6e151	-0.089296944
90	0xbe0d2116	-0.13782153
91	0xbea3163f	-0.3185291
92	0xbdee6db5	-0.11642019
93	0x3c8b800d	0.017028833
94	0xbe90bfd5	-0.28271356
95	0xbee0e351	-0.4392343
96	0xbf86397e	-1.0486295
97	0x3db4cf83	0.08828642
98	0x3dfec90b	0.1244069
99	0x3dc926bb	0.098218404
100	0xbe08b785	-0.13351257
101	0x3eeef54b	0.4667152
102	0xbea3f9cd	-0.3202652
103	0x3e06ceff	0.131649
104	0x3e79ce09	0.24395002
105	0xbeb44e88	-0.35216165
106	0x3da5e006	0.0809937
107	0xbe2cf812	-0.16891506
108	0xbdb331b6	-0.08749716
109	0xbc8fc5d2	-0.017550383
110	0xbbb2cfe1	-0.00545691
111	0x3ee1a4aa	0.4407094
112	0x3ef5c631	0.4800277
113	0x3edd2696	0.431935
114	0xbd546467	-0.051853564
115	0xbe3783e0	-0.179214
116	0x3ed961ca	0.4245742
117	0x3dd2a170	0.10284698
118	0x3ed81bdc	0.42208755
119	0x3e1d5e6a	0.15368047
120	0xbe80382f	-0.25042865
121	0x3de8229e	0.11334728
122	0xbdeaef05	-0.114713706
123	0xbdce64a5	-0.1007779
124	0x3d0ea39c	0.034824
125	0x3e15ef19	0.1464199
126	0x3e80128c	0.2501415
127	0x3dbc8eca	0.09206922
128	0x3e509afe	0.20371625
129	0x3f84967a	1.0358422
130	0xbe1cee72	-0.15325335
131	0x3d5c5f6e	0.053801946
132	0x3caf2065	0.021377752
133	0x3e0e39d6	0.1388925
134	0xbda4a51b	-0.08039304
135	0xbec71ad3	-0.38887653
136	0xbe7ce474	-0.24696523
137	0x3e34f1ee	0.17670414
138	0x3d993d43	0.07482388
139	0xbe8e0099	-0.2773483
140	0xbe3beb49	-0.18351473
141	0x3eacedae	0.33775085
142	0x3db9f28f	0.090794675
143	0xbe823030	-0.2542739
144	0xbf3b7645	-0.7322734
145	0x3e0870f2	0.13324335
146	0xbe9e2bda	-0.3089283
147	0xbfa397d3	-1.2780708
148	0xbf0b2650	-0.54355335
149	0xbd202381	-0.03909636
150	0x3e29c71b	0.16579859
151	0xbe206ae6	-0.15665779
152	0x3d93b5fb	0.072124444
153	0x3e057bea	0.1303555
154	0x3e888fa0	0.26672077
155	0x3bde4700	0.006783366
156	0xbafd7c16	-0.0019339349
157	0x3d36da7e	0.044641964
158	0x3dbf3d59	0.09337873
159	0x3e8a1fa5	0.26977268
160	0x3e6242b5	0.22095759
161	0xbda4c21c	-0.08044836
162	0xbe19fdab	-0.15038173
163	0x3ed64753	0.4185129
164	0x3ebb6091	0.36597112
165	0x3e771ff0	0.24133277
166	0xbeca099a	-0.3946045
167	0xbe9364d9	-0.28787878
168	0x3e379772	0.17928866
169	0xbef03f00	-0.46923065
170	0x3c9a2a4a	0.018818993
171	0xbe44269f	-0.19155358
172	0xbe6121ba	-0.21985522
173	0xbd27068b	-0.040777724
174	0xbbf3358d	-0.0074221552
175	0x3d9f511a	0.07779141
176	0xbef5dc2a	-0.48019534
177	0x3ea403ba	0.32034093
178	0x3e0cec09	0.13761915
179	0xbe72b8eb	-0.23703353
180	0x3e9affcc	0.30273283
181	0xbe9fc566	-0.3120529
182	0xbe79ea7c	-0.24405855
183	0xbcd96a6b	-0.026540002
184	0x3e464e26	0.19365749
185	0x3dc2bdba	0.09508844
186	0x3ef2e950	0.47443628
187	0x3e772940	0.2413683
188	0xbe272939	-0.16324319
189	0x3e6188c2	0.22024825
190	0x3d257a7f	0.040400025
191	0xbe8f8957	-0.2803447
192	0x3f102866	0.56311643
193	0x3ea493aa	0.3214391
194	0xbeb40703	-0.351616
195	0x3d783184	0.060594097
196	0xbd82290f	-0.063554876
197	0x3fa97bb2	1.3240874
198	0xbebe9128	-0.3722012
199	0xbe9d9ecc	-0.30785215
200	0x3d9c5bfc	0.07634732
201	0x3c26277d	0.010141251
202	0xbe0ec411	-0.13941981
203	0xbdad8629	-0.08472855
204	0x3df18c64	0.117943555
205	0xbf12883e	-0.5723914
206	0x3d240bf2	0.040050454
207	0xbd2a30a9	-0.041550312
208	0xbf09e949	-0.5387159
209	0xbeb5cc79	-0.35507563
210	0x3e8a40a9	0.27002457
211	0x3e05891c	0.13040584
212	0x3e0d9729	0.13827194
213	0x3dbee2bb	0.09320589
214	0x3f807e40	1.0038528
215	0x3f9bdce0	1.2176781
216	0x3f074ef4	0.5285485
217	0xbe180566	-0.1484581
218	0x3cf211bd	0.029549474
219	0x3dbabdee	0.091182575
220	0x3e3660a5	0.17810304
221	0x3ee56e57	0.44810745
222	0xbdf2f17e	-0.11862467
223	0x3e7bbc2a	0.24583498
224	0x3dec78a7	0.1154645
225	0x3d07354b	0.03300981
226	0x3f14a5f2	0.5806571
227	0xbe8029de	-0.25031942
228	0xbdc13340	-0.09433603
229	0x3eb31210	0.34974718
230	0xbd1abd4f	-0.037778195
231	0xbf92e48b	-1.1475996
232	0xbf03a9d8	-0.51431036
233	0x3e807311	0.2508779
234	0x3e5a04d2	0.21290901
235	0xbd498ee4	-0.049208537
236	0xbe7f20a0	-0.24914789
237	0x3e4ff1ea	0.20307127
238	0x3eaa9eab	0.3332418
239	0x3d92e10e	0.07171832
240	0x3dde9ad8	0.10869378
241	0x3c65d102	0.014026882
242	0x3db5cdfc	0.08877179
243	0x3d84228f	0.06451904
244	0xbb6df6cf	-0.003631044
245	0x3c875cc2	0.016523723
246	0xbed9d594	-0.4254576
247	0x3e56ce7d	0.20977207
248	0x3de6c84d	0.11268673
249	0x3f0c99d9	0.5492225
250	0xbf11c024	-0.5693381
251	0xbea8a6ea	-0.32939845
252	0x3ea22c00	0.31674194
253	0x3e189a62	0.14902642
254	0xbe162a1f	-0.14664505
255	0x3ecd79d6	0.40132016

mean_net.0.bias f4 [128]
0	0x3e02e481	0.1278248
1	0x3e21dd56	0.15807089
2	0xbdbd0b88	-0.09230715
3	0x3e9bb1c2	0.30409056
4	0x3cfa10cb	0.030525586
5	0x3d175eb8	0.036955565
6	0x3e681f70	0.22668242
7	0x3ecff163	0.4061385
8	0x3e9f16a9	0.31071976
9	0xbe1dc93c	-0.15408796
10	0xbe82c132	-0.2553802
11	0xbd9dd170	-0.07705963
12	0xbd88d7e0	-0.066818
13	0xbdbde403	-0.092720054
14	0x3e3ef56a	0.18648306
15	0xbe278ce7	-0.16362344
16	0x3dcf2e25	0.10116223
17	0xbd8978ea	-0.06712516
18	0x3e525b15	0.20542558
19	0x3d96f780	0.07371426
20	0xbe118f6f	-0.14214872
21	0xbcadcb9f	-0.021215258
22	0x3d850ff5	0.06497184
23	0xbe44cc1f	-0.19218491
24	0xbdcaccff	-0.09902381
25	0xbebb455f	-0.36576363
26	0x3e893364	0.2679702
27	0x3d82afed	0.063812114
28	0xbd88e0e3	-0.06683519
29	0x3caae4ae	0.020860996
30	0xbe09e730	-0.13467097
31	0x3d5799e0	0.05263698
32	0xbdd4f293	-0.1039783
33	0x3d85d01f	0.065338366
34	0xbe2e8954	-0.17044574
35	0x3e6bf64b	0.23043172
36	0x3d5e6574	0.054295972
37	0x3ba96bb0	0.005170308
38	0x3e5747a7	0.21023427
39	0xbe1b6bcd	-0.15177841
40	0x3ca4f0f3	0.020134425
41	0x3e1bef46	0.15227994
42	0xbe84491e	-0.25837034
43	0xbb803d3f	-0.003913551
44	0x3eed457d	0.46342078
45	0x3e0b92cf	0.13630222
46	0xbe888f44	-0.26671803
47	0xbc6a9baf	-0.014319344
48	0x3d95332a	0.072851494
49	0x3ea7cbee	0.32772774
50	0x3e77c480	0.24196053
51	0x3d64aecf	0.055830773
52	0x3deaeb6c	0.114706844
53	0x3d9b4efc	0.075834244
54	0xbe9487e6	-0.29009932
55	0xbe91da8d	-0.28487054
56	0xbe37cfb3	-0.17950325
57	0xbec80ecb	-0.39073786
58	0xbe426387	-0.18983279
59	0x3e90241b	0.28152546
60	0xbcbcc239	-0.023041831
61	0x3e258fcc	0.16168135
62	0xbeaa2698	-0.3323257
63	0xbe294745	-0.16531093
64	0x3db1bc7b	0.08678528
65	0x3def449c	0.11683008
66	0x3e8c2b66	0.2737686
67	0x3d82b43e	0.06382035
68	0x3d0c0e48	0.034193307
69	0xbe6f09f1	-0.23343636
70	0xbe7ff2fa	-0.24995032
71	0x3de5fcd1	0.112298615
72	0xbd8d372e	-0.0689529
73	0xbe41b658	-0.18917215
74	0x3e91b30a	0.28456908
75	0xbdf2f38c	-0.11862859
76	0xbe65e643	-0.22451119
77	0xbec550a0	-0.38538074
78	0x3d867c81	0.06566716
79	0x3d09ec61	0.033672694
80	0xbd94c365	-0.07263831
81	0x3d89f2a3	0.067357324
82	0x3dc7910f	0.097444646
83	0x3e11d58a	0.14241615
84	0x3e2dd32a	0.16975084
85	0x3d13dad8	0.036097378
86	0xbea33bef	-0.31881663
87	0xbddd19fe	-0.10795973
88	0x3c81ff70	0.015868872
89	0x3df28b18	0.11842936
90	0x3def7d8d	0.11693869
91	0x3b68beb2	0.0035514054
92	0xbc9f5e5b	-0.019454172
93	0xbd657720	-0.05602181
94	0x3dbbc769	0.09168894
95	0x3e83c28a	0.2573436
96	0x3eaf8ba2	0.3428622
97	0xbd0efa54	-0.0349067
98	0x3b2e9b53	0.0026642873
99	0xbe48110c	-0.19537753
100	0x3dae293e	0.0850396
101	0xbdd08209	-0.10181052
102	0xbd02cf03	-0.031935703
103	0x3ec92435	0.39285436
104	0x3d5baf84	0.05363418
105	0x3d89ead4	0.06734243
106	0x3efb6a77	0.49104664
107	0x3d238ef4	0.039931253
108	0xbc122940	-0.008920968
109	0xbb473728	-0.0030397866
110	0x3f02aa7c	0.5104139
111	0xbeb2fb9a	-0.34957582
112	0x3e4f9c0d	0.20274372
113	0x3d486b5b	0.048930507
114	0x3e37b753	0.17941026
115	0x3eca39f0	0.39497328
116	0xbd9bd53a	-0.07609029
117	0xbd3dc378	-0.04632899
118	0xbd64284c	-0.055702493
119	0x3e5674fd	0.20943065
120	0x3e7e0a60	0.24808645
121	0x3ebbca2c	0.36677682
122	0xbe8989c9	-0.26862934
123	0xbd2c24fc	-0.04202746
124	0xbd7be515	-0.061497767
125	0xbdcf09e7	-0.101093106
126	0x3e3c23cd	0.18373032
127	0x3d7369d3	0.059427094

mean_net.2.weight f4 [128, 128]
0	0x3c2ddb47	0.010611362
1	0xbda8ed99	-0.08248443
2	0x3e10f34a	0.14155307
3	0xbde80d57	-0.113306694
4	0xbd8a4c88	-0.067528784
5	0x3ea1317b	0.31483063
6	0xbe9a258d	-0.30106774
7	0xbddb7129	-0.10714943
8	0xbe25c362	-0.16187814
9	0x3ae36d01	0.0017351211
10	0x3d385f91	0.045013014
11	0x3defbdf8	0.117061555
12	0xbdac7fa9	-0.08422787
13	0x3e1537fb	0.14572136
14	0xbd5fa34f	-0.054599103
15	0x3e80cc32	0.2515579
16	0xbe5ebcac	-0.2175166
17	0xbcdd318d	-0.027001167
18	0x3de3ca88	0.11122614
19	0xbcd827ae	-0.026386108
20	0xbe5fa89c	-0.21841663
21	0x3e16c01c	0.14721721
22	0xbe5cd3e2	-0.21565202
23	0xbb822978	-0.0039722286
24	0x3df70416	0.12061326
25	0x3e339975	0.17539008
26	0xbd959af9	-0.07304949
27	0x3d3a74b3	0.04552145
28	0xbebead53	-0.3724161
29	0xbe063926	-0.13107738
30	0x3f002903	0.5006258
31	0x3d345c39	0.044033263
32	0x3dd5888c	0.10426435
33	0xbc985fa2	-0.018600289
34	0x3e111f80	0.14172173
35	0xbdccc22c	-0.09997973
36	0xbecb643e	-0.39724916
37	0x3d0aa567	0.033849146
38	0xbdcfabb8	-0.101401746
39	0x3d9918fc	0.074754685
40	0x3e2c4997	0.16824947
41	0xbe8e595a	-0.27802545
42	0x3d9e9e3c	0.077450246
43	0xbe0f8b09	-0.14017881
44	0xbe8d1bf3	-0.27560386
45	0x3e0fc1fe	0.14038846
46	0xbeb991fa	-0.36244184
47	0x3e7f396f	0.24924253
48	0x3e9a0864	0.30084527
49	0xbe8499b1	-0.25898507
50	0xbdc8f13e	-0.09811638
51	0x3e803ccd	0.25046387
52	0x3e33142d	0.17488165
53	0xbc8d1811	-0.01722339
54	0x3e0db3fa	0.13838187
55	0xbe224b1d	-0.15848966
56	0x3d86860b	0.065685354
57	0x3e9a97eb	0.3019403
58	0x3e00639d	0.12538
59	0x3d3ee27e	0.04660272
60	0x3c5e233f	0.013558208
61	0xbe2a9c2c	-0.16661137
62	0x3cf175c4	0.0294751
63	0xbd60f99d	-0.05492555
64	0xbe3b95e3	-0.18318896
65	0xbdbfabfd	-0.09358976
66	0x3db5a76c	0.08869824
67	0x3e816c74	0.25278056
68	0x3e09192f	0.13388513
69	0x3d851170	0.064974666
70	0x3f12c136	0.57326066
71	0xbdabd3b2	-0.08389987
72	0x3e1e8f49	0.15484346
73	0xbd3c45a7	-0.045964863
74	0x3d6f1b21	0.05837548
75	0x3d3f8c9e	0.046764962
76	0x3f008837	0.5020785
77	0x3decea2e	0.11568104
78	0xbed28e77	-0.41124317
79	0x3df6ddda	0.120540336
80	0x3cfdec0f	0.03099635
81	0xbe39eb5e	-0.18156192
82	0xbd60a400	-0.054843903
83	0x3e01fba4	0.1269365
84	0xbb7bc454	-0.0038416581
85	0xbdcd1bd1	-0.10015071
86	0x3db06d17	0.08614557
87	0x3eec95e5	0.4620811
88	0x3cf5a4d0	0.029985815
89	0x3d592a05	0.05301859
90	0xbdef5970	-0.11686981
91	0xbd3234b0	-0.043507278
92	0xbe75b5d3	-0.23995142
93	0xbdb6ed62	-0.08931996
94	0x3e7c7d15	0.2465709
95	0xbdb0e3c3	-0.08637192
96	0xbef15df8	-0.47142005
97	0xbe221bc3	-0.15830903
98	0xbe91fa1d	-0.28511134
99	0x3d422f92	0.047408648
100	0xbe75300d	-0.23944111
101	0x3d518194	0.051148966
102	0x3df9a350	0.121893525
103	0xbeb9a291	-0.3625684
104	0x3ebb2145	0.3654882
105	0xbd166d94	-0.036725596
106	0xbe79a34f	-0.24378704
107	0xbe4d1953	-0.20029192
108	0xbea2c473	-0.31790504
109	0x3ed29537	0.41129467
110	0xbe3997ab	-0.18124263
111	0xbbdd86c4	-0.00676045
112	0xbe1aa890	-0.15103364
113	0x3e3fe2e2	0.18738893
114	0xbea23ab1	-0.31685403
115	0xbe76ba23	-0.24094443
116	0xbe8d0cdc	-0.27548873
117	0x3e5816f1	0.21102501
118	0xbe124f00	-0.14287949
119	0x3c88186b	0.016613206
120	0xbece7084	-0.40320218
121	0xbec8a582	-0.39188772
122	0xbd215152	-0.039384194
123	0xbedd8732	-0.43267208
124	0x3efd5f78	0.494869
125	0x3dc0d125	0.09414891
126	0xbe599169	-0.21246876
127	0x3dfd1698	0.12357825
128	0xbe1b1e5f	-0.15148304
129	0x3e4a0b23	0.19730811
130	0x3efe4c2f	0.49667498
131	0xbe0f9e70	-0.14025283
132	0x3d6165de	0.05502879
133	0x3c50eccf	0.012751772
134	0xbec12398	-0.37722468
135	0x3e1daf0f	0.15398811
136	0x3da3dc3d	0.080009915
137	0xbdefc0e9	-0.117067166
138	0xbccb525b	-0.024819544
139	0xbc0f1de1	-0.008735151
140	0xbdea48af	-0.114396445
141	0x3bb2ea3c	0.005460052
142	0xbead1d19	-0.33811262
143	0xbe04ec4b	-0.12980764
144	0x3c2655b3	0.010152268
145	0xbe68ac08	-0.22721875
146	0xbd8d4232	-0.068973914
147	0xbd6f4f75	-0.058425386
148	0xbe274591	-0.16335131
149	0xbe18770e	-0.14889166
150	0x3d9784aa	0.073983505
151	0x3dd364f4	0.1032199
152	0x3e34b7d6	0.17648253
153	0x3dc02811	0.09382642
154	0xbe4671fb	-0.19379418
155	0x3e255457	0.16145454
156	0xbe902934	-0.28156435
157	0xbe00deff	-0.12585066
158	0x3d5b9062	0.05360449
159	0xbf045262	-0.51688206
160	0x3e93709a	0.28796846
161	0xbe968dd3	-0.29405078
162	0x3ee173cb	0.44033656
163	0xbe9ae492	-0.3025251
164	0xbde408f0	-0.11134517
165	0x3ebfcb84	0.37459958
166	0x3d3641d0	0.044496357
167	0x3e6028dc	0.21890587
168	0x3e4fb31d	0.2028317
169	0xbe94f950	-0.2909646
170	0xbe346475	-0.17616446
171	0xbf03c9f3	-0.51480025
172	0xbe067d2a	-0.13133684
173	0xbe980fc8	-0.2969954
174	0xbd4789c2	-0.04871536
175	0x3cc9abdb	0.02461808
176	0x3e61e19f	0.22058724
177	0x3e754673	0.23952655
178	0xba174375	-0.0005770245
179	0x3bee2e7f	0.0072687264
180	0xbe3e75a0	-0.18599558
181	0x3ebba662	0.36650378
182	0x3d2d0173	0.04223771
183	0x3e08f7ef	0.13375829
184	0x3f041ad5	0.5160344
185	0x3daff4c5	0.08591608
186	0xbeb6d382	-0.35708243
187	0xbe54dba5	-0.20786913
188	0x3eb14aeb	0.3462747
189	0xbe823400	-0.25430298
190	0xbde00f4c	-0.10940418
191	0x3e4f5605	0.20247658
192	0x3c989d2e	0.018629637
193	0xbe25a958	-0.16177881
194	0xbe240809	-0.1601869
195	0x3db72496	0.08942525
196	0xbd07e497	-0.033176985
197	0xbdbe9473	-0.09305658
198	0x3e9827c5	0.29717842
199	0xbd2bd3ab	-0.04194991
200	0x3da2938d	0.07938299
201	0x3db39d58	0.08770245
202	0xbe1ae2ca	-0.15125576
203	0x3e08c951	0.13358046
204	0x3e81ccac	0.25351465
205	0x3df593ed	0.11991105
206	0xbe900e30	-0.28135824
207	0x3daa6058	0.08319157
208	0xbdeb730e	-0.11496554
209	0xbdb958c3	-0.09050133
210	0x3e09ef84	0.13470274
211	0xbc97bade	-0.018521722
212	0x3e911701	0.28337863
213	0xbeb7160b	-0.35759005
214	0xbe273a40	-0.16330814
215	0x3e3c6d10	0.18400979
216	0x3d11e594	0.035619333
217	0x3d58ff65	0.05297794
218	0x3c2b3513	0.010449666
219	0x3e072f89	0.13201727
220	0x3e4244df	0.18971585
221	0x3df33deb	0.11877044
222	0xbe1c39df	-0.15256451
223	0x3e499096	0.19684061
224	0xbdf5ad16	-0.11995904
225	0xbcc9f68c	-0.024653696
226	0x3b63cc48	0.0034759212
227	0xbf0b8c7b	-0.5451123
228	0xbe868089	-0.2626994
229	0xbebb1c92	-0.36545235
230	0x3d07db9d	0.033168424
231	0x3c97211d	0.018448407
232	0x3e54ffb8	0.20800674
233	0x3b3c6a17	0.0028749758
234	0xbe33bc8b	-0.17552392
235	0xbd120706	-0.03565123
236	0xbe0e5e0e	-0.13903067
237	0x3ed82b92	0.42220742
238	0xbe0f3236	-0.13983998
239	0xbeb351f3	-0.3502346
240	0xbdbca6da	-0.09211512
241	0x3e57f61c	0.21089977
242	0x3e707e87	0.23485766
243	0xbe021464	-0.12703091
244	0xbeaae82c	-0.33380258
245	0xbd9b2a12	-0.07576384
246	0x3ecc7ad3	0.39937457
247	0xbd81977d	-0.06327722
248	0x3e0fb97a	0.14035597
249	0xbe433a60	-0.19065237
250	0xbe50ed66	-0.2040306
251	0x3e445e11	0.19176508
252	0x3e367d7c	0.17821306
253	0x3ec2ab7a	0.3802145
254	0x3d9b69e9	0.0758856
255	0xbea3635c	-0.31911743

mean_net.2.bias f4 [128]
0	0xbe290bd2	-0.16508415
1	0xbde7966d	-0.11307988
2	0x3dfba3ed	0.12287126
3	0xbe635ebd	-0.22204109
4	0xbcb1e453	-0.021715319
5	0x3e576c8e	0.21037504
6	0x3e95ce01	0.2925873
7	0xbe4a6349	-0.19764437
8	0xbe346a3d	-0.17618652
9	0x3e506fc9	0.20355143
10	0xbd990b20	-0.07472825
11	0xbceab85b	-0.02865236
12	0xbd2c89bc	-0.04212354
13	0xbd812c3f	-0.063072674
14	0xbde18070	-0.11010826
15	0x3c8a6d3c	0.01689779
16	0xbc820337	-0.015870674
17	0x3e2091c6	0.15680608
18	0xbdcf4854	-0.10121217
19	0xbda9845b	-0.08277198
20	0xbd2e8443	-0.042606603
21	0x3d556133	0.05209465
22	0x3e5cccd4	0.2156251
23	0xbce19721	-0.027537884
24	0xbe14ee03	-0.1454392
25	0x3e08c94a	0.13358036
26	0x3d87bc4d	0.066277124
27	0x3d51d66f	0.05122989
28	0xbc5a688c	-0.01333059
29	0x3e903069	0.28161934
30	0x3d8f9cf3	0.070123576
31	0x3d15f841	0.036613706
32	0x3d4686d9	0.048468444
33	0x3e2f2b6c	0.17106408
34	0xbde7bec4	-0.113156825
35	0xbe75fadc	-0.24021477
36	0xbe38fcb5	-0.1806515
37	0x3e41368c	0.18868464
38	0x3cc8d78a	0.02451684
39	0xbd39d2ac	-0.045366928
40	0x3e5c7377	0.21528421
41	0x3e1881b0	0.14893222
42	0x3cbd3c5f	0.023100076
43	0x3dfb6652	0.122753754
44	0x3de0a6b7	0.10969298
45	0xbd80b521	-0.062845476
46	0xbe341d25	-0.17589243
47	0xbe43206b	-0.19055335
48	0xbccf94e8	-0.025339559
49	0x3e540821	0.20706226
50	0x3c5a6e40	0.01333195
51	0x3e768287	0.2407323
52	0xbd3cd229	-0.04609886
53	0xbc8a3ccc	-0.016874693
54	0x3e29fc96	0.1660026
55	0x3dd8e63a	0.10590787
56	0x3dd44bde	0.10366033
57	0xbdad7e68	-0.08471376
58	0xbea08a60	-0.31355572
59	0x3d8b3cd9	0.06798715
60	0x3e9cc730	0.30620718
61	0xbcd25a15	-0.02567772
62	0x3df0dd7b	0.11760994
63	0xbe2e84e9	-0.17042889
64	0x3e753f0d	0.23949833
65	0x3da08608	0.078380644
66	0x3e725e14	0.236687
67	0x3cea539f	0.028604327
68	0xbdfd7428	-0.12375671
69	0x3e3856e2	0.18001893
70	0x3e1c30f2	0.15253046
71	0xbc52afd3	-0.012859303
72	0x3d2236b9	0.03960297
73	0x3e359d2e	0.1773574
74	0x39006c33	0.00012247339
75	0xbe7973a1	-0.24360515
76	0x3d0f8a38	0.035043925
77	0xbd001350	-0.031268418
78	0x3d404093	0.046936583
79	0xbd658e7d	-0.05604409
80	0xbd9692f7	-0.0735225
81	0x3d45f629	0.04833046
82	0x3d5d3090	0.05400139
83	0xbe1f96f0	-0.15584922
84	0xbdcccbfc	-0.099998444
85	0x3e62787b	0.22116272
86	0x3e189e6b	0.14904182
87	0xbc2b2cca	-0.01044769
88	0xbdd25d69	-0.10271723
89	0x3a936812	0.0011246225
90	0xbcc2dda9	-0.023787336
91	0x3e1e6680	0.15468788
92	0x3e1447bd	0.14480491
93	0x3d168673	0.036749315
94	0x3c9686ba	0.01837479
95	0x3eae403a	0.34033376
96	0xbd18ee37	-0.037336554
97	0xbcd580a4	-0.026062317
98	0xbe944e4a	-0.2896598
99	0xbca1ae16	-0.019736331
100	0xbd00b2e1	-0.031420592
101	0x3e28d864	0.16488796
102	0xbdb05987	-0.08610826
103	0xbdd7f557	-0.10544842
104	0x3b75ee49	0.0037526062
105	0x3d420486	0.047367595
106	0xb9ec302c	-0.0004504932
107	0x3d487371	0.04893822
108	0xbe33f51b	-0.17573969
109	0x3e40eba8	0.18839896
110	0xbdc4c13e	-0.096071705
111	0xbeb8372e	-0.359796
112	0x3c0aea88	0.008478768
113	0x3d38d1a3	0.0451218
114	0xbe240155	-0.16016133
115	0xbe5b8027	-0.21435605
116	0x3d86424d	0.065556146
117	0x3e066b19	0.13126792
118	0xbe610f55	-0.21978505
119	0xbe2247ac	-0.15847653
120	0xbcc01076	-0.02344535
121	0xbd19f580	-0.037587643
122	0xbdcc4d27	-0.09975653
123	0xbe791cb5	-0.24327357
124	0xbdaf4bc4	-0.08559373
125	0x3dabdc7d	0.08391664
126	0x3d92f796	0.071761295
127	0xbdd3f6a3	-0.103497766

mean_net.4.weight f4 [4, 128]
0	0x3d3e8ee1	0.04652298
1	0xbf26edad	-0.65206414
2	0xbdfe0873	-0.12403955
3	0x3e3f6294	0.18689948
4	0xbd77b1ad	-0.06047218
5	0x3ef00ebf	0.4688625
6	0x3d89b5c6	0.06724124
7	0x3cb5d37e	0.022195574
8	0xbe98d296	-0.29848164
9	0x3e4c73cf	0.19966052
10	0xbe20d963	-0.15707926
11	0x3e8dd376	0.27700394
12	0x3ee1ca1b	0.44099507
13	0x3f083db7	0.5321917
14	0x3e07fef1	0.13280846
15	0xbe2d9689	-0.16951956
16	0xbe2d98fe	-0.16952893
17	0x3eafe8ff	0.3435745
18	0xbe761848	-0.240327
19	0x3e78a949	0.24283327
20	0x3d98b2d8	0.07455987
21	0x3e8ab9bc	0.2709483
22	0xbdc6e700	-0.097120285
23	0xbe9df54e	-0.30851215
24	0x3d124886	0.035713695
25	0x3e907634	0.28215182
26	0xbdef485d	-0.11683724
27	0xbf16e017	-0.58935684
28	0xbe201363	-0.15632395
29	0x3dff066c	0.12452397
30	0xbe98573f	-0.29754063
31	0xbf010fee	-0.5041493
32	0xbc91d8fc	-0.017803662
33	0x3e8db3ea	0.27676326
34	0x3d4c83e8	0.049930483
35	0x3e9e9cf4	0.3097912
36	0xbd7503b3	-0.05981798
37	0xbec06542	-0.37577254
38	0x3eeb2b20	0.4593134
39	0xbeb0bc72	-0.34518772
40	0xbe5bcbd2	-0.2146447
41	0x3e3f00cd	0.18652649
42	0xbdec0b56	-0.115256
43	0xbcb6329f	-0.022240935
44	0x3ec7d280	0.39027786
45	0xbed565f3	-0.41679344
46	0xbee017d6	-0.43768185
47	0x3dbc6c00	0.09200287
48	0x3ead81a6	0.33887976
49	0x3d706dcd	0.058698464
50	0x3e3a3a9b	0.18186419
51	0x3e3712bb	0.17878239
52	0x3e4aec03	0.19816594
53	0xbf001695	-0.5003446
54	0xbdaec02e	-0.08532749
55	0x3f131773	0.57457656
56	0xbdfe3c16	-0.12413804
57	0xbd48bd8f	-0.049008902
58	0x3dc61a7e	0.09673022
59	0x3ddda2a1	0.108220346
60	0xbe535beb	-0.20640533
61	0xbf177509	-0.59162956
62	0x3ea59644	0.32341206
63	0x3c154b3c	0.009112176
64	0xbe504a03	-0.20340733
65	0x3e067e8f	0.13134216
66	0x3e00b9d3	0.12570886
67	0x3ea1c19b	0.31593022
68	0x3eaa380e	0.3324589
69	0x3d12250a	0.035679854
70	0xbeb7de28	-0.3591168
71	0x3eb59571	0.35465577
72	0x3f25f6ce	0.6482972
73	0x3d6100e3	0.054932486
74	0xbab579df	-0.0013845525
75	0xbc7d4550	-0.01545842
76	0xbe2b596e	-0.16733333
77	0x3db2b88c	0.08726606
78	0xbea5ff11	-0.32421163
79	0x3e6c61ae	0.23084137
80	0x3ea7e936	0.32795113
81	0x3e514a76	0.20438561
82	0xbea7c6e9	-0.32768944
83	0x3e9b839c	0.30373847
84	0xbec9cf83	-0.3941613
85	0xbe9f463e	-0.31108278
86	0xbdbb7d23	-0.09154727
87	0x3e8bdc5a	0.27316552
88	0xbe77c5e0	-0.24196577
89	0xbdd48792	-0.103774205
90	0xbe149bd8	-0.14512575
91	0xbe2e08f9	-0.1699561
92	0xbdad2c0b	-0.08455666
93	0xbac23f2e	-0.0014819854
94	0xbdec8f61	-0.11550785
95	0xbd993400	-0.07480621
96	0x3ec299f2	0.38008076
97	0x3e9e5240	0.30922127
98	0x3e8f4c12	0.27987725
99	0x3e921171	0.28528932
100	0xbe1e73fe	-0.15473935
101	0x3d879505	0.0662022
102	0xbe96a8ed	-0.29425755
103	0xbed7f0c7	-0.42175886
104	0x3e06fb9b	0.13181917
105	0xbec7a854	-0.38995612
106	0xbf2475d5	-0.642423
107	0x3e9027d2	0.2815538
108	0x3e670eb5	0.22564204
109	0x3e7a7667	0.2445923
110	0xbdc771d6	-0.09738509
111	0x3f0325a5	0.51229316
112	0xbe758fc8	-0.2398063
113	0x3e403010	0.18768334
114	0x3d6fdce8	0.058560282
115	0xbe9066f2	-0.2820354
116	0x3e7203ea	0.23634306
117	0x3ed32b31	0.4124389
118	0x3e7d2c6d	0.24723978
119	0x3b2a7f3d	0.0026015781
120	0xbe630270	-0.22168899
121	0xbec71e14	-0.38890135
122	0x3db5c481	0.08875371
123	0xbdc9ec20	-0.098594904
124	0xbd242cfc	-0.040081963
125	0xbe320349	-0.17384066
126	0x3f0ebd2e	0.55757415
127	0xbd681058	-0.05665621
128	0x3e217f8f	0.15771316
129	0xbe2ac9d3	-0.16678552
130	0x3e52cc24	0.20585686
131	0x3ce4487b	0.027866593
132	0xbe63fd78	-0.2226466
133	0x3e651ac4	0.22373492
134	0xbd3266e6	-0.043555163
135	0xbd07a986	-0.033120655
136	0xbed25ded	-0.41087285
137	0xbee82711	-0.45342305
138	0x3ead3a6c	0.33833635
139	0xbe2fc102	-0.1716347
140	0x3b91af75	0.004445965
141	0x3dc0d346	0.09415297
142	0x3f5fc936	0.874164
143	0x3e915699	0.2838638
144	0xbe4d29c0	-0.20035458
145	0x3b315503	0.0027058728
146	0x3d8f363a	0.06992765
147	0x3de4f2e5	0.11179141
148	0x3c838ace	0.016057398
149	0x3e0d7705	0.13814934
150	0x3f05793d	0.5213812
151	0x3e84574d	0.25847855
152	0x3e7062cd	0.2347519
153	0x3ebd4892	0.3696943
154	0x3eede0fc	0.46460712
155	0x3e8272c3	0.2547818
156	0xbe99b070	-0.30017424
157	0xbce6023d	-0.02807724
158	0xbe3864d1	-0.18007208
159	0xbe9c2681	-0.30498126
160	0xbe6d2b33	-0.2316101
161	0xbed96889	-0.42462566
162	0xbeb2aa8c	-0.34895742
163	0xbea6887c	-0.32526004
164	0xbd83de0a	-0.06438835
165	0x3e87afe6	0.26501387
166	0xbdbf9620	-0.09354806
167	0x3e416f71	0.18890168
168	0xbe8ee1ba	-0.2790659
169	0x3e8aebbf	0.27132985
170	0xbdadf0a6	-0.08493166
171	0x3e107ed6	0.14110884
172	0x3e2053ed	0.15657015
173	0x3e728792	0.23684528
174	0x3db57f06	0.088621184
175	0xbcdf5b0d	-0.027265096
176	0xbeca3ae8	-0.39498067
177	0xbedd51d8	-0.43226504
178	0x3d98c3de	0.07459234
179	0x3d5bd122	0.05366624
180	0xbe72bb6e	-0.23704311
181	0xbedb8c97	-0.428807
182	0xbe922253	-0.28541812
183	0x3ec7ce28	0.39024472
184	0xbe44721a	-0.19184151
185	0xbf25fc4c	-0.648381
186	0x3e9fafae	0.3118872
187	0xbee1172b	-0.43962988
188	0xbd5e9af1	-0.054346982
189	0xbdb7be49	-0.08971841
190	0x3ed510be	0.41614336
191	0x3eece78e	0.46270412
192	0xbe495be4	-0.1966396
193	0xbeb5546d	-0.35415974
194	0x3f0dd127	0.55397266
195	0xbc6ffca6	-0.014647638
196	0x3e6865ca	0.2269508
197	0x3eea567d	0.4576911
198	0xbdb48993	-0.08815303
199	0x3e4c1866	0.19931182
200	0xbe4f4a76	-0.20243248
201	0xbc24d26b	-0.010059933
202	0x3e3480a2	0.17627195
203	0xbe10956c	-0.141195
204	0xbef54a84	-0.47908413
205	0xbeb2433a	-0.34816915
206	0x3df7aa5f	0.120930426
207	0xbe4ab264	-0.19794613
208	0x3dbc2ffd	0.091888405
209	0xbd91b963	-0.07115438
210	0xbeb02cfb	-0.34409317
211	0xbb38fe27	-0.0028227658
212	0x3e8b0124	0.27149308
213	0xbe95a934	-0.29230654
214	0xbd9418e5	-0.07231311
215	0x3e076295	0.132212
216	0x3e148272	0.14502886
217	0xbec77834	-0.38958895
218	0xbec31772	-0.38103825
219	0xbe9103d1	-0.28323224
220	0x3ea77826	0.32708853
221	0x3dfd7efd	0.12377737
222	0xbf563bee	-0.83685195
223	0x3e3b9813	0.1831973
224	0x3e402bd6	0.18766722
225	0x3f1ce291	0.6128321
226	0x3d33a264	0.04385604
227	0xbe594862	-0.21219018
228	0xbe3c94ab	-0.18416087
229	0x3df9d277	0.12198346
230	0x3d2d8168	0.04235974
231	0xbefa3347	-0.48867247
232	0x3ead3597	0.33829948
233	0x3d5ae6f6	0.053442918
234	0x3e347f5f	0.17626713
235	0x3ed0ad0b	0.4075702
236	0x3d941f51	0.07232536
237	0x3df57e2a	0.119869545
238	0x3f154aa6	0.5831703
239	0xbd9638c1	-0.07335044
240	0xbc8277ca	-0.01592626
241	0xbeb190ce	-0.3468079
242	0x3d8334d6	0.06406562
243	0xbe28e8ad	-0.16495009
244	0x3ee0fea2	0.4394427
245	0x3e29427e	0.16529271
246	0x3c658d7d	0.014010784
247	0x3d2f4d00	0.042798042
248	0xbf0e3aab	-0.5555827
249	0xbd5ac859	-0.053413723
250	0x3dcf3afa	0.10118671
251	0x3dff21aa	0.12457593
252	0xbe73b331	-0.23798825
253	0x3f273e35	0.65329295
254	0x3d71be22	0.059019215
255	0xbdffcf04	-0.12490657

mean_net.4.bias f4 [4]
0	0xbdde51bb	-0.108554326
1	0x3ca40c4b	0.020025393
2	0x3d373b68	0.04473439
3	0x3d7f5d1c	0.062344655
