test_uav/model/critic_model13-10-2023_17-19-10/2320.pt (torch, 77887 bytes, 5 tensors)

critic_network.0.weight f4 [128, 17]
0	0xbcb57e72	-0.02215502
1	0xbe027031	-0.1273811
2	0x3e36a3a3	0.1783586
3	0x3ca1759e	0.019709405
4	0xbcc8932b	-0.024484238
5	0xbf5f7e49	-0.8730207
6	0xbcd9f06f	-0.026603905
7	0xbd759238	-0.0599539
8	0xbea68c74	-0.32529032
9	0x3fab8166	1.3398864
10	0x3ef9a47a	0.48758298
11	0xbec4ad3b	-0.38413414
12	0xbdc9ef23	-0.09860065
13	0x3ce175ef	0.027522055
14	0xbcf3c0ba	-0.029754985
15	0xb9c5ef2b	-0.00037752962
16	0xbc73bde5	-0.014876817
17	0x3eb40929	0.3516324
18	0x3f1a32ff	0.60234064
19	0xbf6374ff	-0.88850397
20	0xbe312f8a	-0.17303291
21	0x3c6b8541	0.014375032
22	0x3f8184ef	1.0118693
23	0x3e408294	0.18799812
24	0xbd3e918d	-0.046525527
25	0x3f23d0a3	0.6399023
26	0xbff2fdb6	-1.8983676
27	0x3db55bd0	0.088554025
28	0x3e773790	0.24142289
29	0x3ed29577	0.41129658
30	0xbe0a99fb	-0.13535301
31	0x3e8b1fd7	0.2717273
32	0xbdb15bd4	-0.08660093
33	0xbef330be	-0.47498125
34	0xbdc20c5b	-0.09475013
35	0xbe22e3df	-0.15907238
36	0xbfa81bde	-1.3133504
37	0x3ec30529	0.38089874
38	0xbefb3289	-0.49061993
39	0x3f937e60	1.1522942
40	0x3e98cf4f	0.29845664
41	0x3e1ea0a0	0.15490961
42	0x3e7adad7	0.24497543
43	0xbf97ad4a	-1.1849759
44	0x3f2c2b09	0.67253166
45	0x3e207125	0.15668161
46	0xbe97f6c8	-0.29680467
47	0xbd35fea5	-0.0444323
48	0x3e91049f	0.28323838
49	0x3c0c4ac5	0.008562748
50	0xbe343f4b	-0.1760227
51	0x3e580caf	0.21098588
52	0x3e2399be	0.15976617
53	0x3f7703df	0.9649028
54	0x3d7e7b31	0.062129203
55	0xbce111be	-0.02747428
56	0xbeb105a8	-0.34574628
57	0xbe62e8f4	-0.22159177
58	0xbdf09966	-0.117480084
59	0xbf2510e5	-0.64478904
60	0xbfb69b27	-1.4266099
61	0x3ece3be7	0.40280077
62	0x3e733d50	0.23753858
63	0xbf3e18d9	-0.74256665
64	0x3e2db044	0.16961771
65	0x3de1f883	0.11033728
66	0x3d49ab5b	0.049235683
67	0x3ec01200	0.37513733
68	0xbf4435c0	-0.76644516
69	0xbc3dc4e8	-0.011582591
70	0xbf8196a2	-1.0124094
71	0x3e94fcb0	0.29099035
72	0x3f096691	0.5367213
73	0xbf26c1bc	-0.65139365
74	0xbe7ddb54	-0.24790698
75	0x3cf9d9fd	0.030499453
76	0x3e70c0a7	0.23510991
77	0x3e0ed0f5	0.13946898
78	0x3d47e3fc	0.048801407
79	0x3f519cd0	0.818799
80	0xbc31a6b2	-0.010842966
81	0x3e0a142b	0.13484256
82	0x3d348355	0.04407056
83	0x3d8f700b	0.070037924
84	0x3de6189f	0.11235165
85	0x3eb7e6e2	0.35918337
86	0x3e8c7990	0.27436495
87	0xbe584945	-0.211217
88	0x3e54b35c	0.20771545
89	0x3db0d3b0	0.08634126
90	0x3f2191ab	0.63112897
91	0x3cd7ef92	0.026359353
92	0x3d62b4f5	0.055348355
93	0x3c8d6c2f	0.0172635
94	0xbe1a2317	-0.15052448
95	0xbe4b6a8a	-0.1986486
96	0x3edbb247	0.42909452
97	0x3ecb3df0	0.39695692
98	0xbc8bafee	-0.017051663
99	0x3dffa467	0.12482529
100	0xbcb93573	-0.022608494
101	0xbe517f08	-0.20458615
102	0xbe1c60d9	-0.1527132
103	0xbf60ce52	-0.8781482
104	0xbde73555	-0.11289469
105	0xbe056e9d	-0.13030477
106	0xbba8bbb0	-0.005149327
107	0xbd90bc52	-0.07067169
108	0xbdb4d208	-0.08829123
109	0xbd5c55ca	-0.053792752
110	0xbdbdb85c	-0.092636794
111	0x3f0f0c9f	0.55878633
112	0xbf2dc1bc	-0.6787374
113	0x3d52eeef	0.051497396
114	0xbd295e77	-0.041349854
115	0x3d3b78d2	0.04576952
116	0xbe2f6b78	-0.1713084
117	0xbd3e62b9	-0.046480868
118	0x3d547642	0.051870592
119	0xbe82fe97	-0.25584862
120	0xbdbaf5c3	-0.091289066
121	0xbf16d2de	-0.5891551
122	0x3eed7a12	0.46382195
123	0xbdc8d725	-0.098066606
124	0x3f3280aa	0.69727576
125	0x3e1c6fcd	0.15277024
126	0x3dd624bc	0.10456225
127	0x3ec23e0d	0.37937966
128	0xbecec33c	-0.40383327
129	0x3f5024c4	0.813061
130	0x3e1faf8e	0.15594313
131	0x400db528	2.214182
132	0xbe13bfe8	-0.14428675
133	0x3de67dee	0.11254488
134	0x3cef161b	0.029185345
135	0xbd9125b7	-0.07087272
136	0xbdad0c78	-0.08449644
137	0xbf36145f	-0.71124834
138	0xbca505ca	-0.020144362
139	0x3e8b2827	0.2717907
140	0xbd66ce37	-0.056349006
141	0xbf5d0d80	-0.86348724
142	0xbe076f86	-0.13226137
143	0x3d9246a2	0.071423784
144	0x3dc98707	0.098402075
145	0xbf80eb66	-1.0071838
146	0xbe1a43c4	-0.15064913
147	0x3fc0de94	1.5067925
148	0x3e99e85e	0.30060095
149	0xbdd92d6a	-0.10604365
150	0xbe52d272	-0.20588091
151	0x3e02fb76	0.12791237
152	0x3e527727	0.20553266
153	0xbf878585	-1.0587622
154	0x3e77b5a3	0.24190383
155	0x3f6d2a06	0.9264225
156	0xbedb0810	-0.4277959
157	0x3ee39009	0.44445828
158	0xbc95a44c	-0.01826682
159	0xbe06aa1b	-0.13150828
160	0x3d36a059	0.044586513
161	0x3c8a737a	0.016900767
162	0x3eaf3488	0.34219766
163	0x3fca939a	1.5826294
164	0xbf32bc1a	-0.6981827
165	0xbda9c51d	-0.082895495
166	0xbe008220	-0.12549639
167	0x3cdd051b	0.026979974
168	0x3c94f82e	0.018184748
169	0xbd936841	-0.07197619
170	0x3e220f2f	0.15826105
171	0x3eab9f3e	0.3351993
172	0x3f1239c8	0.5711942
173	0xbe9f83da	-0.31155282
174	0xbbcf95fa	-0.0063350173
175	0xbf6d3275	-0.92655116
176	0x3c876593	0.016527927
177	0x3d7d3db7	0.061826434
178	0xbebba229	-0.36647156
179	0x3f7bc7c6	0.98351705
180	0x3f92d997	1.1472653
181	0xbeb9867e	-0.36235422
182	0xbf459f2f	-0.7719602
183	0xbceeeec0	-0.02916658
184	0xbe41e967	-0.18936692
185	0x3d845955	0.06462351
186	0x3e1a749b	0.15083544
187	0x3f1f156b	0.62142056
188	0x3e93e28a	0.28883773
189	0x3f0a75d9	0.5408607
190	0xbe1dbaeb	-0.15403335
191	0xbd05dc24	-0.032680646
192	0xbe45fdd3	-0.19335108
193	0x3c9878e2	0.018612329
194	0x3cabcdfd	0.020972246
195	0xbebebcea	-0.37253505
196	0xbf178a78	-0.5919566
197	0xbee84932	-0.45368344
198	0x3f096d6c	0.5368259
199	0xbd128f0d	-0.035780955
200	0x3b2f7de0	0.0026777908
201	0xbd9b6baa	-0.07588895
202	0x3cc730e2	0.024315301
203	0x3ddb7f81	0.10717679
204	0x3f2625bf	0.64901346
205	0xbe209b1a	-0.15684167
206	0x3ebc6a61	0.3679991
207	0xbda38acf	-0.0798546
208	0x3d85ff23	0.06542804
209	0x3fd84535	1.689612
210	0x3e7dd91a	0.24789849
211	0xbce502c0	-0.027955413
212	0xbd65c340	-0.056094408
213	0x3fa246c7	1.267785
214	0x3f002de3	0.5007002
215	0xbf64ea11	-0.89419657
216	0xbf1a02e3	-0.60160655
217	0xbd500bad	-0.050792385
218	0x3ec42280	0.3830757
219	0x3d888613	0.06666198
220	0xbe31d28f	-0.17365478
221	0xbf1f01cb	-0.6211211
222	0x3f02756f	0.5096044
223	0xbefeae2c	-0.49742258
224	0xbe5c8e04	-0.2153855
225	0xbdefa1a5	-0.11700753
226	0xbf39506a	-0.7238833
227	0xbdebefe2	-0.115203634
228	0xbbc523cf	-0.0060162316
229	0xbde04149	-0.10949952
230	0x3f93e17e	1.155319
231	0xc00857d9	-2.1303618
232	0x3fa6c46f	1.3028697
233	0x3e9d0b73	0.30672798
234	0xbd163b26	-0.036677502
235	0xbde4877d	-0.11158655
236	0xbcb45fbd	-0.022018308
237	0x3d3b55fd	0.0457363
238	0xbe6e8f67	-0.23296891
239	0x3f04e564	0.5191252
240	0xbf13c3e9	-0.5772081
241	0xbe68d5fa	-0.22737876
242	0x3e31eee0	0.1737628
243	0xbe3a7356	-0.1820806
244	0xbe07b57b	-0.13252823
245	0xbcf73f62	-0.03018159
246	0xbd7cd9b8	-0.06173107
247	0xbefabeca	-0.48973686
248	0xbe47b854	-0.1950391
249	0xbec441ce	-0.38331455
250	0x3f9c710c	1.2221999
251	0xbce9484e	-0.02847686
252	0xbd0ed892	-0.034874506
253	0xbd54d938	-0.05196497
254	0xbd85609d	-0.06512568
255	0xbf2a0ed2	-0.66428864

critic_network.0.bias f4 [128]
0	0x3e0a9ce0	0.13536406
1	0xbf2853b3	-0.65752715
2	0x3ebcb837	0.36859295
3	0x400e3049	2.221697
4	0xbeef5809	-0.46746853
5	0xbf386b84	-0.72039056
6	0xbf95ce3d	-1.1703564
7	0xbf45cc9f	-0.7726535
8	0xbeafbd32	-0.34324032
9	0x3f653639	0.8953586
10	0x3f99905c	1.199718
11	0x3f0844f1	0.53230196
12	0xbf984ee3	-1.1899074
13	0xbe61d66b	-0.2205445
14	0xbef9877a	-0.48736173
15	0xbe121ab4	-0.14267999
16	0x40545117	3.3174493
17	0xbe712f96	-0.23553309
18	0x3ec8f45a	0.39248925
19	0xbe971719	-0.2950981
20	0x3f1ef388	0.6209035
21	0x3ff29a50	1.8953342
22	0xbf3f940a	-0.74835265
23	0x3ef883db	0.48538098
24	0x3f460163	0.77345866
25	0xbf3796e9	-0.71714646
26	0x3f355b56	0.7084249
27	0x3e288719	0.16457786
28	0x3f857274	1.0425553
29	0x3f8c1fea	1.0947239
30	0xbefda639	-0.4954088
31	0x3ebc7d68	0.36814427
32	0x4099c4ac	4.805258
33	0xbe551e00	-0.20812225
34	0x3f13c568	0.57723093
35	0x3e81e6d2	0.25371414
36	0xbf26582d	-0.64978296
37	0xbf15c730	-0.5850706
38	0xbd77be7d	-0.0604844
39	0xbf78c1b2	-0.97170556
40	0x3f1391f0	0.5764456
41	0xbe95040a	-0.29104644
42	0xbf887a6c	-1.066236
43	0xbfa63cc8	-1.2987299
44	0xbf0f79fd	-0.56045514
45	0xbdefd321	-0.117101915
46	0xbe844ab1	-0.25838235
47	0xbfd45d2e	-1.6590936
48	0x401ffec7	2.4999254
49	0xbf448c7b	-0.76776856
50	0x3f5087d6	0.8145727
51	0x3d9ec752	0.07752861
52	0xbe6be527	-0.23036633
53	0xbfa87572	-1.3160841
54	0xbf33d51f	-0.7024707
55	0xbf633102	-0.88746655
56	0x3f0b261c	0.54355025
57	0xc01b8157	-2.4297693
58	0xbf7d1670	-0.9886236
59	0x3f2a5915	0.6654218
60	0x3f269d7f	0.6508407
61	0x3f31ad4d	0.6940506
62	0xbf57a78c	-0.8424003
63	0x3eeda6d6	0.46416348
64	0xbf48acbb	-0.78388566
65	0xbf9075df	-1.1285971
66	0xbe941467	-0.28921816
67	0xbf68ebc6	-0.9098476
68	0x409bef19	4.8729367
69	0x3eb7de18	0.35911632
70	0x3f62bbe5	0.88567954
71	0x3f872a30	1.055975
72	0xbd5f1602	-0.054464348
73	0x3fb747dc	1.4318805
74	0x3ee9fb90	0.4569974
75	0xbf63bfdc	-0.8896463
76	0xbf493965	-0.786032
77	0x3f8f91d5	1.121638
78	0x3ea686af	0.3252463
79	0xbf9ded9d	-1.2338139
80	0xbfd0a602	-1.6300662
81	0x3ea37e15	0.3193213
82	0x3f950a4a	1.1643765
83	0x3cbc616a	0.02299567
84	0x3ea6b922	0.3256312
85	0x3f7ae343	0.98003024
86	0x4007bb97	2.1208246
87	0x3ecc0017	0.3984382
88	0x3f12b515	0.5730756
89	0x3f43dac7	0.765057
90	0xbf507972	-0.8143531
91	0xbdff7fd8	-0.12475556
92	0xbf855614	-1.0416894
93	0xbd9a27d9	-0.075271316
94	0xbf40ed8e	-0.7536248
95	0x3ef3e099	0.47632292
96	0xbefba8f7	-0.49152347
97	0x3f8c28f0	1.0949993
98	0x3e56c938	0.20975196
99	0x3f458d24	0.7716849
100	0xbfd81916	-1.6882656
101	0x3f858c96	1.0433528
102	0xbf96ff07	-1.1796578
103	0x3e6fd67b	0.23421662
104	0x3f69f753	0.9139301
105	0x3e90dda0	0.28294086
106	0x3fd5d939	1.6706916
107	0x3f0c44e8	0.5479264
108	0x3da1bd1d	0.078973986
109	0x3fce8d59	1.6136886
110	0x3e9376f0	0.2880168
111	0xbfab1c86	-1.336808
112	0xc09a1bf5	-4.8159127
113	0x3f9b8846	1.2150962
114	0x3eb3f012	0.35144097
115	0xbef89567	-0.48551485
116	0xbf47d0a5	-0.7805274
117	0x3d9918de	0.07475446
118	0x3fb60916	1.4221523
119	0xbcb0161c	-0.021494918
120	0xbe99fba8	-0.3007481
121	0xbf82cfc2	-1.0219653
122	0xbff53192	-1.9155753
123	0xbfe56e46	-1.7924278
124	0x40250b07	2.578798
125	0xbf4a2b98	-0.7897277
126	0xbf5ed45f	-0.870428
127	0x3fccd07d	1.6001126

critic_network.2.weight f4 [128, 128]
0	0xbf88fa46	-1.0701377
1	0x3f406d33	0.75166625
2	0xbf571149	-0.8401075
3	0xbe8762c1	-0.2644253
4	0x3ebb8c24	0.36630356
5	0x3e47f98e	0.19528791
6	0x3f26dccb	0.65180653
7	0xbea0d627	-0.31413385
8	0x3dd7d80d	0.10539255
9	0xbe0aeb81	-0.135664
10	0xbeff19bc	-0.4982432
11	0xbfe8dac1	-1.8191758
12	0x3f0d2978	0.551414
13	0xbfa178ea	-1.2615025
14	0xbff0befe	-1.8808286
15	0xbf8c2e0b	-1.0951551
16	0x3f639536	0.8889955
17	0xbf8442da	-1.0332901
18	0xbf8e1e07	-1.1102914
19	0x3f2b5180	0.66921234
20	0xbf02104e	-0.5080613
21	0x3b7b2c35	0.003832591
22	0x3e696942	0.22794059
23	0x3e31dd0f	0.17369483
24	0xbfcca08b	-1.5986494
25	0xbf548a48	-0.830235
26	0xbf0e17a6	-0.55504835
27	0xbe3562db	-0.17713492
28	0xbf9196d2	-1.1374152
29	0xbfa07a9b	-1.2537416
30	0x3fb047bc	1.3771892
31	0xbe0bfe82	-0.13671306
32	0x40110f0a	2.266543
33	0xbfa4825c	-1.2852283
34	0xbdb6645e	-0.08905862
35	0x3e32f434	0.17475969
36	0x3f614f92	0.8801204
37	0x3ec161fc	0.3777007
38	0xbfa41106	-1.2817695
39	0x3fc1d6d1	1.5143682
40	0x3f28916f	0.65846914
41	0xbf4199d4	-0.7562535
42	0xbef2c15b	-0.47413144
43	0xbf253257	-0.6452994
44	0x3e9ffa2c	0.31245553
45	0x3e992c24	0.2991649
46	0x3ddcad11	0.10775197
47	0xbfde822e	-1.7383478
48	0xbe805d49	-0.2507117
49	0x3f46d862	0.77673924
50	0x3fb96cec	1.4486365
51	0xbdde7060	-0.108612776
52	0x3ea75300	0.3268051
53	0xbd23ccf9	-0.0399904
54	0x3eed2018	0.46313548
55	0xbf3ca7b0	-0.7369337
56	0x3f8e9d5e	1.1141775
57	0x3d5ee7e6	0.054420374
58	0x3f9b2bf6	1.2122791
59	0x3f68e00c	0.9096687
60	0xbf4abc81	-0.79193884
61	0xbfeb185f	-1.8366812
62	0xbe0dd274	-0.13849813
63	0x3fa55799	1.2917358
64	0xbf8a62ff	-1.0811461
65	0x3ff46af6	1.9095142
66	0x3e3a7096	0.1820701
67	0x3db7e433	0.089790724
68	0x400e8046	2.2265792
69	0xbf507dae	-0.8144177
70	0xbfc710ac	-1.5551963
71	0xbe1e354f	-0.15450023
72	0x3f440963	0.76576823
73	0x3f2d58a1	0.6771336
74	0x3bb8fe56	0.0056455536
75	0xbf04543c	-0.5169103
76	0xbd764d20	-0.060132146
77	0xbfb9fc1c	-1.4530063
78	0xbf77df37	-0.96824974
79	0x3f9246fe	1.1427915
80	0xc030a4e5	-2.7600644
81	0xbeb27e80	-0.34862137
82	0xbe462bf2	-0.19352701
83	0x3eb60611	0.35551503
84	0xbf5e60e6	-0.86866605
85	0x3e207e39	0.1567315
86	0x408d61e2	4.4181986
87	0xbf2cb2b0	-0.67460155
88	0x3f383b80	0.7196579
89	0xbec15a29	-0.377641
90	0x3f121a1b	0.57071084
91	0x3ebdb5ea	0.37052852
92	0x3f1f725d	0.6228388
93	0xbe1b235a	-0.15150204
94	0x3d1329aa	0.035928406
95	0xbe80557d	-0.25065222
96	0x40014280	2.0196838
97	0xbfd39915	-1.6531092
98	0xbd7ea0ff	-0.062165257
99	0xbf46993b	-0.7757756
100	0xbfdfd777	-1.748763
101	0x3f406098	0.7514739
102	0x3f852352	1.0401404
103	0xbf90b18c	-1.1304183
104	0xbf2e469d	-0.680765
105	0x4004c75b	2.0746677
106	0x40b8ea84	5.7786274
107	0xbf9709a3	-1.1799816
108	0x3f83bf99	1.0292846
109	0x3f1ae6fc	0.60508704
110	0x3e2cfe55	0.16893895
111	0x4007c864	2.1216059
112	0xc00eead5	-2.233083
113	0x3f3b3a5a	0.7313591
114	0xbe362712	-0.17788342
115	0xbdf31e6d	-0.11871038
116	0xbf437ab8	-0.7635913
117	0xbf84b8b4	-1.0368867
118	0x3f8fb939	1.12284
119	0x3f537c20	0.82611275
120	0xbf67f52a	-0.90608466
121	0x3e3c6de5	0.18401296
122	0xbfed68f9	-1.854766
123	0x3e09ed6d	0.13469477
124	0xc041c360	-3.0275497
125	0xbf59f504	-0.8513949
126	0x40266b6c	2.6003065
127	0x3dc94094	0.098267704
128	0xbf694139	-0.91115147
129	0xc017ab09	-2.3698142
130	0x3cdcbbb1	0.026944967
131	0xbce6c0ba	-0.028168071
132	0x3fb322eb	1.3995031
133	0x3e501095	0.20318826
134	0xbda836e5	-0.08213595
135	0xbe9ad692	-0.3024183
136	0xbfaa704d	-1.3315521
137	0xbed81b39	-0.4220827
138	0x3fb63e4a	1.4237759
139	0x3fdbc291	1.7168752
140	0xbf89b838	-1.0759344
141	0x3f4b6b8a	0.79460967
142	0xbf273e8b	-0.6532981
143	0xbe55d6a8	-0.20882666
144	0xbe4b303f	-0.19842623
145	0xbcf8cfab	-0.030372461
146	0x3f358d53	0.7091877
147	0xbefc1f4d	-0.4924263
148	0x3ebadac7	0.3649504
149	0xbdb39ee5	-0.08770541
150	0xbefa096c	-0.48835313
151	0x3eb99600	0.36247253
152	0xbee20e99	-0.44151762
153	0xbf4cbd9e	-0.7997683
154	0xbec7eb4f	-0.39046714
155	0xbe377642	-0.17916206
156	0x40118df9	2.2742903
157	0x3dacc572	0.08436097
158	0xbfd9e467	-1.7022828
159	0x3e817157	0.25281784
160	0xbfc7687a	-1.5578759
161	0x3ffb73f0	1.9644756
162	0xbf59c4a1	-0.85065657
163	0xbf79a03d	-0.9751013
164	0xbf9844cd	-1.1895996
165	0x3f6dfda9	0.9296518
166	0x3f7707bd	0.9649618
167	0xc01ada67	-2.4195802
168	0xbc2406db	-0.0100114
169	0xbe7dffc1	-0.24804594
170	0x3effc137	0.499521
171	0x3f205628	0.62631464
172	0xbf4b1960	-0.79335594
173	0xbf932822	-1.1496623
174	0xbf100790	-0.5626154
175	0x3ead1c85	0.3381082
176	0xbf494d81	-0.78633887
177	0x3f8d0629	1.1017505
178	0x3eb78e30	0.35850668
179	0xbf9ad88a	-1.2097332
180	0xbf3be0a2	-0.7338964
181	0x3f59adca	0.85030806
182	0xbe981a46	-0.29707545
183	0x3f40125b	0.7502801
184	0xbf6492de	-0.892866
185	0x3f226ef4	0.6345055
186	0xc024f1a2	-2.577248
187	0x40048926	2.0708709
188	0x3d93ec15	0.072227634
189	0x3f7ec247	0.99515194
190	0xbfbd8e89	-1.4809123
191	0x3d8c65bb	0.06855341
192	0xbf079896	-0.529672
193	0xbf1205a2	-0.57039845
194	0xbf566d76	-0.83760774
195	0xbe083244	-0.13300425
196	0xbfe3de7e	-1.7802274
197	0x3dea000e	0.11425792
198	0x3f9841b9	1.1895057
199	0x3e894abf	0.2681484
200	0x3efceab3	0.4939781
201	0xbfb4067e	-1.4064481
202	0xbfa6d929	-1.3035022
203	0xbd9a7aa9	-0.07542927
204	0xbf6c9f3c	-0.9243047
205	0x3ec8b2a5	0.39198795
206	0x3f19dae6	0.6009964
207	0xbe9d5d2f	-0.30735156
208	0x3f111cbc	0.5668447
209	0xbedf9881	-0.4367104
210	0x3f8361a1	1.0264169
211	0x3f7d81e9	0.9902635
212	0x3f150dd0	0.582242
213	0x3f440efb	0.7658536
214	0xbfec3c51	-1.8455907
215	0xbe3845d0	-0.17995381
216	0x3f23fdd0	0.6405916
217	0x3fa32704	1.2746282
218	0xbfb12b8e	-1.3841417
219	0xbf9bc7a7	-1.2170304
220	0xbec0d4bc	-0.37662303
221	0xbe591fd5	-0.21203549
222	0xbe2bce9c	-0.16778034
223	0xbee4624a	-0.4460624
224	0xbf286b8c	-0.65789104
225	0x3dec51eb	0.11539062
226	0x3e0f9454	0.14021426
227	0x3fe9ed75	1.8275591
228	0x3f5ebd51	0.87007624
229	0xbff1dac3	-1.8894886
230	0xbfba2c57	-1.4544781
231	0xbebfd07e	-0.37463754
232	0xbf5cbddc	-0.862272
233	0xc036b07c	-2.8545218
234	0xc0e171e6	-7.0451536
235	0x401db898	2.4643917
236	0x3e09da36	0.13462147
237	0xbec4af81	-0.3841515
238	0xbf8f1e8b	-1.1181196
239	0xbeb76d7f	-0.35825726
240	0x3fbe420e	1.4863908
241	0x3f3a5398	0.72783804
242	0x3d9eec2b	0.07759889
243	0x3fc9872b	1.5744375
244	0xbfe4291a	-1.7825043
245	0x3f56c9b8	0.8390155
246	0x3f65c2ac	0.8975017
247	0xbf9b3076	-1.2124164
248	0x3eee2033	0.4650894
249	0x3e884508	0.26615167
250	0xbe839930	-0.2570281
251	0x3ea03beb	0.31295714
252	0x4024b7ab	2.5737102
253	0xbe8beea6	-0.27330512
254	0xbf4f62c7	-0.810101
255	0x3f16b262	0.5886594

critic_network.2.bias f4 [128]
0	0x40195d9f	2.3963392
1	0xbfddd3d3	-1.7330269
2	0xbfb6f1cf	-1.4292544
3	0x3fd5e2f2	1.6709883
4	0xc07586bd	-3.8363488
5	0x3f710d81	0.9416123
6	0xc0139970	-2.30624
7	0x401c4fd7	2.442373
8	0xbf957b3e	-1.1678236
9	0x4003b2a0	2.0577774
10	0x403f20eb	2.9863842
11	0xbf9beac4	-1.218102
12	0x3fcc18ea	1.5945103
13	0xbfe07967	-1.7537049
14	0x3fee85f4	1.8634629
15	0x4019522a	2.39564
16	0x3e7ba510	0.24574685
17	0x3fc20a24	1.5159345
18	0x3f01b4c4	0.5066645
19	0xc00e62cf	-2.2247808
20	0x3fcda14c	1.6064849
21	0xbfcd8fb2	-1.6059477
22	0x3fabcb8e	1.3421495
23	0xbefe9382	-0.49721915
24	0xbfeda85e	-1.8567007
25	0x4018cac8	2.3873768
26	0x4026db9c	2.607154
27	0xc0092bf9	-2.1433089
28	0xbf8acfac	-1.0844626
29	0x3f8573ce	1.0425966
30	0x405c648c	3.443637
31	0x3ff73456	1.9312847
32	0xbfbe4c4a	-1.4867032
33	0xc0419fe6	-3.0253844
34	0xc0050f6f	-2.079067
35	0x4024e686	2.57657
36	0xbfa254c9	-1.2682124
37	0x3fa49d41	1.286049
38	0x401bad7c	2.4324636
39	0x3ff225c1	1.8917772
40	0xc002eefa	-2.045836
41	0xc00be270	-2.1856956
42	0x3ed25c27	0.41085932
43	0x3f485f17	0.78270096
44	0x3fac6eb4	1.3471284
45	0xbf963043	-1.1733478
46	0xc004658b	-2.0686977
47	0xbfdaa3c4	-1.7081227
48	0xc0150473	-2.3283966
49	0xc012bdda	-2.2928376
50	0xc003a09a	-2.0566773
51	0xc01449e6	-2.3170104
52	0xc0274f86	-2.6142287
53	0xbf9930d4	-1.1968026
54	0x3e835a50	0.2565484
55	0x3fc522d7	1.5401257
56	0xc01ba626	-2.432016
57	0xbe4b16e5	-0.19832952
58	0xbf1f5c4d	-0.62250215
59	0xbf6c096d	-0.9220188
60	0x3f99b18f	1.2007312
61	0xbff74a80	-1.931961
62	0xc0213216	-2.518682
63	0xc022882b	-2.539561
64	0x402c486d	2.6919205
65	0x401412f7	2.3136575
66	0xc008a9b6	-2.1353583
67	0x4019776a	2.3979135
68	0xc0057207	-2.0850847
69	0xbeb66603	-0.35624704
70	0xbfccad5d	-1.5990406
71	0xbf0a28b1	-0.5396834
72	0xc01fd4e0	-2.4973679
73	0x3f97b55b	1.185222
74	0x401308d2	2.2974133
75	0xbfd8ad23	-1.6927837
76	0xc00eb805	-2.2299817
77	0xc05079a2	-3.2574239
78	0xbff10efd	-1.8832699
79	0xbff2e1e1	-1.8975183
80	0x3f5f2e82	0.8718034
81	0x4042a377	3.041227
82	0xc031e12d	-2.7793686
83	0xbf351d94	-0.7074826
84	0xbfe388a9	-1.777608
85	0xbffd8bae	-1.9808252
86	0xbf97a3df	-1.1846884
87	0xbf789f30	-0.971179
88	0x3df42a07	0.119220786
89	0xbfe87953	-1.8162025
90	0xbf6968b9	-0.9117542
91	0x40508f97	3.258764
92	0x3f894043	1.0722736
93	0x3fa4c371	1.2872144
94	0x404879e9	3.1324408
95	0xbfedf62a	-1.8590748
96	0x402d61d1	2.7090952
97	0x3fca6240	1.5811234
98	0x3f0424c4	0.516186
99	0xc03f44cd	-2.9885743
100	0x401709d5	2.359975
101	0x40050aa5	2.0787747
102	0xc0006c94	-2.006627
103	0x3f119a33	0.56875914
104	0x4021118e	2.5166965
105	0xbfffb9b6	-1.997855
106	0xbe099e2f	-0.13439249
107	0x40180943	2.3755653
108	0xbff4f268	-1.9136477
109	0xbea56db5	-0.32310262
110	0xc00f1fbc	-2.236312
111	0x3fa2bfd3	1.271479
112	0x3f0c4b9d	0.54802877
113	0x400634bd	2.096969
114	0x3ff83382	1.9390719
115	0x3dd04ac7	0.10170513
116	0x3f8d8ebb	1.1059183
117	0x3f87f3de	1.0621297
118	0xbff3bb2f	-1.9041499
119	0xc001c5fc	-2.027709
120	0xc002005e	-2.0312724
121	0x400068b9	2.0063918
122	0x4024a72a	2.572703
123	0x3ff89665	1.9420897
124	0x40135d93	2.3025863
125	0x4013db81	2.3102725
126	0xc0146029	-2.3183692
127	0x3f3b2366	0.7310089

critic_network.4.weight f4 [1, 128]
0	0xc2e79218	-115.78534
1	0x42f81ee3	124.060326
2	0x42ff7981	127.73731
3	0xc2f6229b	-123.06759
4	0x42c9a631	100.82459
5	0xc306a994	-134.66241
6	0x42e3c9db	113.89425
7	0xc2e3f478	-113.97748
8	0x42ff1811	127.547005
9	0xc2e7da2a	-115.9261
10	0xc2d6b6e9	-107.35725
11	0xc30de868	-141.90784
12	0x430f70de	143.44089
13	0xc314aa36	-148.66489
14	0xc2f07bc7	-120.24175
15	0xc2e696ee	-115.294785
16	0x430be827	139.90685
17	0x43101bba	144.1083
18	0x430ffbcf	143.98363
19	0x42f3781d	121.7346
20	0x431328bf	147.15916
21	0xc3121e13	-146.11748
22	0x431183b0	145.5144
23	0x430d39bd	141.22554
24	0xc31259d7	-146.35094
25	0xc2eb1850	-117.547485
26	0xc2e0abd7	-112.335625
27	0xc3148a8a	-148.54117
28	0xc3137cf2	-147.48807
29	0x430fcda0	143.80322
30	0xc2c68547	-99.26031
31	0x4313a0f9	147.6288
32	0x42fe5cf3	127.18154
33	0x42dde8a3	110.95437
34	0xc3146b27	-148.41856
35	0xc2de3cdf	-111.11889
36	0xc30eb372	-142.70096
37	0xc302f50c	-130.95721
38	0xc2ec1afd	-118.05271
39	0xc2f498cd	-122.29844
40	0xc314abda	-148.6713
41	0xc313b13e	-147.69235
42	0xc3074620	-135.27393
43	0x430da6a4	141.65094
44	0xc3064626	-134.27402
45	0x4308b710	136.71509
46	0x42f6924f	123.28576
47	0x43003716	128.21518
48	0x42f17dc6	120.74565
49	0x42eed953	119.42446
50	0xc313ed0a	-147.92593
51	0x42f12ff9	120.5937
52	0x42d5203e	106.56297
53	0xc3130f4e	-147.05978
54	0x430e9d1b	142.6137
55	0xc2fe951d	-127.29124
56	0x42eba81e	117.828354
57	0x4305f6ce	133.96408
58	0x4306c289	134.7599
59	0xc31098eb	-144.59734
60	0x430c8d1c	140.55121
61	0x42f3ab39	121.83442
62	0x42e12470	112.57117
63	0x42e9da23	116.92605
64	0xc2e7254a	-115.57283
65	0xc2e3dc77	-113.930595
66	0x42f08ce7	120.2752
67	0xc2e87706	-116.23247
68	0x42ed24d4	118.57193
69	0x43097ea3	137.49467
70	0xc313db92	-147.8577
71	0x4308640f	136.39085
72	0x42e3fca8	113.99347
73	0xc303413e	-131.25485
74	0xc2e245de	-113.13646
75	0x42ffbe9a	127.87227
76	0x42e8d0ec	116.40805
77	0x42d83232	108.09804
78	0x43017272	129.44705
79	0xc3122028	-146.12561
80	0x430eafdc	142.68695
81	0xc2e26ea6	-113.21611
82	0x42de10fc	111.03317
83	0xc30ea6ba	-142.65128
84	0xc3143c73	-148.23613
85	0x42efec09	119.961006
86	0xc30db160	-141.69287
87	0x42ffdd9c	127.93283
88	0xc30f7d48	-143.48938
89	0x42f717fc	123.546844
90	0xc31095af	-144.5847
91	0xc2cd9700	-102.79492
92	0x4313005a	147.00137
93	0x4313476c	147.27899
94	0xc2d964a6	-108.69658
95	0xc314b145	-148.69246
96	0xc2d19256	-104.78581
97	0x431336b9	147.21376
98	0xc307e607	-135.89854
99	0x42cca950	102.33069
100	0xc2e4c703	-114.388695
101	0xc2e97436	-116.726974
102	0x42f0bf3a	120.37349
103	0x430f6c6f	143.42357
104	0xc2ebba70	-117.864136
105	0x42f99050	124.78186
106	0x4304ec76	132.92368
107	0xc2e26dc4	-113.214386
108	0xc3127038	-146.43835
109	0x4305f7c6	133.96786
110	0x42eb8365	117.75663
111	0x4310cc0b	144.79704
112	0xc306ee65	-134.93123
113	0xc2e6bed4	-115.37271
114	0x4314dbe6	148.85898
115	0x430b71cd	139.44453
116	0xc2ffa1ab	-127.81576
117	0xc3030c10	-131.04712
118	0x42f650c3	123.15774
119	0x42ea939f	117.28832
120	0x42ece169	118.440254
121	0xc2eca125	-118.314735
122	0xc2e221f0	-113.066284
123	0xc2f4cd89	-122.401436
124	0xc2e33f31	-113.62342
125	0xc2ecb431	-118.35194
126	0x42e4ed3c	114.46335
127	0xc304b652	-132.71219
