test_uav/model/critic_model13-10-2023_17-19-10/3410.pt (torch, 77887 bytes, 5 tensors)

critic_network.0.weight f4 [128, 17]
-0.020527693 0.38344678 -1.0471567 0.35048145 0.100030966 0.6291988 -0.12773965 -0.001083317
0.060346317 0.43593034 -0.7313979 -0.44700116 -1.2006432 -0.14515752 0.03503101 -0.17783186
-0.27160546 0.027403256 -0.5617263 -0.30607143 0.28407583 0.03412933 1.3187327 0.06094938
0.06778957 0.09720791 1.0646542 -0.0067233024 0.41494292 -0.22412607 -0.28109658 0.035878405
-0.014504623 -0.1483763 -0.16941866 0.23140796 -0.95035493 -0.12889236 -0.114518 0.0013563184
0.12456788 0.09881786 -0.17524718 -0.4239122 1.3129827 0.2182937 -0.67657906 -0.17912266
0.19476539 0.087108865 -0.17544675 -0.5681592 0.051869128 -0.7472026 -0.0305366 -0.34808642
-0.6756482 0.23729599 0.26662925 -0.21173683 0.66750264 0.30932295 1.0337118 -0.06933596
0.008809013 0.05850972 0.10251394 0.037184596 -0.2717402 -0.022565091 -0.4459993 0.18658106
0.07135472 0.78868693 0.053956814 0.10613015 0.21471421 -0.3391144 0.30158454 -1.5797309
1.0900068 -0.01865165 0.23626272 0.066337265 -0.1897444 -0.3402613 0.1614274 0.6511257
0.22937487 0.3966449 -0.29414046 -0.12755622 -0.009545608 -0.03454888 -0.7142921 -0.43708998
0.21643014 -0.6315498 0.13688168 -0.31930295 -0.0731848 0.112575345 0.46980715 0.4767747
-0.06098769 0.30790308 0.029697321 0.30205202 0.0753722 0.04406135 0.03164666 -0.0996303
-0.56270707 0.42997676 -0.28296506 0.006588833 0.08109271 -0.04420028 -0.039606355 -0.14531197
0.7581257 -0.41461098 0.7198228 -0.056167625 -0.3227278 -0.10403326 0.07377625 0.12100543
-1.2583313 0.27359596 1.8288872 -0.11401496 -0.10016132 -0.30930206 0.15823041 0.16204359
0.18802704 0.13966255 0.17482206 -0.1968233 0.27280617 -1.0638745 -0.12646446 -0.09184878
-0.04798029 -1.4765486 1.04971 0.1670069 1.1055399 0.076846085 0.08511673 0.098578215
0.20323047 -0.1618161 0.6049204 -0.8128518 -0.052980274 -0.00038200105 -0.6780121 -0.045050148
-0.00058048556 -0.0867356 0.89014184 -0.49390167 0.44379443 -0.7402627 -0.12678166 0.11654154
0.14282714 0.15542121 -0.08867305 -0.0471123 1.0268917 -0.058076855 0.12412107 0.46632734
-0.1904599 -0.10761609 0.24406601 0.049446993 0.24647634 -1.6547295 0.28722927 0.10559463
-0.06525319 -0.05979108 -0.121461704 -0.14041781 -0.09059001 -0.45998034 0.015154776 -0.28178665
0.2262548 -0.04037476 0.0088920975 0.261964 0.36181045 -0.20762445 0.057725247 0.20944983
-0.07239336 0.060214415 0.13291977 -0.15900359 0.018716982 -0.7699935 0.64645255 0.56373215
-0.11287807 0.33381283 -0.27620775 0.065026134 -0.111900836 1.2334709 0.07648456 2.2683947
0.6250051 -0.09837532 -0.18745989 -0.046005353 -0.073980905 0.29346856 0.29435366 -0.8709306
-0.17658508 -0.28305903 0.7429559 0.25398904 0.057403196 0.06196035 0.19251606 -0.23989016
0.05661032 -0.68636173 -0.04675363 0.2585917 -0.11241592 -0.37382543 -0.41040295 -0.2483603
0.37264025 0.1998679 0.19551376 -0.60316473 -0.2857311 -0.094532914 -0.31068566 0.6746059
0.086216435 -1.1568122 -0.23842429 0.13847536 0.09880513 -0.1364308 -0.007748064 -0.21507826
00000000: b129 a8bc 2353 c43e 3b09 86bf 4e72 b33e
00000010: 09dd cc3d 2c13 213f 2fce 02be 16fe 8dba
00000020: b32d 773d 4332 df3e e53c 3bbf 56dd e4be
00000030: adae 99bf 2ca4 14be ad7c 0f3d 8e19 36be
00000040: df0f 8bbe cb7c e03c 4bcd 0fbf 65b5 9cbe
00000050: 6372 913e 32cb 0b3d 3ccc a83f 0fa6 793d
00000060: 42d5 8a3d f114 c73d 9746 883f 264f dcbb
00000070: 6673 d43e 4e81 65be e4eb 8fbe 3cf5 123d
00000080: cca4 6dbc f5ef 17be 167c 2dbe 35f6 6c3e
00000090: 764a 73bf 5cfc 03be 6a88 eabd 7ec6 b13a
000000a0: 721d ff3d 0561 ca3d ff73 33be 050b d9be
000000b0: d10f a83f 6288 5f3e 4934 2dbf ee6b 37be
000000c0: 9470 473e 2266 b23d 50a8 33be e272 11bf
000000d0: b974 543d ab48 3fbf e427 fabc 6238 b2be
000000e0: 48f7 2cbf b8fd 723e a183 883e 8ad1 58be
000000f0: 74e1 2a3f 945f 9e3e ab50 843f 0300 8ebd
00000100: ae53 103c e3a7 6f3d d4f2 d13d e04e 183d
00000110: 8821 8bbe 6dda b8bc 055a e4be 1b0f 3f3e
00000120: 6c22 923d 63e7 493f d201 5d3d c45a d93d
00000130: 0bde 5b3e 67a0 adbe 4a69 9a3e 9f34 cabf
00000140: 5885 8b3f 58cb 98bc dbee 713e d5db 873d
00000150: 5b4c 42be bb36 aebe 394d 253e 2db0 263f
00000160: 3fe1 6a3e 0a15 cb3e 9499 96be 199e 02be
00000170: 2f65 1cbc 2083 0dbd d9db 36bf 42ca dfbe
00000180: dd9f 5d3e 3fad 21bf b62a 0c3e ad7b a3be
00000190: eae1 95bd e78d e63d 908a f03e d01b f43e
000001a0: 3ace 79bd 79a5 9d3e cc47 f33c 90a6 9a3e
000001b0: bd5c 9a3d ad79 343d ee9f 013d f90a ccbd
000001c0: 920d 10bf ea25 dc3e cce0 90be 23e7 d73b
000001d0: ef13 a63d 5a0b 35bd 463a 22bd a9cc 14be
000001e0: 8714 423f e447 d4be 4f46 383f 0610 66bd
000001f0: 943c a5be 640f d5bd 0118 973d b2d1 f73d
00000200: 0011 a1bf c514 8c3e fa18 ea3f ad80 e9bd
00000210: 6121 cdbd d75c 9ebe 2707 223e c1ee 253e
00000220: 298a 403e b303 0f3e 8e04 333e 0c8c 49be
00000230: 40ad 8b3e 0a2d 88bf e67f 01be 371b bcbd
00000240: fb86 44bd 8bff bcbf e65c 863f db03 2b3e
00000250: 5582 8d3f 7b61 9d3d ae51 ae3d 60e3 c93d
00000260: a61b 503e 1fb3 25be 10dc 1a3f 0e17 50bf
00000270: d801 59bd 5047 c8b9 3392 2dbf 8186 38bd
00000280: ba2b 18ba 6fa2 b1bd 56e0 633f aee0 fcbe
00000290: 0639 e33e db81 3dbf 0dd3 01be 55ad ee3d
000002a0: 4741 123e bd26 1f3e 379a b5bd d4f8 40bd
000002b0: 3071 833f ffe1 6dbd 3033 fe3d 75c2 ee3e
000002c0: ec07 43be d365 dcbd 71ec 793e ee88 4a3d
000002d0: 4b64 7c3e 2dce d3bf b70f 933e ff41 d83d
000002e0: 77a3 85bd 7ee7 74bd eac0 f8bd b0c9 0fbe
000002f0: 4187 b9bd 8b82 ebbe bd4b 783c 5746 90be
00000300: 57af 673e 0160 25bd 29b0 113c 2520 863e
00000310: 383f b93e 819b 54be 4f71 6c3d 047a 563e
00000320: f842 94bd 64a3 763d 1f1c 083e d6d1 22be
00000330: 5b54 993c 4b1e 45bf ea7d 253f c050 103f
00000340: 9e2c e7bd 84e9 aa3e 1a6b 8dbe 6c2c 853d
00000350: 442c e5bd 60e2 9d3f f0a3 9c3d 612d 1140
00000360: 5600 203f 0079 c9bd 7cf5 3fbe 1c70 3cbd
00000370: 4d83 97bd 8341 963e 86b5 963e 4ff5 5ebf
00000380: b8d2 34be 1ded 90be 5c32 3e3f da0a 823e
00000390: 9d1f 6b3d 23ca 7d3d ee22 453e c4a5 75be
000003a0: 39e0 673d 67b5 2fbf bc80 3fbd 2266 843e
000003b0: 513a e6bd 0c66 bfbe 5620 d2be 2a52 7ebe
000003c0: b4ca be3e 2caa 4c3e c234 483e 0169 1abf
000003d0: 594b 92be 799a c1bd 3112 9fbe f9b2 2c3f
000003e0: 3e92 b03d 6c12 94bf 7f25 74be 7ccc 0d3e
000003f0: 585a ca3d 84b4 0bbe 79e3 fdbb 7a3d 5cbe

critic_network.0.bias f4 [128]
0.84508413 -0.2319655 -0.42992526 -0.7773861 0.07541409 0.09092315 -0.98412585 -0.472156
-0.1866272 0.3279099 0.2863663 0.5016773 -0.12349292 -0.5036513 0.7526185 -0.8845304
1.1764746 0.16201562 -0.6019557 -0.29631865 0.68255055 -0.95128393 0.8234014 -0.976211
-0.38874498 0.11617115 -0.72240543 -0.50956506 0.72864735 0.47424042 -0.34651768 -0.821654
1.8815068 -0.08738673 0.89398175 -0.8239257 -0.523241 -0.21543595 -0.30469337 -0.53698695
0.54115844 0.94626504 -1.5492212 -0.3602519 -0.4569097 -0.30980712 -1.1045604 -1.0898377
-0.67039305 0.6237857 -0.8517042 0.6200165 0.109889604 -0.9913876 -1.0531527 0.7335175
-0.32556492 -0.95924234 -0.3798157 -0.39953318 0.11737635 1.0673429 0.14055239 0.54851377
-0.9438736 -0.30709535 -1.6339693 -0.18406647 1.3910717 1.1480871 0.16108727 -0.17211816
-0.8547837 1.2746638 -0.10413779 -0.4115641 -0.33089644 1.4358513 0.16330811 -0.7251067
-1.7534183 0.28258684 0.84074545 -0.59808457 0.40894148 0.8398595 1.4744842 0.25707847
-0.37547815 0.31856427 -0.6865929 -0.11137772 -0.46564874 0.062914714 0.6333733 0.5103215
-0.6798462 0.80826634 0.29597077 0.9970378 -0.27653667 0.7536229 -0.5165344 0.20279033
-0.5946916 1.1149325 2.1585581 0.72242516 0.47304597 -0.058752436 -0.7081014 -0.7385242
-3.816993 -1.2303259 -1.65337 -0.5101996 0.87295204 0.4111018 0.29593405 0.791072
-0.6598799 0.53570247 -0.5402089 -0.18000129 2.2717474 -0.91604245 -0.9700442 1.6623218
00000000: 6f57 583f 5d88 6dbe 2a1f dcbe c702 47bf
00000010: b472 9a3d eb35 ba3d acef 7bbf 6ebe f1be
00000020: 331b 3fbe cee3 a73e 9b9e 923e ec6d 003f
00000030: dbe9 fcbd 4bef 00bf 9bab 403f 9670 62bf
00000040: b896 963f 6ce7 253e c519 1abf 14b7 97be
00000050: a2bb 2e3f 5887 73bf 6fca 523f f7e8 79bf
00000060: 9509 c7be 24eb ed3d 90ef 38bf db72 02bf
00000070: a288 3a3f a4cf f23e c46a b1be eb57 52bf
00000080: 37d5 f03f d0f7 b2bd fddb 643f cbec 52bf
00000090: 1ff3 05bf 3e9b 5cbe c500 9cbe fa77 09bf
000000a0: 5c89 0a3f 6d3e 723f e14c c6bf f072 b8be
000000b0: 11f0 e9be 0a9f 9ebe 3c62 8dbf cd7f 8bbf
000000c0: e19e 2bbf 6bb0 1f3f 4909 5abf 67b9 1e3f
000000d0: cd0d e13d 94cb 7dbf b5cd 86bf cec7 3b3f
000000e0: 72b0 a6be e890 75bf 3477 c2be 9d8f ccbe
000000f0: 0363 f03d b19e 883f f7ec 0f3e 666b 0c3f
00000100: b3a1 71bf 9a3b 9dbe e825 d1bf ec7b 3cbe
00000110: a30e b23f 85f4 923f 10f4 243e be3f 30be
00000120: 1bd3 5abf 2f28 a33f 3246 d5bd 88b8 d2be
00000130: 426b a9be fac9 b73f 3e3a 273e 98a0 39bf
00000140: 0370 e0bf 39af 903e 183b 573f 121c 19bf
00000150: c760 d13e 0801 573f e6bb bc3f ca9f 833e
00000160: ac3e c0be db1a a33e 8dc4 2fbf 011a e4bd
00000170: 8369 eebe 6ed9 803d c124 223f 6ea4 023f
00000180: 670a 2ebf 8bea 4e3f 7b89 973e df3d 7f3f
00000190: 3796 8dbe 6eed 403f 993b 04bf 45a8 4f3e
000001a0: b53d 18bf 1cb6 8e3f d125 0a40 dbf0 383f
000001b0: 1533 f23e 65a6 70bd 2246 35bf ec0f 3dbf
000001c0: 9d49 74c0 527b 9dbf a1a1 d3bf 719c 02bf
000001d0: c979 5f3f ef7b d23e ab84 973e b283 4a3f
000001e0: e4ed 28bf cc23 093f 214b 0abf 4252 38be
000001f0: 4f64 1140 c281 6abf d154 78bf f6c6 d43f

critic_network.2.weight f4 [128, 128]
-0.14453512 -0.35063696 -1.8966169 -0.9372667 0.012619711 -0.0055122324 0.21379425 -0.34963554
-0.59853524 0.24753664 -0.7596935 -0.3091329 -0.12469515 -0.99502915 -1.1078578 -1.5995871
1.5154238 -1.0944303 0.75997895 -1.401638 0.2744484 -0.1663262 0.034783 -0.16020784
0.5325406 0.27939513 -0.18008272 -1.8584539 -2.760812 -1.1345977 1.3083029 1.2015209
0.36536434 -0.98256975 1.2385881 -0.3478709 -0.31857303 -0.5449231 -2.7750998 1.0675113
0.8532075 0.4298034 0.69780344 -0.8825607 -0.45065618 0.057675693 -1.3065408 0.9088461
-0.5624132 -0.19711854 1.5369039 -0.47276473 1.9131933 -0.6124682 -0.9435853 -0.37664115
1.0035255 -0.050188426 1.7702961 -0.60500276 0.12132817 -1.076905 0.80486286 1.1244501
-0.33860278 0.590224 2.900101 -0.8180419 0.95127314 -1.23841 -1.7256278 0.42196378
1.3326254 0.72486883 0.21215709 0.40992993 2.546572 -0.06246018 -1.772601 -0.7056315
-3.2641888 0.4471032 -0.1502704 -0.8678095 -0.45657367 -0.23846649 3.5144043 0.36152354
0.98426646 -2.343611 1.3119174 -1.3457958 1.4276972 1.2356688 -0.44709757 0.4606945
1.7242758 0.20884584 -1.6056604 -1.4406754 -0.5086198 0.7952659 -0.32689586 0.6307602
1.1837916 3.9852648 6.4571548 -1.0204834 1.9104226 0.18450232 2.658961 0.9539022
-1.5793012 1.3963567 0.37348554 -1.5846887 -0.8510815 -1.7654786 1.2228876 1.0308784
1.2031671 1.2072186 0.045650646 -1.031778 -2.4609451 0.8784494 2.7628946 -0.6879592
-1.332263 0.35353988 0.15829805 0.07049604 0.446128 -1.0728745 -0.8479726 0.76829857
0.7204563 1.0746434 -0.25030097 2.622514 -0.7618718 0.5429677 0.36318585 -0.85270345
-0.21531826 1.1870874 -0.3443829 1.1756091 -0.9460619 0.6668723 0.18794419 -1.0459443
0.04638641 -0.89645517 0.5164253 0.9581697 1.1038897 0.010158217 -1.4583076 -0.5082015
-0.46151915 1.3417498 -0.2454373 -0.40604025 -2.56605 0.853466 0.3585435 -1.3864623
0.51128066 -0.3232407 0.017155465 -0.6389091 -1.8588454 0.07613841 0.7548899 0.07377571
0.5578381 -0.9140389 0.9521658 -1.7930226 0.38523608 0.65933 0.9249521 0.74444604
-0.19344075 -0.3467799 -2.363926 1.7261742 0.35152367 0.5659973 -1.5260053 0.12368035
0.04587156 -0.96630317 -3.402105 -1.2275195 -0.3673713 -0.43821275 0.6778544 -0.56043667
0.66382986 -1.9001464 0.2769289 0.64428025 1.0179108 1.5712856 1.6977373 0.70851254
2.112696 0.1818303 2.0606177 0.7520537 -0.48183173 -1.3258812 -0.06617359 -0.56407017
1.6431711 1.9815592 -0.6392793 0.006084224 -0.852809 0.21995883 -0.90724045 1.4457828
-1.307313 0.79689986 0.13533643 2.8484576 0.96197987 -0.9104881 -0.4402956 -0.28161517
-0.75795 -5.9503903 -7.625486 1.0129728 0.23610908 1.0360483 -2.4571772 -0.8942333
1.5679226 -0.4302211 -0.5112068 -0.78968006 -0.17290184 0.23519433 0.15434417 -2.3478014
-0.42405042 0.74819267 0.9012497 0.7837497 3.7726865 -0.005741898 -0.38179487 1.8670709
00000000: 0401 14be b086 b3be 58c4 f2bf b6f0 6fbf
00000010: e8c2 4e3c f59f b4bb e1ec 5a3e 6e03 b3be
00000020: 9b39 19bf 3f7a 7d3e 467b 42bf ab46 9ebe
00000030: 2c60 ffbd 3bba 7ebf 49ce 8dbf 45bf ccbf
00000040: 68f9 c13f 4b16 8cbf fb8d 423f e068 b3bf
00000050: 8084 8c3e 6a51 2abe 9e78 0e3d 860d 24be
00000060: 9554 083f e10c 8f3e 9b67 38be d1e1 edbf
00000070: 25b1 30c0 7f3a 91bf 7876 a73f 70cb 993f
00000080: 0911 bb3e b189 7bbf 0e8a 9e3f 221c b2be
00000090: 011c a3be 1580 0bbf 3c9b 31c0 36a4 883f
000000a0: cf6b 5a3f 310f dc3e 3fa3 323f 7fef 61bf
000000b0: 68bc e6be 593d 6c3d bb3c a7bf 23aa 683f
000000c0: 50fa 0fbf 71d9 49be 44b9 c43f 380e f2be
000000d0: 85e3 f43f b7ca 1cbf ce8e 71bf 1cd7 c0be
000000e0: 8673 803f 6192 4dbd 1099 e23f 76e1 1abf
000000f0: e77a f83d 06d8 89bf 7e0b 4e3f fbed 8f3f
00000100: 585d adbe ec18 173f 419b 3940 326b 51bf
00000110: a386 733f 3884 9ebf 5fe1 dcbf a30b d83e
00000120: 7893 aa3f 0191 393f b53f 593e 56e2 d13e
00000130: 09fb 2240 3fd6 7fbd 97e4 e2bf 44a4 34bf
00000140: 78e8 50c0 b6ea e43e 7ce0 19be c328 5ebf
00000150: 06c4 e9be 8f30 74be 00ec 6040 9d19 b93e
00000160: e3f8 7b3f b9fd 15c0 e9ec a73f 0943 acbf
00000170: c8be b63f 652a 9e3f f9e9 e4be 26e0 eb3e
00000180: 12b5 dc3f afdb 553e 4886 cdbf 0d68 b8bf
00000190: e834 02bf 8c96 4b3f e55e a7be 8079 213f
000001a0: 7c86 973f 940e 7f40 03a1 ce40 339f 82bf
000001b0: ba88 f43f 2dee 3c3e 6b2c 2a40 ef32 743f
000001c0: 8b26 cabf d1bb b23f 7f39 bf3e 14d7 cabf
000001d0: 7ae0 59bf 34fb e1bf 9587 9c3f d3f3 833f
000001e0: 6101 9a3f 2486 9a3f 2cfc 3a3d 4d11 84bf
000001f0: 2080 1dc0 0fe2 603f 44d3 3040 181e 30bf
00000200: 9887 aabf 2e03 b53e e218 223e 3a60 903d
00000210: e46a e43e f453 89bf bb14 59bf 37af 443f
00000220: d36f 383f ea8d 893f 7327 80be 45d7 2740
00000230: 080a 43bf eeff 0a3f 7ff3 b93e c64a 5abf
00000240: 647c 5cbe 7bf2 973f f552 b0be 5c7a 963f
00000250: 1d31 72bf 25b8 2a3f 7174 403e 81e1 85bf
00000260: adff 3d3d 167e 65bf 7334 043f 9c4a 753f
00000270: 424c 8d3f a66e 263c d3a9 babf 7e19 02bf
00000280: 3d4c ecbe 75be ab3f ea53 7bbe 82e4 cfbe
00000290: 2a3a 24c0 bf7c 5a3f 0393 b73e 9977 b1bf
000002a0: 4ae3 023f ce7f a5be 9e89 8c3c 8c8f 23bf
000002b0: a5ee edbf 74ee 9b3d 7740 413f b817 973d
000002c0: 7ace 0e3f 74fe 69bf 23c1 733f c481 e5bf
000002d0: aa3d c53e dac9 283f a9c9 6c3f 0494 3e3f
000002e0: 5515 46be 238d b1be 904a 17c0 47f3 dc3f
000002f0: e9fa b33e 33e5 103f 2454 c3bf 204c fd3d
00000300: d1e3 3b3d a55f 77bf 17bc 59c0 5c1f 9dbf
00000310: 1718 bcbe 6c5d e0be de87 2d3f c778 0fbf
00000320: c1f0 293f ff37 f3bf a0c9 8d3e 8def 243f
00000330: e74a 823f e31f c93f 754f d93f 1461 353f
00000340: 6936 0740 b931 3a3e 29e1 0340 9786 403f
00000350: a6b2 f6be 7ab6 a9bf 0586 87bd e766 10bf
00000360: 6e53 d23f bba3 fd3f cfa7 23bf 2c5e c73b
00000370: b151 5abf e33c 613e e940 68bf 690f b93f
00000380: 0856 a7bf a101 4c3f a295 0a3e 214d 3640
00000390: 5044 763f c015 69bf 6d6e e1be dd2f 90be
000003a0: 0309 42bf 9969 bec0 fb03 f4c0 18a9 813f
000003b0: 94c6 713e 3b9d 843f 6442 1dc0 79ec 64bf
000003c0: b0b1 c83f f145 dcbe 73de 02bf 7928 4abf
000003d0: 2e0d 31be c8d6 703e 660c 1e3e 6142 16c0
000003e0: 231d d9be 8e89 3f3f 4db8 663f d2a3 483f
000003f0: b273 7140 8826 bcbb 9e7a c3be 2efc ee3f

critic_network.2.bias f4 [128]
3.976203 -3.6141708 -3.0167322 3.7043316 -6.0894036 -1.0613066 -3.7095559 2.998091
-0.15739757 3.0097594 4.6602545 -1.1357607 1.6925814 -2.905701 2.7523355 1.3898958
-0.5711988 1.4307871 1.8421787 -3.2817287 3.004011 -2.418608 2.5064974 -2.592564
-3.2749357 3.4989812 3.9837835 -3.1534297 -2.3295138 2.8080828 4.962512 3.4692256
-2.1548567 -3.4546375 -2.2160292 3.6042516 -1.4173307 1.974326 4.3687243 1.7770096
-2.7808912 -3.3058 -0.9639567 -0.91524553 3.6024709 -1.3387883 -3.5846782 -3.7172666
-3.6887436 -4.274505 -2.8690717 -4.09797 -3.6765435 -2.1604369 0.96063566 2.9132602
-3.946097 -0.6911531 -2.42454 -0.91957617 2.2712061 -3.9046988 -2.9210238 -2.5102496
4.8219347 4.0593505 -3.5505092 4.6983485 -3.1042383 -3.0166087 -2.3099957 0.006163385
-2.9039178 1.7109041 3.1828659 -2.0489895 -3.3067048 -5.4324365 -3.2325544 -2.3162487
1.5363582 3.427889 -4.8962116 -0.30595475 -3.215921 -2.8902469 -1.8779935 -1.0470114
-1.7790462 -3.7702367 -1.7803153 4.469923 2.664573 1.6990255 4.1250257 -2.84196
3.5768611 3.5605261 0.8559542 -3.1055493 2.8908896 3.5877948 -3.8624706 2.0900824
4.062389 -3.273961 0.25267 3.1030712 -1.0814205 -1.5126185 -4.217748 1.8138555
3.0242856 3.7520738 3.7246938 0.92533547 2.6492453 1.3680143 -2.4452405 -3.822398
-2.244186 4.1758657 3.4020493 3.0227041 3.1586 3.800257 -3.3169737 2.1309621
00000000: 1c7a 7e40 934e 67c0 2412 41c0 c513 6d40
00000010: 65dc c2c0 e5d8 87bf 5d69 6dc0 b9e0 3f40
00000020: d42c 21be e69f 4040 ce20 9540 9b60 91bf
00000030: 82a6 d83f 01f7 39c0 4426 3040 1be8 b13f
00000040: 163a 12bf 0824 b73f 83cc eb3f d807 52c0
00000050: b741 4040 79ca 1ac0 746a 2040 92ec 25c0
00000060: 8c98 51c0 4fef 5f40 4ff6 7e40 cbd1 49c0
00000070: c116 15c0 a1b7 3340 e6cc 9e40 cb07 5e40
00000080: 2ce9 09c0 c818 5dc0 6cd3 0dc0 0fac 6640
00000090: 186b b5bf b7b6 fc3f 97cc 8b40 0d75 e33f
000000a0: 1ffa 31c0 3a92 53c0 dec5 76bf 884d 6abf
000000b0: e28e 6640 6a5d abbf 5e6b 65c0 b2e7 6dc0
000000c0: 6014 6cc0 bfc8 88c0 df9e 37c0 9222 83c0
000000d0: 7d4c 6bc0 9944 0ac0 38ec 753f db72 3a40
000000e0: da8c 7cc0 69ef 30bf aa2b 1bc0 5869 6bbf
000000f0: 715b 1140 96e6 79c0 0ef2 3ac0 eea7 20c0
00000100: 4a4d 9a40 33e6 8140 8b3b 63c0 df58 9640
00000110: d7ab 46c0 1e10 41c0 f8d6 13c0 39f6 c93b
00000120: cad9 39c0 e8fe da3f 13b4 4b40 a522 03c0
00000130: 0da1 53c0 85d6 adc0 2ce2 4ec0 6b3d 14c0
00000140: 63a7 c43f 8962 5b40 c4ad 9cc0 1aa6 9cbe
00000150: a6d1 4dc0 cef9 38c0 1762 f0bf 7804 86bf
00000160: c9b7 e3bf 8f4b 71c0 5fe1 e3bf 9c09 8f40
00000170: 5d88 2a40 ab79 d93f 3600 8440 ace2 35c0
00000180: 4beb 6440 a9df 6340 d01f 5b3f 52c1 46c0
00000190: 5604 3940 6e9e 6540 b832 77c0 e9c3 0540
000001a0: 17ff 8140 9488 51c0 f65d 813e b898 4640
000001b0: fd6b 8abf 7c9d c1bf cbf7 86c0 6b2c e83f
000001c0: e58d 4140 fa21 7040 6261 6e40 c9e2 6c3f
000001d0: 3c8d 2940 181b af3f d27e 1cc0 2ba2 74c0
000001e0: bea0 0fc0 b1a0 8540 2dbb 5940 fc73 4140
000001f0: 8126 4a40 6937 7340 4c49 54c0 af61 0840

critic_network.4.weight f4 [1, 128]
-120.16665 127.36286 136.49196 -126.910095 104.16532 -176.24579 121.74835 -125.134094
159.54416 -126.528114 -109.49179 -170.55984 181.1061 -190.74016 -133.69075 -121.114815
168.112 176.96617 185.673 133.63982 190.7709 -185.16858 187.62578 153.39304
-189.24045 -124.11442 -118.816414 -190.43939 -186.47198 185.12814 -100.174095 191.02191
136.03218 117.83852 -185.96846 -119.4647 -183.10504 -138.4933 -123.16239 -133.71574
-187.51466 -193.29816 -162.6266 162.93163 -140.47311 152.50755 127.23867 135.76447
130.89583 123.428825 -190.85362 122.69014 113.48173 -190.39821 182.47185 -140.48837
119.84218 154.2155 153.88014 -180.749 182.96252 130.6713 122.723785 134.04103
-116.801254 -118.033676 121.25488 -116.453224 125.11819 138.92407 -189.56943 164.0397
118.190895 -146.96135 -124.61369 144.71854 130.03 110.778595 134.51639 -185.8651
180.33368 -125.585266 114.471886 -172.38371 -192.07697 129.7954 -182.5981 150.33287
-183.94414 128.11162 -183.13821 -108.05819 190.35307 183.59631 -112.294075 -191.35054
-114.67463 188.8695 -159.87056 117.0952 -129.14093 -119.15919 126.7026 187.25761
-121.10324 128.99516 157.01295 -124.43798 -178.64125 148.76425 120.36462 186.11043
-142.65535 -117.406906 187.89429 172.50705 -137.12334 -149.72763 134.68674 120.65934
130.83731 -121.11406 -119.71747 -122.698364 -124.14129 -121.713425 126.41019 -147.06439
00000000: 5355 f0c2 c9b9 fe42 f17d 0843 f8d1 fdc2
00000010: a554 d042 ec3e 30c3 287f f342 a844 fac2
00000020: 4e8b 1f43 650e fdc2 ccfb dac2 528f 2ac3
00000030: 291b 3543 7bbd 3ec3 d5b0 05c3 c93a f2c2
00000040: ac1c 2843 57f7 3043 4aac 3943 cba3 0543
00000050: 5ac5 3e43 282b 39c3 33a0 3b43 9e64 1943
00000060: 8e3d 3dc3 953a f8c2 01a2 edc2 7c70 3ec3
00000070: d478 3ac3 ce20 3943 2359 c8c2 9c05 3f43
00000080: 3d08 0843 52ad eb42 edf7 39c3 eded eec2
00000090: e41a 37c3 497e 0ac3 2553 f6c2 3bb7 05c3
000000a0: c183 3bc3 544c 41c3 69a0 22c3 7fee 2243
000000b0: 1e79 0cc3 ef81 1843 337a fe42 b4c3 0743
000000c0: 55e5 0243 8fdb f642 87da 3ec3 5a61 f542
000000d0: a5f6 e242 f165 3ec3 cb78 3643 067d 0cc3
000000e0: 32af ef42 2b37 1a43 51e1 1943 bebf 34c3
000000f0: 68f6 3643 daab 0243 9472 f542 810a 0643
00000100: 3e9a e9c2 3e11 ecc2 8082 f242 0de8 e8c2
00000110: 833c fa42 90ec 0a43 c691 3dc3 2a0a 2443
00000120: bd61 ec42 1bf6 12c3 363a f9c2 f2b7 1043
00000130: ae07 0243 a48e dd42 3284 0643 77dd 39c3
00000140: 6c55 3443 a82b fbc2 9bf1 e442 3b62 2cc3
00000150: b413 40c3 9fcb 0143 1d99 36c3 3755 1643
00000160: b3f1 37c3 931c 0043 6223 37c3 cb1d d8c2
00000170: 635a 3e43 a898 3743 9196 e0c2 bd59 3fc3
00000180: 6959 e5c2 98de 3c43 ddde 1fc3 be30 ea42
00000190: 1424 01c3 8151 eec2 bb67 fd42 f341 3b43
000001a0: dc34 f2c2 c3fe 0043 5103 1d43 3fe0 f8c2
000001b0: 29a4 32c3 a6c3 1443 afba f042 451c 3a43
000001c0: c5a7 0ec3 56d0 eac2 f0e4 3b43 ce81 2c43
000001d0: 931f 09c3 46ba 15c3 ceaf 0643 9551 f142
000001e0: 5ad6 0243 663a f2c2 586f efc2 9065 f5c2
000001f0: 5748 f8c2 466d f3c2 04d2 fc42 7c10 13c3
