test_uav/model/critic_model13-10-2023_17-19-10/4030.pt (torch, 77887 bytes, 5 tensors)

critic_network.0.weight f4 [128, 17]
0	0x3e6b0d9b	0.22954409
1	0xbe93ba99	-0.288533
2	0xbf31b6df	-0.69419664
3	0xbea0b64f	-0.3138909
4	0xbeb505b7	-0.35355923
5	0xbeb2a91a	-0.3489464
6	0x3e9390dd	0.2882146
7	0xbdb499e8	-0.08818418
8	0x3e51f00e	0.2050173
9	0xbe45d30a	-0.19318786
10	0xbd9a0f6a	-0.07522471
11	0xbf650f7a	-0.8947674
12	0xbe0681dd	-0.13135476
13	0x3e530d68	0.20610583
14	0x3e28c072	0.16479662
15	0x3c614e93	0.013751644
16	0xbeef6941	-0.4675999
17	0xbe4dfd8d	-0.20116253
18	0xbe3b6f5f	-0.18304203
19	0x3f063815	0.52429324
20	0x3e0a8873	0.13528614
21	0x3e1cbe42	0.15306953
22	0x3eea19ec	0.45722902
23	0xbe903e94	-0.28172743
24	0xbd879024	-0.066192895
25	0x3cdce66c	0.026965342
26	0x3e6aed4d	0.22942086
27	0x3f1bde5e	0.6088618
28	0x3f8391ce	1.0278871
29	0xbc94224b	-0.018082758
30	0x3de099b6	0.10966818
31	0xbef85142	-0.48499495
32	0x3daa5296	0.08316533
33	0x3f03c8af	0.51478094
34	0xbe8ba889	-0.2727702
35	0xbe9448f9	-0.28961924
36	0xbddae640	-0.10688448
37	0xbec2207c	-0.3791541
38	0x3e31c8f6	0.17361817
39	0x3e31651b	0.17323725
40	0x3eadd7f4	0.33953822
41	0xbddbba7b	-0.10728928
42	0x3ead51f9	0.33851603
43	0xbc6b9431	-0.014378593
44	0xbf702bd5	-0.9381688
45	0xbfd6232b	-1.6729482
46	0xbf87fa6f	-1.0623301
47	0xbe16b830	-0.147187
48	0x3e0273d5	0.12739499
49	0xbd1ba87e	-0.038002484
50	0xbe3f84ed	-0.18703051
51	0x3dd6d41f	0.10489678
52	0x3efe9b97	0.4972808
53	0x3ec2c6c2	0.38042265
54	0x3f1c1b2f	0.6097898
55	0xbeb70a57	-0.35750076
56	0xbf1da813	-0.61584586
57	0x3c14acc2	0.009074392
58	0xbe211924	-0.15732247
59	0x3dbd02a1	0.09229017
60	0xbe764936	-0.24051365
61	0x3f6c60aa	0.92335
62	0xbf86b16b	-1.0522894
63	0x3d7bb281	0.06144953
64	0x3e7695fc	0.24080652
65	0xbea6c51b	-0.32572255
66	0xbd92e9f0	-0.07173526
67	0x3dff6237	0.12469905
68	0xbe31d82b	-0.17367618
69	0xbee1211f	-0.43970582
70	0xbf5c194d	-0.85976106
71	0xbe1eaa50	-0.15494657
72	0xbe86bf72	-0.26317936
73	0xbd510cc7	-0.051037576
74	0x3e1222fb	0.14271156
75	0xbd3fa4bf	-0.046787973
76	0x3d714da1	0.058911923
77	0xbf2b7111	-0.669694
78	0x3f81a981	1.0129853
79	0xbfdaa2c2	-1.708092
80	0x3f2c496e	0.67299545
81	0xbdbf90d0	-0.09353793
82	0x3ea80920	0.32819462
83	0xbd376d68	-0.044782072
84	0xbe81fe37	-0.25389263
85	0x3c2088ee	0.009798272
86	0x3ca55ffd	0.020187372
87	0xbec0c2d3	-0.3764864
88	0x3e8ba5b2	0.27274853
89	0xbcf383a7	-0.029725863
90	0x3eb0a199	0.3449829
91	0xbe76c258	-0.24097574
92	0xbc7b3935	-0.015333463
93	0x3e179c10	0.14805627
94	0x3e310ec4	0.17290789
95	0x3f288ae1	0.6583691
96	0xbf10785c	-0.56433654
97	0xbf01abb5	-0.5065263
98	0x3e5ca247	0.21546279
99	0xbdd34fc8	-0.103179514
100	0x3c62c378	0.013840549
101	0x3d6bcb8f	0.057567175
102	0xbd112a81	-0.035440926
103	0x3f1081e0	0.56448174
104	0xbd2f9999	-0.04287109
105	0xbd852bd0	-0.06502497
106	0x3e6c1f5f	0.23058842
107	0xbeda8939	-0.42682818
108	0xbe3937e7	-0.18087731
109	0xbd403a84	-0.046930805
110	0x3dd00c18	0.10158557
111	0x3d885d61	0.066584356
112	0x3d1101b8	0.03540203
113	0xbefd585c	-0.49481475
114	0xbdea6451	-0.11444915
115	0x3d789ceb	0.060696524
116	0xbe0831b8	-0.13300216
117	0x3bf5cc15	0.007501135
118	0x3dcd8dc7	0.100368075
119	0xbec558a6	-0.38544196
120	0x3ea600f4	0.32422602
121	0x3e787d8a	0.2426664
122	0x3df62419	0.12018604
123	0xbc458bb0	-0.01205723
124	0xbf8cf929	-1.1013538
125	0xbeeaba6c	-0.45845354
126	0x3c56ac15	0.013102551
127	0xbe8d39f1	-0.27583268
128	0x3f8c4858	1.0959578
129	0x3d306aa3	0.043070447
130	0xbd805804	-0.06266788
131	0xbea7d4fe	-0.32779688
132	0xbc6339e4	-0.013868783
133	0xbc00a808	-0.007852562
134	0xbd8ad34b	-0.06778582
135	0x3db09871	0.08622826
136	0xbcbce9e5	-0.023060748
137	0xbe3bd61c	-0.18343395
138	0xbf582e91	-0.84446055
139	0x3ed1efae	0.41003174
140	0x3da825a2	0.08210303
141	0x3edac060	0.42724895
142	0xbea7d53c	-0.32779872
143	0xbdc96c6a	-0.098351315
144	0x3e1213d4	0.14265376
145	0xbf049475	-0.5178903
146	0xbd438588	-0.047734767
147	0xbe513b71	-0.20432831
148	0xbdaf694b	-0.08565005
149	0x3e793eb4	0.24340326
150	0xbcc27877	-0.023739083
151	0xbd44c196	-0.04803618
152	0x3b267fac	0.0025405688
153	0xbd9025a9	-0.07038433
154	0x3c846103	0.01615954
155	0xbf6c0f17	-0.92210525
156	0x3e3058cf	0.17221378
157	0xbe1438bf	-0.14474772
158	0xbde2d6ee	-0.11076151
159	0xbda4e1f0	-0.08050907
160	0x3bfedd65	0.007777857
161	0xbe429549	-0.1900226
162	0x3ecd1c79	0.40060785
163	0xbe272643	-0.1632319
164	0x3f978411	1.1837178
165	0x3f0bce82	0.5461198
166	0x3da81d0e	0.08208667
167	0x3beda0fa	0.007251856
168	0xbd70ced2	-0.05879099
169	0x3d3585fd	0.044317234
170	0xbea6cf0b	-0.32579836
171	0xbf0548db	-0.52064294
172	0x3f7914d7	0.97297424
173	0x3ef4185e	0.4767484
174	0x3e585f77	0.21130167
175	0xbe480c79	-0.19536008
176	0x3e0697f5	0.13143905
177	0x3d9fd4eb	0.07804283
178	0x3e0abb57	0.13548027
179	0xbeb11a08	-0.34590173
180	0xbe7758c4	-0.24154955
181	0xbdb9a067	-0.090637974
182	0x3d93c039	0.07214398
183	0xbcd40df2	-0.025885556
184	0xbdf5d2dc	-0.12003109
185	0xbc1ac91b	-0.009447361
186	0x3daee2cc	0.08539352
187	0xbe126baa	-0.14298883
188	0xbf3c8e51	-0.7365466
189	0x3dafb858	0.08580083
190	0xbe94d754	-0.29070532
191	0xbdd5769d	-0.10423014
192	0x3dd494fe	0.103799805
193	0x3e95e352	0.29274994
194	0xbd56a559	-0.05240378
195	0x3db82614	0.08991638
196	0xbe966d51	-0.29380277
197	0x3ecf72c5	0.4051725
198	0xbf2ed8c7	-0.68299526
199	0xbe4cd755	-0.20004018
200	0x3de5ba54	0.1121718
201	0x3c8531d7	0.016259117
202	0xbd8e0791	-0.06935037
203	0x3c2fbf58	0.010726772
204	0xbd1c5e2e	-0.038175754
205	0x3dc76223	0.09735515
206	0x3d9968f3	0.074907206
207	0xbe4e6526	-0.20155773
208	0xbdc3e517	-0.0956518
209	0xbeabe913	-0.3357626
210	0x3df0f522	0.117655054
211	0x3d17964c	0.03700857
212	0x3e43f128	0.19134963
213	0x3ea0131c	0.3126458
214	0xbeb18c27	-0.3467724
215	0xc013e03d	-2.3105614
216	0x3d7a8f45	0.06117179
217	0xbcd49bd4	-0.02595321
218	0x3ee5a397	0.44851372
219	0xbe1dabf8	-0.15397632
220	0xbf123eca	-0.5712706
221	0xbed3496c	-0.41266954
222	0x3e863ebd	0.2621974
223	0xbee8a391	-0.4543729
224	0xbd1b147a	-0.037861325
225	0xbd10cbea	-0.035350718
226	0xbedc9d3c	-0.4308871
227	0xbe63e288	-0.22254384
228	0x3bc6e845	0.006070169
229	0xbe01ebe5	-0.12687643
230	0xb99eb13a	-0.00030268152
231	0x3e9ed65b	0.31022915
232	0xbed80c22	-0.42196757
233	0x3ec2ca60	0.38045025
234	0xbdac5f60	-0.08416629
235	0x3e85b5aa	0.2611516
236	0x3dabbf4b	0.083860956
237	0xbe0b7296	-0.1361793
238	0xbde03711	-0.10948003
239	0xbd624d05	-0.055249233
240	0xbf82bc6a	-1.021375
241	0xbeffe9c6	-0.49983042
242	0xbddadb0f	-0.10686313
243	0x3e7de6fb	0.24795143
244	0x3d0f6cd8	0.03501591
245	0xbd1ce3a2	-0.038303025
246	0xbe634ce1	-0.22197296
247	0x3eea7a8d	0.45796624
248	0x3f424069	0.7587953
249	0xbf8c5468	-1.0963259
250	0xbc630efd	-0.013858554
251	0x3da9ee6b	0.08297428
252	0x3ecd7195	0.4012572
253	0xbc850ec6	-0.016242396
254	0xbe83df24	-0.2575618
255	0xbda6fcba	-0.081536725

critic_network.0.bias f4 [128]
0	0x3f792cff	0.97334284
1	0x3e74d8bb	0.23910801
2	0x3e9fde98	0.31224513
3	0xbca29df7	-0.019850714
4	0x3e1e7686	0.154749
5	0xbe02cb8b	-0.12772958
6	0xbf69cceb	-0.91328305
7	0xbec1366f	-0.37736842
8	0x3d96d7bf	0.07365369
9	0xbf04bbc6	-0.5184902
10	0xbee47199	-0.44617918
11	0x3f2996ef	0.6624593
12	0x3e2e4bac	0.17021054
13	0xbfa2626e	-1.2686288
14	0x3e4448ef	0.19168447
15	0xbf343c51	-0.70404536
16	0x3fafaf62	1.3725398
17	0x3b5cb885	0.0033679318
18	0x3f1ce1c9	0.6128202
19	0xbe05170f	-0.12997077
20	0xbf9f755f	-1.2457694
21	0xbf1b1b1e	-0.6058825
22	0x3ebfaa93	0.37434825
23	0xbf7ecf53	-0.995351
24	0x3e9ad490	0.30240297
25	0xbee01ae5	-0.4377052
26	0xbf21bfdb	-0.63183373
27	0x3e8b6015	0.27221742
28	0x3f393dce	0.7235993
29	0x3f278f95	0.65453464
30	0xbf2be70d	-0.6714943
31	0xbe274364	-0.16334301
32	0x3fc9c5a1	1.5763437
33	0x3f106ea5	0.5641883
34	0xbebb417b	-0.36573395
35	0x3e1a4124	0.15063912
36	0x3e959229	0.29213074
37	0xbf44b17e	-0.7683333
38	0x3e7f763c	0.24947447
39	0x3d6a51d2	0.057206936
40	0x3f00e273	0.50345534
41	0xbee3b750	-0.44475794
42	0xbd2026c2	-0.039099462
43	0xbeccc41c	-0.3999337
44	0x3e8a0dff	0.26963803
45	0x3db4a8ac	0.08821234
46	0x3ee472ac	0.44618738
47	0xbf15c6d7	-0.5850653
48	0x3f8f19ee	1.1179788
49	0x3f2bd85f	0.6712703
50	0x3eee7fce	0.46581882
51	0x3ec8067c	0.39067447
52	0xbec3867f	-0.3818855
53	0xbf1f5035	-0.6223176
54	0xbf4c9911	-0.7992106
55	0x3e71c4eb	0.23610274
56	0xbf079855	-0.52966815
57	0xbf28801f	-0.658205
58	0x3e4299a3	0.1900392
59	0xbd87d66a	-0.06632693
60	0xbcb47cae	-0.022032108
61	0x3f5d297c	0.86391425
62	0xbf1545f9	-0.58309895
63	0xbe252d3a	-0.16130534
64	0xbfb25dcd	-1.3934876
65	0xbf9ff1ad	-1.2495629
66	0xbfd6e5c9	-1.6788875
67	0xbd53d23c	-0.051714167
68	0x3e2583dd	0.16163583
69	0xbe4313c7	-0.19050513
70	0x3f0aae70	0.5417242
71	0x3df91221	0.12161661
72	0xbe234b7d	-0.15946765
73	0xbf5964e0	-0.8491955
74	0x3f828da2	1.0199473
75	0xbf1cbce3	-0.6122572
76	0x3d7c7a34	0.06163998
77	0xbf0a711b	-0.54078835
78	0x3f1d1ef4	0.61375356
79	0x3e9cd673	0.30632362
80	0xbfe6dae8	-1.8035555
81	0x3f7e3043	0.9929239
82	0x3f8ba836	1.0910709
83	0xbf82d73c	-1.0221934
84	0x3eb4a206	0.35279864
85	0x3ee15a3f	0.44014165
86	0xbec2d085	-0.38049713
87	0x3e70608d	0.23474331
88	0x3d4cf9e0	0.050042987
89	0x3e8eee03	0.27915964
90	0x3e840cd2	0.2579103
91	0xbe5d4c65	-0.21611173
92	0xbdd25c26	-0.10271482
93	0xbd5a81af	-0.053346332
94	0x3e4b6c41	0.19865514
95	0xbe395a82	-0.18100932
96	0xbf3a8b5b	-0.7286889
97	0x3f9fe931	1.2493039
98	0x3edbce46	0.42930812
99	0x3f953fc8	1.166009
100	0xbb6575e1	-0.0035012888
101	0xbeb7a2c0	-0.35866356
102	0xbc30a71c	-0.0107820295
103	0xbe1299c9	-0.14316477
104	0x3e989bc0	0.29806328
105	0x3fc8042f	1.5626277
106	0x4019dc5e	2.4040751
107	0x3f9196d5	1.1374155
108	0x3df77ff9	0.12084956
109	0xbeea77bb	-0.45794472
110	0x3e4734b2	0.19453695
111	0x3ee3213e	0.443613
112	0xc01653ff	-2.3488767
113	0xbd286039	-0.04110739
114	0xbd1a206e	-0.037628584
115	0xbf208b52	-0.62712586
116	0x3fa27459	1.2691756
117	0x3f1a3b6c	0.6024692
118	0xbb999064	-0.004686402
119	0x3eb65be6	0.35616988
120	0xbf58b4b7	-0.8465075
121	0x3f1025c3	0.5630762
122	0x3e63473b	0.22195141
123	0x3f20d4a1	0.62824446
124	0x3fba04d6	1.4532726
125	0xbf8955a5	-1.0729262
126	0xbfad8f63	-1.3559383
127	0x3fac38b5	1.3454806

critic_network.2.weight f4 [128, 128]
0	0x3f3856c3	0.7200739
1	0xbfef0bab	-1.8675436
2	0xc04acfbe	-3.1689296
3	0xbfa7981f	-1.3093299
4	0x3ec56d36	0.38559884
5	0xbf669d6e	-0.9008397
6	0x3f9bbe1b	1.216739
7	0xbfaff0ed	-1.37454
8	0xbf5e75d5	-0.8689855
9	0x3f173824	0.5907004
10	0xbf9eda7e	-1.2410429
11	0xc0400254	-3.000142
12	0x3e067f0f	0.13134407
13	0xbef02f76	-0.4691121
14	0x3fde19f2	1.7351668
15	0xbfef949e	-1.8717229
16	0x3fa5ba50	1.2947483
17	0x3efff2c4	0.49989903
18	0xbee545b5	-0.44779745
19	0x3e942146	0.28931636
20	0x3db55eab	0.08855947
21	0x3fa4d762	1.287823
22	0xbfb9ee56	-1.4525859
23	0xbe200915	-0.15628465
24	0x3f53b631	0.8269988
25	0xbf1c0711	-0.6094828
26	0xbe9c1bb8	-0.30489898
27	0xbf2c5e50	-0.6733141
28	0xbfde6469	-1.7374393
29	0xbffedcf0	-1.9911175
30	0x400b0613	2.1722457
31	0x3f80401b	1.0019563
32	0xbd9eb45e	-0.07749246
33	0xbf32c62e	-0.6983365
34	0x3fa49a81	1.2859651
35	0xbf7e1e24	-0.9926474
36	0xbfa111fb	-1.2583612
37	0xbef101f1	-0.47071794
38	0xc03bdf4b	-2.9355037
39	0x3ee98d68	0.45615697
40	0x3fcc7459	1.5973006
41	0x3f7b32fb	0.98124665
42	0x3fb11b75	1.3836504
43	0xbfee75a5	-1.8629652
44	0xbf0d9822	-0.5531026
45	0x3ee08763	0.43853292
46	0xbfede93e	-1.8586805
47	0x3f5636a6	0.83677137
48	0xbe89be68	-0.2690308
49	0xbecf1a15	-0.40449587
50	0x3ffd0276	1.9766376
51	0x3fc82a99	1.5638
52	0x3e9d4ab1	0.30721048
53	0xbf758f9d	-0.9592226
54	0x3ddeddd4	0.10882154
55	0x3e1a0e0e	0.15044424
56	0x3f3d33b5	0.73907024
57	0xbfc5a2c8	-1.5440302
58	0x3f048783	0.51769274
59	0xbde6d2e8	-0.11270696
60	0x3fadabd4	1.3568063
61	0xbf9432b2	-1.1577971
62	0x3eda6735	0.42656866
63	0x3fec1c44	1.8446126
64	0x3e0e203f	0.13879488
65	0xbe532ad2	-0.20621803
66	0x405f348e	3.4875827
67	0xbec0c40f	-0.3764958
68	0x3f81f73a	1.0153573
69	0xc0009627	-2.0091646
70	0xc01ee714	-2.482854
71	0xbf411790	-0.7542658
72	0xbde13b5b	-0.10997649
73	0x3f920406	1.1407478
74	0x3f62335e	0.8835963
75	0x3ea37aa4	0.31929505
76	0x3f1b1622	0.60580647
77	0xbcb19900	-0.021679401
78	0xbfcc8dc9	-1.5980769
79	0xbf157d8d	-0.583947
80	0xc07615ae	-3.8450732
81	0xbf82b884	-1.021256
82	0xbfc4fb47	-1.5389184
83	0xbfaf87e7	-1.3713349
84	0xbe51290e	-0.20425817
85	0xbf502efd	-0.813217
86	0x408164b4	4.043543
87	0x3e803670	0.25041533
88	0x3f2300d9	0.6367317
89	0xbfc5a564	-1.5441098
90	0xbdf554f8	-0.11979097
91	0xbf838e9c	-1.0277896
92	0xbf0b76e8	-0.5447831
93	0x3fe76fe5	1.8081023
94	0x3eaba54f	0.33524558
95	0xbeb51897	-0.35370323
96	0x3f863b34	1.0486817
97	0x3e96926e	0.29408592
98	0xbf1c60b0	-0.61085033
99	0xbeb41153	-0.35169467
100	0xbf6c88c7	-0.92396206
101	0x3f518a30	0.8185148
102	0xbea2614e	-0.31714863
103	0x3f91b7ca	1.1384213
104	0x3f912fa0	1.1342659
105	0x3fb652a1	1.4243966
106	0x40d07b04	6.5150166
107	0xbe2ed6ea	-0.1707417
108	0x3f41711a	0.75563204
109	0x3f963e1a	1.1737702
110	0x4016fc29	2.3591406
111	0x3f26d200	0.65164185
112	0xbf79e757	-0.9761862
113	0x3fc7da07	1.5613412
114	0x3e9a2bb6	0.30111474
115	0xbd94c33c	-0.072638005
116	0xbfdda369	-1.7315494
117	0xbfdadc79	-1.7098533
118	0x3e7e14d8	0.24812639
119	0x3eccaea4	0.3997699
120	0x40365d3b	2.8494403
121	0xbf9cc5f8	-1.2247915
122	0x3fae2076	1.3603656
123	0x3d87f4bd	0.06638477
124	0xbfc3c6dc	-1.5295062
125	0x3f90d451	1.1314794
126	0x40404cd4	3.0046892
127	0xbf84ca92	-1.037432
128	0xbf9f076a	-1.2424138
129	0x3f857524	1.0426373
130	0xbead3be3	-0.33834752
131	0x3ef9448f	0.4868512
132	0x3e15c319	0.14625205
133	0xbfaab675	-1.3336931
134	0xbfbd859b	-1.4806398
135	0xbd7a1f8a	-0.061065234
136	0x3f9cc393	1.2247185
137	0x3ed5675c	0.4168042
138	0xbf832b97	-1.0247678
139	0x3fc998cf	1.5749758
140	0x3de6ce90	0.112698674
141	0xbf140089	-0.57813317
142	0x3e4ea183	0.201788
143	0x3f8a932f	1.0826167
144	0xbee5107a	-0.44739133
145	0x3fd2fb8e	1.6483018
146	0xbed0a672	-0.40751988
147	0x3eab9558	0.33512378
148	0x3d776e60	0.060407996
149	0x3e7fde8c	0.24987239
150	0x3b3e2b21	0.0029017406
151	0xbecc71c4	-0.39930546
152	0xbf0b8917	-0.5450606
153	0xbe9e4ded	-0.30918828
154	0xbe949828	-0.29022336
155	0x3f87c147	1.0605859
156	0x400e209d	2.2207406
157	0x3f900144	1.1250386
158	0x3e0c7e0a	0.13719955
159	0xbf7fa4bf	-0.9986076
160	0x3f93dd9c	1.1552005
161	0x3f72f2ad	0.94901544
162	0xbe968931	-0.29401544
163	0xbf1864fa	-0.5952908
164	0xbfce90b4	-1.613791
165	0x3ebeda1f	0.37275788
166	0xbf892ea4	-1.0717359
167	0xbfd96f17	-1.6987027
168	0x3e6248cb	0.22098081
169	0xbed4e429	-0.41580322
170	0x3f9ea625	1.2394453
171	0xbf8d8c01	-1.1058351
172	0x3cf7fb9e	0.030271348
173	0x3e40495a	0.18777981
174	0xbf47c73a	-0.7803837
175	0x3faaed61	1.3353692
176	0x3f347e50	0.7050524
177	0xbf1edb86	-0.62053716
178	0xbeed838a	-0.4638942
179	0xbf8638b6	-1.0486057
180	0x3f4fdebb	0.81199235
181	0xbeddcaf5	-0.43318906
182	0x3f94b8ff	1.1618956
183	0xbe0fb9bd	-0.14035697
184	0xbf0d30bc	-0.5515249
185	0xbf0f410a	-0.55958617
186	0xbfd4f434	-1.6637025
187	0x4042c2ce	3.04314
188	0xbd940256	-0.07227008
189	0x3d566f29	0.052352104
190	0xbf6d0171	-0.92580324
191	0x3dfc96a4	0.1233342
192	0xbe851966	-0.2599594
193	0xbe7a6006	-0.24450693
194	0xc04cb5aa	-3.198588
195	0x3df33f1f	0.11877274
196	0x3e2dc8a9	0.16971077
197	0xba73504a	-0.00092816784
198	0x3f073a5f	0.5282344
199	0xbf22faaa	-0.63663733
200	0xbe3bc063	-0.18335108
201	0xbe9439a0	-0.28950214
202	0x3e432353	0.19056444
203	0x3f8127bb	1.009025
204	0x3e3382d6	0.17530379
205	0x3f628607	0.8848576
206	0x3fbb4f97	1.4633664
207	0x3e6fc52a	0.23415056
208	0x3fc9b86b	1.5759405
209	0x3ec8edde	0.39243978
210	0x402069e3	2.5064628
211	0xbe1aaf21	-0.15105869
212	0xbef679f1	-0.4813991
213	0xbd7657ef	-0.060142454
214	0xbda5687d	-0.0807657
215	0x3ebcc9b4	0.36872637
216	0x3e9547a5	0.29156223
217	0x400cec40	2.2019196
218	0x3d7c1ca3	0.061550748
219	0xbe642a4b	-0.22281758
220	0xbf8b9353	-1.0904335
221	0x3e3cdc19	0.18443336
222	0xbc8b5795	-0.017009536
223	0xbf16dff4	-0.58935475
224	0xc020f296	-2.5148063
225	0x3fd5defb	1.6708673
226	0x3eab58db	0.3346623
227	0x40402a2c	3.002574
228	0x3e85702b	0.2606214
229	0xbc8a1caf	-0.01685938
230	0xbf62eef3	-0.8864586
231	0xbfd2144b	-1.6412443
232	0xbed7c29a	-0.42140657
233	0xc1110825	-9.064488
234	0xc10700f9	-8.437737
235	0x3fdb2ec2	1.7123644
236	0xbe706c35	-0.23478778
237	0x3f202c6a	0.6256777
238	0xc01abef3	-2.4179046
239	0x3ee7d571	0.4528003
240	0x3fc9c654	1.576365
241	0xbe8e00d6	-0.27735013
242	0x3f30491f	0.68861574
243	0xbef08685	-0.4697763
244	0xbe363b77	-0.17796122
245	0x3dc7ac03	0.097496055
246	0xbeb5401c	-0.35400474
247	0xc033f145	-2.811601
248	0x3f3bc65a	0.73349535
249	0x3f466f90	0.7751398
250	0xbec20363	-0.3789321
251	0x3ee74853	0.45172366
252	0x402698f3	2.6030853
253	0x3e907eb6	0.28221673
254	0xc007857a	-2.1175218
255	0x3fcd907f	1.6059722

critic_network.2.bias f4 [128]
0	0x4080d6cd	4.026221
1	0xc0a9c236	-5.3049574
2	0xc04175e6	-3.022821
3	0x408cdfa2	4.402299
4	0xc0e1bb2d	-7.0540986
5	0xbf604fa2	-0.8762151
6	0xc091d225	-4.5569024
7	0x402b7365	2.6789181
8	0xbf0391af	-0.5139417
9	0x4081cd61	4.0563207
10	0x40b8bf28	5.7733345
11	0xbff21de7	-1.8915375
12	0x4056df59	3.357382
13	0xc0262522	-2.5960164
14	0x406de090	3.7168312
15	0x3f06d63e	0.5267066
16	0xbf54a5e2	-0.8306562
17	0x3f9bb1ad	1.2163597
18	0x40461e30	3.0955925
19	0xc06797cd	-3.6186402
20	0x402ff271	2.7491724
21	0xc0301ce7	-2.751764
22	0x405bbf23	3.433541
23	0xc0837879	-4.108456
24	0xc09adf8a	-4.8397875
25	0x408e7dd5	4.4528604
26	0x40a21fd1	5.066384
27	0xc0804a5a	-4.009076
28	0xc00cb071	-2.1982691
29	0x406aeffe	3.670898
30	0x40a9074d	5.282141
31	0x407746e9	3.863703
32	0xc02ad8a6	-2.6694732
33	0xc092d9f5	-4.589106
34	0xc0612143	-3.5176551
35	0x40511add	3.2672646
36	0xbf4f96b5	-0.81089336
37	0x40543c98	3.3161983
38	0x40bb866a	5.860158
39	0x400d7b72	2.2106595
40	0xc0805cbe	-4.011321
41	0xbff80da4	-1.9379163
42	0xbfdc3b3f	-1.720558
43	0xbfa3c53b	-1.2794565
44	0x408fc854	4.493204
45	0xc024785e	-2.5698466
46	0xc071f8ac	-3.7808027
47	0xc0b75883	-5.7295547
48	0xc0911eb5	-4.5349984
49	0xc0a438d6	-5.131938
50	0xc032405c	-2.7851782
51	0xc0ac6d0f	-5.388313
52	0xc0448460	-3.0705795
53	0xc05c41e1	-3.441521
54	0x3f8a3c1a	1.0799592
55	0x40969d15	4.706675
56	0xc0b0154e	-5.5026007
57	0xbf4c2581	-0.79744726
58	0xc03a4458	-2.9104214
59	0xbf6f2771	-0.9341956
60	0x4020ce7a	2.5126023
61	0xc0a7be72	-5.2419977
62	0xc06cc306	-3.6994033
63	0xc03806d6	-2.8754172
64	0x40abcbc0	5.368622
65	0x4082b994	4.0851536
66	0xc05b2084	-3.4238596
67	0x40c99f0f	6.3006663
68	0xc06ceb27	-3.7018526
69	0xc08082ec	-4.0159817
70	0xc008bf22	-2.1366658
71	0xbef36278	-0.47536063
72	0xc0468673	-3.1019561
73	0x3ff7808b	1.9336103
74	0x406f4665	3.7386715
75	0xc0256bcf	-2.584705
76	0xc064958e	-3.571628
77	0xc0d47641	-6.6394353
78	0xc0a258d1	-5.073342
79	0xc068cb07	-3.6373918
80	0x3f045249	0.5168806
81	0x4095ddbb	4.6833167
82	0xc0bc4f92	-5.884713
83	0x3fafb9a0	1.3728523
84	0xc0679fea	-3.6191354
85	0xc03ab7bf	-2.917465
86	0xbfd8508b	-1.689958
87	0xc025a6bf	-2.5883024
88	0xbf8f0a00	-1.1174927
89	0xc098e168	-4.7775154
90	0xbfdf7584	-1.7457738
91	0x408d920c	4.424078
92	0x404d65aa	3.20933
93	0x3fef886d	1.8713509
94	0x407a2e61	3.9090807
95	0xc02d7c6e	-2.7107196
96	0x4088fbb7	4.280727
97	0x404c3698	3.1908321
98	0x3f10f3d6	0.56622064
99	0xc04b8e69	-3.180567
100	0x40435000	3.0517578
101	0x40a352c3	5.1038527
102	0xc0882a24	-4.255144
103	0x401e4a4a	2.4732842
104	0x4090cd52	4.5250635
105	0xc06b28e2	-3.6743703
106	0x3ea5996b	0.3234361
107	0x402d9acd	2.7125733
108	0xc008a772	-2.13522
109	0xbfbab7ac	-1.4587302
110	0xc0ad65d6	-5.418681
111	0x4025665d	2.5843728
112	0x4092bfd9	4.585919
113	0x408d1124	4.4083424
114	0x4093692d	4.606589
115	0xbf90ddd6	-1.1317699
116	0x405b4e02	3.4266362
117	0x40168edf	2.3524702
118	0xc068c848	-3.6372242
119	0xc095d9a1	-4.682816
120	0xc01f99bc	-2.4937582
121	0x40aef111	5.466927
122	0x406d5676	3.7084022
123	0x40138148	2.3047657
124	0x406f05ad	3.7347214
125	0x40903765	4.506762
126	0xc04c7a4b	-3.1949642
127	0x40375c3c	2.8650045

critic_network.4.weight f4 [1, 128]
0	0xc2e7846a	-115.75862
1	0x42ec5d21	118.18189
2	0x4309d336	137.82504
3	0xc2ec7cc7	-118.243706
4	0x42bd559a	94.66719
5	0xc33f00ed	-191.00362
6	0x42e74f6e	115.655136
7	0xc2f223ce	-121.06993
8	0x4324afe0	164.68701
9	0xc2e76bee	-115.7108
10	0xc2cbdb58	-101.928406
11	0xc3318275	-177.5096
12	0x4348024c	200.00897
13	0xc353694a	-211.41129
14	0xc300bd12	-128.73856
15	0xc2fbb0ae	-125.84508
16	0x432e4d8f	174.30296
17	0x433b999c	187.60004
18	0x434beda0	203.92822
19	0x4300bf3b	128.747
20	0x434fef82	207.93558
21	0xc3481a64	-200.10309
22	0x434b4f5d	203.31001
23	0x430c15db	140.08537
24	0xc3519489	-209.58022
25	0xc2e7d21a	-115.910355
26	0xc2de4f03	-111.15432
27	0xc350b53a	-208.70792
28	0xc340860c	-192.52362
29	0x434a30de	202.19089
30	0xc2bb6e48	-93.71539
31	0x4353f566	211.95859
32	0x430347da	131.28067
33	0x42d7e804	107.953156
34	0xc34e8ad8	-206.54236
35	0xc2f2eabd	-121.45847
36	0xc344f729	-196.96547
37	0xc3011900	-129.09766
38	0xc2e91850	-116.547485
39	0xc304767d	-132.46284
40	0xc34e65cc	-206.39764
41	0xc347ca95	-199.79134
42	0xc32e01ce	-174.00705
43	0x431edc4b	158.86052
44	0xc3061efb	-134.12102
45	0x4315f424	149.95367
46	0x42f42fd6	122.09343
47	0x42fcc152	126.37758
48	0x42f22188	121.06549
49	0x42ea0af9	117.02143
50	0xc352e30e	-210.88693
51	0x42e34810	113.64075
52	0x42e3e803	113.95315
53	0xc3521eb8	-210.12
54	0x43443bbe	196.23337
55	0xc303a721	-131.65285
56	0x42dabb81	109.36622
57	0x431f2305	159.1368
58	0x43170c2a	151.04752
59	0xc341d1c0	-193.81934
60	0x434769c9	199.41322
61	0x42f3dfe1	121.93726
62	0x42e7d55c	115.91672
63	0x4307beea	135.74576
64	0xc2daf08a	-109.4698
65	0xc2e2440d	-113.13291
66	0x42f36b1c	121.7092
67	0xc2d65462	-107.16481
68	0x42ea60ce	117.18907
69	0x430113c3	129.0772
70	0xc350f189	-208.9435
71	0x432309c1	163.0381
72	0x42d92dcb	108.58944
73	0xc310af66	-144.68515
74	0xc2e8a84b	-116.3287
75	0x430c90c5	140.5655
76	0x42ff2e43	127.590355
77	0x42ca4481	101.1338
78	0x42f768b4	123.7045
79	0xc34dd89a	-205.8461
80	0x433824ec	184.14423
81	0xc2ef3fc1	-119.62452
82	0x42d04d9b	104.15157
83	0xc32b019f	-171.00633
84	0xc3538c43	-211.5479
85	0x42f64a55	123.14518
86	0xc342c81e	-194.78171
87	0x430cc21a	140.75821
88	0xc349ed01	-201.9258
89	0x42f3c332	121.88124
90	0xc345473c	-197.27826
91	0xc2d16d83	-104.71389
92	0x43510cec	209.05048
93	0x4344c353	196.76299
94	0xc2d5a0e3	-106.81423
95	0xc352f98d	-210.97481
96	0xc2d532e8	-106.59943
97	0x434ddeec	205.87079
98	0xc328a7a2	-168.65482
99	0x42e299be	113.30028
100	0xc300bbed	-128.73409
101	0xc2dcb12f	-110.34606
102	0x42f2e269	121.44221
103	0x4349cdcd	201.80391
104	0xc2e30a37	-113.51995
105	0x42f3addb	121.83956
106	0x431da407	157.64073
107	0xc2f991d9	-124.78486
108	0xc33f308f	-191.18968
109	0x431088af	144.53392
110	0x42de4c13	111.14858
111	0x434ad8ac	202.84637
112	0xc305fd96	-133.99057
113	0xc2d7e59b	-107.94845
114	0x434ef489	206.95522
115	0x43270ece	167.05783
116	0xc30141d2	-129.25711
117	0xc31127d9	-145.15565
118	0x42f9c3f7	124.882744
119	0x42eabb13	117.36538
120	0x42fc4322	126.13112
121	0xc2df91c5	-111.784706
122	0xc2e3fb86	-113.99126
123	0xc2fab5c9	-125.35505
124	0xc2ec484e	-118.14122
125	0xc2e19200	-112.78516
126	0x42f50ba8	122.522766
127	0xc310030a	-144.01187
