test_uav/model/critic_model13-10-2023_17-19-10/4200.pt (torch, 77887 bytes, 5 tensors)

critic_network.0.weight f4 [128, 17]
000000 49 45 29 be 85 da 01 3f 87 91 14 3f 04 37 22 be
       -0.16530336 0.5072406 0.5803456 -0.158413
000010 25 13 89 be ef 9f 28 bf 28 7d 8d bd bb 42 92 3b
       -0.2677242 -0.6586904 -0.06908637 0.0044635213
000020 48 4b b2 be 41 07 2f 3e e2 ae b9 bd ac 1d 93 3e
       -0.3482306 0.17092611 -0.090665594 0.28733575
000030 46 18 8b 3e 00 26 8a 3c 41 94 25 be 60 c7 4c bd
       0.27166957 0.016863823 -0.16169836 -0.049994826
000040 23 f5 7c 3d c4 58 2c 3f 10 60 83 be bd 63 4a bf
       0.061757218 0.67322946 -0.25659227 -0.7905844
000050 0b f4 59 be b8 f6 23 bd f7 e1 c4 3e 2d 69 a1 3c
       -0.21284501 -0.04003021 0.38453647 0.019703472
000060 1f d3 15 bc 8d aa 29 3f 42 50 86 3f 3f b6 9d bf
       -0.0091445735 0.66275865 1.0493243 -1.2321242
000070 59 7e 05 3f e3 aa d5 3e c5 97 0f 3e 12 af 9f bd
       0.52145916 0.4173194 0.14022739 -0.07797064
000080 86 8b c7 3d 72 90 1a be ae e0 aa bc 3b 5d 9a bd
       0.09743409 -0.15094164 -0.020859089 -0.075373136
000090 35 ba d3 3e 83 50 c0 3c 57 1d 9f be 57 f0 00 be
       0.41353002 0.023475891 -0.31077072 -0.12591682
0000a0 08 5a 41 3c ce 0c bc 3d 12 86 83 be 1a 58 c9 bb
       0.01180125 0.0918213 -0.25688225 -0.0061445357
0000b0 ab 56 a1 3e 88 ea 29 c0 bf fe 34 bf 72 be 21 be
       0.31511435 -2.6549397 -0.7070121 -0.15795305
0000c0 cc 3f a6 3e 77 8d 37 bd a2 56 c5 be da 8e ed be
       0.32470548 -0.044812646 -0.38542658 -0.4639805
0000d0 bd 42 72 bf ae 86 a9 3e 4d 7c 57 be 8f 27 b6 3d
       -0.94633085 0.33110565 -0.2104351 0.08894264
0000e0 fd d2 71 3e 00 d6 a6 3e 5d 75 44 bd 6e 16 8f 3d
       0.23615642 0.32585144 -0.04796349 0.069867
0000f0 29 4a 8f bf e1 78 34 3f 86 d5 a9 bf ac 89 f1 bd
       -1.1194507 0.70496947 -1.3268287 -0.11793837
000100 e7 02 12 bd 7a 55 2b 3e 3f 39 da bc cc ee 2a be
       -0.0356473 0.16731825 -0.026638625 -0.16692656
000110 ac 25 4f bf 4c 4a 6f 3e d8 f0 c0 be 9c ea 25 3f
       -0.8091686 0.23368186 -0.3768375 0.6481111
000120 2d f8 6b be ff a3 0f 3e f1 85 a5 be 6a da a6 3d
       -0.2304389 0.14027403 -0.32328752 0.08147128
000130 a4 56 57 be e1 86 68 be 75 38 a5 3f 19 ea 84 3f
       -0.21029145 -0.22707702 1.2907854 1.0383941
000140 91 b4 4e 3d 44 94 22 3e 51 84 1c be f9 70 4f 3e
       0.05046517 0.15876871 -0.1528485 0.2025794
000150 7c e8 09 3e dd a9 f4 be ec 7c 0c bf 91 ad af bd
       0.13467592 -0.47785845 -0.54878116 -0.08578027
000160 22 ba 5d 3e ec ca 6a bd e9 50 4b be 5d bc 91 3c
       0.21653035 -0.057322428 -0.19855084 0.017790014
000170 0b 20 d5 bc a4 cc d3 3d 66 36 13 3c 5a f9 0f bf
       -0.026016256 0.103417665 0.008985138 -0.56239855
000180 e7 90 3b 3f 6f af 10 bf 46 c4 16 3c 57 44 73 be
       0.7326798 -0.5651769 0.009202069 -0.23756538
000190 b5 ab c3 bd a1 34 69 3d 45 1a 34 3f df f6 1c 3d
       -0.09554235 0.056934956 0.70352584 0.038321372
0001a0 67 db 4a 3f 0a 5d 20 3d 9f 3f c4 bd e3 f6 76 3e
       0.7924103 0.03915123 -0.09582447 0.24117617
0001b0 ba 12 88 bd 26 3d 33 bd 38 97 0d 3e ea f2 de 3e
       -0.06644197 -0.043759488 0.13827217 0.43544704
0001c0 9a 9d 38 bf 3e 87 24 3e e8 78 b7 3e 2f c1 25 bd
       -0.7211548 0.16067216 0.35834432 -0.040467437
0001d0 e6 8f e2 bd ed 54 b8 bb 8c dc 6d 3d 8b a9 72 be
       -0.11062603 -0.0056253583 0.058071658 -0.23697488
0001e0 42 57 84 be 15 b8 db 3d ff 33 e3 be 29 31 87 be
       -0.25847822 0.1072847 -0.44375607 -0.26404694
0001f0 15 f7 cc be df 21 e7 3e ad 25 1b 3d 59 64 6c 3e
       -0.4003226 0.4514303 0.037877727 0.23085155
000200 08 b6 5b 3f be 71 b8 be 0e 5e 9d bf 75 51 e4 bc
       0.8582463 -0.36024278 -1.2294328 -0.027870873
000210 ea 49 b8 bd c7 7b c1 3e 0c fd ba 3b 78 9d a9 be
       -0.08998473 0.37789747 0.005706435 -0.33127952
000220 2a 4e 85 3d c1 a2 bd 3e 92 0a 5e be c2 87 61 3e
       0.06509049 0.37038234 -0.2168372 0.22024444
000230 d4 75 a2 bd 2e 24 5c bf d1 ae 98 be f4 df e9 3c
       -0.0793263 -0.85992706 -0.29820874 0.028549172
000240 ad f8 db bb a9 23 62 bd 70 5b 78 3e 51 16 25 3f
       -0.006712994 -0.05520979 0.2425363 0.6448718
000250 36 0c 16 be 56 c7 c5 bc 38 4c 97 be cc 5a bb 3d
       -0.14653096 -0.024142902 -0.29550338 0.091481775
000260 08 b8 6a 3d 70 5b 10 3e 71 71 b8 3c f4 75 68 bf
       0.057304412 0.1409738 0.02251503 -0.9080498
000270 52 db e0 bd f4 31 da bd e7 06 87 3e d1 9d a9 3d
       -0.10979332 -0.10654059 0.26372454 0.08282054
000280 88 ab 8a 3d 83 cf 41 3e 4d fe 5e 3f 51 3a 55 bf
       0.06770998 0.18926816 0.8710678 -0.8329211
000290 bc ff f6 3e 90 72 a7 3e 43 41 c6 bd 63 17 89 3d
       0.48241985 0.32704592 -0.096804164 0.06693914
0002a0 d9 08 dc bd 73 e8 49 be af 4d 68 bd e3 8d c6 3d
       -0.10743875 -0.19717579 -0.05671471 0.096950315
0002b0 28 74 1f 3f 92 18 b9 bd b3 e5 2a be 4f e0 e9 be
       0.62286615 -0.090378895 -0.16689186 -0.45678946
0002c0 de bc 39 ba 64 ca 01 bd 12 5f 9c bc 82 60 ae be
       -0.00070853333 -0.031687155 -0.019088302 -0.34058005
0002d0 84 52 72 3f 67 b7 49 be df 0a 0f bf 5e 2a a7 3d
       0.9465716 -0.19698869 -0.5587596 0.08162378
0002e0 76 1c ba 3c 6b 94 14 ba 41 da 88 3d ad 36 07 3e
       0.02271865 -0.0005667868 0.06682254 0.13204451
0002f0 69 d8 80 bd 92 b2 54 bf 58 d4 0b be a3 4e e5 bd
       -0.06291277 -0.83084977 -0.13655221 -0.111966394
000300 05 65 33 3d 3c be 0c 3d 4b 08 b6 3d d6 14 35 bc
       0.04379751 0.03436111 0.088883005 -0.011052331
000310 87 4e a0 be d7 71 ff bd 12 ef a3 bf ed 29 4a be
       -0.31309912 -0.12472885 -1.2807333 -0.19742556
000320 12 07 ac bc ad 8b 87 3e a1 e2 3e 3d 71 17 9a be
       -0.020999465 0.26473752 0.04660285 -0.3009601
000330 73 58 af be 6d 00 6c be 3c 43 64 be 2c da d4 be
       -0.3424717 -0.23047037 -0.22291273 -0.41572702
000340 3c bc ce be 34 10 5d be ca 5f 47 3e 3a 0f 79 bd
       -0.40377986 -0.21588212 0.19470134 -0.060805537
000350 aa ad d6 bc 64 fc cb 3f a2 f4 2a 3f 25 e3 13 bf
       -0.026205856 1.5936399 0.6677953 -0.5776847
000360 cd e1 2e bf ea 4f a9 3d 07 96 d6 3e e3 57 b0 bb
       -0.68313295 0.082671955 0.41911337 -0.0053815707
000370 5d a6 b1 be f6 57 20 be ba 7a 55 be 8c 6f 18 bf
       -0.34697238 -0.15658554 -0.20847598 -0.5954521
000380 be 93 82 3d ee 3b 8c 3e 0c d3 46 3f 9b ae 37 3d
       0.06375836 0.27389473 0.7766578 0.04484425
000390 a2 04 78 3d 7a 88 b1 3e cb da 99 3e da 10 1b bf
       0.060551293 0.34674436 0.30049738 -0.6057259
0003a0 77 ca 76 3e 81 c6 18 3f 82 9b c8 bb 87 53 ba bd
       0.24100672 0.5967789 -0.0061220536 -0.09097963
0003b0 25 25 aa bd ff 1b cd 3d 77 36 90 bd ed 4e 80 bd
       -0.08307866 0.100151055 -0.07041638 -0.06265054
0003c0 fc 52 42 3e d7 f3 d3 3e 4b 6d 91 be d5 30 12 3c
       0.18976969 0.41396973 -0.28403696 0.008922775
0003d0 38 01 4a 3d 98 80 7f 3b 32 ef 00 be 16 b3 e2 3d
       0.04931757 0.003898656 -0.12591246 0.11069314
0003e0 78 4b 66 3f 8a b8 3c 3f df 41 1b 3f ba 10 e5 3d
       0.89958906 0.73719084 0.60647386 0.11184831
0003f0 c4 bf 90 be a1 5d 68 bd c8 2d f3 3d 2f 7f c6 bc
       -0.28271306 -0.056729916 0.118739665 -0.024230568

critic_network.0.bias f4 [128]
000000 3c 3a 4f 3f f9 82 09 bf 77 fb d7 be 6f a3 cf be
       0.80948234 -0.53715473 -0.4218404 -0.40554377
000010 17 00 e9 3e 8f 78 ca bd 33 a3 89 bf a8 7e 02 bf
       0.4550788 -0.09886276 -1.075293 -0.5097451
000020 45 b3 2c bd 56 19 0b bf db f6 2e bf c1 3b 99 3e
       -0.042163152 -0.54335535 -0.6834542 0.299284
000030 95 a3 0a be 76 ef 50 bf 8d 6b de 3e 77 51 80 bf
       -0.13538964 -0.8161539 0.4344143 -1.0024861
000040 3b 81 8c 3f 65 a3 06 be 25 9e 51 be 23 ab 12 3e
       1.0976938 -0.13148268 -0.20470484 0.14323096
000050 52 5b a1 bf 75 01 16 bf 6d ac f6 3e 83 37 85 be
       -1.2605994 -0.58595973 0.48178425 -0.26018915
000060 5c b0 a8 3e 95 eb 1b bf 0c 9a 47 bf fb 72 5d 3f
       0.32947052 -0.60906345 -0.7796943 0.8650357
000070 b9 5e d4 3e 7c 8b 4c 3f b0 3d 46 bf 2b 20 76 be
       0.41478518 0.79900336 -0.7743788 -0.24035709
000080 7c cd ea 3f 15 81 11 3f e2 44 c6 be ec 42 0a be
       1.8343959 0.5683759 -0.38724428 -0.13502091
000090 9e be 65 3e c7 2d fb bd 49 9f 72 3e 0b 55 f8 bd
       0.22435996 -0.12264591 0.23693575 -0.12125596
0000a0 47 9d 5a bf ce ab 05 bf 96 94 8d be f4 07 29 3e
       -0.85396236 -0.5221528 -0.27652425 0.1650694
0000b0 2f d4 b2 3e 41 ce 50 3c f8 28 5c 3e f9 44 16 be
       0.34927508 0.012744487 0.21500003 -0.14674748
0000c0 f6 53 8b 3f a5 6d 05 bf 7c d5 58 3e 0c 4b 47 be
       1.0884998 -0.5212043 0.21175188 -0.19462222
0000d0 67 a9 69 bc 05 da 08 bf c2 9c 42 bf 33 2b 84 3f
       -0.01426158 -0.5345767 -0.76020443 1.0325683
0000e0 f8 4f 45 bf 1a 38 24 bf 3a b7 02 3e e4 6d 4c be
       -0.7707515 -0.64148104 0.12765208 -0.19963795
0000f0 c3 be 55 be cd e2 7d 3f 3e 98 54 bf 39 e2 10 be
       -0.20873551 0.99174196 -0.83044803 -0.14148797
000100 95 df 9c bf 1b 2a bd bf 97 7b 9f bf 49 29 84 3e
       -1.2255732 -1.4778475 -1.2459592 0.25812748
000110 6f 96 39 3e 65 e2 5b 3b 0d a0 00 3f 7c 30 e3 3e
       0.18123792 0.003355169 0.5024422 0.44372928
000120 ee a7 43 be 9c 73 20 bd d1 a9 95 3f 68 cf cc 3e
       -0.19107029 -0.039172754 1.1692449 0.40001988
000130 ba 25 36 be 18 fb 7d bd 92 bc cd 3e 16 25 d8 3e
       -0.17787829 -0.06200704 0.4018293 0.42215794
000140 58 f1 f0 bf 98 0e 83 3f a8 ba 87 3f cc f3 8c bf
       -1.8823652 1.0238829 1.0603838 -1.1011901
000150 2e 7a c1 3e 54 1b 9d 3e 4e bc 9a be 24 58 e7 bd
       0.37788528 0.30684912 -0.3022179 -0.11296108
000160 79 c1 68 be 73 c7 93 3e f0 d8 36 be 8e 81 79 bf
       -0.22730054 0.28863105 -0.17856193 -0.9746331
000170 a2 98 6d 3c d1 73 50 3f 67 8c 0e 3e 0c 87 ab 3e
       0.0145017225 0.8142672 0.13920747 0.3350147
000180 cc 85 37 bf 69 cc a2 3f 58 49 0f 3e 1e 15 3f 3f
       -0.7168853 1.2718631 0.13992822 0.746416
000190 4d f2 60 3e a6 d9 b9 be 10 a5 3c bd 16 83 54 3d
       0.2196743 -0.36298865 -0.046055853 0.051882826
0001a0 36 11 04 3f 44 5e d0 3f db 0d 15 40 76 16 90 3f
       0.5158876 1.6278768 2.3289707 1.1256855
0001b0 e5 ba d8 3e 91 da bc 3e d8 fe 8f 3e ba 85 c7 3e
       0.4233009 0.36885503 0.28124118 0.38969213
0001c0 8a 78 11 c0 54 87 15 3f 99 a6 1f bf 8c 21 33 bf
       -2.2729821 0.5840962 -0.6236358 -0.69973063
0001d0 48 aa 98 3f 2c 62 36 3f 8c 79 57 3e 4b 56 66 3e
       1.1926966 0.7124355 0.2104246 0.22493856
0001e0 44 50 7d bf aa 05 00 3e e5 1a 80 3f c6 5b 6b bf
       -0.989506 0.1250216 1.0008208 -0.9193691
0001f0 5c a8 b4 3f 9d 89 e8 be 0f d7 88 bf 60 b5 cd 3f
       1.4113879 -0.4541749 -1.0690631 1.6070976

critic_network.2.weight f4 [128, 128]
000000 94 79 d0 be f9 78 b6 bf 2d ee 35 c0 cd 09 82 bf
       -0.40717757 -1.4255668 -2.842662 -1.0159241
000010 8e 7e 9e 3f 7d 09 92 bf a3 47 17 40 87 59 88 bf
       1.2382371 -1.1409146 2.3637474 -1.0652322
000020 c2 a3 6e bf 45 f1 71 3f a1 0e 84 bf 34 69 16 c0
       -0.93218625 0.94508773 -1.0316964 -2.350171
000030 c7 78 3c 3f 8c 39 67 bf 1f 05 f6 3f 6a 10 e4 be
       0.7362179 -0.90322185 1.9220313 -0.44543773
000040 81 87 d5 3f f2 40 e0 3e 77 74 3e bf 0c 0f 31 3e
       1.6681978 0.4379955 -0.7439646 0.17290896
000050 10 57 f2 be b2 f0 a5 3f 33 39 0c bf c6 de 4d bf
       -0.47332048 1.2964079 -0.5477478 -0.8041805
000060 6a fa ab 3e ca 14 22 be b0 d5 49 be 0d 06 94 bf
       0.33589488 -0.15828243 -0.19710422 -1.1564347
000070 81 ee 7d bf e5 11 06 c0 b1 90 21 40 02 70 8b 3f
       -0.99192053 -2.0948422 2.5244563 1.0893557
000080 72 d5 31 3d 50 b9 11 bf a7 36 3f 3f 42 a5 c9 bf
       0.043416448 -0.5692339 0.7469277 -1.5753558
000090 c2 31 9f bf 50 97 a1 3e c3 f4 1e c0 6a 9e bd 3f
       -1.243706 0.31560755 -2.483689 1.4813969
0000a0 ac 9c ca 3f df 7b b8 be b2 89 26 40 73 f7 c5 bf
       1.5829062 -0.36032006 2.6021543 -1.546614
0000b0 b4 93 0c be 84 b6 c8 3e e4 ab d0 bf 95 c8 c6 be
       -0.1372822 0.39201748 -1.6302457 -0.38824907
0000c0 35 f4 0e be 65 28 84 bf 51 87 bf 3f 6f f0 f0 be
       -0.13960345 -1.0324827 1.496317 -0.47058436
0000d0 dd d0 ac 3e 72 40 92 bf e7 ed b1 3f 3a b7 39 3f
       0.337531 -1.1425917 1.3900727 0.72545207
0000e0 04 6d f2 3f ae e7 18 bf 7d a0 17 3f 52 be 87 bf
       1.8939519 -0.59728515 0.5922926 -1.0604956
0000f0 53 85 d7 3f 7e 71 bd bf e3 49 26 3f 4b fd a6 3f
       1.6837562 -1.480026 0.6495649 1.3046049
000100 ae 02 59 bf 1a cf 89 3e e9 3e 71 40 f6 8c 02 3f
       -0.84769714 0.26915818 3.7694647 0.5099634
000110 4d c1 92 3f 73 ac d2 bf 46 06 0e c0 b7 48 8e bf
       1.1465241 -1.6458877 -2.219133 -1.1115941
000120 85 69 00 3f e0 ff 90 3f 52 80 82 3e 1c bb 51 3f
       0.5016101 1.1328087 0.25488526 0.8192613
000130 9e 42 69 ba b0 58 41 bf 8c fe 95 bf ce 6c d1 3d
       -0.00088981714 -0.7552595 -1.1718307 0.10225831
000140 df 68 82 c0 33 2a ee be 00 6e db bf 46 f4 cf bf
       -4.0753016 -0.4651657 -1.7142944 -1.6246421
000150 38 b8 bb bc 00 3e ba bf 24 3b 89 40 8c 73 b7 bd
       -0.02291499 -1.4550171 4.2884693 -0.08957586
000160 8a 8e 08 3e b3 63 f1 bf ce e9 8f be ee 1f 9d bf
       0.13335624 -1.8858551 -0.28108066 -1.2275369
000170 1e 0d 65 3e f4 e3 ce 3f 78 52 b9 be 8a 0e 84 be
       0.22368285 1.6163316 -0.3619573 -0.25792342
000180 2a 0e 1e 3e 40 1a ba bd 71 2b 4b bf 16 51 9c 3f
       0.1543509 -0.09087038 -0.7936316 1.2212245
000190 0d e7 87 bf eb b6 74 3f 06 30 53 bf 59 c2 0b 40
       -1.0617386 0.9559161 -0.8249515 2.183737
0001a0 c9 ec 68 3f 85 be 8a 3f eb e8 ca 40 48 d1 8c bf
       0.90986305 1.0839392 6.3409324 -1.1001368
0001b0 15 05 cf 3e 7d b4 a9 3f 36 95 13 40 b9 5a 7b 3e
       0.40433565 1.3258206 2.305982 0.24546327
0001c0 c4 50 88 bc e0 9b a9 bd ec f0 e7 3b de 83 9c be
       -0.016640075 -0.08281684 0.0070782807 -0.30569357
0001d0 a8 9c 15 c0 84 cc 1f c0 63 52 05 bf dd 67 92 3f
       -2.3376865 -2.4968576 -0.5207884 1.1437947
0001e0 a9 64 44 40 f9 07 42 be d3 4b 77 3f 20 a0 85 3f
       3.0686438 -0.18948354 0.96600074 1.0439491
0001f0 d5 1b aa bf d2 a9 ae 3f af 35 29 40 99 5d b5 bf
       -1.3289744 1.3645575 2.6439016 -1.4169189
000200 01 98 d5 be 60 d5 10 3f 4d 6c fc 3e 4d 6e 8a 3e
       -0.41717532 0.56575584 0.49301377 0.27037278
000210 d9 17 2a be 26 05 cc bf fb fb ea bf b1 fa 33 3e
       -0.1661066 -1.5939071 -1.8358148 0.175761
000220 e5 d4 be 3f b0 d9 6a 3e 71 46 7a bf 7e 10 95 3f
       1.490872 0.22934604 -0.97763735 1.1645658
000230 57 64 9e bd 64 c0 98 bf 9d bd e3 3d b4 4c b1 3d
       -0.07733982 -1.1933713 0.1112015 0.08657208
000240 9f 6f e5 be dc 3e a1 3f 98 6c 59 be 0e fe 60 3e
       -0.44811723 1.2597308 -0.21232831 0.21971914
000250 6b 3e 33 3e af 66 4a 3f 80 4f f0 3e 4d 6b 9f bd
       0.1750428 0.7906293 0.46935654 -0.07784138
000260 e5 fa 19 3f c2 9d 47 3f 94 c3 8c bf f4 1b 78 3f
       0.6014846 0.77975094 -1.0997186 0.96917653
000270 99 f4 f7 3f 44 0a b3 3f 6b 54 26 bf 78 e8 7c bf
       1.937152 1.3987508 -0.6497256 -0.9879222
000280 b2 9e c8 3f 0c 52 c3 3f d9 c0 25 be 0f 44 18 3f
       1.567343 1.5259414 -0.16186847 0.5947885
000290 21 cc 81 bf fd b7 87 3e 90 8f 8a bf b7 08 fa bf
       -1.014042 0.2650756 -1.0825062 -1.953391
0002a0 2f 17 86 bd 09 b2 58 3e d8 60 18 3f 0d f4 18 bf
       -0.06547391 0.21161665 0.5952277 -0.5974739
0002b0 86 83 ce 3e 98 e2 30 3f 0c 33 86 bc 02 da bc 3f
       0.4033472 0.69095755 -0.016381763 1.4754031
0002c0 ee da 03 3e 76 32 7a be 20 1c d0 3e c0 76 81 3e
       0.12876484 -0.24433312 0.40646458 0.25285912
0002d0 6d ad 3c 3f da c5 40 bf 88 ae a9 3f 3e 47 30 bf
       0.73702127 -0.753019 1.3256388 -0.68858707
0002e0 9d 9e 8a bf f0 d4 d8 3e 9a ac cd bf 78 0a 62 40
       -1.0829655 0.42349958 -1.6068299 3.531889
0002f0 40 65 b1 bd 8d 65 27 3f bb 76 72 bf 91 f3 6e bb
       -0.0866189 0.6538933 -0.9471242 -0.0036461095
000300 fd d1 22 3f 51 2e 80 bf 75 5f 4a c0 af 93 8f 3e
       0.63601667 -1.0014135 -3.1620762 0.2804236
000310 77 02 5a 3f de 30 e5 bd 6f 46 2d 3f c3 4f 98 be
       0.8516001 -0.11190961 0.676856 -0.29748353
000320 e8 67 98 be e6 4f 65 be 41 64 a3 3f 5a 4e 87 3f
       -0.29766774 -0.2239376 1.276497 1.0570786
000330 39 e2 4b 3f d8 4f df 3f ba 08 a1 3f dd 0a 8b 3e
       0.79642063 1.7446241 1.2580788 0.27156726
000340 17 55 c1 3f 6c 7d 06 3f d9 6c 33 40 cd 6c 2f be
       1.5104092 0.5253513 2.8035185 -0.17131348
000350 15 d0 99 bf f4 87 6c 3e 0d eb e9 bb a7 47 01 3f
       -1.2016627 0.23098737 -0.007138616 0.5049996
000360 2f 4b 6a 3f 4b d0 0f 40 c2 49 c9 be f7 a8 1a bf
       0.9152097 2.2470882 -0.39314085 -0.6041407
000370 47 1f d6 bf 19 95 49 be f5 bf 21 3f 50 e0 2b bf
       -1.6728295 -0.19685782 0.6318353 -0.6713915
000380 65 69 2d c0 fa 1f 02 40 af 3b f4 3e 22 23 0e 40
       -2.7095578 2.0332017 0.47701785 2.2208943
000390 eb 09 5c 3f 58 6e 84 be b5 8e 76 bf 38 92 02 c0
       0.85952634 -0.25865436 -0.96311504 -2.0401745
0003a0 8a 44 4b 3e 2c 0c 0e c1 54 e3 09 c1 e3 15 e8 3f
       0.19850364 -8.877972 -8.618 1.8131679
0003b0 d3 98 ee bd cb f1 76 3e 2c 8c 9e bf e0 bc ed 3e
       -0.11650243 0.24115674 -1.2386527 0.46433163
0003c0 87 64 84 3f 91 99 1c 3f d4 a3 0c 3f 4e 20 4b be
       1.0343179 0.61171824 0.5493748 -0.19836542
0003d0 72 85 58 bf 8a 3c 15 3f 38 53 6d bf 88 71 f2 bf
       -0.8457862 0.582955 -0.92705107 -1.8940897
0003e0 b4 a6 2c 3f 8d c4 5a 3f 00 5a 10 bf 6b e1 22 3f
       0.6744187 0.8545616 -0.5638733 0.6362521
0003f0 ef 4e 2c 40 55 3b 0a be df cd 18 c0 67 ea ee 3f
       2.6923177 -0.13499196 -2.3875654 1.8665284

critic_network.2.bias f4 [128]
000000 30 93 75 40 76 93 b0 c0 db 6a 43 c0 27 7b 91 40
       3.8371086 -5.5180006 -3.053397 4.5462832
000010 4e 76 e4 c0 f6 74 9f bf 62 fd a0 c0 d3 e5 17 40
       -7.1394415 -1.2457569 -5.0309305 2.3734024
000020 b7 72 93 be da 8d 79 40 24 bc c4 40 89 1f f9 bf
       -0.28798458 3.899283 6.1479664 -1.9462749
000030 8e 6a 1a 40 62 18 55 c0 a6 43 83 40 17 1f d0 3e
       2.4127536 -3.3296132 4.102008 0.4064872
000040 3a c2 57 be 2d ba 2f 3f b2 9d 22 40 78 0d 5e c0
       -0.21070185 0.68643457 2.540875 -3.469572
000050 c5 15 40 40 8b 91 29 c0 b2 1a 88 40 d9 41 85 c0
       3.0013287 -2.6495082 4.2532587 -4.164288
000060 37 d2 9a c0 d9 a7 95 40 3a 17 9f 40 c4 f5 49 c0
       -4.838161 4.676739 4.9715853 -3.1556253
000070 1a 2b 2d c0 74 93 8a 40 d8 81 b3 40 77 7b 89 40
       -2.7057557 4.3304996 5.6096 4.2963214
000080 af fd 57 c0 84 c7 9b c0 bd d4 7a c0 73 ce 50 40
       -3.3748586 -4.868105 -3.9192345 3.2626007
000090 96 7d 6f bf 7c bd 5a 40 da 41 c0 40 9f 63 2c 40
       -0.93551004 3.4178152 6.0080385 2.6935804
0000a0 f0 b2 59 c0 ad 84 3e c0 60 50 9d bf 21 53 be bf
       -3.4015465 -2.976848 -1.2290154 -1.4869119
0000b0 2e 58 9c 40 75 1f 3c c0 b9 f7 61 c0 a3 1a b3 c0
       4.885764 -2.93942 -3.5307448 -5.5970016
0000c0 cd c8 87 c0 3e 9e aa c0 9e e2 38 c0 4e 4e be c0
       -4.243262 -5.3318167 -2.8888316 -5.9470587
0000d0 a8 a3 1b c0 0f 3a 53 c0 3a 9e 90 3f 47 4b a1 40
       -2.4318638 -3.3004186 1.1298287 5.040439
0000e0 c5 2d bd c0 83 67 9a bf 24 25 30 c0 7d cc a3 be
       -5.911837 -1.2062839 -2.752267 -0.3199195
0000f0 b3 42 0d 40 6b 75 ad c0 f4 f3 6b c0 bd 5c 3a c0
       2.207196 -5.4205832 -3.6867647 -2.9119103
000100 d9 a3 b1 40 e6 50 88 40 9b b5 64 c0 22 5e cd 40
       5.551251 4.2598753 -3.5735843 6.417741
000110 57 46 89 c0 0c 1a 89 c0 72 4d f6 bf 71 36 41 bf
       -4.2898364 -4.2844296 -1.9242384 -0.75473696
000120 bf 98 4c c0 9d 23 0b 40 eb 07 7e 40 7b 0b 10 c0
       -3.196823 2.1740487 3.9692333 -2.2507007
000130 3e 16 5a c0 de 74 db c0 8d ed ab c0 7e 7d 60 c0
       -3.4076076 -6.858016 -5.372748 -3.5076594
000140 db d9 74 3f 25 fc 91 40 ee 5e c2 c0 44 61 00 40
       0.9564492 4.5620294 -6.074088 2.0059366
000150 2b 66 45 c0 b0 82 11 c0 a6 35 c6 bf 26 08 3d c0
       -3.0843608 -2.2736015 -1.5485122 -2.9536223
000160 2c b4 89 bf fe f8 a5 c0 d4 55 d9 bf 71 22 9a 40
       -1.0758109 -5.1866446 -1.6979318 4.8167043
000170 a8 73 6b 40 c0 91 19 40 20 37 88 40 91 78 ff bf
       3.678934 2.3995209 4.256729 -1.9958669
000180 1b b5 98 40 cc 62 66 40 7b e2 35 3f 84 49 41 c0
       4.7721076 3.59978 0.71048707 -3.020112
000190 1f 2f 4d 40 93 a0 ab 40 71 e6 9e c0 1c 2a f5 3f
       3.206001 5.3633513 -4.96563 1.9153476
0001a0 06 38 9f 40 6a a1 7c c0 83 01 75 be 5b 20 50 40
       4.975589 -3.947352 -0.23926358 3.2519748
0001b0 96 d8 10 c0 a4 e9 99 bf e5 cf af c0 45 ce 26 40
       -2.2632194 -1.2024426 -5.4941278 2.6063397
0001c0 43 4a 92 40 a6 bf 9a 40 99 3f 99 40 22 ed c1 bf
       4.571565 4.8358946 4.7890134 -1.5150492
0001d0 56 e8 5c 40 d0 35 25 40 da 0d 6b c0 15 b6 92 c0
       3.4516807 2.5814095 -3.6727204 -4.584727
0001e0 f5 55 34 c0 dc 7f b8 40 90 a0 7a 40 37 04 20 40
       -2.8177464 5.765608 3.91605 2.5002573
0001f0 3d 33 7a 40 31 cd 97 40 87 fb 5d c0 90 d4 3e 40
       3.9093773 4.743798 -3.468477 2.9817238

critic_network.4.weight f4 [1, 128]
000000 47 11 e8 c2 3c 80 e9 42 f7 31 0c 43 de de e8 c2
       -116.033745 116.75046 140.19518 -116.43529
000010 85 fb b8 42 f7 97 42 c3 b4 b1 e1 42 71 bd f0 c2
       92.49125 -194.59361 112.84708 -120.37
000020 df 21 25 43 84 ed e2 c2 90 79 c8 c2 c8 33 33 c3
       165.13231 -113.4639 -100.23743 -179.20227
000030 53 02 4c 43 6a 23 58 c3 59 d2 ff c2 56 e6 01 c3
       204.00908 -216.13834 -127.910835 -129.89975
000040 da 81 30 43 11 ca 3c 43 fd b0 4e 43 5f 10 00 43
       176.50723 188.78932 206.69136 128.06395
000050 95 ab 52 43 83 d7 4a c3 36 c5 4e 43 b8 bd 09 43
       210.67024 -202.84184 206.77036 137.74109
000060 3e 5d 55 c3 d3 d5 e3 c2 ec fe da c2 90 6e 52 c3
       -213.36423 -113.917625 -109.497894 -210.43188
000070 41 86 44 c3 60 2e 4f 43 17 d1 b6 c2 82 22 58 43
       -196.52443 207.18115 -91.40838 216.1348
000080 b3 de ff 42 11 01 d3 42 9d c9 52 c3 cd 63 f6 c2
       127.93496 105.50208 -210.78755 -123.19492
000090 79 ca 47 c3 e0 31 ff c2 95 59 e6 c2 db d3 ff c2
       -199.79091 -127.59741 -115.174965 -127.91378
0000a0 d9 b5 51 c3 64 1a 4b c3 43 bf 2f c3 c6 b0 1e 43
       -209.71034 -203.10309 -175.74712 158.69052
0000b0 09 68 03 c3 ce a6 12 43 09 ff f0 42 9c 66 fa 42
       -131.40639 146.65158 120.498116 125.20041
0000c0 5f b4 ee 42 3a d8 e5 42 5d 84 57 c3 0a 94 df 42
       119.35229 114.92232 -215.51704 111.78914
0000d0 fe 20 e9 42 20 f7 55 c3 a0 ca 48 43 03 14 01 c3
       116.56444 -213.96533 200.7915 -129.07817
0000e0 b4 9e d6 42 3e fc 1d 43 92 06 16 43 94 ac 44 c3
       107.30997 157.98532 150.02567 -196.67413
0000f0 26 2c 4a 43 e6 a5 ee 42 eb 59 e3 42 30 87 07 43
       202.17245 119.32402 113.67562 135.52808
000100 ce 8d d7 c2 38 89 e1 c2 a7 02 f0 42 cb bf d2 c2
       -107.77696 -112.768005 120.00518 -105.374596
000110 aa 9b e6 42 95 24 fc 42 a8 09 54 c3 35 c8 23 43
       115.30403 126.07145 -212.03772 163.78206
000120 87 64 d9 42 b4 03 0f c3 66 d4 e5 c2 f0 ad 0c 43
       108.69634 -143.01447 -114.91484 140.67944
000130 04 50 01 43 79 ca c7 42 bb b2 f1 42 4e 83 52 c3
       129.31256 99.895454 120.84908 -210.51291
000140 57 69 39 43 96 2e ed c2 2b 7f ce 42 08 a6 26 c3
       185.41148 -118.59099 103.248375 -166.64856
000150 f0 34 57 c3 29 dc fa 42 77 7f 46 c3 de 38 0a 43
       -215.20679 125.43 -198.49791 138.22214
000160 f8 f3 49 c3 bf 76 ef 42 2a 4c 48 c3 51 d1 cf c2
       -201.953 119.731926 -200.29752 -103.90882
000170 e8 ec 54 43 23 a4 47 43 21 6d d3 c2 54 92 56 c3
       212.92542 199.64116 -105.71314 -214.5716
000180 d5 23 cf c2 cd c6 51 43 16 5d 29 c3 8e 12 e3 42
       -103.569984 209.77657 -169.36362 113.53624
000190 7e 1a 01 c3 44 bb d8 c2 bd 44 ec 42 13 6d 4c 43
       -129.10349 -108.36575 118.134254 204.42607
0001a0 00 1f e1 c2 d3 24 f2 42 b3 46 21 43 f5 99 f6 c2
       -112.56055 121.07192 161.27617 -123.3007
0001b0 dc 76 42 c3 7d ad 11 43 42 09 da 42 a5 6f 4f 43
       -194.4643 145.67769 109.01808 207.43611
0001c0 24 62 03 c3 82 15 d5 c2 1f 1c 54 43 63 c7 24 43
       -131.38336 -106.54201 212.10985 164.77885
0001d0 6d 43 00 c3 a1 29 10 c3 ee a5 f4 42 ab 1c e6 42
       -128.26338 -144.16261 122.32408 115.05599
0001e0 99 cf fc 42 42 b0 db c2 28 1a e0 c2 a8 68 fb c2
       126.405464 -109.84425 -112.05109 -125.70441
0001f0 c6 3f ea c2 59 62 dd c2 4c 04 f1 42 7a 70 0f c3
       -117.12456 -110.692085 120.50839 -143.43936
