test_uav/model/critic_model13-10-2023_17-19-10/4550.pt (torch, 77887 bytes, 5 tensors)

critic_network.0.weight f4 [128, 17]
0.0048241857 -0.3575635 -0.10074571 0.51129276 0.018565547 0.7534401 -0.19527762 0.04089933
-0.2063975 -1.0874591 0.10015879 0.89188564 -0.44291872 0.10445417 0.14861086 0.032757256
0.27909362 0.4121504 -0.50703883 0.6172455 0.004772506 0.369621 0.64236104 0.049628787
0.040468305 0.09318017 -0.58284503 0.27042267 -0.10348207 -0.14748132 0.024156239 -0.20186357
0.10798778 0.11871744 -0.053037312 -0.5331913 -0.6448575 -0.31845927 -0.081279315 -0.28808153
-0.03286471 -0.11083825 0.042972475 0.1820527 1.0564821 -1.0308414 -0.30500042 0.12297703
0.25140092 0.019012256 -0.08526989 -0.8358389 -0.5457226 -1.0036623 -0.46616396 -0.07347302
0.18284546 -0.10359728 -0.06683353 0.0952745 -0.493418 -1.1392392 -1.0608575 -0.42281085
0.13106184 0.061058708 -0.04182609 0.018308042 0.24834451 0.24999972 0.55981547 -0.2040784
-0.2611293 -0.6705374 0.022521107 -0.033924077 -0.36842924 -0.04594829 0.5099795 0.14348073
-0.35848495 0.0674463 -0.099538445 0.098665945 0.27575287 -0.26477093 0.30825993 -0.50539184
-0.052650884 0.19617175 0.34999305 0.10539636 0.06999123 0.06814073 0.37528682 -0.6340273
-1.2841822 -0.6304054 -0.13647148 0.16392301 -0.0825194 -0.20844997 0.108406514 0.20899145
0.30595636 -0.38674277 0.02203947 -0.03091049 0.17870292 -0.008924375 0.08472231 -0.31496933
-0.47476298 -0.7464372 -0.2359541 0.007201227 0.109959655 0.07780177 -0.08827014 -0.119658634
-0.17439467 0.32008567 0.34287918 0.22892286 0.41229826 0.08064748 0.099852 0.00022082683
0.48691797 0.054045353 1.5537444 0.13456671 -0.4435872 0.13117976 0.0055475035 -0.035220318
0.019732269 0.27356085 -0.8051016 -0.17100629 -0.3551701 -0.47136965 0.032495618 0.11159187
-0.113470316 0.8232555 -0.17497465 0.63880163 -0.5855682 0.050343968 -0.015369487 0.065446384
0.11211912 0.09225902 -0.11704423 -0.050277125 0.006788618 0.3309507 -0.9099462 -0.22079875
0.046115667 -0.27020165 0.50073516 0.6403093 0.24736753 0.35345224 -0.12203797 -0.049518336
-0.13243936 0.1592914 -0.098705895 0.033857986 -0.18025059 0.15703855 0.09341034 -0.5610094
-0.085309215 0.07333894 -0.13567874 -0.12924032 0.32746783 -0.24223441 -0.5942245 -0.06510638
-0.032152075 0.08980012 0.23171799 -0.22612062 0.07155313 0.2202259 -0.09876515 -0.23700865
-0.77758247 0.07424018 -0.023153272 0.059843123 0.14532596 -0.496342 0.39998874 -0.23714553
-0.11550057 -0.13095328 0.041098304 -0.060713667 0.59560674 -0.37393758 -0.5145418 -0.070310086
-0.17397176 -0.5549859 0.00023210462 0.035792638 -0.02906164 0.5672017 1.0935984 0.5806783
0.80556506 -0.045209706 0.12899831 -0.002742623 0.009554645 0.41779464 -0.3058043 1.0129938
0.27729204 0.31233346 0.5932582 0.047658335 -0.010614745 -0.28965968 0.21768355 -0.31202483
0.2910088 -0.82587665 0.027486052 -0.012767591 -0.06719653 0.28254685 -0.4966874 0.20912859
-0.3884308 0.048570704 -0.29112467 -0.60585535 0.010963513 0.056200694 -0.3969116 -0.31634146
0.6457325 -0.020416522 -0.061178625 -0.035567205 -0.14693025 0.090525985 0.16667397 -0.42871094
00000000: 3414 9e3b 9012 b7be c453 cebd 15e4 023f
00000010: c616 983c 73e1 403f dbf6 47be 0e86 273d
00000020: de59 53be dc31 8bbf 0d20 cd3d 9e52 643f
00000030: 3ec6 e2be 11ec d53d 722d 183e 792c 063d
00000040: 5ce5 8e3e 6105 d33e 4ccd 01bf cd03 1e3f
00000050: af62 9c3b f73e bd3e c671 243f 8e47 4b3d
00000060: 18c2 253d 3fd5 be3d 5535 15bf d774 8a3e
00000070: 68ee d3bd 5805 17be 4ee3 c53c 53b5 4ebe
00000080: b228 dd3d 2122 f33d a73d 59bd 3a7f 08bf
00000090: 6215 25bf 180d a3be c575 a6bd 6c7f 93be
000000a0: 259d 06bd 2aff e2bd e803 303d 066c 3a3e
000000b0: ce3a 873f 9cf2 83bf 0429 9cbe 62db fb3d
000000c0: 9fb7 803e 97bf 9b3c fba1 aebd 8af9 55bf
000000d0: 7ab4 0bbf 0278 80bf 0bad eebe 0679 96bd
000000e0: d73b 3b3e d02a d4bd 05e0 88bd 471f c33d
000000f0: 49a1 fcbe 97d2 91bf 2eca 87bf aa7a d8be
00000100: 1335 063e b218 7a3d d651 2bbd bffa 953c
00000110: 064e 7e3e edff 7f3e 1150 0f3f eef9 50be
00000120: bdb2 85be 57a8 2bbf 2f7e b83c f9f3 0abd
00000130: c2a2 bcbe 4634 3cbd 048e 023f 9dec 123e
00000140: 578b b7be 4921 8a3d d0da cbbd 5f11 ca3d
00000150: 7b2f 8d3e 0e90 87be 3fd4 9d3e 5c61 01bf
00000160: 74a8 57bd 3fe1 483e 4a32 b33e 0cda d73d
00000170: 9057 8f3d 5e8d 8b3d 9825 c03e 9d4f 22bf
00000180: 1560 a4bf 4062 21bf 2ebf 0bbe 6fdb 273e
00000190: eeff a8bd e973 55be 3c04 de3d db01 563e
000001a0: 50a6 9c3e 2603 c6be 1e8c b43c ff37 fdbc
000001b0: e6fd 363e 8b37 12bc e482 ad3d a943 a1be
000001c0: 2214 f3be 8216 3fbf f49d 71be 45f8 eb3b
000001d0: 8732 e13d 8956 9f3d fac6 b4bd 960f f5bd
000001e0: 8494 32be 45e2 a33e dc8d af3e c16a 6a3e
000001f0: c218 d33e 822a a53d 357f cc3d c08d 6739
00000200: 504d f93e a95e 5d3d 19e1 c63f dbcb 093e
00000210: dd1d e3be fd53 063e d5c7 b53b 2e43 10bd
00000220: 91a5 a13c 2b10 8c3e 231b 4ebf 461c 2fbe
00000230: dbd8 b5be 5d57 f1be 201a 053d 478a e43d
00000240: 2063 e8bd dfc0 523f 8e2c 33be 8188 233f
00000250: cce7 15bf 7a35 4e3d 4dd0 7bbc c108 863d
00000260: b69e e53d 4cf2 bc3d e3b4 efbd 63ef 4dbd
00000270: 0e73 de3b 5f72 a93e 3cf2 68bf 1119 62be
00000280: c8e3 3c3d df57 8abe 2e30 003f 4feb 233f
00000290: ea4d 7d3e b1f7 b43e 0bef f9bd bdd3 4abd
000002a0: 2f9e 07be 491d 233e 5126 cabd acae 0a3d
000002b0: 9c93 38be b7ce 203e ec4d bf3d 509e 0fbf
000002c0: 99b6 aebd ba32 963d 5eef 0abe 9357 04be
000002d0: dda9 a73e 4c0c 78be 191f 18bf 7e56 85bd
000002e0: e5b1 03bd 20e9 b73d 7b47 6d3e 2a8c 67be
000002f0: 738a 923d e682 613e 6245 cabd 65b2 72be
00000300: a50f 47bf 3c0b 983d eeab bdbc 101e 753d
00000310: 54d0 143e 8a20 febe 53cb cc3e 47d6 72be
00000320: 908b ecbd 9e18 06be b256 283d e5ae 78bd
00000330: af79 183f bf74 bfbe 03b9 03bf bcfe 8fbd
00000340: a725 32be 8e13 0ebf 1c61 7339 4d9b 123d
00000350: ad12 eebc 2134 113f 08fb 8b3f 55a7 143f
00000360: 8339 4e3f d02d 39bd 2218 043e 94bd 33bb
00000370: 168b 1c3c 2ee9 d53e 6292 9cbe c8a9 813f
00000380: 39f9 8d3e 2cea 9f3e c5df 173f 6335 433d
00000390: 78e9 2dbc 464e 94be 70e8 5e3e b8c1 9fbe
000003a0: 1bff 943e a76c 53bf 6e2a e13c 282f 51bc
000003b0: 569e 89bd fba9 903e d04d febe ce25 563e
000003c0: 67e0 c6be 13f2 463d 4b0e 95be 5619 1bbf
000003d0: 4ea0 333c b332 663d ff37 cbbe 82f7 a1be
000003e0: ba4e 253f 8d40 a7bc 7096 7abd ebae 11bd
000003f0: e274 16be b065 b93d 95ac 2a3e 0080 dbbe

critic_network.0.bias f4 [128]
0.05834475 0.10126641 -0.41893587 -0.9458918 0.28195468 -0.008598237 -0.6678348 -1.0148994
0.0519207 0.18216492 -0.69205064 0.24387436 -0.42585173 -0.13644272 0.48754773 -0.04566674
1.1640097 0.30485642 -0.95105064 -0.31949225 -0.59091496 -0.087778784 0.2820277 -0.14870146
-0.5840283 -0.40885642 -0.38859636 -0.016125575 0.5156808 0.8915546 -0.22760388 0.048710596
1.288278 0.07722573 0.86023647 0.46229175 -0.18404002 -0.89593095 -0.33404765 0.14846618
-0.86355984 -1.1515964 0.72964716 -0.16589397 -0.05103213 0.16394848 -0.1051165 -0.19814382
0.9071439 -1.4374657 0.008192417 -0.16975051 0.7882405 -0.8944434 -0.58297396 0.49667838
-0.86468554 -0.27381387 0.30165434 -0.109003514 0.21571295 0.9914056 -0.33835477 -0.013328866
-0.820719 -0.06328705 -1.1403099 0.1023308 -0.52807623 0.57558346 0.23661195 0.13345085
-0.25311598 -0.90935344 1.4145674 0.16248259 -1.2953149 -0.5882901 0.2165287 -0.33660415
-0.85304075 0.48344475 0.79962784 -0.5169876 -0.12536193 0.8099492 -0.1535752 0.45835683
-0.35460228 0.210436 0.629052 -0.4882551 -0.21030644 -0.02338414 0.45166314 0.13926354
-0.75953555 1.1495745 0.50022125 1.1192384 0.17055355 0.69421136 0.020222673 0.40101567
-0.32700676 1.7957065 2.4803963 0.80589753 0.3349123 0.2301176 0.16460498 0.66669446
-1.4422148 -0.10766115 0.38237897 0.11651669 0.34989405 0.7415792 -0.3561762 0.023154737
-0.777746 -0.87913895 -0.035943702 0.12278424 1.1050099 -0.0699897 -1.4791836 0.62634885
00000000: e8fa 6e3d c364 cf3d c37e d6be f725 72bf
00000010: 5d5c 903e 9fdf 0cbc 39f7 2abf 39e8 81bf
00000020: cdaa 543d 7189 3a3e 3b2a 31bf 33ba 793e
00000030: 3d09 dabe a4b7 0bbe db9f f93e 0c0d 3bbd
00000040: 45fe 943f 2416 9c3e 0e78 73bf 7d94 a3be
00000050: 3446 17bf 5dc5 b3bd ef65 903e 3245 18be
00000060: e182 15bf a155 d1be 1af6 c6be c819 84bc
00000070: a803 043f ec3c 643f fe10 69be c384 473d
00000080: 4be6 a43f 8628 9e3d 7538 5c3f 81b1 ec3e
00000090: fd74 3cbe bb5b 65bf 4b08 abbe 8507 183e
000000a0: 4212 5dbf 8367 93bf 28ca 3a3f 1ce0 29be
000000b0: 1107 51bd 1ce2 273e 5247 d7bd 37e6 4abe
000000c0: 953a 683f e0fe b7bf 7d39 063c 14d3 2dbe
000000d0: 21ca 493f 3efa 64bf c83d 15bf a14c fe3e
000000e0: 085c 5dbf 5531 8cbe 7072 9a3e 3c3d dfbd
000000f0: dbe3 5c3e c2cc 7d3f d63c adbe 5161 5abc
00000100: a41a 52bf a49c 81bd adf5 91bf cf92 d13d
00000110: 0130 07bf 7059 133f 674a 723e 57a7 083e
00000120: 6b98 81be 63cb 68bf 8b10 b53f d661 263e
00000130: e1cc a5bf 2e9a 16bf b3b9 5d3e 6157 acbe
00000140: e160 5abf 1286 f73e 69b4 4c3f 4d59 04bf
00000150: e15e 00be d558 4f3f d142 1dbe bfad ea3e
00000160: 6e8e b5be 897c 573e 8d09 213f 93fc f9be
00000170: 925a 57be 1990 bfbc 6440 e73e 1a9b 0e3e
00000180: ec70 42bf 4225 933f 800e 003f 3443 8f3f
00000190: 97a5 2e3e d6b7 313f 05aa a53c ed51 cd3e
000001a0: 6e6d a7be b6d9 e53f d0be 1e40 4d4f 4e3f
000001b0: a079 ab3e f3a3 6b3e 358e 283e 7dac 2a3f
000001c0: 7f9a b8bf 737d dcbd 2dc7 c33e 4da0 ee3d
000001d0: 5025 b33e 22d8 3d3f ba5c b6be 01af bd3c
000001e0: 5d1a 47bf 400f 61bf b439 13bd 4e76 fb3d
000001f0: f770 8d3f c356 8fbd e355 bdbf 6658 203f

critic_network.2.weight f4 [128, 128]
0.21484046 0.14378501 -2.211957 -0.74580586 1.3038476 -2.1412947 1.5617582 0.3392025
-1.4874679 -0.42904308 -0.9555652 -3.11831 0.6833383 -0.09993507 2.4422288 -0.5021147
0.7403373 1.3884959 -0.08922865 -0.36785516 -0.06034549 1.4157766 -0.82935315 -0.2647152
0.8069875 0.9131386 -0.13516892 -1.9657226 -1.3013618 -1.6133156 1.3353648 1.0578866
1.4048773 0.06016535 -0.15916272 -1.1479232 -1.6670105 0.76211846 -3.214616 1.6908072
2.755005 1.1348296 2.3706183 -1.6756058 -0.29491988 0.45607924 -2.2272365 0.03125265
-0.71221066 -0.38782102 0.5163066 -0.5423938 -0.9209946 -1.0180297 0.97258127 1.6010221
1.5149173 0.8708194 0.28959733 -0.915754 1.6241685 -2.444479 -0.6521964 0.6164502
-1.1848123 1.5580574 3.8106456 1.1896955 1.1256994 -1.9496022 -2.136821 -0.37886742
0.9165322 1.0763191 0.4458348 -0.43459222 0.7103713 -0.8035873 -2.0862722 -0.43659174
-3.2548897 0.28347665 -2.135581 -1.7907854 0.7723868 0.008308117 2.7619805 0.10871815
1.5772015 -1.9231805 -0.5957547 -0.67580855 -0.72953 0.39947966 -0.432946 -0.3792283
1.383081 -0.22418006 -2.2745173 -0.56428236 -0.71840227 0.7548731 -1.7641362 0.39136162
0.097850814 1.9741566 6.639798 -1.6753813 2.4248874 2.1065588 1.466574 1.4972976
0.16226122 -0.47296524 0.68008476 -0.34543782 -1.9019394 -2.2671332 -1.1725006 0.54944587
3.1609685 -0.7690726 1.1003954 1.3680171 -0.2194107 -0.054428656 3.1561544 -1.6105531
-1.9506086 2.2803152 0.4479629 -0.73652375 0.4327025 -1.3025855 -2.4910328 -0.09493631
0.4676482 -0.19060034 -1.0548996 1.6232798 -0.11739559 0.17998329 -0.44324738 1.3661596
-0.24601285 0.78837246 -0.85153174 0.9005979 -0.071902804 0.8306044 1.358906 0.29443198
0.084017165 2.1525943 -0.6520094 -0.3718693 2.2777207 0.82979476 0.14892626 0.38827482
1.3485011 0.98104596 0.1659918 -0.7391271 -0.06445082 -0.72558856 -0.22267176 -1.1790423
-0.5464982 -0.57115316 0.515488 -1.5483807 0.60664874 0.3281295 -0.43266484 -0.39062738
0.43935278 0.19539908 -0.12565416 -0.14248288 -0.36168402 -0.44985348 0.88037324 -1.571073
-1.5189453 0.83468235 -1.4603554 2.9985044 0.46038502 1.5533029 -1.1566446 -0.29972157
0.51597375 -0.08093727 -3.8972514 -0.8342657 0.5579339 -0.052354194 -0.056541804 -0.13796721
-0.31703758 -0.67210245 0.952337 0.5144032 0.11334636 1.7632804 0.97052544 -0.39653638
1.2888484 0.6868858 1.7319689 0.7062809 -1.1085746 -0.17304766 -0.9368365 0.8991898
0.11157241 1.8078533 -0.24765104 -0.30839285 -2.4024715 -0.5036003 1.0494721 -0.580123
-2.275031 1.1883214 1.2817032 2.6848376 -0.23618601 -0.406899 -1.5993183 -0.59070486
0.28854984 -9.156943 -8.854187 1.5497222 0.17202352 -0.05852001 -2.5004535 0.36841303
0.70346373 0.9595924 0.22853035 -0.2993322 -0.00722523 0.14445281 -0.21301895 -1.3775256
1.4885395 0.7393757 -1.4680467 -0.37581772 2.3965032 0.028742958 -3.827725 1.7062467
00000000: 23ff 5b3e 613c 133e b490 0dc0 22ed 3ebf
00000010: 7ae4 a63f f90a 09c0 b1e7 c73f f3ab ad3e
00000020: 5965 bebf 89ab dbbe ec9f 74bf 6492 47c0
00000030: 42ef 2e3f c2aa ccbd 7a4d 1c40 978a 00bf
00000040: bf86 3d3f 3cba b13f 83bd b6bd 8357 bcbe
00000050: d52c 77bd 2b38 b53f 7d50 54bf c088 87be
00000060: bc96 4e3f 74c3 693f b969 0abe cc9c fbbf
00000070: 0693 a6bf 2081 cebf 3ced aa3f d468 873f
00000080: 05d3 b33f f16f 763d 8dfb 22be 26ef 92bf
00000090: 9a60 d5bf 321a 433f 45bc 4dc0 5f6c d83f
000000a0: 0052 3040 1942 913f 36b8 1740 407a d6bf
000000b0: bdff 96be 3883 e93e 0b8b 0ec0 c702 003d
000000c0: 7053 36bf 7a90 c6be ab2c 043f 52da 0abf
000000d0: 4dc6 6bbf cc4e 82bf 16fb 783f 4bee cc3f
000000e0: cfe8 c13f 05ee 5e3f 1a46 943e db6e 6abf
000000f0: c1e4 cf3f 5872 1cc0 58f6 26bf aecf 1d3f
00000100: eea7 97bf 6d6e c73f 9ee1 7340 f147 983f
00000110: eb16 903f 918c f9bf adc1 08c0 e9fa c1be
00000120: dba1 6a3f d3c4 893f 7544 e43e df82 debe
00000130: e5da 353f e6b7 4dbf 7c85 05c0 f488 dfbe
00000140: 1d50 50c0 da23 913e 5cad 08c0 7538 e5bf
00000150: 24bb 453f c51e 083c 4ac4 3040 9fa7 de3d
00000160: bde1 c93f c72a f6bf 6183 18bf ca01 2dbf
00000170: 7ac2 3abf 9988 cc3e 19ab ddbe 362a c2be
00000180: cc08 b13f 758f 65be b191 11c0 cf74 10bf
00000190: 36e9 37bf 5d3f 413f 37cf e1bf 8d60 c83e
000001a0: 0266 c83d 2ab1 fc3f 3a79 d440 e572 d6bf
000001b0: 5b31 1b40 dcd1 0640 b2b8 bb3f 73a7 bf3f
000001c0: ce27 263e 8028 f2be 091a 2e3f 3add b0be
000001d0: c072 f3bf b618 11c0 8014 96bf 7ca8 0c3f
000001e0: 4f4d 4a40 f1e1 44bf c2d9 8c3f 2f1b af3f
000001f0: 33ad 60be 95f0 5ebd 6ffe 4940 9b26 cebf
00000200: 8bad f9bf aff0 1140 655b e53e d28c 3cbf
00000210: 2f8b dd3e 1fbb a6bf 156d 1fc0 f86d c2bd
00000220: 966f ef3e bc2c 43be f306 87bf a2c7 cf3f
00000230: 196d f0bd 8a4d 383e 52f1 e2be 51de ae3f
00000240: cbea 7bbe c7d2 493f fcfd 59bf 958d 663f
00000250: c741 93bd 7da2 543f a2f0 ad3f cabf 963e
00000260: 3111 ac3d 1bc4 0940 17ea 26bf a765 bebe
00000270: 2dc6 1140 6e6d 543f 2080 183e f5cb c63e
00000280: af9b ac3f d425 7b3f c1f9 293e 6f37 3dbf
00000290: cbfe 83bd 2cc0 39bf 1104 64be dcea 96bf
000002a0: 4ee7 0bbf 1837 12bf 06f7 033f 5731 c6bf
000002b0: 554d 1b3f 9700 a83e 3f86 ddbe 5000 c8be
000002c0: d9f2 e03e b216 483e 7cab 00be 08e7 11be
000002d0: a62e b9be 3253 e6be 2460 613f ec18 c9bf
000002e0: cd6c c2bf bead 553f edec babf 7fe7 3f40
000002f0: 96b7 eb3e a1d2 c63f ee0c 94bf 1b75 99be
00000300: db16 043f 70c2 a5bd 916c 79c0 7092 55bf
00000310: c2d4 0e3f 5a71 56bd 6198 67bd 4747 0dbe
00000320: c052 a2be e80e 2cbf 5ccc 733f eeaf 033f
00000330: 2322 e83d 2cb3 e13f 5b74 783f d106 cbbe
00000340: fcf8 a43f bfd7 2f3f 28b1 dd3f d3ce 343f
00000350: c6e5 8dbf 6833 31be 84d4 6fbf 4d31 663f
00000360: 1380 e43d bd67 e73f 3c98 7dbe abe5 9dbe
00000370: 18c2 19c0 f3eb 00bf 1a55 863f f182 14bf
00000380: 1c9a 11c0 ea1a 983f da0e a43f 61d4 2b40
00000390: bfda 71be 1155 d0be 76b6 ccbf 6f38 17bf
000003a0: cebc 933e d782 12c1 c0aa 0dc1 4c5d c63f
000003b0: ef26 303e aeb2 6fbd 6e07 20c0 a2a0 bc3e
000003c0: 3316 343f d9a7 753f dc03 6a3e 1242 99be
000003d0: 9fc1 ecbb 70eb 133e a421 5abe c252 b0bf
000003e0: 7688 be3f ba47 3d3f f4e8 bbbf 2e6b c0be
000003f0: 4f60 1940 5a76 eb3c 72f9 74c0 4b66 da3f

critic_network.2.bias f4 [128]
4.103041 -5.655869 -3.157894 5.1725183 -7.4239225 -1.5074501 -5.4175463 2.315361
-0.67447335 4.009205 6.215219 -2.0824637 3.4039726 -3.2558243 3.078317 0.28847712
-0.5274922 0.85021466 3.0211582 -3.9359734 3.0135863 -1.6530924 3.8353357 -4.8322153
-4.9802747 4.568397 6.1123834 -3.213489 -1.5348083 4.4998517 5.734134 4.949947
-3.9251645 -5.5939684 -3.5911257 2.7379994 -1.6384712 3.6460407 6.4159794 2.5733776
-3.1937897 -1.9614321 -1.2862599 -2.0095 4.9535565 -3.268879 -3.3108544 -5.8665433
-4.700052 -5.600865 -3.1586304 -5.568792 -1.8082707 -3.8399622 1.6256396 5.4876537
-5.68711 -0.8840426 -3.3649588 0.2010408 1.9027226 -6.0904336 -3.8998344 -2.7146523
5.773914 4.0748386 -3.741651 6.1509385 -5.020313 -4.8107038 -2.400772 -0.1924217
-3.0178142 1.9133779 4.6646028 -2.780251 -3.1914084 -7.149993 -5.7584558 -3.532661
0.4727699 4.6323204 -6.51937 2.3877265 -2.822033 -2.084997 -2.2039073 -4.001261
-0.5705665 -5.737994 -2.5446486 4.961592 4.626937 2.1019216 3.6195164 -2.615801
4.5461125 2.7357495 1.1917897 -3.0736492 3.1366134 5.576646 -5.3520937 1.7800565
5.000937 -4.341749 -0.50249994 3.5832124 -2.0265129 -0.5334166 -5.6282325 3.7628171
5.2043266 5.046673 4.4245944 -1.9828862 4.092802 3.3748279 -4.368335 -5.0297203
-3.305488 5.741248 3.1858058 2.4311974 3.8679597 5.474651 -3.0641582 2.3236387
00000000: 1d4c 8340 e1fc b4c0 ef1a 4ac0 4585 a540
00000010: c690 edc0 20f4 c0bf 8a5c adc0 e02e 1440
00000020: 49aa 2cbf 684b 8040 13e3 c640 1647 05c0
00000030: b0da 5940 6d5f 50c0 2503 4540 46b3 933e
00000040: bb09 07bf aba7 593f a85a 4140 fde6 7bc0
00000050: 99de 4040 8898 d3bf 2476 7540 82a1 9ac0
00000060: 695e 9fc0 4f30 9240 a598 c340 cea9 4dc0
00000070: 9974 c4bf c9fe 8f40 077e b740 f765 9e40
00000080: e535 7bc0 ca01 b3c0 01d5 65c0 623b 2f40
00000090: 6db9 d1bf bb58 6940 b44f cd40 38b2 2440
000000a0: 0d67 4cc0 3510 fbbf 2aa4 a4bf a69b 00c0
000000b0: 8983 9e40 5035 51c0 0ae5 53c0 b9ba bbc0
000000c0: d366 96c0 493a b3c0 0027 4ac0 8b33 b2c0
000000d0: 6a75 e7bf f1c1 75c0 f514 d03f dc9a af40
000000e0: cefc b5c0 9e50 62bf 7c5b 57c0 a4dd 4d3e
000000f0: 6a8c f33f d5e4 c2c0 e396 79c0 ddbc 2dc0
00000100: e7c3 b840 1465 8240 3677 6fc0 7dd4 c440
00000110: 67a6 a0c0 49f1 99c0 40a6 19c0 320a 45be
00000120: de23 41c0 91e9 f43f 6d44 9540 a2ef 31c0
00000130: 0940 4cc0 becc e4c0 4545 b8c0 1e17 62c0
00000140: e50e f23e f83b 9440 ae9e d0c0 83d0 1840
00000150: 309c 34c0 9770 05c0 d10c 0dc0 550a 80c0
00000160: a510 12bf a69d b7c0 86db 22c0 5dc5 9e40
00000170: de0f 9440 e285 0640 28a6 6740 4969 27c0
00000180: c179 9140 8516 2f40 918c 983f abb6 44c0
00000190: 46be 4840 e273 b240 5a44 abc0 e4d8 e33f
000001a0: ad07 a040 9cef 8ac0 d6a3 00bf 5a53 6540
000001b0: 63b2 01c0 fe8d 08bf 7b1a b4c0 ffd1 7040
000001c0: d889 a640 587e a140 4796 8d40 37cf fdbf
000001d0: 3cf8 8240 2efd 5740 66c9 8bc0 78f3 a0c0
000001e0: 1e8d 53c0 4eb8 b740 3ee4 4b40 bd98 1b40
000001f0: a78c 7740 5730 af40 2b1b 44c0 7fb6 1440

critic_network.4.weight f4 [1, 128]
-117.975006 112.312164 138.7104 -109.991554 87.61977 -200.76167 108.76222 -118.85025
159.98756 -106.96582 -95.2875 -186.10103 210.44373 -224.01271 -129.90382 -136.24467
176.20212 190.78462 217.42468 126.93085 215.56871 -203.98651 214.74722 131.05724
-222.58824 -111.02457 -104.915596 -215.2225 -199.29485 214.2585 -89.98222 224.72081
121.18227 100.896095 -219.09776 -125.25888 -205.54042 -123.163506 -111.227005 -125.37399
-213.76248 -202.75392 -180.87271 153.6601 -127.77344 139.10506 118.009415 118.661354
113.87497 109.45562 -223.61179 106.197296 123.63977 -223.7929 209.19096 -123.31602
106.37952 157.65392 144.7071 -193.48856 210.7302 113.226814 109.081635 131.2015
-101.00146 -113.36348 118.28853 -99.798225 108.35532 121.385544 -218.93478 167.74886
107.92439 -139.16603 -108.48747 134.83464 128.01993 95.82872 116.20438 -218.05974
185.93532 -121.71699 99.29629 -162.17723 -223.17836 127.52426 -205.66234 129.56061
-200.53499 115.02834 -208.63176 -103.49292 220.80043 203.7317 -105.297905 -224.57393
-98.787735 213.97105 -162.87111 114.79821 -131.18176 -104.34516 113.01352 211.22339
-110.12978 118.39532 158.66821 -119.94459 -195.53418 142.9276 103.27425 216.78888
-125.13142 -102.66195 219.5259 157.5374 -123.24411 -139.95436 117.22991 109.993965
120.14845 -105.77818 -112.550766 -129.34167 -113.31834 -103.51173 121.35795 -142.08676
00000000: 34f3 ebc2 d49f e042 ddb5 0a43 adfb dbc2
00000010: 523d af42 fdc2 48c3 4286 d942 54b3 edc2
00000020: d1fc 1f43 80ee d5c2 3393 bec2 dd19 3ac3
00000030: 9871 5243 4103 60c3 61e7 01c3 a33e 08c3
00000040: be33 3043 ddc8 3e43 b86c 5943 98dc fd42
00000050: 9791 5743 8cfc 4bc3 4abf 5643 a70e 0343
00000060: 9796 5ec3 940c dec2 c9d4 d1c2 f638 57c3
00000070: 7b4b 47c3 2d42 5643 e6f6 b3c2 87b8 6043
00000080: 525d f242 cdca c942 0719 5bc3 8c84 fac2
00000090: 598a 4dc3 b753 f6c2 3a74 dec2 7cbf fac2
000000a0: 32c3 55c3 01c1 4ac3 6adf 34c3 fca8 1943
000000b0: 008c ffc2 e51a 0b43 d204 ec42 9d52 ed42
000000c0: fcbf e342 47e9 da42 9e9c 5fc3 0465 d442
000000d0: 9047 f742 fbca 5fc3 e330 5143 cda1 f6c2
000000e0: 50c2 d442 67a7 1d43 05b5 1043 127d 41c3
000000f0: eeba 5243 2174 e242 cc29 da42 9633 0343
00000100: bf00 cac2 1aba e2c2 ba93 ec42 b198 c7c2
00000110: edb5 d842 66c5 f242 4eef 5ac3 b5bf 2743
00000120: 4ad9 d742 812a 0bc3 96f9 d8c2 abd5 0643
00000130: 1a05 0043 4ea8 bf42 a468 e842 4b0f 5ac3
00000140: 71ef 3943 196f f3c2 b397 c642 5f2d 22c3
00000150: a92d 5fc3 6c0c ff42 8fa9 4dc3 848f 0143
00000160: f588 48c3 830e e642 bba1 50c3 60fc cec2
00000170: e9cc 5c43 51bb 4b43 8798 d2c2 ed92 60c3
00000180: 5293 c5c2 97f8 5543 01df 22c3 af98 e542
00000190: 882e 03c3 b9b0 d0c2 ec06 e242 3039 5343
000001a0: 7342 dcc2 67ca ec42 10ab 1e43 a1e3 efc2
000001b0: c088 43c3 77ed 0e43 6a8c ce42 f4c9 5843
000001c0: 4943 fac2 eb52 cdc2 a186 5b43 9389 1d43
000001d0: fc7c f6c2 51f4 0bc3 b775 ea42 e9fc db42
000001e0: 024c f042 6e8e d3c2 fe19 e1c2 7857 01c3
000001f0: fda2 e2c2 0106 cfc2 45b7 f242 3616 0ec3
