test_uav/model/critic_model13-10-2023_17-19-10/4840.pt (torch, 77887 bytes, 5 tensors)

critic_network.0.weight f4 [128, 17]
0.106235154 0.3193655 0.7091927 -0.31252518 0.15976912 -0.0059277457 0.07532148 -0.07713199
0.28165647 -0.025488464 -0.58620316 -1.0494039 0.11619475 0.051561087 0.22347397 -0.062195048
-0.06830017 0.16569212 -0.086857185 -0.7738974 0.12775935 0.044681743 0.6677524 -0.22900544
-0.07303277 0.10682489 0.15485393 -0.6048491 0.070461534 -0.71942025 -0.120178156 0.050658055
-0.12793998 -0.03683896 0.26195326 0.0886145 0.08552228 -0.034362383 -0.05549697 -0.6924135
0.10302779 0.033373594 -0.46035 0.44407246 0.8491753 -1.1685202 0.9235946 0.08105026
-0.080976464 -0.07784532 -0.16112031 -0.17905281 0.45956853 0.92115605 0.14267519 -0.015122404
0.4543244 -0.10728403 -0.014136141 -0.38331506 -0.7383973 1.3854223 -1.7574449 0.5667534
-0.101723954 0.2750753 0.08367252 -0.18610373 0.18166992 -0.2031139 -0.21924356 -0.25751147
-0.1644033 0.8735229 -0.089008205 0.00012596116 -0.20170312 0.15106244 0.16040824 -0.041593857
0.8823458 0.19358885 0.088608444 -0.07733366 -0.07192831 -0.20816739 0.120174825 0.03434806
0.26065323 0.08385655 -0.8811946 -0.08429039 0.064674124 -0.10742401 -0.6101566 0.2663362
-0.14742202 0.66503 0.046644907 -0.042243574 0.121165924 0.14254871 0.47779912 -0.15381156
0.8024619 -0.37467775 -0.06979966 -0.12477838 0.16621453 0.10340498 0.14239235 -0.45455062
-0.5017399 0.15835874 -0.18446793 -0.083579674 0.0510641 0.07237499 -0.087546915 0.09450798
-0.6877094 -0.9674306 0.06792057 -0.22828461 0.5068372 0.07761647 0.044937674 0.36322677
1.0996419 -0.26435193 -0.14806558 -0.26624772 0.03884426 0.14540875 -0.036471564 -0.17148188
-0.29257363 0.016370308 -0.13644038 -0.015962785 -0.07203648 -0.63955534 0.048460938 -0.021321598
0.017671255 -0.22841829 -0.45767444 1.4231787 0.3741948 -0.050389994 -0.019125996 0.15321717
0.19971181 0.1112512 -0.39119232 -0.12760922 -0.17580236 -0.14527571 -0.5512026 -0.21855365
0.012722826 -0.21187638 0.28024304 -0.0629696 0.5398865 0.580592 -0.1143067 0.069654495
0.047859363 -0.011549048 0.21501495 -0.41868305 1.378641 -0.31249744 -0.11901791 -0.098084025
0.005947168 0.017491825 -0.26833314 0.008290917 0.52457273 -0.4059096 0.36357248 -0.107440695
-0.022938266 0.089715794 0.062618904 -0.17738912 -0.0068603596 0.3426992 0.13059726 -0.03180852
-0.25621104 0.14371394 0.02185606 0.03650477 -0.331866 0.20375857 -0.65428513 0.5026214
0.019921582 -0.14272188 0.06889688 0.050645653 0.04224925 0.03917844 0.21518217 -0.22551255
-0.019157777 -0.039374962 0.19122818 0.020329071 0.101663284 0.17272946 -1.0697091 -1.8804784
-0.08787588 -0.07629071 0.15142971 -0.03692989 -0.0507334 0.49863932 0.0032339303 -0.4226138
0.013572554 -0.1070908 0.7651707 -0.08639478 -0.010708893 0.1813992 0.10188327 0.1229705
-0.33708 0.5130586 0.17438176 0.06791631 -0.20246811 -0.04723532 -0.053412568 0.19729534
0.4671907 0.622372 -0.19389087 -0.15278733 -0.14518383 0.11257107 -0.43936002 0.16068423
-0.0878262 0.502592 -0.78733873 -0.0027998274 -0.19945769 0.15682963 0.2526198 0.24260354
00000000: d191 d93d e083 a33e a78d 353f 4d03 a0be
00000010: 849a 233e 893d c2bb 2642 9a3d 60f7 9dbd
00000020: 4735 903e 2fcd d0bc 6911 16bf de52 86bf
00000030: 83f7 ed3d b831 533d 5cd6 643e 3cc0 7ebd
00000040: f6e0 8bbd 32ab 293e 2ee2 b1bd 241e 46bf
00000050: 59d3 023e 3404 373d d2f1 2a3f 6780 6abe
00000060: 3492 95bd 02c7 da3d 0792 1e3e 64d7 1abf
00000070: 234e 903d ed2b 38bf f71f f6bd d27e 4f3d
00000080: b302 03be 73e4 16bd bd1e 863e 857b b53d
00000090: 4e26 af3d 92bf 0cbd ca50 63bd 0342 31bf
000000a0: 3c00 d33d c0b2 083d ffb2 ebbe 775d e33e
000000b0: 8d63 593f 1292 95bf b270 6c3f aefd a53d
000000c0: fdd6 a5bd 5e6d 9fbd b9fc 24be 9f59 37be
000000d0: 914c eb3e e2d0 6b3f 7219 123e f6c3 77bc
000000e0: 359d e83e bbb7 dbbd 469b 67bc df41 c4be
000000f0: 9b07 3dbf 8555 b13f f4f3 e0bf c016 113f
00000100: a654 d0bd abd6 8c3e 805c ab3d fa91 3ebe
00000110: ae07 3a3e 17fd 4fbe 6281 60be 8bd8 83be
00000120: 5759 28be 329f 5f3f ef49 b6bd 7114 0439
00000130: 438b 4ebe 1db0 1a3e 0f42 243e 525e 2abd
00000140: 6ae1 613f 283c 463e 5878 b53d 1c61 9ebd
00000150: 264f 93bd d529 55be 381e f63d 8db0 0c3d
00000160: 5774 853e fcbc ab3d f895 61bf 71a0 acbd
00000170: de73 843d 1f01 dcbd 3933 1cbf 385d 883e
00000180: ccf5 16be 683f 2a3f bb0e 3f3d 9907 2dbd
00000190: d725 f83d 4af8 113e 16a2 f43e c780 1dbe
000001a0: 256e 4d3f c3d5 bfbe 20f3 8ebd cf8b ffbd
000001b0: 2434 2a3e fdc5 d33d 4dcf 113e dcba e8be
000001c0: 0772 00bf cb28 223e 29e5 3cbe d22b abbd
000001d0: 9728 513d 5739 943d cc4b b3bd 668d c13d
000001e0: b90d 30bf 88a9 77bf f119 8b3d 71c3 69be
000001f0: 15c0 013f 62f5 9e3d 9110 383d dcf8 b93e
00000200: 11c1 8c3f 2359 87be 819e 17be 9f51 88be
00000210: 291b 1f3d 08e6 143e 3563 15bd f298 2fbe
00000220: 36cc 95be 061b 863c 07b7 0bbe 63c4 82bc
00000230: dd87 93bd e6b9 23bf fa7e 463d a2aa aebc
00000240: 4fc3 903c 7ce6 69be 4e54 eabe b82a b63f
00000250: 7696 bf3e bd65 4ebd 1fae 9cbc f6e4 1c3e
00000260: 4181 4c3e abd7 e33d 5c4a c8be feab 02be
00000270: 8905 34be 28c3 14be 9d1b 0dbf 87cc 5fbe
00000280: 6673 503c 1ff6 58be 047c 8f3e 35f6 80bd
00000290: 0036 0a3f ada1 143f a219 eabd 04a7 8e3d
000002a0: 2e08 443d 3838 3dbc e12c 5c3e a05d d6be
000002b0: 4f77 b03f aaff 9fbe a9bf f3bd 47e0 c8bd
000002c0: 76e0 c23b 044b 8f3c f662 89be a0d6 073c
000002d0: 664a 063f 62d3 cfbe 2c26 ba3e de09 dcbd
000002e0: 08e9 bbbc eabc b73d 573e 803d 7ea5 35be
000002f0: decc e0bb 4576 af3e 4abb 053e a749 02bd
00000300: 182e 83be bf29 133e 7b0b b33c 0786 153d
00000310: 57ea a9be 16a6 503e 3b7f 27bf ccab 003f
00000320: 9632 a33c af25 12be cf19 8d3d d171 4f3d
00000330: 8d0d 2d3d 9279 203d b758 5c3e c3ec 66be
00000340: c5f0 9cbc a447 21bd 52d1 433e 2789 a63c
00000350: d734 d03d fedf 303e 3aec 88bf 84b3 f0bf
00000360: 45f8 b3bd 4e3e 9cbd 6410 1b3e cc43 17bd
00000370: d3cd 4fbd a74d ff3e 59f0 533b d660 d8be
00000380: 6b5f 5e3c 6c52 dbbd 3ae2 433f bfef b0bd
00000390: 5a74 2fbc b6c0 393e 2da8 d03d f5d7 fb3d
000003a0: c095 acbe cf57 033f 2291 323e b517 8b3d
000003b0: cd53 4fbe d379 41bd 23c7 5abd ca07 4a3e
000003c0: 9f33 ef3e c553 1f3f 548b 46be 4874 1cbe
000003d0: 12ab 14be a98b e63d ccf3 e0be 688a 243e
000003e0: 39de b3bd dfa9 003f 088f 49bf 4f7d 37bb
000003f0: a33e 4cbe f297 203e 6257 813e 106d 783e

critic_network.0.bias f4 [128]
0.090650365 -0.94038576 0.33063498 -0.21677878 0.12513183 -0.10475977 -0.16423199 -0.46360394
0.02749525 0.33117262 0.22183965 0.4847893 -0.7512193 -0.49579367 0.23278518 -0.19065876
0.55848074 -0.3307312 -0.4751688 -0.46603528 -0.21576922 0.1908218 0.5788717 -0.30913174
-0.7394982 -0.08250944 -0.23734441 -0.27826777 0.34497374 0.9506428 0.06681866 -0.22737002
1.49775 0.61743814 0.6382994 -0.07334306 -0.081592694 -0.7643158 -0.22709519 0.45123276
-0.9956512 -0.67633253 0.43256813 0.13416363 0.30807537 -0.14635782 -0.7741018 -0.6043317
0.82417506 -1.6315691 0.2120762 -0.5901994 -0.037334457 -0.17354354 -0.23557165 0.504958
-0.86046946 -0.40718764 0.034662884 -0.36939818 0.7138903 1.0794749 -0.6515546 -0.38373035
-0.80021214 -0.81762934 -0.72728765 0.5480989 0.40720853 0.03338376 0.65358037 0.5588955
-0.18355127 -0.71245813 0.045713197 -0.37191358 -0.41342336 0.3177352 0.10644266 -0.44084692
-0.8010854 0.18368939 0.47085163 0.48096704 -0.07280963 0.08471732 -0.27738675 0.7762556
-1.0467155 0.49973646 0.12551351 -0.36736974 -0.4467411 0.3534494 0.6208932 0.1458727
-0.55221045 1.0981426 0.52436274 1.3292378 -0.4430932 0.05707391 0.24400617 -0.15185031
-0.915704 1.7780287 2.6777668 1.055642 -0.37905547 0.46760616 0.034198064 0.42195782
-0.95768994 0.044337705 0.30883265 0.61487484 0.24874885 0.7870976 -0.54071933 -0.10011148
-0.12148813 -0.97526085 0.51432097 -0.6597055 1.1552466 -0.025867933 -1.4689028 0.8038602
00000000: e6a6 b93d 1fbd 70bf fd48 a93e 42fb 5dbe
00000010: 8f22 003e 4a8c d6bd 6e2c 28be 7f5d edbe
00000020: b83d e13c 758f a93e ef29 633e 4e36 f83e
00000030: e84f 40bf abd8 fdbe 3d5f 6e3e 0d3c 43be
00000040: 98f8 0e3f 9a55 a9be 5349 f3be 2d9c eebe
00000050: 9bf2 5cbe ca66 433e f030 143f 8446 9ebe
00000060: c14f 3dbf b6fa a8bd 6a0a 73be 1d79 8ebe
00000070: 66a0 b03e 545d 733f 39d8 883d b0d3 68be
00000080: 46b6 bf3f 6d10 1e3f 9767 233f e334 96bd
00000090: 121a a7bd 33aa 43bf a48b 68be fb07 e73e
000000a0: ffe2 7ebf 2124 2dbf 9279 dd3e 3162 093e
000000b0: 0ebc 9d3e d3de 15be 892b 46bf 7bb5 1abf
000000c0: 23fd 523f 42d7 d0bf 812a 593e 4f17 17bf
000000d0: 04ec 18bd 66b5 31be b239 71be ed44 013f
000000e0: ba47 5cbf e67a d0be abfa 0d3d c221 bdbe
000000f0: 84c1 363f 3c2c 8a3f 48cc 26bf 4e78 c4be
00000100: b4da 4cbf 2850 51bf 862f 3abf 3650 0c3f
00000110: a37d d03e 69bd 083d 0b51 273f c713 0f3f
00000120: ddf4 3bbe a863 36bf c33d 3b3d 756b bebe
00000130: 3aac d3be 30ae a23e 9cfe d93d b0b6 e1be
00000140: ef13 4dbf 1219 3c3e 7713 f13e 5041 f63e
00000150: 371d 95bd 4680 ad3d a305 8ebe b0b8 463f
00000160: c6fa 85bf 75dd ff3e 9d86 003e e317 bcbe
00000170: 40bb e4be 52f7 b43e dbf2 1e3f a75f 153e
00000180: aa5d 0dbf f08f 8c3f a33c 063f 7724 aa3f
00000190: 1ddd e2be 55c6 693d c1dc 793e a67e 1bbe
000001a0: 946b 6abf 7296 e33f 8860 2b40 471f 873f
000001b0: 8f13 c2be 136a ef3e 4513 0c3d db0a d83e
000001c0: 2b2b 75bf 749b 353d 501f 9e3e 7068 1d3f
000001d0: 05b8 7e3e 3a7f 493f 956c 0abf 3f07 cdbd
000001e0: c5ce f8bd b2aa 79bf 8aaa 033f 76e2 28bf
000001f0: 1fdf 933f fde8 d3bc 0205 bcbf c8c9 4d3f

critic_network.2.weight f4 [128, 128]
0.26802373 -0.841415 -0.43709105 -1.5090082 0.64475065 -2.2511015 -0.007533762 0.08200524
-0.58512646 -0.3441037 -1.8267467 -3.432553 0.47470605 -1.9776099 3.4332798 -0.13537389
0.3669804 1.3921129 0.5313164 -1.0451772 -0.09961399 0.7439778 0.24349807 0.082416296
-0.5815373 1.5968969 1.6869211 -1.0089341 -2.3409605 -1.5166793 2.7768245 0.30031422
0.4476176 -1.5997404 0.03255857 -0.827337 -2.4303918 0.07658906 -3.657173 1.2811382
2.759426 1.9932928 1.0231643 -2.0005538 0.843579 -0.83219904 -1.8252394 0.40925455
-1.1106352 -0.06804907 -0.1449362 0.01954639 -1.9437172 -0.5930746 0.06987775 2.6931384
1.2875705 -0.10325084 -0.42581022 -0.44294694 0.983955 -3.5206633 0.6953719 0.77568805
-0.052997526 1.3940156 4.1200094 0.6103514 0.5113686 -1.037979 -0.763201 0.021273904
1.8960869 -0.10175274 -0.46652275 0.33357358 -0.5443002 -0.67326844 -2.4672675 1.0725207
-4.227727 0.5612313 -1.4754329 -0.9798878 0.94937843 -0.15438536 2.366302 0.16806154
0.8024042 -1.7895616 0.847293 -0.14279543 -0.8846858 1.3732291 -1.7014533 -0.79589057
0.14018412 -0.08115054 -1.8335875 -0.44560808 -0.84961283 1.1069602 -2.3137486 -0.6168816
1.440401 2.1031559 6.4136295 -1.4448326 2.3273473 0.5226593 2.7073588 1.1752913
0.5505941 -0.47618303 1.6411589 -0.032495283 -1.0057763 -2.924575 -0.35520887 1.4936906
2.1519928 -0.34270713 0.68536747 1.4468088 -0.71947676 1.0401651 2.6546059 -0.9228131
-1.214247 1.3874934 0.014652039 -0.64560926 1.6864624 -2.1423557 -3.1188033 0.5725214
0.44869047 -0.8182999 0.085123464 1.7706815 0.02716953 0.9393954 1.1888045 1.170476
0.046537973 1.1576074 0.6920991 0.27855474 0.46728298 0.38376498 1.4099859 0.266942
0.44608405 1.1727228 -0.4012615 -1.0256387 1.3729572 0.48538366 -0.23653966 -0.6312985
2.217762 1.4812136 0.12178177 -1.242266 0.28403834 0.66129184 0.20471923 -1.4833072
-0.042761136 -0.5779834 0.12742528 -2.0347676 1.7685683 -0.10238204 -0.7537015 -0.37950495
1.7762713 0.7708587 0.8294513 -0.6081753 0.7767992 -0.3572309 1.1903738 -2.2438042
-1.1893296 0.36078024 -3.4815617 3.0282426 0.18141621 1.6068063 -1.1502281 -1.2268975
0.16679154 -0.6921737 -4.6904817 0.13035658 -0.32357693 -0.47761613 0.23297946 -0.30050015
-0.7535154 -0.49759498 -0.22437705 0.53518796 0.16226691 1.4270072 1.4869069 -0.040392138
0.30236787 0.8831091 1.8001957 -0.25168347 -1.1476648 -0.45356375 -0.24673182 1.6717814
0.893255 1.2126074 -0.5266763 -0.15355504 -3.2687397 -0.21271397 1.5327216 -1.2361242
-0.65818447 2.3396387 1.3040096 3.316934 -0.05181062 -0.26942596 -2.7933004 -1.3259866
-0.019630188 -8.759958 -8.571013 1.9089875 -1.1665839 0.07973235 -0.49958736 0.9141887
0.88274837 1.565702 -0.2672611 0.13331473 0.11447066 -0.35651454 0.17896892 -1.096973
1.4201192 -0.72169083 -0.48965886 -2.100034 1.6850872 -0.28155112 -3.382746 2.3107762
00000000: 683a 893e f966 57bf 66ca dfbe 2e27 c1bf
00000010: 610e 253f 0c12 10c0 c7dd f6bb 5df2 a73d
00000020: d9ca 15bf 5c2e b0be d6d2 e9bf f3ae 5bc0
00000030: ac0c f33e 5222 fdbf dbba 5b40 749f 0abe
00000040: dbe4 bb3e c130 b23f 5a04 083f 5ec8 85bf
00000050: 6b02 ccbd 5475 3e3f 8f57 793e e0c9 a83d
00000060: a1df 14bf 1e67 cc3f 08ed d73f c124 81bf
00000070: 4cd2 15c0 8c22 c2bf 7eb7 3140 c9c2 993e
00000080: 222e e53e 4bc4 ccbf 235c 053d 5ccc 53bf
00000090: 8a8b 1bc0 bada 9c3d 1f0f 6ac0 56fc a33f
000000a0: 709a 3040 3824 ff3f 0cf7 823f 1309 00c0
000000b0: cbf4 573f ff0a 55bf 72a1 e9bf d089 d13e
000000c0: 4b29 8ebf 505d 8bbd 286a 14be c01f a03c
000000d0: bacb f8bf bdd3 17bf 111c 8f3d 615c 2c40
000000e0: 1ccf a43f 2d75 d3bd cc03 dabe f1c9 e2be
000000f0: 7ae4 7b3f 8c52 61c0 e503 323f 7e93 463f
00000100: ef13 59bd 1a6f b23f 1ed7 8340 fd3f 1c3f
00000110: 0de9 023f 7fdc 84bf 2461 43bf 9c46 ae3c
00000120: fab2 f23f be63 d0bd 12dc eebe 28ca aa3e
00000130: 4257 0bbf 525b 2cbf b6e7 1dc0 5c48 893f
00000140: 8a49 87c0 dbac 0f3f fcda bcbf edd9 7abf
00000150: 770a 733f 3217 1ebe 7e71 1740 5318 2c3e
00000160: 5d6a 4d3f 5b10 e5bf 32e8 583f f738 12be
00000170: c57a 62bf f9c5 af3f 39c9 d9bf 7cbf 4bbf
00000180: 6d8c 0f3e 4132 a6bd ffb2 eabf be26 e4be
00000190: 3a80 59bf dfb0 8d3f 7514 14c0 f4eb 1dbf
000001a0: 0f5f b83f 1b9a 0640 743c cd40 46f0 b8bf
000001b0: 42f3 1440 00cd 053f 5e45 2d40 f26f 963f
000001c0: bcf3 0c3f 43ce f3be 7f11 d23f c619 05bd
000001d0: 47bd 80bf 3d2c 3bc0 f0dd b5be 4131 bf3f
000001e0: 40ba 0940 4f77 afbe 3e74 2f3f 0831 b93f
000001f0: a12f 38bf 2124 853f 10e5 2940 7b3d 6cbf
00000200: 726c 9bbf 6299 b13f 1b0f 703c a646 25bf
00000210: 00de d73f 5b1c 09c0 799a 47c0 c390 123f
00000220: c2ba e53e 1a7c 51bf 3655 ae3d b1a5 e23f
00000230: a292 de3c 387c 703f bf2a 983f 28d2 953f
00000240: 9a9e 3e3d 7b2c 943f 682d 313f ba9e 8e3e
00000250: b73f ef3e d87c c43e 6b7a b43f 9fac 883e
00000260: 2165 e43e c81b 963f 2672 cdbe 2148 83bf
00000270: 10bd af3f 3584 f83e 7437 72be c79c 21bf
00000280: d0ef 0d40 6898 bd3f b868 f93d 9302 9fbf
00000290: 796d 913e 6c4a 293f eba1 513e 03dd bdbf
000002a0: 4d26 2fbd b8f6 13bf c67b 023e a239 02c0
000002b0: 7260 e23f adad d1bd 95f2 40bf 794e c2be
000002c0: dc5c e33f ff56 453f ec56 543f 60b1 1bbf
000002d0: 50dc 463f f8e6 b6be 2b5e 983f 7d9a 0fc0
000002e0: f43b 98bf 30b8 b83e e8d1 5ec0 bace 4140
000002f0: 2cc5 393e d4ab cd3f ad3a 93bf fa0a 9dbf
00000300: 67cb 2a3e 4c32 31bf 6d18 96c0 327c 053e
00000310: e0ab a5be 1a8a f4be 2b92 6e3e 28db 99be
00000320: 63e6 40bf c5c4 febe 19c3 65be 1402 093f
00000330: 4c29 263e 2ca8 b63f f752 be3f 3a72 25bd
00000340: f6cf 9a3e 7013 623f d06c e63f a8dc 80be
00000350: aee6 92bf 8239 e8be 44a7 7cbe effc d53f
00000360: 5cac 643f b836 9b3f 42d4 06bf 883d 1dbe
00000370: 0833 51c0 b1d1 59be 3930 c43f 5139 9ebf
00000380: c77e 28bf a4bc 1540 c9e9 a63f a648 5440
00000390: 5f37 54bd 33f2 89be 6fc5 32c0 eeb9 a9bf
000003a0: 7dcf a0bc ca28 0cc1 df22 09c1 b459 f43f
000003b0: 9f52 95bf b74a a33d eac9 ffbe 4508 6a3f
000003c0: ccfb 613f ec68 c83f 72d6 88be a883 083e
000003d0: 986f ea3d 1389 b6be a143 373e 9c69 8cbf
000003e0: 77c6 b53f bbc0 38bf 91b4 fabe f566 06c0
000003f0: f0b0 d73f 7827 90be e97e 58c0 c2e3 1340

critic_network.2.bias f4 [128]
4.0203915 -5.3878236 -2.8875675 5.17033 -7.751222 -2.178532 -5.716826 1.6921414
-0.34608716 4.696262 6.5349426 -2.1308742 3.8748453 -3.7118287 3.119411 0.52745557
-0.16971123 0.78706336 3.7415264 -4.7287126 2.6342545 -1.3132961 3.5794735 -4.930677
-4.346997 5.0954156 6.4838543 -3.5927916 -1.2184805 5.2627096 5.824811 5.0849104
-3.7290406 -5.52959 -3.9560354 2.9312594 -0.7721327 3.8337321 6.9714117 2.9504187
-3.479292 -2.1612387 -1.9744078 -2.4142005 5.507756 -3.8565354 -3.347683 -5.884585
-4.597121 -5.80225 -3.2805135 -5.836963 -2.1682575 -4.5002656 1.3809322 5.7141395
-6.2109056 -0.8472779 -3.5494914 0.21292986 2.0992768 -6.33596 -3.8000388 -2.3266017
6.012537 4.1071506 -4.2920823 6.4085255 -5.1106186 -5.2475953 -2.2979178 0.30942178
-3.2233658 1.0834543 4.5193005 -1.8230503 -3.2965195 -7.477566 -6.292252 -2.8246078
-0.45870352 4.578628 -6.623107 3.2218904 -2.7103748 -1.617814 -2.0982642 -4.2546053
0.020493584 -5.632899 -2.4876056 5.4585104 4.6451564 2.0528433 2.916936 -1.9823802
4.314328 3.0830653 1.3767965 -3.3578959 3.1431284 6.0841074 -5.4364376 1.753676
5.382258 -3.7089813 -0.9340959 3.3170135 -1.7953515 -0.13354422 -6.023993 4.0869474
5.2294183 5.6572523 3.9141567 -1.7664348 4.843122 3.9962823 -4.9254656 -5.206235
-3.5493019 6.113633 3.2734075 2.2837408 3.67441 5.830085 -3.3107522 3.0701156
00000000: 0ca7 8040 0d69 acc0 e8cd 38c0 5873 a540
00000010: 030a f8c0 116d 0bc0 3df0 b6c0 1798 d83f
00000020: 5632 b1be c747 9640 401e d140 3e60 08c0
00000030: 77fd 7740 9a8e 6dc0 6ea4 4740 5407 073f
00000040: c8c8 2dbe fc7c 493f 2b75 6f40 9d51 97c0
00000050: a097 2840 161a a8bf 1816 6540 1bc8 9dc0
00000060: 991a 8bc0 a50d a340 bc7b cf40 4cf0 65c0
00000070: 2bf7 9bbf 1e68 a840 da64 ba40 96b7 a240
00000080: 9aa8 6ec0 67f2 b0c0 af2f 7dc0 c199 3b40
00000090: 7daa 45bf de5b 7540 ce15 df40 a9d3 3c40
000000a0: b8ac 5ec0 bc51 0ac0 65b9 fcbf 4382 1ac0
000000b0: 8a3f b040 7ad1 76c0 7040 56c0 854e bcc0
000000c0: 9d1b 93c0 08ac b9c0 eff3 51c0 67c8 bac0
000000d0: bbc4 0ac0 2d02 90c0 63c2 b03f 3bda b640
000000e0: bdbf c6c0 34e7 58bf de2a 63c0 490a 5a3e
000000f0: 8d5a 0640 2fc0 cac0 d633 73c0 0be7 14c0
00000100: b466 c040 c76d 8340 bd58 89c0 a412 cd40
00000110: 308a a3c0 4dec a7c0 1611 13c0 886c 9e3e
00000120: a04b 4ec0 a1ae 8a3f 1c9e 9040 b659 e9bf
00000130: 2dfa 52c0 3848 efc0 215a c9c0 60c6 34c0
00000140: 30db eabe 1f84 9240 7ef0 d3c0 7433 4e40
00000150: c876 2dc0 8714 cfbf f649 06c0 ba25 88c0
00000160: 29e2 a73c b540 b4c0 ee34 1fc0 1eac ae40
00000170: 1fa5 9440 c961 0340 14af 3a40 a2be fdbf
00000180: fa0e 8a40 f150 4540 de3a b03f c4e7 56c0
00000190: 0429 4940 02b1 c240 4cf7 adc0 7578 e03f
000001a0: 753b ac40 f35f 6dc0 e920 6fbf f349 5440
000001b0: 14ce e5bf d1bf 08be 8dc4 c0c0 46c8 8240
000001c0: 6557 a740 3608 b540 8b81 7a40 891a e2bf
000001d0: dbfa 9a40 17c3 7f40 6a9d 9dc0 7a99 a6c0
000001e0: c327 63c0 e2a2 c340 827f 5140 cf28 1240
000001f0: 8929 6b40 0e90 ba40 5de3 53c0 c67c 4440

critic_network.4.weight f4 [1, 128]
-114.39482 106.59807 136.378 -105.40221 82.04086 -206.2276 103.968414 -117.411446
159.38725 -102.01026 -89.064476 -191.37315 216.49919 -230.41512 -129.23961 -134.92635
176.54771 194.98943 225.14879 120.9807 219.10786 -205.8797 219.8279 125.09086
-228.89409 -106.432236 -99.967155 -220.19612 -195.2248 221.35226 -83.065475 232.50935
115.83357 96.27299 -224.97565 -123.43655 -210.30724 -116.99674 -105.987015 -118.56955
-220.21957 -205.38924 -184.46927 147.81741 -122.2452 132.6411 117.35463 113.56183
108.83669 104.907166 -229.8709 101.258095 122.93288 -230.99928 214.65665 -117.398315
101.95313 156.16017 138.15231 -194.3742 217.38205 107.95582 105.45378 130.60013
-96.82464 -110.51181 112.3867 -95.85656 103.8588 116.2048 -225.82292 169.37846
105.05744 -133.61414 -101.84716 134.93803 126.45735 92.136986 110.53204 -223.99384
183.80223 -114.50594 93.69267 -156.14139 -228.09955 124.80703 -209.87085 124.22409
-202.54219 109.67884 -213.08432 -96.92007 227.53407 205.77846 -106.407936 -228.0559
-95.36787 218.10133 -159.51802 110.47964 -127.28082 -100.502365 108.497795 215.24896
-103.914215 114.52383 159.80315 -117.707306 -198.6379 139.64691 97.79012 223.11711
-119.720665 -98.28178 221.6797 154.09412 -118.106476 -134.01257 112.5814 105.33566
113.56494 -101.08356 -109.51978 -128.70753 -108.67841 -98.7738 115.83345 -137.82674
00000000: 26ca e4c2 3632 d542 c560 0843 eecd d2c2
00000010: ec14 a442 443a 4ec3 d4ef cf42 a9d2 eac2
00000020: 2363 1f43 4105 ccc2 0321 b2c2 875f 3fc3
00000030: cb7f 5843 456a 66c3 573d 01c3 25ed 06c3
00000040: 378c 3043 4bfd 4243 1726 6143 1ef6 f142
00000050: 9d1b 5b43 34e1 4dc3 f1d3 5b43 852e fa42
00000060: e3e4 64c3 4edd d4c2 2fef c7c2 3532 5cc3
00000070: 8c39 43c3 2e5a 5d43 8621 a6c2 6582 6843
00000080: caaa e742 c58b c042 c4f9 60c3 83df f6c2
00000090: a74e 52c3 55fe e9c2 5af9 d3c2 9c23 edc2
000000a0: 3638 5cc3 a563 4dc3 2278 38c3 42d1 1343
000000b0: 8b7d f4c2 1fa4 0443 92b5 ea42 a81f e342
000000c0: 63ac d942 78d0 d142 f3de 65c3 2584 ca42
000000d0: a2dd f542 d1ff 66c3 1aa8 5643 f0cb eac2
000000e0: 01e8 cb42 0129 1c43 fe26 0a43 cc5f 42c3
000000f0: ce61 5943 61e9 d742 56e8 d242 a299 0243
00000100: 37a6 c1c2 0c06 ddc2 fec5 e042 8fb6 bfc2
00000110: b5b7 cf42 dc68 e842 abd2 61c3 e360 2943
00000120: 691d d242 389d 05c3 bfb1 cbc2 23f0 0643
00000130: 2aea fc42 2346 b842 6810 dd42 6cfe 5fc3
00000140: 5fcd 3743 0b03 e5c2 a662 bb42 3224 1cc3
00000150: 7c19 64c3 339d f942 f0de 51c3 bc72 f842
00000160: cd8a 4ac3 915b db42 9615 55c3 13d7 c1c2
00000170: b988 6343 49c7 4d43 ddd0 d4c2 4f0e 64c3
00000180: 59bc bec2 f119 5a43 9d84 1fc3 93f5 dc42
00000190: c88f fec2 3601 c9c2 dffe d842 bc3f 5743
000001a0: 14d4 cfc2 330c e542 9bcd 1f43 246a ebc2
000001b0: 4da3 46c3 9ca5 0b43 8b94 c342 fb1d 5f43
000001c0: fb70 efc2 4590 c4c2 01ae 5d43 1818 1a43
000001d0: 8436 ecc2 3803 06c3 ad29 e142 dcab d242
000001e0: 4021 e342 c82a cac2 210a dbc2 21b5 00c3
000001f0: 595b d9c2 308c c5c2 baaa e742 a5d3 09c3
