test_uav/model/critic_model13-10-2023_17-19-10/620.pt (torch, 77879 bytes, 5 tensors)

critic_network.0.weight f4 [128, 17]
000000 03 24 93 3d 50 69 81 3e 54 26 f7 be 42 73 67 3e
       0.07184603 0.2527566 -0.4827143 0.22602561
000010 20 d1 c2 3e 12 02 1c 3f a0 1b a4 bd 72 d3 09 be
       0.38050175 0.6094066 -0.080130816 -0.13459566
000020 3f ed e2 3d 1b 96 22 bf 76 5b 3d bf e3 b0 9a be
       0.11080407 -0.6351029 -0.73967683 -0.3021308
000030 f4 80 f3 be 27 15 05 3d d3 f5 f8 3d 1c b1 6e bd
       -0.4755932 0.032490876 0.12156262 -0.058274373
000040 15 a9 84 bd 99 3f d7 3e c0 54 b7 3e 7b 2a 22 3e
       -0.06477562 0.4204071 0.35806847 0.15836518
000050 e9 62 cf be f6 f9 0d bf 25 2d 2e bf 84 b3 80 3d
       -0.4050515 -0.55459535 -0.68037635 0.0628424
000060 ba d3 9a 3d a3 4f b7 be a2 9b b5 be f8 43 c8 bd
       0.07559915 -0.35802945 -0.354703 -0.09778589
000070 74 c6 6e be c0 ea 32 bf 3e 9e 31 3e 37 ca ce 3d
       -0.23317891 -0.6988945 0.17345521 0.10097163
000080 e1 71 34 3d f4 ad 1e 3e cf 94 3d be be 2f a2 3e
       0.044053916 0.15496045 -0.18513797 0.3167705
000090 3d f4 55 3f 58 f6 28 3e 59 27 f3 3d c9 9d 5e 3f
       0.83575803 0.16500223 0.11872739 0.8695951
0000a0 cf b0 ec 3c ca 78 c2 bc d6 ca 77 3d 7b d1 b8 3e
       0.028892903 -0.023739237 0.060496174 0.3609732
0000b0 cc bf e2 bd 65 fe 31 bd 18 34 68 be 84 53 78 bd
       -0.110717386 -0.0434555 -0.22676122 -0.06062652
0000c0 9e be 1e bd 16 1d 0d be 48 67 2f be 2c ce b9 be
       -0.038756005 -0.13780627 -0.17129242 -0.3629011
0000d0 5a 13 13 3d 95 15 fc 3d b1 27 9d be 28 c3 be be
       0.035907127 0.12308804 -0.30694345 -0.37258267
0000e0 44 3d 49 3f 37 2a 25 3d 1a 54 af bb 0d d6 b0 3d
       0.7860911 0.040323462 -0.005350602 0.08634577
0000f0 bc 65 95 bf 20 54 7f bf 8b b5 95 bf f5 28 42 bf
       -1.1671672 -0.9973774 -1.1696028 -0.75843745
000100 6f 24 40 bd 07 ba 56 bd 2e 4e 6e bd d0 17 80 bd
       -0.046909746 -0.052423503 -0.058180027 -0.06254542
000110 97 7d 0a be 3d d7 13 be 76 ad d8 be 08 bb b7 bd
       -0.13524471 -0.14437576 -0.4231984 -0.0897122
000120 dc 61 f3 3d 06 64 05 3f 67 54 84 3d a6 d7 86 bc
       0.118838996 0.5210575 0.06461411 -0.016460251
000130 b7 12 ea 3e 36 35 bc be 95 cb 60 3f 48 74 bc 3d
       0.45717403 -0.36759347 0.8781064 0.092018664
000140 68 68 e2 3e 3e 61 08 be 4f be f7 bd b4 2b 07 bb
       0.4422028 -0.13318345 -0.12096845 -0.0020625414
000150 6b 40 3e be 6a 23 2c 3e 06 94 ce be 6d a6 b3 3e
       -0.18579261 0.16810384 -0.40347308 0.3508791
000160 55 c4 23 bd 2d c6 83 be 4f cc 3c 3e 95 78 68 bc
       -0.03998216 -0.25737134 0.18437313 -0.014188905
000170 ae fc d8 bc cb ff e7 3d e0 d8 8d 3d 38 47 8d bf
       -0.026487675 0.113280855 0.06926131 -1.1037359
000180 ab 59 9d 3f 94 07 64 3e 09 d3 79 3b dc d7 7f bd
       1.229299 0.22268516 0.0038120172 -0.06246172
000190 b6 94 27 3c 61 72 51 3d 52 fa 3a bd b6 26 53 3f
       0.010228327 0.05113447 -0.04564888 0.82480943
0001a0 73 04 28 3e be 47 2e 3d 37 45 08 3f 9f 77 35 be
       0.16407947 0.042548887 0.53230613 -0.17721413
0001b0 2b bc 65 bd 77 a8 6c bd e4 83 54 bc f5 b0 d0 3d
       -0.056087654 -0.057777848 -0.012970898 0.10190002
0001c0 8f df ae be 91 cb 82 bf 9f 24 8d bd 57 58 9a 3d
       -0.34154937 -1.0218374 -0.068917505 0.07536381
0001d0 69 50 fd 3c 06 df 22 bd 61 97 60 3d 43 fd 74 3e
       0.030922132 -0.039763473 0.054831866 0.23924737
0001e0 6c 48 f4 3d 05 46 c5 bc 5a a4 c3 be 28 ae 55 3e
       0.11927876 -0.02408124 -0.38211328 0.20867217
0001f0 de 2e 14 bf e1 83 2b be 28 8a 87 bc 20 ba db be
       -0.57884014 -0.16749527 -0.01654537 -0.4291544
000200 67 22 5d 3f d2 c3 24 3f bf 63 d1 be 38 6d 00 40
       0.8638062 0.643613 -0.40896413 2.0066662
000210 5e fb f8 3c 4b 70 27 bd 51 f5 fd 3c 60 2b 03 3e
       0.030393299 -0.040878575 0.031000765 0.12809515
000220 0c d2 a8 3e 22 17 16 3f cb 51 fe bd 34 42 ad be
       0.32972753 0.5862905 -0.124179445 -0.3383957
000230 8e c6 ef bd fc 09 15 bf 95 96 57 3d bb c3 f5 3d
       -0.11707793 -0.5821836 0.05263384 0.12000223
000240 e4 1f bc be 0a 52 e2 3d d5 f8 cd 3f 76 d3 40 3e
       -0.3674308 0.11050804 1.6091563 0.18830666
000250 f9 58 29 bf fc ef b6 3d 2e 70 42 3d f0 dc 81 3d
       -0.66151386 0.08932492 0.047470264 0.063409686
000260 b2 24 20 3e 60 d9 8e bf be 3e 3c bf 10 5d 0f 3f
       0.15638998 -1.1160088 -0.73533237 0.5600138
000270 a6 ad 04 bf 0d 52 a6 be 9f f6 71 3e 34 d1 8d 3c
       -0.51827466 -0.32484475 0.23629235 0.01731167
000280 f7 e6 b4 bd e9 2f df 3c ed 49 77 3e ec f6 0a 3f
       -0.088331155 0.027244525 0.24149294 0.5428302
000290 75 62 e5 be c4 67 a9 3e c0 33 85 3d 5f e8 61 3d
       -0.4480168 0.3308698 0.06504011 0.055153247
0002a0 8d 9b 06 3d 00 79 15 3e c1 98 00 3e a5 6f 5f 3e
       0.03286319 0.14596939 0.12558271 0.21819933
0002b0 1b c3 8e be 73 30 0d bf de e8 10 be 86 26 1e 3f
       -0.2788323 -0.5515205 -0.14151332 0.6177753
0002c0 07 fb c9 3e a1 ee 05 be 1b 62 a0 be 3d f6 63 bf
       0.3944933 -0.13079311 -0.3132485 -0.89047605
0002d0 9e 9a ef be 6e b4 47 bf de bc b1 be 91 d2 03 3c
       -0.4679765 -0.7800969 -0.34714407 0.008045808
0002e0 d3 fb 8d 3d cd 74 13 be 18 9a 4e be 2a 6b b7 bf
       0.06932797 -0.14400025 -0.2017597 -1.4329579
0002f0 a1 a6 46 be 09 b7 e0 bc 5f 54 cf bd 8a 5f 2d bd
       -0.19399501 -0.027431028 -0.101235144 -0.04232744
000300 ac e8 8c bd e9 cf 49 bb b1 c5 f7 3c 85 36 13 3e
       -0.06880316 -0.003079409 0.030245634 0.14376266
000310 db 61 66 3c 67 35 47 be 85 8b 4c 3e 39 05 c8 bd
       0.0140614165 -0.19453965 0.19975097 -0.09766621
000320 d7 03 e7 bc c4 b2 8c 3c a5 11 0a 3d 45 16 66 bc
       -0.028200073 0.017175086 0.033708233 -0.014043395
000330 de 57 9e bc 27 fa a8 3e af f5 4e bf d2 6c 1f bf
       -0.019329008 0.3300335 -0.80843633 -0.6227542
000340 9a ca 3a 3f 6d 58 0c 3f ce 5f 65 3c 9e ef b9 bc
       0.72965395 0.5482243 0.013999892 -0.022697266
000350 f1 46 3d 3f 1f 95 54 3e a8 48 2f bf df 87 c4 be
       0.73936373 0.2076001 -0.6847024 -0.3838491
000360 f5 18 d5 3f f2 bd 2d bd ee 5d 7b ba c4 85 4c bd
       1.6648241 -0.042417474 -0.0009588887 -0.049932256
000370 f0 7b a1 be 42 3c 3c bd 41 7f 00 be 1f 74 f7 3e
       -0.3153987 -0.045955904 -0.12548544 0.4833078
000380 d2 8d 1c 3e 37 7d 18 3e 4a 26 f0 be ad c4 2d be
       0.15288475 0.14891516 -0.46904212 -0.16969557
000390 bb f0 22 3d 4f 6e 91 be cf 05 a0 bd 30 a3 91 3f
       0.03978036 -0.2840447 -0.07813608 1.1377926
0003a0 c3 5f 0e bf 14 b2 37 3d 83 3f a7 3d f9 30 13 3c
       -0.5561487 0.044847563 0.08166411 0.008983844
0003b0 18 16 6a 3d ca 5d 34 3e d4 b6 f0 3d e1 7e 57 3e
       0.057149976 0.17613903 0.11753622 0.21044494
0003c0 eb d2 f5 bc cb 2d 5a be 93 7c b8 3d 51 89 2f bf
       -0.0300078 -0.21306531 0.09008136 -0.68568903
0003d0 9e b6 25 3b 40 4d fd 3c a8 f9 c4 be 5a a4 cc 3d
       0.002528585 0.030920625 -0.38471723 0.09992285
0003e0 0f d4 d9 3e 31 fa 90 bd e2 c6 5c bf 87 54 d6 3d
       0.425446 -0.0707897 -0.8624097 0.10465341
0003f0 b0 ab 4e 3d ee 1b 7c 3d 77 99 21 3e e6 75 55 3e
       0.050456703 0.061550073 0.15781198 0.20845756

critic_network.0.bias f4 [128]
000000 3c f6 a0 3d fb 26 5c 3e 4f 13 62 3e 98 fa cd bf
       0.078594655 0.21499245 0.22077678 -1.60921
000010 87 6f ae 3d 32 ff 19 bf 9a a6 54 bf bb 02 a4 3e
       0.08517366 -0.6015502 -0.83066714 0.32033333
000020 8f 24 5c 3e 86 11 32 be 61 8e c4 3d a9 3c 7b 3f
       0.21498321 -0.17389497 0.09597469 0.98139435
000030 ee 37 14 c0 71 b2 52 be 3f e4 10 3e 9f dd d0 bd
       -2.3159137 -0.20575882 0.14149569 -0.10198521
000040 7f 23 2c 40 f9 58 49 bd 07 21 4f 3f 36 ff 79 be
       2.6896665 -0.049157117 0.8090977 -0.24413761
000050 da 0a 3d bf 92 6c 58 40 4a 7b 14 c0 82 f0 22 3f
       -0.73844683 3.3816266 -2.320025 0.63648236
000060 f2 49 45 3f f7 44 20 3e bc 27 81 3f d3 b0 57 3f
       0.77065957 0.15651308 1.0090251 0.8425419
000070 b0 80 98 3f 4e 50 3e 3f 29 b2 b5 bd 52 ed 16 3f
       1.1914272 0.74341285 -0.08871872 0.5895587
000080 7e 47 42 40 68 eb c1 be a2 4c 9e 3b 0c 46 a0 be
       3.0356135 -0.37874913 0.0048309127 -0.31303442
000090 0c c5 f1 be 45 f7 3b 40 2c b8 0f 3f 3b e9 97 bf
       -0.47220647 2.9369671 0.561404 -1.1868051
0000a0 64 04 21 3f 27 40 40 be 5a 14 4a c0 a3 0e 72 bf
       0.62897325 -0.18774472 -3.1574922 -0.94553584
0000b0 43 97 e1 bf 42 50 4b c0 cd 85 c1 3e 76 d1 41 c0
       -1.7624286 -3.1767735 0.37797394 -3.0284095
0000c0 b1 96 1a 40 f1 5b 30 3f 48 77 21 3f b5 9c 5b bf
       2.4154475 0.6889029 0.63072634 -0.8578599
0000d0 2b 2a 97 bf cd 61 b2 bf 1a 42 d9 bf 58 bd 03 c0
       -1.1809744 -1.3936096 -1.6973298 -2.0584316
0000e0 08 2b 05 bf 7b b2 aa bf 2d c8 d2 be bb 92 55 3f
       -0.52018785 -1.3335718 -0.41168347 0.8342702
0000f0 35 9d 97 bf 77 a7 91 3f 79 84 c0 be 44 f7 0d be
       -1.1844851 1.1379231 -0.3760107 -0.13863856
000100 1c b6 bc 3f 90 0d b2 bf 39 21 8d bf 14 d1 04 be
       1.4743075 -1.3910389 -1.1025764 -0.12970382
000110 6e b5 20 40 4b 9f 02 3f cf fe 07 3f b4 04 43 40
       2.5110736 0.5102431 0.5312318 3.047162
000120 c8 fb 0f bf 20 8f 19 40 ed 46 02 bf 2e 41 80 3a
       -0.5624356 2.3993607 -0.50889474 0.000978505
000130 65 9a f0 3e 24 9a 82 3f d5 92 73 3f c0 70 48 bf
       0.46992794 1.020329 0.9514592 -0.7829704
000140 de 7b 1d bf 2a 67 b1 3e 02 7d 0e 3f 8d e3 d4 3e
       -0.6151713 0.3464902 0.55659497 0.41579857
000150 be fa b6 3d a3 01 86 3d 33 f4 1a bf 8f 9b 2b 3e
       0.08934544 0.06543281 -0.6052887 0.1675856
000160 98 87 38 3f e8 e7 8f 3f 30 fb 4d bf f6 00 c3 be
       0.720819 1.1242647 -0.80461407 -0.3808667
000170 60 be 7f bf 0e 21 4d 3f 75 21 50 be 60 69 56 3f
       -0.99899864 0.8012856 -0.20325263 0.8375454
000180 22 dd f4 be eb b2 29 3f 75 f1 01 3f 40 fa 90 3e
       -0.4782496 0.6628863 0.5075906 0.28315926
000190 e8 cd c3 be e6 16 00 3f c1 bf c1 bf b1 b0 3b 3e
       -0.38243032 0.5003494 -1.5136644 0.18329121
0001a0 7b fe a4 3f 51 88 08 bf ef 5c 3f 3f f8 cc e5 3e
       1.2890161 -0.53333 0.7475118 0.4488294
0001b0 b4 30 43 bd 9f 63 20 40 ae c5 07 be cb 30 05 bf
       -0.04765387 2.5060804 -0.13259003 -0.5202758
0001c0 72 15 4c c0 13 14 00 be d5 bb 38 c0 20 47 73 3e
       -3.188809 -0.12507658 -2.8864644 0.23757601
0001d0 98 cf 04 c0 77 70 02 3f eb d4 ee 3c 49 ce 37 3e
       -2.0751705 0.5095286 0.029154262 0.17949785
0001e0 12 2c 93 be f9 8b 96 bf 48 e0 b0 bf 96 67 3e c0
       -0.2874456 -1.1761466 -1.3818445 -2.9750724
0001f0 84 71 c9 3f df a7 80 3f 4d 98 11 be 76 43 f4 3f
       1.5737767 1.005123 -0.14218254 1.9083087

critic_network.2.weight f4 [128, 128]
000000 af 84 ad 3e e0 02 9a be 5e 67 c4 3e 4c 77 0e bf
       0.33890292 -0.30080318 0.38360113 -0.5565078
000010 63 e1 e0 be 9b 9f 50 bb 60 f5 02 3f 8a f7 42 3f
       -0.43921956 -0.0031833414 0.5115566 0.76158965
000020 fa 66 0b 3e 92 35 64 bf f4 25 55 3f 5a 2a 15 c0
       0.13613501 -0.8914424 0.83261037 -2.33071
000030 ac 27 ef be ec d9 92 3f 27 a0 d8 be 16 f9 a6 bd
       -0.46709955 1.1472754 -0.42309687 -0.08152978
000040 27 68 26 3f fa 55 36 bf fd ec b2 bd 76 89 93 bd
       0.65002674 -0.7122494 -0.08736608 -0.07203953
000050 43 60 52 be e5 16 18 3f 37 a2 e5 3d 83 4f 75 be
       -0.20544533 0.59409934 0.11212581 -0.23956113
000060 c7 10 54 bf 1d e9 5f be ba 80 13 3f 41 60 92 bf
       -0.828381 -0.2186627 0.57618296 -1.1435624
000070 c6 42 a4 bf bb 1f 83 bf 04 60 6d 3f ed 94 35 3f
       -1.2832878 -1.0244058 0.92724633 0.7093037
000080 2f aa 1d 3f cc c2 d4 bd 45 e2 c3 3e 55 e6 57 be
       0.61587805 -0.10388717 0.38258567 -0.21083958
000090 d5 74 a9 3d a2 36 38 3f 3e 06 ce bf d3 7d c1 3f
       0.08274237 0.71958363 -1.6095655 1.5116524
0000a0 9a 5d f5 be b8 38 9e bf 72 1a 0e bf bf 1b cb 3d
       -0.47922975 -1.2361059 -0.555091 0.099174015
0000b0 f7 06 34 3f c6 db 36 bf 6c c8 bc 3e 7f db cb be
       0.7032313 -0.714291 0.3687166 -0.398159
0000c0 9f 99 c5 3e d7 3b a2 3e 9d 2c 25 3e 5f b5 08 bf
       0.38593766 0.3168628 0.161303 -0.5340175
0000d0 3f f4 c6 be b8 64 ac be 65 98 bb be f6 63 10 bf
       -0.3885822 -0.33670592 -0.36639705 -0.5640253
0000e0 75 c8 00 3f ca 4c f5 be ca 1c 50 3f d2 7e e0 bf
       0.50305873 -0.47910148 0.8129393 -1.7538702
0000f0 f7 34 88 bf 37 da 24 c0 a1 76 11 bf ff 75 3c 3f
       -1.0641164 -2.5758188 -0.5682164 0.7361755
000100 30 71 ea be 2c 26 ca 3e 9f 47 76 3f de 65 ae 3d
       -0.4578948 0.39482248 0.96203035 0.085155234
000110 08 0b 26 3f 04 59 65 bf 60 cc b5 3e 96 a6 2e 3f
       0.6486058 -0.8958895 0.35507488 0.6822294
000120 d5 de 34 bf 82 0c 8b 3f dc 31 3d 3f da fa e2 bb
       -0.70652515 1.0863192 0.73904204 -0.0069268765
000130 5f 5b 66 3d 3c 9d d5 bf 44 a2 78 c0 50 19 11 3f
       0.056239482 -1.6688609 -3.884904 0.5667925
000140 5a a7 8b be 98 ad c9 be 6c d2 c3 be bf 18 a7 be
       -0.27276117 -0.39390254 -0.38246477 -0.32636067
000150 91 7a 8b bf f9 8a e2 be a2 aa 63 40 37 ed 9a 3d
       -1.0896779 -0.44246653 3.5572896 0.075647764
000160 ab e8 22 3f c2 30 fe bf 79 45 cf 3f 3f 89 96 be
       0.63636273 -1.985863 1.6193076 -0.29401585
000170 03 e8 da 3e 6f ed 2e bf 08 fa 95 be fb 1d 62 3e
       0.42755136 -0.68331045 -0.2929232 0.22081749
000180 d9 2e 16 3f 19 62 a1 3d fc fd 73 bf 81 37 d0 be
       0.58665234 0.07880039 -0.95309424 -0.40667346
000190 cb a8 3d 3f b0 4d 00 3f be 1e 63 3f 17 25 59 bd
       0.7408568 0.5011854 0.88718784 -0.053013887
0001a0 5d 4f b8 bd 2a 31 1c 3f 67 44 04 40 72 fb db bf
       -0.08999512 0.6101252 2.066675 -1.718611
0001b0 77 24 02 bf c8 27 ea 3e 7a dd a3 bd 79 ba 75 bd
       -0.5083689 0.45733476 -0.08001228 -0.059992287
0001c0 00 d2 10 bf 4f 9a d4 3d 3a 16 0c bf b5 7a 1a 3e
       -0.56570435 0.103809945 -0.54721415 0.15085872
0001d0 7f ce 94 3d 96 ce 99 3d d2 81 31 3e 0a a5 6c 3f
       0.072659485 0.07510106 0.17334679 0.9243933
0001e0 89 8d f9 be 32 aa f2 be 8e b9 3d bf f7 40 15 bf
       -0.48740795 -0.47395474 -0.7411126 -0.58302253
0001f0 e6 22 cd bf 56 d2 b8 3e 11 f9 13 3f 8f 94 76 bf
       -1.6026275 0.36097974 0.5780192 -0.9632043
000200 bc 3f 23 3d 30 91 4c bf 4e 69 96 3f 57 41 aa be
       0.039855704 -0.7990904 1.1750886 -0.33252975
000210 a3 0b c3 3e d5 91 c8 bc 17 14 52 bf c7 33 16 bf
       0.38094816 -0.0244836 -0.82061905 -0.58672756
000220 53 9d 46 3f 38 b3 8d 3f 00 01 c0 3d 98 55 6d 3f
       0.7758381 1.1070318 0.09375191 0.9270873
000230 74 43 92 3e 0a 0e 40 be 16 25 6a 3f 3e 1c 2d 3f
       0.28567088 -0.18755355 0.9146284 0.6762122
000240 4f ff e6 be bd a3 ea be 37 06 b0 3e 03 d2 94 3e
       -0.4511666 -0.45828047 0.34379742 0.29066476
000250 11 f0 08 3e b4 9a df be 07 08 20 3e c6 b9 09 3f
       0.13372828 -0.43672717 0.15628062 0.5379909
000260 52 84 78 3e 84 d1 14 3e 70 a7 bf bf a0 eb 56 3f
       0.24269226 0.14533049 -1.4972973 0.83953285
000270 a4 95 85 3f 82 9d af be 46 57 66 bf b2 8a 56 be
       1.0436292 -0.34299856 -0.8997692 -0.20951346
000280 72 9a e5 be b9 4e 37 3f dd dc 70 3f 8e 68 34 3f
       -0.44844395 0.71604496 0.9408701 0.7047204
000290 64 d2 fe be f8 7f e0 be 0c 31 ac 3f e6 2a c1 bf
       -0.4976989 -0.43847632 1.3452468 -1.5091217
0002a0 90 27 04 3f aa 8e 46 3e cb 73 e6 3e c9 e9 73 be
       0.5162287 0.1939036 0.45010218 -0.2381965
0002b0 18 a4 62 bf 6e 9d 00 3f 48 30 8b 3d 01 83 8b 3e
       -0.8853164 0.5024022 0.06796318 0.27248386
0002c0 f8 cb 8f be 20 30 2b bf 06 ab da be 3a 11 86 bf
       -0.28085303 -0.6687031 -0.42708606 -1.0474007
0002d0 5d 18 1a be 5d 07 02 3f 10 df a9 3e f7 02 bb 3e
       -0.15048356 0.50792485 0.33177996 0.365257
0002e0 d1 ee 33 bf d3 c7 cd be f8 0d f3 be c2 08 df 3f
       -0.7028628 -0.40191516 -0.47471595 1.7424548
0002f0 31 26 86 bf 98 2a c8 3f 2f fe b4 3f c1 d2 6c be
       -1.0480405 1.5637999 1.4140071 -0.23127271
000300 81 79 04 bf 54 6f 97 be 57 12 cb bf f0 a1 59 3d
       -0.517479 -0.29577124 -1.5864972 0.05313295
000310 cf 29 f6 be 5d bb bd bd 4d b4 40 bf 19 bc df be
       -0.48078772 -0.09264252 -0.7527512 -0.43698195
000320 f5 18 af be 1f 16 80 bf 14 87 48 3e c1 5f 24 3f
       -0.34198728 -1.0006751 0.19582778 0.6420861
000330 25 8d b3 be 74 e6 67 3b 7d f2 25 40 82 04 78 bf
       -0.35068622 0.0035385164 2.5929253 -0.9688188
000340 87 b6 e3 3d 9e b1 55 bf 58 18 f8 3e 4c d4 72 3e
       0.11118799 -0.8347415 0.48456073 0.23713797
000350 83 ed 9e 3f 6e 87 d1 3d 48 1f 04 c0 c1 62 25 3e
       1.2416233 0.10230909 -2.0644093 0.16150953
000360 99 fa 9c bf d0 96 b0 3f 07 fa 8b bf fc d4 31 3e
       -1.2263976 1.3796024 -1.0935677 0.17366403
000370 43 30 41 3e 50 f3 1e 3f 0f d0 38 bf de 2a fd bd
       0.18866067 0.62090015 -0.7219247 -0.12361692
000380 94 3b 17 3f 60 d8 d2 3e dd 19 b3 3f ab ec 8c 3f
       0.59075284 0.41180706 1.3992268 1.1009725
000390 c4 f4 fe 3e 27 c5 8f bf 63 e6 8e bf 35 36 6b bd
       0.49796116 -1.1232041 -1.1164058 -0.057424743
0003a0 14 b1 5f 3a d6 64 09 bf 30 2c de bf 8d 6f 9b 3e
       0.00085331616 -0.5366949 -1.7357235 0.30358544
0003b0 33 16 b2 be 5b b3 f3 bd 44 01 2f bf a7 d9 76 3d
       -0.34782562 -0.11899444 -0.68361306 0.060266163
0003c0 5c a3 ef 3e 79 4c 0a 3e 1d ce d2 3e 12 67 2e 3e
       0.4680432 0.13505735 0.41172877 0.17031506
0003d0 79 92 af 3e 7b df fe bd 0c 4b 41 bf ce cd 1a bf
       0.34291437 -0.12444969 -0.7550514 -0.60470283
0003e0 78 ca 79 3f 46 81 0f 3f c5 69 bf 3e e2 bf e4 3e
       0.9757457 0.5605663 0.37385383 0.44677645
0003f0 80 a7 9a 3e ce 2f ad be c3 5f 4a bf c2 6c a8 3f
       0.30205917 -0.33825535 -0.7905237 1.315819

critic_network.2.bias f4 [128]
000000 3d b7 13 3f 9c 33 e5 be 44 65 17 bf 18 e9 12 3f
       0.57701474 -0.44765937 -0.59138894 0.5738692
000010 c3 74 9a bf b6 8f e0 3e 21 a0 33 bf 40 7b 89 3f
       -1.2066883 0.43859643 -0.7016621 1.0740738
000020 71 e0 c8 be 35 f6 8b 3f 93 20 89 3f 1f b1 69 3d
       -0.39233735 1.0934511 1.0713066 0.05705368
000030 9f 13 1b bf 0e e8 84 3e 8f 21 26 3f a4 b8 25 3f
       -0.60576814 0.25958294 0.64894956 0.64734864
000040 58 46 03 bf 59 a6 7a be d9 31 27 be fb be 0e bf
       -0.5127921 -0.24477519 -0.16327609 -0.55760163
000050 cb fa 14 bf 98 0a cd 3e 6d 99 41 bf 84 11 de be
       -0.5819518 0.40047145 -0.75624734 -0.43372738
000060 76 48 5d 3e c8 d7 f5 3e 13 1f 66 3f 4d da b1 3e
       0.21609673 0.4801619 0.89891165 0.34736863
000070 a3 73 9e 3e 74 84 9a be 20 e4 95 3f d3 da 13 3e
       0.309476 -0.3017918 1.1710243 0.14438944
000080 02 83 ee be 4e 6f 77 bf cb 85 cf bc 93 88 62 3f
       -0.46584326 -0.9665421 -0.025332352 0.88489646
000090 44 e9 7a 3e 32 e9 3e 3f 66 af 17 3f 36 05 29 3f
       0.24503046 0.7457458 0.5925201 0.66023576
0000a0 7a 80 c3 3e 6a 42 d2 3e c2 97 b1 3e 12 6f 08 bf
       0.38183957 0.41066295 0.34686095 -0.5329448
0000b0 8d c3 3c 3f e2 e1 f9 be ef 1b 1f bf a1 ab b5 be
       0.73735887 -0.48805147 -0.62152 -0.35482505
0000c0 35 eb 0e bf 92 f9 13 bf d2 c9 39 3f 28 67 0d bf
       -0.5582765 -0.5780269 0.7257358 -0.5523553
0000d0 ac 1a 8f bf 6a 30 31 3f 0d b9 27 bf cc 6d db 3e
       -1.1180015 0.692145 -0.6551674 0.42857206
0000e0 3e 7f 42 bf 43 25 16 bf 56 92 a9 be ec 80 60 3e
       -0.75975406 -0.58650607 -0.33119458 0.2192418
0000f0 55 1c 99 be 84 85 08 bf 92 c2 26 bf d0 57 5e bf
       -0.29904428 -0.5332873 -0.6514064 -0.8685274
000100 10 cc 3f 3f ec c9 5f 3f 78 aa f7 be e6 86 be 3e
       0.7492075 0.87417483 -0.48372245 0.37212294
000110 57 46 fe be 68 c8 2d be 7f de fc 3b 26 97 1b be
       -0.4966304 -0.1697098 0.0077169533 -0.15194377
000120 fd 21 01 bf 6e 6d 2e 3f 10 d4 bd 3e 40 e8 28 bf
       -0.50442487 0.68135726 0.37075853 -0.65979385
000130 07 85 77 bf 63 22 74 bf ce 85 f8 be 85 0a a3 3e
       -0.9668736 -0.9536497 -0.48539585 0.31843963
000140 1d 29 b1 be 9e 02 4b 3f b7 5e 95 bf 1e 2a 90 3e
       -0.3460168 0.7930087 -1.166953 0.28157133
000150 a3 d2 cf 3e 80 8a aa be 55 ea ec 3e 20 7f b8 be
       0.4059039 -0.33308792 0.4627253 -0.3603449
000160 81 fe 04 3f c3 ae 46 bf 09 6b 41 3f ff 5b 50 3f
       0.5195084 -0.77610415 0.7555395 0.81390375
000170 c1 56 96 be c1 bc d7 be 68 ca 6b 3f 1b 8d b8 3e
       -0.29363063 -0.42136195 0.9210572 0.36045155
000180 8b 70 99 3f 2d ed 1e bc 0b 75 d3 3e b3 2e 9f bf
       1.198747 -0.009700102 0.41300234 -1.2436126
000190 84 16 71 3f 6d 04 14 3f 66 58 1d bf 23 db 0f bf
       0.9417498 0.57819253 -0.6146301 -0.5619375
0001a0 de 31 62 3f 27 6d 2d bf d9 74 86 be 6e fa 3b 3f
       0.8835734 -0.6774468 -0.26261023 0.73429
0001b0 7b 9e 8f 3e 9c f1 06 bf d8 97 65 bf 6b 54 38 be
       0.28050599 -0.52712417 -0.8968482 -0.18000953
0001c0 10 4c ef 3e ec 9d 72 3f 82 0e 18 3e d1 7a 10 bf
       0.4673772 0.9477222 0.14849284 -0.564374
0001d0 12 6c 1d 3f 48 5f d1 3e e2 51 0d bf 4b 8f 9e be
       0.6149303 0.40893006 -0.5520307 -0.309687
0001e0 9f 6f e7 be af 3d 86 3f a9 0a 53 3f 67 e9 1d 3f
       -0.45202348 1.0487574 0.8243814 0.6168427
0001f0 ab fa 74 3f 2f b9 1c 3f 3c 79 45 bf e0 b3 44 3e
       0.9569499 0.6122007 -0.77138114 0.19209242

critic_network.4.weight f4 [1, 128]
000000 60 1f 5b c2 91 0e 5d 42 cf 9b 5a 42 35 a9 5c c2
       -54.78064 55.264225 54.652157 -55.16524
000010 1c 25 52 42 3e 7f 5b c2 05 89 5c 42 3e 93 52 c2
       52.53624 -54.87426 55.13381 -52.64379
000020 48 82 59 42 eb 8d 4f c2 31 61 56 c2 82 05 58 c2
       54.377228 -51.88859 -53.594913 -54.00538
000030 11 7c 5e 42 a5 03 5a c2 f3 86 5c c2 e8 6f 5b c2
       55.62116 -54.50356 -55.131786 -54.859283
000040 08 e7 5b 42 d0 de 5b 42 8a e3 5a 42 7b c4 59 42
       54.975616 54.96759 54.722206 54.441875
000050 b0 7c 5c 42 be e2 59 c2 42 60 5d 42 51 57 5a 42
       55.121765 -54.471428 55.344 54.58527
000060 03 7b 58 c2 09 9c 5d c2 d7 0a 59 c2 b2 be 5b c2
       -54.12013 -55.402378 -54.260586 -54.936226
000070 0d 6d 59 c2 ae aa 59 42 bd 7b 50 c2 f3 30 57 42
       -54.356495 54.41668 -52.12084 53.797802
000080 90 84 5c 42 20 7c 59 42 b1 a2 58 c2 61 97 5b c2
       55.129456 54.371216 -54.15888 -54.89783
000090 a7 38 57 c2 7b 40 5b c2 79 f1 5a c2 f9 ac 5b c2
       -53.805325 -54.81297 -54.735813 -54.91892
0000a0 0e 67 5c c2 69 a9 5a c2 91 20 59 c2 92 bf 58 42
       -55.10064 -54.66544 -54.281803 54.18708
0000b0 4f c1 5e c2 6f 10 59 42 f3 27 5b 42 5e 60 58 42
       -55.688778 54.26605 54.789013 54.09411
0000c0 82 22 5d 42 cb a2 59 42 f3 4a 5b c2 87 22 5c 42
       55.2837 54.408978 -54.823193 55.03372
0000d0 63 76 50 42 7e a9 59 c2 fc eb 5b 42 b0 82 59 c2
       52.115612 -54.41552 54.980453 -54.377625
0000e0 44 87 5c 42 ba dd 5e 42 11 5e 5d 42 7a 74 59 c2
       55.132095 55.71653 55.34186 -54.363747
0000f0 fd 47 58 42 1c bc 5d 42 c9 13 5c 42 46 9f 5b 42
       54.0703 55.4337 55.01932 54.90554
000100 bb 27 5a c2 23 d1 55 c2 e0 46 59 42 de da 5c c2
       -54.5388 -53.454235 54.319214 -55.213737
000110 31 ea 5c 42 bd 41 5a 42 14 32 59 c2 55 22 58 42
       55.228703 54.564198 -54.298904 54.033527
000120 8e e4 58 42 92 c2 5e c2 c7 c1 5c c2 2c 9d 5b 42
       54.223198 -55.69001 -55.189236 54.90349
000130 b5 d9 53 42 6e 7a 56 42 69 3e 58 42 8b d4 5d c2
       52.962605 53.61956 54.060947 -55.45756
000140 4b 7d 59 42 7b a9 58 c2 22 cf 50 42 1a 4e 58 c2
       54.372356 -54.16551 52.20228 -54.07627
000150 59 71 5f c2 31 af 5c 42 33 a6 57 c2 2c 6f 5d 42
       -55.86069 55.171085 -53.912304 55.358566
000160 64 71 5b c2 52 24 59 42 a8 a8 5b c2 bb 16 58 c2
       -54.860733 54.28547 -54.914703 -54.022198
000170 65 1d 5b 42 67 56 5a 42 d9 11 54 c2 6a 8b 5e c2
       54.778706 54.584377 -53.01743 -55.636147
000180 72 f4 4e c2 b6 f8 5b 42 41 3a 5f c2 19 be 50 42
       -51.738716 54.99288 -55.80689 52.185642
000190 4d f7 58 c2 26 48 5a c2 d2 92 5d 42 a1 c7 5e 42
       -54.241505 -54.570457 55.39338 55.69495
0001a0 54 e6 58 c2 07 18 5a 42 98 e9 55 42 fc 26 5c c2
       -54.22493 54.523464 53.47812 -55.03807
0001b0 42 01 58 c2 ac b6 5a 42 7f 4c 59 42 02 76 55 42
       -54.00123 54.67839 54.324703 53.365242
0001c0 5e 6b 5d c2 d5 d4 50 c2 06 fe 56 42 2d 71 5b 42
       -55.35485 -52.207844 53.74807 54.860523
0001d0 71 43 5b c2 a0 20 59 c2 f5 35 5e 42 3c 46 56 42
       -54.81586 -54.28186 55.552692 53.56859
0001e0 93 a0 5c 42 fa 7d 53 c2 29 94 5a c2 be c0 5b c2
       55.15681 -52.873024 -54.644688 -54.938225
0001f0 e8 b8 56 c2 04 75 5a c2 10 fb 58 42 a1 54 5a c2
       -53.680573 -54.614273 54.24518 -54.582645
