test_uav/model/actor_model11-10-2023_14-53-51/140.pt (torch, 79535 bytes, 7 tensors)

logstd f4 [4]
0	0xbe58d898	-0.21176374
1	0xbe3acc0a	-0.18241897
2	0xbd98096b	-0.07423671
3	0xbdc46597	-0.09589689

mean_net.0.weight f4 [128, 17]
0	0x3d8f20af	0.06988656
1	0x3dd45844	0.10368398
2	0x3e3f3694	0.18673164
3	0x3e8428c9	0.25812367
4	0xbd5496e2	-0.051901706
5	0x3b79b185	0.0038100195
6	0xbe893f66	-0.26806182
7	0xbe819c11	-0.25314382
8	0xbd879206	-0.06619649
9	0x3e6b4a30	0.22977519
10	0xbe5d07d8	-0.21585023
11	0xbdae4fc3	-0.08511307
12	0xbe65c694	-0.22439033
13	0xbcd13ec1	-0.025542619
14	0xbe87658b	-0.2644466
15	0x3db3e21a	0.0878336
16	0x3e02e8de	0.12784144
17	0x3e82985c	0.25506866
18	0xbeb08d09	-0.344826
19	0xbda19654	-0.07890001
20	0x3e4803e3	0.19532733
21	0xbd5ee1c2	-0.05441452
22	0xba953d72	-0.001138611
23	0x3dcd2c0f	0.10018169
24	0xbd9af572	-0.07566346
25	0xbcdcd7c5	-0.026958356
26	0xbe6d88ab	-0.23196666
27	0xbe54dc7c	-0.20787233
28	0xbe8047ce	-0.25054783
29	0x3c8df223	0.017327374
30	0x3e7f5b41	0.24937154
31	0x3e84d062	0.25940233
32	0x3d9362db	0.071965896
33	0x3d0a6109	0.033783946
34	0xbe80062c	-0.2500471
35	0x3c048226	0.00808767
36	0x3de08552	0.10962929
37	0x3e2b1742	0.16708091
38	0xbdc79cb5	-0.09746686
39	0x3e1e9728	0.15487349
40	0xbe03901f	-0.12847947
41	0xbe671d59	-0.22569789
42	0xbd7bda6c	-0.0614876
43	0x3dcfec70	0.10152519
44	0x3e1c7de6	0.15282401
45	0xbe63b45c	-0.2223677
46	0xbafc5a4b	-0.0019252984
47	0x3dd6d25c	0.104893416
48	0xbd1f17eb	-0.03884117
49	0xbe076a40	-0.13224125
50	0x3ded7e2b	0.1159633
51	0x3ccc1a89	0.024914997
52	0x3ea9e7ee	0.3318476
53	0x3cd741cb	0.02627649
54	0x3e0bcc14	0.13652068
55	0x3dc5901a	0.09646626
56	0x3e9cd858	0.30633807
57	0x3df65bdc	0.120292395
58	0x3e18a3c0	0.14906216
59	0xbd7fe81f	-0.062477227
60	0x3e62fa9c	0.22165912
61	0x3da15309	0.07877166
62	0xbdd06117	-0.101747684
63	0xbdc8fcd9	-0.09813852
64	0x3e0495a0	0.12947702
65	0x3cbf1e90	0.023330003
66	0x3dac579c	0.08415148
67	0xbc0d25b3	-0.008614945
68	0xbe8aa204	-0.27076733
69	0x3c5b5eb3	0.013389277
70	0xbe026366	-0.1273323
71	0x3c9616d8	0.01832144
72	0xbda5df71	-0.08099259
73	0xbc34f20b	-0.011044036
74	0xbd657b19	-0.0560256
75	0x3de8ad02	0.113611236
76	0x3f079be3	0.5297224
77	0xbda08e54	-0.07839647
78	0xbd46cead	-0.048536945
79	0x3d8b151e	0.06791137
80	0x3eb74f23	0.35802564
81	0xbd703a83	-0.05864955
82	0xbdd853ad	-0.10562835
83	0x3ea5ef09	0.32408932
84	0xbc9196b2	-0.017772052
85	0x3e3fa443	0.18715005
86	0x3ca6b395	0.020349303
87	0xbe00a501	-0.12562944
88	0x3cddaba5	0.027059386
89	0x3e117a8f	0.14206909
90	0xbdea0da4	-0.11428383
91	0xbeb53f58	-0.3539989
92	0xbe9f9b41	-0.31173137
93	0x3e1489b9	0.14505662
94	0xbe437a8c	-0.19089717
95	0xbce3c3b7	-0.027803285
96	0xbdf67e7c	-0.12035844
97	0x3e0c75c0	0.13716793
98	0xbcde00a1	-0.02709991
99	0x3dc62512	0.09675039
100	0xbe8a1cf8	-0.26975226
101	0x3e17f2d1	0.14838721
102	0xbda3af8d	-0.07992468
103	0x3e7e0b13	0.24808912
104	0x3e74ef24	0.2391935
105	0xbd84d41a	-0.06485768
106	0x3e295017	0.16534458
107	0x3d810b8d	0.06301031
108	0xbcdd8165	-0.02703924
109	0xbd9d3fc3	-0.07678177
110	0xbccc1986	-0.024914514
111	0x3e456c2d	0.19279547
112	0x3e82394e	0.25434345
113	0x3ea47be3	0.32125768
114	0xbe268681	-0.16262247
115	0xbe1ce543	-0.15321831
116	0x3e6ffa0b	0.23435228
117	0x3decfbe2	0.1157148
118	0x3e8501ca	0.25977927
119	0x3ea7484a	0.3267234
120	0x3dbb6c03	0.09151461
121	0xbbda09b4	-0.0066539887
122	0xbdbdb562	-0.09263112
123	0xbd1a1d37	-0.037625518
124	0x3dbe62c0	0.09296179
125	0x3e0ee94e	0.13956186
126	0x3cc480b7	0.023987157
127	0xbe2d880a	-0.16946426
128	0xbd8c4e41	-0.06850863
129	0x3e3e3e86	0.18578538
130	0x3d44fb34	0.04809113
131	0xbd653641	-0.055959944
132	0x3d091473	0.033466768
133	0x3aa6b257	0.0012717944
134	0xbc70bb7e	-0.014693139
135	0xbea2a152	-0.31763703
136	0xbe84dffc	-0.25952137
137	0x3e13976b	0.1441323
138	0x3ce9354e	0.0284678
139	0xbe984541	-0.29740337
140	0xbd56fa55	-0.05248483
141	0x3e90a572	0.28251225
142	0x3e07fc29	0.13279785
143	0xbeafbe63	-0.3432494
144	0xbebfe3f2	-0.37478596
145	0x3dde95d5	0.10868422
146	0xbe880e94	-0.26573622
147	0xbe5cc005	-0.21557625
148	0xbe748903	-0.23880391
149	0xbd53bf74	-0.051696256
150	0x3e0cb2f1	0.13740136
151	0xbdfc8fe8	-0.123321354
152	0x3c33186e	0.010931117
153	0xbba5356c	-0.005041769
154	0x3e834ac9	0.25642994
155	0x3befacac	0.0073142853
156	0xbda6eb66	-0.081503674
157	0x3e26feb6	0.16308102
158	0xbe58385a	-0.21115246
159	0x3e4b7c55	0.19871648
160	0x3e03cc54	0.12870914
161	0xbb93014b	-0.004486238
162	0xbddb02c7	-0.10693889
163	0xbe03caa3	-0.12870269
164	0x3d0284ef	0.031865057
165	0x3e33563a	0.17513362
166	0xbe1a0bf5	-0.15043624
167	0xbe07206b	-0.1319596
168	0x3e8a9703	0.27068338
169	0xbe667f4e	-0.225095
170	0x3df20ea2	0.11819197
171	0xbbcb51ac	-0.0062048044
172	0xbda68828	-0.081314385
173	0xbd9d15cb	-0.07670172
174	0x3d9ef342	0.077612415
175	0x3ca6b2b5	0.020348886
176	0xbd74f2bf	-0.059801813
177	0x3e867901	0.26264194
178	0x3e0e0c10	0.13871789
179	0xbe090103	-0.13379292
180	0x3d7e9544	0.06215407
181	0xbe517221	-0.20453693
182	0x3d07cc3f	0.03315377
183	0xbdd98af7	-0.106222086
184	0x3e5f980d	0.21835347
185	0xbd96cb11	-0.073629506
186	0x3e7f922b	0.24958102
187	0x3e082ae8	0.13297617
188	0xbe5c7d37	-0.2153214
189	0x3e2c80bc	0.16845983
190	0xbd57cfaf	-0.052688297
191	0xbe12dcf5	-0.14342101
192	0x3eb2346d	0.34805623
193	0x3e64532a	0.2229735
194	0xbe8153f4	-0.25259364
195	0xbe52bd6e	-0.20580074
196	0xbe53bc3c	-0.20677274
197	0x3df09055	0.11746279
198	0x3d4bd945	0.04976775
199	0xbe79aa7a	-0.24381438
200	0x3cbeec67	0.023306085
201	0xbcdd74c3	-0.027033215
202	0xbdecb639	-0.11558194
203	0x3b67a2bc	0.00353448
204	0x3e8a232f	0.26979968
205	0xbe739b89	-0.237898
206	0x3c3662d9	0.011131966
207	0xbdb22a22	-0.086994424
208	0xbe5720e8	-0.21008646
209	0xbde1a7fc	-0.110183686
210	0x3dbb2513	0.09137931
211	0xbe05fedc	-0.13085502
212	0x3e6f7485	0.23384292
213	0x3d9b39cf	0.075793855
214	0xbce5c15f	-0.028046308
215	0x3e070ca1	0.13188411
216	0x3e8c3eb6	0.27391595
217	0xbe2912fc	-0.16511148
218	0xbd9f5df1	-0.0778159
219	0x3e08bad4	0.1335252
220	0x3af95dc8	0.0019025141
221	0x3e44a451	0.19203307
222	0x3e47912d	0.19488974
223	0x3e42cc43	0.19023232
224	0x3d951c2c	0.07280764
225	0x3dccbbc2	0.099967495
226	0x3e5c3cd9	0.21507587
227	0xbeb6c5ba	-0.35697728
228	0xbe0b5ba9	-0.13609184
229	0x3e9b67c6	0.3035261
230	0xbe29fba5	-0.16599901
231	0xbb2d2b40	-0.0026423484
232	0xbe13292a	-0.14371172
233	0xbd7a5920	-0.061120152
234	0x3e0ae964	0.13565594
235	0xbd85737d	-0.06516168
236	0xbe674a38	-0.22586906
237	0x3dce8cec	0.100854725
238	0x3e794665	0.2434326
239	0x3e178aeb	0.14799087
240	0x3cea3718	0.028590724
241	0xbdbc5f47	-0.0919786
242	0xbc9d76ee	-0.01922175
243	0x3dd96470	0.1061486
244	0xbd41056c	-0.04712431
245	0x3d2e7e1a	0.04260073
246	0xbe99bccf	-0.30026862
247	0x3d801153	0.06253304
248	0xbd05a0ea	-0.032624163
249	0x3e3c7f74	0.18407995
250	0xbe237cfc	-0.15965647
251	0xbe3c9836	-0.18417439
252	0x3df52560	0.11970019
253	0x3d8cf215	0.06882111
254	0xbde16831	-0.11006201
255	0x3e409dea	0.1881024

mean_net.0.bias f4 [128]
0	0xbd655fb3	-0.05599947
1	0x3dc875f3	0.09788122
2	0xbd9ba079	-0.07598967
3	0x3e4d48ee	0.20047352
4	0x3df5925b	0.11990806
5	0x3cdc4c6c	0.02689191
6	0x3d71ccc9	0.05903319
7	0x3e79d8a1	0.24399044
8	0x3e939dbc	0.2883128
9	0xbd5ed530	-0.05440253
10	0xbde4c43f	-0.111702435
11	0xbdcdf4cd	-0.10056458
12	0xbe099baa	-0.13438287
13	0xbe2bc482	-0.1677418
14	0x3c17b78e	0.009260071
15	0x3cc41a63	0.023938363
16	0xbdba637f	-0.091010086
17	0xbe203fbd	-0.15649314
18	0x3e34aa5a	0.17643109
19	0x3b9c3482	0.0047670016
20	0xbe4512e2	-0.19245484
21	0x3d9158d7	0.07097023
22	0x3b3d23ae	0.0028860378
23	0x3e1012e5	0.14069708
24	0xbdff217e	-0.1245756
25	0xbcc7a68b	-0.024371406
26	0x3e6673b1	0.2250507
27	0x3e17be1f	0.14818619
28	0xbe01d86f	-0.12680219
29	0xba9e5829	-0.0012080717
30	0x3e47b119	0.19501151
31	0x3d64d7c3	0.05586983
32	0xbd8c6fa3	-0.068572305
33	0x3dbe69fa	0.09297557
34	0xbe003f41	-0.1252413
35	0x3e6576ed	0.22408648
36	0xbd561da0	-0.052274346
37	0x3cc67101	0.024223806
38	0x3d5cc304	0.05389692
39	0xbdae3f0e	-0.085081205
40	0x3d0a2db1	0.03373498
41	0x3d064c0f	0.03278738
42	0xbdd5e4f4	-0.1044406
43	0xbe5cd39d	-0.21565099
44	0x3e51dbdc	0.20494026
45	0x3dff8d11	0.12478078
46	0xbe8c8fc3	-0.2745343
47	0xbc53edcb	-0.012935112
48	0x3e3bc78c	0.1833784
49	0x3e42a65a	0.1900877
50	0x3e0077cb	0.12545697
51	0x3e45f112	0.19330242
52	0x3e0d27c5	0.13784702
53	0x3e5aa03d	0.21350189
54	0xbe492d59	-0.19646205
55	0xbe3beb41	-0.18351461
56	0xbddc8ac1	-0.10768653
57	0xbe6d4403	-0.23170476
58	0xbe5d7a3f	-0.21628664
59	0x3e8fb386	0.28066653
60	0xbdbd16dd	-0.092328764
61	0x3e0041df	0.12525128
62	0xbe3ddc23	-0.18541007
63	0xbe2b64fa	-0.16737738
64	0x3de4917f	0.11160564
65	0x3d862265	0.06549529
66	0x3e11f4a9	0.14253487
67	0x3e312f3f	0.17303179
68	0xbda1ba0d	-0.078968145
69	0xbe7f14f9	-0.24910344
70	0xbd9be219	-0.07611484
71	0x3dfbd9ef	0.12297427
72	0xbdbf3ac0	-0.093373775
73	0xbe1982be	-0.1499128
74	0x3e838ba7	0.25692484
75	0xbdf741cb	-0.12073096
76	0xbd8e35f1	-0.06943882
77	0xbe7e95d3	-0.24861841
78	0xbcccfc37	-0.02502261
79	0xbe00715e	-0.12543246
80	0xbd1a1ccd	-0.037625123
81	0x3e0e3e78	0.13891017
82	0x3dc4fcbf	0.0961852
83	0x3db37c6a	0.087639645
84	0x3e79a506	0.24379358
85	0x3d87b5ee	0.06626497
86	0xbe7df631	-0.24800946
87	0xbe222ebf	-0.15838145
88	0x3e012a3f	0.12613772
89	0x3e2bf728	0.16793501
90	0x3b5b76f2	0.0033487645
91	0x3d1d1036	0.038345538
92	0xbe1ee1cc	-0.15515822
93	0xbe200ec3	-0.15630631
94	0x3e1a8f0b	0.15093629
95	0x3e93c795	0.28863207
96	0x3e2275ce	0.15865251
97	0xbd34bebc	-0.04412721
98	0xbe328fdc	-0.1743769
99	0xbe0a0e08	-0.13481915
100	0x3c1451a4	0.009052668
101	0x3bc1120a	0.005892043
102	0xbdf8bc59	-0.121452995
103	0x3e5183e9	0.20460476
104	0x3e137ebf	0.14403819
105	0xbce688b3	-0.028141355
106	0x3e094e4c	0.13408774
107	0x3d1d5115	0.038407404
108	0xbe36ed40	-0.17863941
109	0x3d330440	0.043705225
110	0x3e998bc2	0.2998944
111	0xbe706cd2	-0.23479012
112	0x3e670266	0.22559509
113	0xbb78d31f	-0.0037967635
114	0x3dbbee03	0.091762565
115	0x3e8514b5	0.2599236
116	0xbe356ab0	-0.1771648
117	0x3d43d5e3	0.0478114
118	0xbdf5bcb4	-0.11998883
119	0x3e225c1c	0.1585545
120	0x3e10b435	0.14131244
121	0x3e6e6a4e	0.2328274
122	0xbe6e91c5	-0.23297794
123	0xbe5ea2a6	-0.21741733
124	0x3df0f13e	0.11764763
125	0xbdb2ffea	-0.08740218
126	0x3e1fd082	0.15606883
127	0x3e17bdc8	0.1481849

mean_net.2.weight f4 [128, 128]
0	0x3b43b9c8	0.0029865373
1	0xbcf50166	-0.029907893
2	0x3d994368	0.0748356
3	0xbca0ca6f	-0.019627778
4	0x3cdb9ab7	0.026807172
5	0x3e32a891	0.17447115
6	0x3d248758	0.040168136
7	0xbd2a45df	-0.04157054
8	0x3d834954	0.064104706
9	0xbcd9e24b	-0.026597163
10	0x3d743e22	0.059629567
11	0x3c42d04a	0.01189048
12	0x3d7b6542	0.061375864
13	0x3ded5345	0.11588148
14	0xbca634da	-0.020288873
15	0xbd0d63d2	-0.034519024
16	0xbd819340	-0.06326914
17	0xbe163641	-0.14669134
18	0x3e07bde5	0.13256033
19	0xbd9be091	-0.07611192
20	0xbd8a5eab	-0.06756338
21	0x3db99014	0.09060684
22	0xbd4e4e6b	-0.050367754
23	0xbd05d25c	-0.032671317
24	0xbcaf482f	-0.021396725
25	0x3d1b9ebf	0.03799319
26	0x3d47043f	0.048588034
27	0x3d706aa2	0.058695443
28	0xbe3a8ef5	-0.18218596
29	0x3d8c0b58	0.06838101
30	0x3d64bdf3	0.055845212
31	0xbc03a51c	-0.008034971
32	0x3cf08aeb	0.029363116
33	0x3d8edbe0	0.069755316
34	0x3d98dacd	0.07463608
35	0x3d56084a	0.052254
36	0xbde537aa	-0.11192258
37	0x3d98ae1a	0.07455082
38	0x3db4bb9b	0.088248454
39	0x3ddcf3cb	0.10788687
40	0x3b4eabe5	0.0031535563
41	0xbe53d35f	-0.206861
42	0xbc33806d	-0.010955912
43	0xbd56b4fa	-0.052418686
44	0xbdecbb9f	-0.115592234
45	0x3db5c4a6	0.08875398
46	0xbdb9dfe6	-0.09075908
47	0x3dedd399	0.11612625
48	0x3e3a310e	0.18182775
49	0xbbf5e6f0	-0.0075043365
50	0xbd8f0364	-0.069830686
51	0xbc36d3d5	-0.011158903
52	0xbc738996	-0.014864346
53	0x3e3b7dc8	0.183097
54	0x3c1bc1f7	0.009506694
55	0xbe0e106c	-0.13873452
56	0x3d26352f	0.040578064
57	0x3dac2936	0.08406298
58	0x3bf2ece0	0.0074134916
59	0x3e025ba0	0.12730265
60	0xbe0c02a7	-0.13672887
61	0x3cef633c	0.029222123
62	0xbd7bf015	-0.061508257
63	0xbda58070	-0.08081138
64	0x3ddde647	0.108349375
65	0x3d1c989a	0.03823147
66	0x3dcbb7d8	0.09947175
67	0x3dc29dd5	0.0950276
68	0xbde00bd1	-0.10939754
69	0xbdec83ac	-0.11548552
70	0x3e7af5c6	0.24507818
71	0x3da10dc8	0.07863957
72	0x3bf0b4bd	0.0073457644
73	0x3b95f23d	0.004575996
74	0x3d0349ae	0.03205269
75	0x3d34c440	0.04413247
76	0xbd0cf0d6	-0.034409367
77	0xbb0b8a44	-0.002129213
78	0xbe182520	-0.14857912
79	0xbcb6042c	-0.022218786
80	0x3c7f1288	0.015568383
81	0xbd777b65	-0.060420413
82	0x3d0a9b10	0.033839285
83	0x3cd5b59f	0.02608758
84	0xbc8e3c6e	-0.0173628
85	0xbd734374	-0.0593905
86	0x3c8e56a4	0.017375298
87	0x3c45c978	0.01207196
88	0xbd4d8566	-0.050176047
89	0x3d343124	0.043992177
90	0x3cac82c2	0.021058444
91	0x3cabfc6d	0.02099439
92	0xbd963b6d	-0.07335553
93	0xbbecf560	-0.0072313994
94	0x3d23e7f7	0.04001614
95	0x3da6ba23	0.081409715
96	0xbde30207	-0.11084371
97	0x3ba430c4	0.005010696
98	0xbdd3654f	-0.103220575
99	0xbd2f0218	-0.042726606
100	0x3cfb361c	0.03066545
101	0xbd4e2051	-0.050323788
102	0x3e203c72	0.15648058
103	0x39b085bb	0.00033668973
104	0x3e422249	0.18958391
105	0xbd0671a6	-0.032823227
106	0xbdb96e49	-0.09054238
107	0xbd99a18d	-0.075015165
108	0x3d58378f	0.05278736
109	0x3dd3294b	0.103106104
110	0xbdffec7e	-0.12496279
111	0xbdacde4d	-0.08440838
112	0xbd5bf955	-0.05370458
113	0x3da4201e	0.08013938
114	0xbcb1fa28	-0.02172573
115	0xbd228ad6	-0.039683186
116	0xbdf90cf1	-0.121606715
117	0xbc99d986	-0.018780481
118	0xbdaa11de	-0.08304189
119	0xbcb711eb	-0.022347411
120	0xbc0e3b5c	-0.008681145
121	0x3d0fc3ae	0.035098724
122	0x3c8b2b31	0.016988369
123	0xbdc9413d	-0.09826896
124	0x3e55de9e	0.20885703
125	0x3e0782ed	0.13233538
126	0x3d8237f3	0.06358328
127	0xbcb7624e	-0.022385743
128	0xbd428305	-0.04748823
129	0x3c176843	0.0092411665
130	0x3ddb25a1	0.107005365
131	0xbbd981f6	-0.006637807
132	0xbd9b1b8b	-0.07573613
133	0x3d96c74b	0.07362231
134	0xbdcb64be	-0.099313244
135	0x3c5124b8	0.012765102
136	0x3e26d7ed	0.16293307
137	0xbde0fa90	-0.10985291
138	0xbd4f84d3	-0.05066378
139	0xbb143efc	-0.002262055
140	0xbd2bccc2	-0.04194332
141	0x3dfd7c37	0.12377208
142	0x3d78a328	0.060702473
143	0x3b88c434	0.00417378
144	0x3d5b06be	0.053473227
145	0xbde5f937	-0.112291746
146	0xbc899afd	-0.016797537
147	0x3c3f6118	0.011680864
148	0xbe0ae270	-0.13562942
149	0x3c898094	0.016784944
150	0xbc26418a	-0.010147462
151	0x3c8a2413	0.016862905
152	0x3d929dba	0.0715899
153	0xbd0e0697	-0.034674253
154	0xbc9dd4e3	-0.019266551
155	0x3a3738f5	0.0006989383
156	0xbde39b42	-0.111135975
157	0xbd5c1f81	-0.053740982
158	0xbd1a0960	-0.037606597
159	0xbd3bbb6c	-0.045833036
160	0x3cf9f7e0	0.030513704
161	0xbce83631	-0.028346153
162	0x3d964c63	0.07338788
163	0xbcf32992	-0.029682908
164	0x3db6fa8c	0.08934507
165	0x3d0c469f	0.034247037
166	0x3d175325	0.036944527
167	0x3d74db10	0.059779227
168	0x3ca31298	0.019906327
169	0xbd55aa4e	-0.05216437
170	0xbd521564	-0.05128993
171	0xbd26b548	-0.040700227
172	0x3ca03db7	0.019560678
173	0xbd10f477	-0.03538939
174	0x3d5c4db8	0.053785056
175	0x3d26a4da	0.04068456
176	0xbe1fa75e	-0.1559119
177	0x3d2e550b	0.042561572
178	0x3d1a3d4c	0.037656114
179	0xbd9f0990	-0.07765496
180	0xbe87c002	-0.26513678
181	0x3c2956e8	0.0103356615
182	0x3c199970	0.009374961
183	0xbbb94d0e	-0.0056549376
184	0xbc0591f5	-0.008152475
185	0x3be4f428	0.0069871135
186	0xbe38a074	-0.18029958
187	0xbda9be8e	-0.082882985
188	0xbc3a5541	-0.011372865
189	0xbd91b872	-0.07115258
190	0xbdb76438	-0.08954662
191	0x3e278510	0.16359353
192	0xbdfcca32	-0.12343253
193	0x3c97e5c4	0.018542178
194	0xbd8c2cbc	-0.0684447
195	0xbc8c5c00	-0.017133713
196	0xbcfe58a4	-0.031048127
197	0x3db50e6c	0.088406414
198	0x3ba24970	0.004952602
199	0x3d9a2b3d	0.07527778
200	0x3c4b7faf	0.012420579
201	0xbd0c19e7	-0.03420439
202	0x3c3a359c	0.0113653205
203	0x3d0b8d2d	0.034070183
204	0x3de29c11	0.110649236
205	0xbdb35669	-0.08756716
206	0xbe06170c	-0.13094729
207	0x3dc4712f	0.095919006
208	0xbd6e8deb	-0.058240812
209	0xbd69a5d3	-0.057042908
210	0x3d0cd8c0	0.034386396
211	0x3dc256e4	0.09489229
212	0x3d5a7f44	0.053344026
213	0xbc6a3ff8	-0.014297478
214	0xbe003579	-0.12520398
215	0x3d576063	0.052582156
216	0x3ca5ed2b	0.020254692
217	0x3d5fc254	0.054628685
218	0x3cbba3f1	0.022905322
219	0x3d202291	0.039095465
220	0x3e02076c	0.12698144
221	0x3e004943	0.12527947
222	0xbca98e26	-0.020697664
223	0x3d88625b	0.06659385
224	0xbd035634	-0.03206463
225	0x3c805222	0.015664164
226	0x3dfefac5	0.12450174
227	0xbdb8f4b7	-0.09031051
228	0x3d5dce28	0.054151684
229	0xbe47e0ae	-0.19519302
230	0x3d7ba14e	0.06143313
231	0x3de49f39	0.11163182
232	0x39a4210c	0.0003130514
233	0x3d149ecb	0.03628425
234	0xbd1e6598	-0.038671106
235	0xbe396292	-0.18104008
236	0x3ce15952	0.027508412
237	0x3e04662e	0.12929603
238	0x3cbef365	0.023309419
239	0xbe4a1f09	-0.19738401
240	0x3d46c31d	0.04852592
241	0x3da80155	0.08203379
242	0x3b274c1e	0.0025527547
243	0xbc22f797	-0.009946725
244	0xbdd83990	-0.10557854
245	0xbe138a3b	-0.144082
246	0x3e48632e	0.19569084
247	0xbda84254	-0.08215776
248	0xbd01d22d	-0.03169458
249	0xbdafad4e	-0.08577977
250	0x3d8e0826	0.06935148
251	0x3d191265	0.037371058
252	0xbc796249	-0.015221187
253	0x3dab89b9	0.08375878
254	0xbd840ed2	-0.06448139
255	0xbdd1e130	-0.10248029

mean_net.2.bias f4 [128]
0	0x3cf72c14	0.030172385
1	0xbc867412	-0.016412769
2	0x3c53b89d	0.012922433
3	0xbdbb46fb	-0.09144398
4	0xbc550482	-0.013001563
5	0x3d5f3e52	0.054502793
6	0x3dbea920	0.09309602
7	0x3d30a220	0.043123364
8	0x3c041ff6	0.008064261
9	0x3d30c049	0.043152127
10	0xbd0fd117	-0.035111513
11	0xbdf49ec7	-0.11944347
12	0x3cdf73d6	0.027276915
13	0xbd823be0	-0.063590765
14	0xbd29af43	-0.04142691
15	0xbde08ea7	-0.10964709
16	0xbd4125e8	-0.04715529
17	0x3d9c5fc2	0.07635452
18	0x3db92873	0.09040918
19	0xbe04cbb7	-0.12968336
20	0xbc9149a6	-0.017735314
21	0xbd9335df	-0.071880095
22	0x3db8ca86	0.09023003
23	0x3c8225e5	0.01588721
24	0xbdad8403	-0.08472445
25	0x3d067e76	0.032835446
26	0xbd7c475a	-0.061591484
27	0xbd0b94cc	-0.03407745
28	0x3ced9d6d	0.02900573
29	0x3db245a0	0.08704686
30	0x3d5d7eb5	0.054075915
31	0x3b7073ef	0.0036690196
32	0xbd14ddf6	-0.03634449
33	0x3cd9e9ff	0.026600836
34	0xbda58135	-0.08081285
35	0x3ca01c89	0.019544857
36	0xbd9f23c6	-0.07770495
37	0xbc8a91fa	-0.01691531
38	0xbccbad2f	-0.024862854
39	0xbda7b740	-0.08189249
40	0x3d8e45ea	0.06946929
41	0x3d3f817a	0.046754338
42	0x3c4e6294	0.012596745
43	0xbd303fa5	-0.043029446
44	0x3d58c5b0	0.052922904
45	0xbd7c9cb0	-0.061672866
46	0x3cb98b5c	0.02264946
47	0xbd848447	-0.064705424
48	0x3c2afc0e	0.010436071
49	0x3cf9fc6b	0.03051587
50	0x3d8009b0	0.06251848
51	0xbc73e51b	-0.014886166
52	0x3c4d089c	0.01251426
53	0x3d9dbed6	0.07702415
54	0x3de30fc7	0.11086994
55	0x3c932a9b	0.017964652
56	0x3d1e8974	0.038705304
57	0xbcd72dc6	-0.026266944
58	0xbddcf29b	-0.10788461
59	0xbc9d4603	-0.019198423
60	0x3ddebc9b	0.108758174
61	0xbcbe8c6f	-0.023260323
62	0x3d46b308	0.04851058
63	0xbd89ebe9	-0.067344494
64	0x3df01d32	0.117243186
65	0xbcc91e24	-0.024550505
66	0xbd78f386	-0.060779117
67	0xbd7fac54	-0.062420204
68	0x3d67d38f	0.056598242
69	0xbd76e45f	-0.060276385
70	0x3cbfb10a	0.023399848
71	0xbcebbc0a	-0.028776187
72	0xbbb9faea	-0.0056756632
73	0x3db02117	0.086000614
74	0xbcae6bcd	-0.021291638
75	0xbc3772e8	-0.011196829
76	0x3d0b7531	0.03404731
77	0xbd7e931f	-0.062152024
78	0xbd04fb05	-0.032465953
79	0xbd43fa58	-0.04784617
80	0xbd864716	-0.06556527
81	0xbc2d6607	-0.010583407
82	0x3ceca7eb	0.028888663
83	0x3d97f2d2	0.07419361
84	0xbd692d7f	-0.056928154
85	0xbcb23972	-0.021755908
86	0xbc491acc	-0.012274455
87	0xbd876001	-0.06610108
88	0xbd7e9ed7	-0.0621632
89	0xbd5fff62	-0.05468691
90	0xbda17d21	-0.078851946
91	0x3ba21cfd	0.0049473033
92	0x3d87473e	0.06605385
93	0x3da094a0	0.07840848
94	0x3d36b9f9	0.04461095
95	0x3d98d563	0.07462575
96	0xbd407898	-0.046990007
97	0xbdd968a5	-0.106156625
98	0xbd9aa10b	-0.07550248
99	0xbdb1665a	-0.086621
100	0x3d0ede4b	0.034879964
101	0x3d203d45	0.03912093
102	0x3d884785	0.06654266
103	0x3b8f9776	0.004382069
104	0x3cb2c244	0.021821149
105	0x3d447722	0.047965176
106	0xbd404850	-0.046943963
107	0x3cb131d7	0.02163021
108	0xbd474883	-0.048653137
109	0x3da70a2b	0.08156236
110	0x3d7eb93f	0.062188383
111	0xbd9f62fa	-0.0778255
112	0xbd2cb6ee	-0.042166643
113	0xbd23d866	-0.040001296
114	0xbdc6d83a	-0.09709211
115	0xbd41af7c	-0.047286496
116	0x3df7263e	0.12067841
117	0xbdc63bcd	-0.09679375
118	0xbdd83c33	-0.10558357
119	0xbd861ab6	-0.065480635
120	0xbda38277	-0.079838686
121	0xbd8d0f0d	-0.06887636
122	0xbdb3f75d	-0.08787415
123	0xbd407634	-0.046987727
124	0xbd88bba8	-0.066764176
125	0x3d3b2a0e	0.045694403
126	0x3db1e10c	0.086855024
127	0xbcd06ce4	-0.025442548

mean_net.4.weight f4 [4, 128]
0	0xbd8e629a	-0.069524005
1	0xbe4ed7a5	-0.2019945
2	0x3c9ebc22	0.019376818
3	0x3dee3f6b	0.1163319
4	0xbd6993d3	-0.05702574
5	0x3e3f7285	0.1869603
6	0x3d7179e8	0.05895415
7	0x3d479956	0.048730217
8	0xbe112353	-0.14173631
9	0x3d72d20e	0.059282355
10	0xbdf647e9	-0.120254345
11	0xbd02ee49	-0.031965528
12	0x3e299c84	0.16563612
13	0x3e73cc3b	0.23808376
14	0xbc95fac9	-0.01830806
15	0xbcf45c91	-0.029829295
16	0xbe054401	-0.13014223
17	0x3e45b514	0.19307357
18	0xbdc4bbc7	-0.09606128
19	0x3d28ced1	0.04121286
20	0xbd33f74e	-0.04393702
21	0x3d5adc8b	0.053432982
22	0x3b93625d	0.00449781
23	0xbdebfb7a	-0.11522575
24	0xbd08f612	-0.033437796
25	0x3e5ae89c	0.21377796
26	0xbd258727	-0.040412094
27	0xbe6ca249	-0.23108782
28	0x3cce2ce1	0.025167884
29	0x3e0b7fbc	0.13622946
30	0xbe06f20c	-0.13178271
31	0xbde3b3e0	-0.11118293
32	0xbbfefc31	-0.0077815284
33	0x3d79a0f8	0.060944527
34	0x3cc0ba85	0.02352644
35	0x3e481341	0.19538595
36	0x3d5a8664	0.05335082
37	0xbe67d4ea	-0.22639814
38	0x3e87eba6	0.26546973
39	0xbe87cc1f	-0.2652292
40	0xbd810b63	-0.06301
41	0x3d0a1bc7	0.033717897
42	0xbdf1f560	-0.1181438
43	0x3b8712e0	0.004122123
44	0x3e805c52	0.25070435
45	0xbe8da2d4	-0.2766329
46	0xbe20eb61	-0.1571479
47	0x3de97801	0.11399842
48	0x3de802d9	0.11328668
49	0x3e04663e	0.12929627
50	0x3d93f840	0.07225084
51	0x3d493880	0.04912615
52	0x3d8983fc	0.06714627
53	0xbe14c91a	-0.14529839
54	0xbd5da260	-0.05410993
55	0x3e8d8b99	0.27645567
56	0xbd0401bb	-0.032228213
57	0xbe2f790a	-0.17136016
58	0xbcbc2e11	-0.022971185
59	0x3d26886d	0.04065745
60	0x3c762c3f	0.0150251975
61	0xbe30e563	-0.17275004
62	0x3dbd8331	0.092535384
63	0x3d40fa7d	0.047113884
64	0xbc902024	-0.01759345
65	0x3d8ce50d	0.068796255
66	0x3ca03794	0.019557752
67	0x3e63cb68	0.22245562
68	0x3d8127c0	0.0630641
69	0xbd7b202c	-0.06130998
70	0xbe5c8450	-0.21534848
71	0x3e14302b	0.144715
72	0x3e3240d6	0.17407545
73	0x3ca89227	0.020577503
74	0x3c95c68f	0.018283157
75	0x3c999375	0.01874707
76	0xbdbdf9ac	-0.09276137
77	0x3d0300ac	0.031983063
78	0xbdf1dcce	-0.11809693
79	0x3d7cb0d6	0.06169208
80	0x3d8b00b0	0.067872405
81	0x3e62abfd	0.22135921
82	0xbdd40d28	-0.10354072
83	0x3e0e3108	0.13885891
84	0xbe4844e7	-0.19557534
85	0xbdd8399d	-0.10557864
86	0xbcdf3b22	-0.027249876
87	0x3de92c9f	0.11385464
88	0xbdc144f9	-0.094369836
89	0xbdf7cdf6	-0.12099831
90	0xbdf1584e	-0.11784421
91	0xbdb6db34	-0.089285284
92	0xbd0e1815	-0.034690935
93	0xbd3ad993	-0.04561765
94	0xbd4f2194	-0.050569132
95	0xbd0166cc	-0.031592175
96	0x3e120019	0.1425785
97	0x3e4dd225	0.20099695
98	0x3e3bc000	0.18334961
99	0x3c8ffc96	0.017576497
100	0xbb966e1b	-0.0045907623
101	0x3d2240a9	0.039612446
102	0xbe4e8a5b	-0.20169966
103	0xbe5d50b4	-0.21612817
104	0x3dee05b8	0.116221845
105	0xbe3a3330	-0.18183589
106	0xbe77c57f	-0.24196433
107	0x3de2babc	0.11070773
108	0x3d5b8b22	0.053599484
109	0x3e067915	0.13132127
110	0x3d165053	0.036697697
111	0x3e697af7	0.22800814
112	0xbd48362b	-0.048879784
113	0x3d48e5da	0.04904733
114	0xbd9b3450	-0.07578337
115	0xbe151b9c	-0.14561313
116	0x3e068a6c	0.13138741
117	0x3e621013	0.22076444
118	0x3d9a4e64	0.07534483
119	0x3b5b5956	0.0033469996
120	0xbdef8b21	-0.116964586
121	0xbe2a0e75	-0.16607077
122	0xbc27be6c	-0.010238271
123	0xbd923f80	-0.07141018
124	0x3d56a4b4	0.052403167
125	0xbd0a970a	-0.03383545
126	0x3e729241	0.23688604
127	0x3d43298a	0.047647037
128	0x3d82ce75	0.06387035
129	0xbd46ee94	-0.04856737
130	0x3da0675c	0.07832214
131	0xbbc5ddca	-0.006038402
132	0xbc5ffd97	-0.0136713
133	0x3e0f4d95	0.13994439
134	0xbcbe06d7	-0.02319662
135	0x3c80b117	0.015709443
136	0xbe27f72b	-0.16402881
137	0xbe846fec	-0.2586664
138	0x3e8e6884	0.27814114
139	0xbd767bfb	-0.06017683
140	0xbd28700d	-0.041122485
141	0x3de176eb	0.1100901
142	0x3e55aafc	0.20866007
143	0x3d6d4b9e	0.057933442
144	0x3cb9c524	0.022677012
145	0x3c62ee50	0.013850763
146	0x3d09e204	0.03366281
147	0x3de3c82c	0.11122164
148	0x3bdb1eb7	0.006687011
149	0x3dce0bde	0.10060857
150	0x3e5f18eb	0.21786849
151	0x3d0226b3	0.031775188
152	0x3e19a5d7	0.15004669
153	0x3db942a2	0.09045912
154	0x3e304b62	0.17216256
155	0x3d98f4a0	0.074685335
156	0xbd364375	-0.044497926
157	0xbdd7faf4	-0.105459124
158	0xbe28c71f	-0.16482209
159	0xbdf02bef	-0.1172713
160	0xbd524c0e	-0.051342063
161	0xbe4cc1bc	-0.19995779
162	0xbe1a9cdc	-0.150989
163	0xbe1a1748	-0.15047944
164	0xbde5489d	-0.111954905
165	0x3d7d1f96	0.0617977
166	0xbd53eed3	-0.051741432
167	0x3e2bf7b0	0.16793704
168	0xbdb05cb6	-0.08611433
169	0x3d2d17c5	0.042258997
170	0xbda8b26b	-0.082371555
171	0x3da49167	0.08035546
172	0xbc60b07d	-0.013713953
173	0x3e818ac3	0.2530118
174	0x3bb21c2a	0.0054354863
175	0x3d6bcf00	0.057570457
176	0xbe095d23	-0.13414435
177	0xbe380d30	-0.1797378
178	0x3c6d271c	0.014474656
179	0x3cfb9f46	0.030715596
180	0xbd862963	-0.06550863
181	0xbdd4d558	-0.103922546
182	0xbd124a03	-0.035715114
183	0x3c377fab	0.011199872
184	0xbdaed43f	-0.085365765
185	0xbe49f001	-0.1972046
186	0x3e00a3d8	0.12562501
187	0xbe865ebc	-0.26244152
188	0xbd969814	-0.07353225
189	0x3c2a317b	0.010387774
190	0x3e51ba28	0.20481169
191	0x3de68807	0.11256414
192	0xbe117205	-0.14203651
193	0xbdff6ba3	-0.12471702
194	0x3e670f47	0.22564422
195	0xbbdc0587	-0.006714526
196	0x3d276d91	0.040875975
197	0x3e69d770	0.22836089
198	0xbd866b04	-0.0656338
199	0x3dcdda8e	0.100514516
200	0x3d6aac0c	0.057292983
201	0xbd841986	-0.06450181
202	0x3db025c4	0.08600953
203	0xbe05e825	-0.13076837
204	0xbe1a0c02	-0.15043643
205	0xbdbb1567	-0.091349415
206	0x3c84669d	0.016162211
207	0xbc92b2b7	-0.017907484
208	0x3d0856cf	0.033285912
209	0xbdcf761a	-0.10129948
210	0xbdaf068f	-0.08546173
211	0xbd8e64d4	-0.06952825
212	0x3da11b24	0.07866505
213	0xbd27e85e	-0.040993087
214	0xbd188b6a	-0.03724233
215	0x3d943ed6	0.072385475
216	0x3e18dfe0	0.14929152
217	0xbdaba83f	-0.083817
218	0xbe760d48	-0.24028504
219	0xbe00ab7d	-0.12565418
220	0x3e2afe4c	0.16698569
221	0x3cbc2422	0.022966448
222	0xbe963823	-0.29339704
223	0x3dfa8006	0.1223145
224	0x3d9a419a	0.07532044
225	0x3e3df75b	0.1855139
226	0x3cef045f	0.029176889
227	0xbc600ed9	-0.013675415
228	0xbdcbf410	-0.099586606
229	0xbd0731dd	-0.033006538
230	0x3d921873	0.071335696
231	0xbe2ae528	-0.16688979
232	0x3d5428de	0.051796786
233	0x3d2deb8c	0.042460963
234	0x3dbe9f5b	0.093077384
235	0x3e181634	0.1485222
236	0x3dbb73c3	0.09152939
237	0x3d5c5bab	0.05379836
238	0x3e17fc2d	0.14842291
239	0xbc4b76a6	-0.012418425
240	0xbac89fcf	-0.0015306416
241	0xbdd3fa4e	-0.10350476
242	0x3dde601b	0.108581744
243	0xbe19533f	-0.14973162
244	0x3e0aab43	0.13541894
245	0x3d2bf50f	0.041981753
246	0xbd023eb8	-0.031798095
247	0x3d1672f6	0.03673073
248	0xbd86f826	-0.06590299
249	0x3d7d58bd	0.061852206
250	0x3cc93ca7	0.024565054
251	0x3da1cafc	0.07900044
252	0xbd94e4da	-0.072702125
253	0x3e877d00	0.26462555
254	0xbcbbfdc1	-0.022948148
255	0x3ca911b6	0.020638328

mean_net.4.bias f4 [4]
0	0xbd71f0c9	-0.05906752
1	0x3b6f4621	0.0036510306
2	0x3d11b891	0.035576407
3	0xbc235630	-0.009969279
