test_uav/model/actor_model11-10-2023_14-53-51/800.pt (torch, 79535 bytes, 7 tensors)

logstd f4 [4]
00000000: c8bf b2be dbda b6be e1de e4be d71e bebe
-0.34911942 -0.35713848 -0.44701293 -0.37132904

mean_net.0.weight f4 [128, 17]
00000000: 6085 0ebd 0db5 cbbd 1cd7 b23e e70a 4abb
00000010: 950f 5dbe 8498 233b 7a42 b8be 0a53 2fbe
00000020: 5844 aebd db2f 023f a8cb 2abf 023c 3c3d
00000030: edaf 28be 1704 f43d 806c 90be 0983 6d3e
00000040: 45bf 803e 42a3 bb3d 7413 47be 2e38 f7bd
00000050: 6940 373e c817 7e3d dd83 c6be b253 463e
00000060: b4fe d8be ed0f 633d 56fc 64bd 08b4 92bc
00000070: fc28 20bf 8efb 113e e3a2 e23e 4c1f f23e
00000080: 1c45 983d 673c 433e c03f a1be 30f1 0b3c
00000090: cbee 813c dc47 30bd cb4e 13be 2096 333e
000000a0: 30b9 36be 6881 06be 8d2d af3e cf7e 9d3d
000000b0: 0e6b df3c 38bd 18bf af33 e83e 2ad0 863d
000000c0: 30d7 e1bd 7b8d 8fbe ae34 c6bd d1e8 b4bd
000000d0: f12d 063f 1c46 0fbc 0f61 463e 9c6d f23d
000000e0: 958d eb3e edd3 123e 564b 2e3e e88c 63be
000000f0: 6874 f83e d46d 553f 583d 4dbe 16fd 3bbe
00000100: 4a0c d33d c9fc ec3d 466b 173e 3f73 12be
00000110: 5661 5bbe bc01 863d 1b52 89be 31fe 11be
00000120: 37c9 a1bc 4808 fabd 313b f8bd c660 4b3e
00000130: 2b2a 2f3f 4219 8ebe 5329 38bf 4075 6a3e
00000140: b68b 5d3f f40a 41be 52cb 7ebe 68d9 503e
00000150: e0f4 c83c 0c38 913e 4fbe dbbd 0f0a 08be
00000160: ecc9 e23c f425 263d c47e e5bd 9339 b1be
00000170: e1ca 5bbe c9c5 623c 1f54 a0be 3b9d cebe
00000180: 16a4 47bf b648 e7bc b92f 033e cc3c a83d
00000190: e124 58be abb0 b93e 5448 bebe c478 883d
000001a0: 1045 643e c2a1 8fbe e0af 283d ebb9 75bd
000001b0: 60bb d6bc d349 ac3d 4f20 a43c 322e cc3e
000001c0: 1c52 e83e 1be3 0d3f 8982 39be 43dc 0ebe
000001d0: 7526 cd3e f316 0e3e 269e bd3e 2e92 ef3d
000001e0: b2c6 193b 27dc c73d 511c 0dbe ab15 c8bd
000001f0: 5ee0 a73c 7232 343e f737 d13d f080 093e
00000200: f67d 4a3e c419 733f 924d 2dbd 1549 3f3e
00000210: b67a 0c3c a4f5 cb3d c36d 88bd 88c3 c7be
00000220: 8cc0 09be 8996 863e a5ff cf3d 5e93 61be
00000230: ad6a 38be fc7a c13e 56f1 843d e0c9 bdbe
00000240: 5937 29bf 93f4 1d3e 3b8b 6dbe 718b 82bf
00000250: 1f59 febe 65e4 1dbd 0039 2b3e f152 2cbe
00000260: e387 873d 2d2b 1e3e 149a 9c3e 891a 53bd
00000270: a76f 913d 83fd 1cbd a544 723d 707b 1c3e
00000280: 2b63 2a3e 10a6 2ebc 9ab2 81be 8dc4 c13e
00000290: afc1 a83e 8d4d a13e 651a b9be 8b6e 6fbe
000002a0: 5c7c 253e ae91 ddbe 3895 703d ab85 1abe
000002b0: e414 fdbd a5e8 0dbd 13db 7dbc 4a16 013e
000002c0: 5535 08bf f555 af3d 5fe9 fd3d 7c4b 62be
000002d0: 125a 643e e128 32be 7c21 a6be 7754 22bc
000002e0: b8fa 943e f415 3a3d ce82 d73e 407d 223e
000002f0: c8b9 7fbe e000 733e e77d e3bb 696f 8abe
00000300: 0597 a73e b595 983e f9d0 82be b8f5 3cbb
00000310: 9b46 5cbd c91f 913f 8dc9 a4be b701 2ebe
00000320: b8a3 033e c9f3 9e3d 1841 febd 7dd3 a9bd
00000330: a035 1a3d cfee 0bbf 9a78 e03b eb10 0dbd
00000340: 34fb b0be b4a3 bebe 9f2a 783e 01e3 a73d
00000350: 9077 273e 308f 563d 4539 4e3f d2cd 853f
00000360: 1b74 013f 3255 3dbe ee5e 433c 0c0f 0c3e
00000370: c26b 303e e7cf ba3e 236d 99bc 324e 823e
00000380: 21f9 07bd 21e9 923c 8c0f 023f 8038 b5be
00000390: e68d 6dbd 2b3d c13e 1bd9 1ebd b823 54bf
000003a0: 6991 a3be d026 413e 7e1d 703e a1d0 aebd
000003b0: 2ad9 6cbe 43f3 293e 0960 263e 32ca da3d
000003c0: b89f b73d 123a bfbc 6c43 fa3c aba4 a5ba
000003d0: 616f a2bc 7021 8b3d 72cb c2be 78d6 693e
000003e0: 93f6 f73d cbc6 fb3e 264e bcbe 9bda a7be
000003f0: 0410 763e b0a1 2e3e de5e 47be 1d04 f93e
-0.034795165 -0.09946642 0.3492974 -0.0030829252 -0.21587975 0.0024962733 -0.35988218 -0.1712152
-0.08509129 0.5085427 -0.66717005 0.045955665 -0.1647336 0.119148426 -0.2820778 0.23194517
0.25145927 0.09161998 -0.19441015 -0.12071262 0.17895664 0.0620344 -0.3877248 0.19367865
-0.42381823 0.05543511 -0.05590471 -0.017908111 -0.6256254 0.14256117 0.44264898 0.47289503
0.074350566 0.1906601 -0.3149395 0.00854139 0.015860936 -0.04303728 -0.14385526 0.17537737
-0.17844081 -0.13135302 0.3421444 0.076902024 0.027272727 -0.59663725 0.4535193 0.06582673
-0.11027372 -0.2803763 -0.096780166 -0.08833469 0.5241385 -0.008744743 0.19372962 0.118373126
0.46006456 0.14338656 0.17020926 -0.2222172 0.4852631 0.8337071 -0.20042932 -0.18358263
0.10305078 0.115716524 0.14787015 -0.14301775 -0.2142385 0.065432996 -0.26820454 -0.14257123
-0.019749267 -0.12208611 -0.12120665 0.19861135 0.6842372 -0.27753645 -0.71938056 0.2289629
0.86541307 -0.18851835 -0.24882248 0.20395434 0.024530828 0.28363073 -0.10729658 -0.13285087
0.027684174 0.04056354 -0.11205819 -0.34614238 -0.21464111 0.013841101 -0.3131418 -0.40354332
-0.7798475 -0.028232913 0.12811173 0.08214721 -0.21107818 0.362676 -0.37164557 0.06663659
0.2229197 -0.280531 0.041183352 -0.05999176 -0.026212394 0.08412518 0.020034937 0.39878994
0.45375144 0.5542466 -0.18116201 -0.1395121 0.40068403 0.13875942 0.3703472 0.116978034
0.002346438 0.097587876 -0.13780333 -0.09769758 0.020492729 0.17597368 0.102157526 0.13428092
0.19774613 0.9496119 -0.042310305 0.18680222 0.008574178 0.099589616 -0.066615604 -0.39016366
-0.13452357 0.26286724 0.10156182 -0.22028872 -0.18009444 0.37789142 0.06491344 -0.3706808
-0.6610008 0.15425329 -0.23197643 -1.0198804 -0.4967737 -0.038547892 0.16720963 -0.16828515
0.06617715 0.15446158 0.30586302 -0.051538978 0.07101374 -0.038327705 0.059147496 0.15281463
0.16639392 -0.01065971 -0.25331575 0.3784527 0.3296027 0.3150448 -0.3615295 -0.23382013
0.1616072 -0.43275207 0.058736056 -0.15090053 -0.123575 -0.034645695 -0.015494126 0.12606159
-0.5320638 0.08561317 0.12398028 -0.22099108 0.22299984 -0.17398407 -0.32447422 -0.009907833
0.29097533 0.045431092 0.42091984 0.15868092 -0.24973214 0.23730803 -0.006942499 -0.27038124
0.32732406 0.29801717 -0.25550058 -0.0028832983 -0.053778272 1.1337825 -0.3218502 -0.16992842
0.12855422 0.07761342 -0.124147594 -0.08292291 0.037648797 -0.5466127 0.0068503143 -0.034439962
-0.34566653 -0.3723427 0.24235009 0.081975944 0.16354203 0.052382648 0.80556136 1.0453436
0.5056779 -0.1848953 0.0119244885 0.13677615 0.17228606 0.36486742 -0.018728798 0.25450283
-0.033196572 0.01793343 0.5080497 -0.3539467 -0.057996653 0.3774198 -0.038781267 -0.82867
-0.31946877 0.18862462 0.2344875 -0.085358866 -0.23129717 0.16596703 0.16247572 0.10683097
0.08966011 -0.02334312 0.030549727 -0.0012637576 -0.0198285 0.06793487 -0.3804584 0.2283572
0.12107577 0.49175104 -0.36778373 -0.3278397 0.24029547 0.17053866 -0.19469783 0.4863595

mean_net.0.bias f4 [128]
00000000: fd59 273e 21c7 703e 0b43 f7bd 2338 793e
00000010: e086 b33b 6086 363b 9520 4c3e a2ce c93e
00000020: a155 af3e 4582 76be 5fbe 41be a84f 4dbd
00000030: 48eb 01be 3c6f a9bd 67b9 383e 08e6 1ebe
00000040: 98ca cc3d 0159 dabd 2b6f 013e 0ba3 ad3d
00000050: ea8a 4ebe 5257 0fbd 8c2f 3f3e 302b 34be
00000060: b8a8 ddbd f151 18be d6e8 853e 2b31 783d
00000070: 654e f9bd fbc0 dd3b 531d f5bd cb93 813d
00000080: 88b4 11be 6d8e 813d 4758 3abe f725 573e
00000090: 9c85 933d 9e88 7c3c f8a7 763e 9eac 5dbe
000000a0: 9ce5 3fbc 53ab 143e 4216 8bbe b78e 7cbd
000000b0: 1165 eb3e 8445 0f3e e788 54be 4e7b 303b
000000c0: 6532 963d e396 983e dd57 ad3e 283d 153d
000000d0: d88b 7e3d 5ffa 053e 0f9f b8be 1479 b2be
000000e0: 86da 02be dc12 81be 4329 5abe 0fe7 733e
000000f0: 35cf 7bbd 6560 de3d 36af b6be 59ba 13be
00000100: 7252 8e3d 17da 413e 3cca ab3e 8882 4a3d
00000110: 1db9 063b 276d 1fbe 6df8 65be f246 623e
00000120: 44e6 b9bc dcc9 71be 9296 b23e 9b6a 33be
00000130: 86f8 3dbe 5e8e c7be fec5 003d 37b6 923c
00000140: f512 9ebd df94 d63d 1f81 ec3c 9ad3 393e
00000150: 0f29 423e ea48 e63c ca9e abbe 9e02 61be
00000160: 8c8a 843b 9022 bf3d e851 c63d 9fef 563d
00000170: 553f 20bd c871 50bd d09d dd3d 0364 873e
00000180: 3e4e aa3e 47ce 6cbd f180 8a3c a400 92be
00000190: 1286 c73d 6eb2 b0bd 1b08 89bb 9e07 bb3e
000001a0: 4dec a93d f1a7 4d3d 0857 b23e 709a 3c3d
000001b0: f091 9a3a 8286 ecba 95ff 053f bf7b cdbe
000001c0: 74eb 783e 1e7c 473c f368 303e bbfd d03e
000001d0: 3094 a0bd 21d3 e9bc 04d1 d03d c793 843e
000001e0: 844a 6d3e 54d3 ba3e 0732 4ebe db22 9cbd
000001f0: d526 18be d7aa efbd 5461 743e 61ca 863d
0.16342922 0.23513462 -0.12073334 0.2433782 0.005478725 0.002785109 0.19934304 0.3941546
0.34245017 -0.24073131 -0.18920277 -0.050124794 -0.12687409 -0.082731694 0.18039475 -0.15517437
0.09999579 -0.106615074 0.12640063 0.084783636 -0.20170179 -0.034995385 0.18670481 -0.175946
-0.10823196 -0.14875008 0.26154202 0.060593765 -0.12173156 0.00676739 -0.11968484 0.063270174
-0.14229023 0.06325994 -0.18197738 0.21010576 0.07203218 0.015413431 0.24087512 -0.2164788
-0.011712458 0.1451848 -0.2716542 -0.06165954 0.45975545 0.13991362 -0.20755349 0.0026928964
0.07333831 0.29802617 0.33856097 0.036435276 0.062145084 0.1308379 -0.36058852 -0.34858
-0.12778673 -0.252097 -0.21304803 0.2381861 -0.061476905 0.108582295 -0.3568055 -0.14426555
0.06949319 0.18930851 0.3355273 0.04944089 0.0020557113 -0.15568982 -0.22458048 0.22097376
-0.022692807 -0.2361216 0.348805 -0.17521136 -0.18551835 -0.38975805 0.03143882 0.017909152
-0.077184595 0.10477614 0.028870163 0.18147126 0.18960975 0.02811094 -0.33519584 -0.21973655
0.0040448364 0.09332764 0.09683591 0.052474614 -0.039122898 -0.05088976 0.10821116 0.2644349
0.3326282 -0.05781391 0.016907187 -0.28516114 0.09742369 -0.08627783 -0.0041818745 0.3652925
0.08297024 0.05020899 0.34832025 0.04604572 0.001179276 -0.0018045458 0.5234311 -0.40133473
0.24308568 0.012175588 0.17227535 0.4081858 -0.078407645 -0.028543057 0.101961166 0.25893995
0.23172957 0.36489356 -0.20136271 -0.07623836 -0.14858563 -0.11702507 0.23865253 0.065815695

mean_net.2.weight f4 [128, 128]
00000000: b98b 7d3d a087 303d ffb1 e93d bfff 5ebe
00000010: 5607 14be 214b a53e 7d96 52be 9a6e 74bd
00000020: 8b9f f13c ffe5 cdbd 472b b4bc 2413 b43e
00000030: c6ae ed3d 6a05 e83d 5cf2 4a3b 04e6 803d
00000040: 4d1d 89b9 91ff 1ebd 05fe 533e 22e9 483c
00000050: 1ed1 babd c617 0bbc 481f 72bd bb41 2fbe
00000060: 91bd 693d 8a63 7c3d edc4 b3bc 8055 3ebd
00000070: 13a6 34be eb6b 5f3d caa1 553e 0f5a 11bd
00000080: 6cd3 0c3e 1d9c cebd d854 343e 68df 94bd
00000090: 67e8 88be 151e 57bd 5a99 0fbe 2d40 153e
000000a0: d83a 5d3e b284 59be 832d 8ebc 2990 bebd
000000b0: 8e13 5bbe 6822 023e 16f7 99be 1d79 cc3e
000000c0: 63a2 5c3e b1d0 1bbe e80f 1d3d 90ae 653e
000000d0: f7e0 4a3b 885b 36be 16b4 3ebd e27d 09be
000000e0: 033b 7f3c 46e6 3a3e 27fe 533d f38d 2f3e
000000f0: 2f8c e63d 11e9 11be 7bd1 643c c970 f2bd
00000100: c11d fdbd d9e9 ecbd 9a66 033e 8f41 1c3d
00000110: 7135 363e 4ea2 203e 5c01 193f ac04 6a3d
00000120: 9495 e2bd 6e38 31bd f21b da3d c6cb c83d
00000130: 1ef9 603e 1527 b33d 4a91 4cbe 42c1 983d
00000140: 6792 38bc 0e5b 28be e727 a63c 4f3d 1f3e
00000150: d697 2bbe f3e2 7bbe f366 44bd 3826 913e
00000160: 5fc4 f3bd 6234 d9bd f974 64be f061 febd
00000170: a119 64be 9331 af3d f41b 44ba 757d bfbb
00000180: ae82 1cbe 452b 6d3d bb59 253d 8b88 0bbd
00000190: cbc5 a9bd 7326 8cbd 3d96 183e c59d 62be
000001a0: 786c ba3e 9a19 c9bd 022a 15be 3caa 143c
000001b0: 74a5 9abe 0b35 8b3e b1b4 a2be fa57 e2bd
000001c0: 866c 5cbe 6e60 963e 1add 30be 361c e8bd
000001d0: 4e55 8cbe 4f21 873e 5bde edbd e38e c33d
000001e0: fd3a 00bf 5286 2abe 15fc ffbd 1848 86bd
000001f0: 244e 683e 495d 393e 5744 8fbe 8c4f 463e
00000200: b0d9 8bbc c848 d43d aae9 d43e 4591 bebd
00000210: e80f 41bd c726 e13d 4e14 6cbe 9609 233e
00000220: bfd3 823e 44b0 51be 03dc 8abd 22aa 803d
00000230: c931 c13b c877 f63d a359 38be 38c7 2fbe
00000240: f121 f13d ffae 16be e801 88bc b70d 0cbe
00000250: a63c cdbd d5c3 00be 0754 573d bc54 2dbd
00000260: ba42 f93d a8a8 843b fb5b 2bbd 9f21 4f3d
00000270: e988 7bbe 38f0 04be d64d 2bbd 3cb8 51be
00000280: 82f2 d63d c28b 22be 97bf 3f3e 1d8a 28be
00000290: 8fc2 a5bb 6bde 593e c315 463e f1cc f93d
000002a0: f267 443d 054c 72be 88ce d5bd cba3 b6be
000002b0: e502 b53c 31e5 1abe 6035 bdbc bad0 5f3c
000002c0: f84b ac3d c645 613e 7efc f03d 75b9 8abc
000002d0: 691e 8fbe 8c14 6f3e dd4c 57bd 04c6 14be
000002e0: e51e 8b3e 9902 593d b2bf 93be 6d99 0cbe
000002f0: 2800 753e 9f40 23be 04c6 75be dfec 603e
00000300: a75b 113d a264 963d 0c6a a73c 144d e3bd
00000310: 8c3a f9bc 7d2a 9c3d 17ec da3d dcb4 ec3d
00000320: 1981 b23c cfdf d93c 7194 04bd 52bb 293d
00000330: dcd9 0c3e 45a7 1b3b f82e 58be d65a 823e
00000340: 8e08 5ebe 42f4 80bd 7f7e 993d 5e94 b4bd
00000350: 9d24 5b3e ca16 7fbe 6a74 87be 2b0b 3e3e
00000360: 04f3 59bd ddd1 283e e08c 4b3d 24c4 b53d
00000370: 0007 403e 1fab 633e 55a1 27be f17e 893e
00000380: a7a4 04bd 8f99 9e3d 5149 1a3e 777e a3be
00000390: cf5f 35be 8269 fdbe b9eb d83d 17c9 0f3e
000003a0: 91df ec3d 3446 593e 78ec abbd e225 03be
000003b0: c465 003d 59e0 aa3e fb9d 27bc 9d90 e8be
000003c0: 888a 02bc 2c12 2d3e 3c92 663e 02de 96bb
000003d0: 5c12 f9bd 36d4 11be 1db0 723e f769 20bd
000003e0: b519 2f3e 99ba cabd a7c3 44bd 8649 493e
000003f0: 5741 a03d fcbf a83e 1ee7 003d ff13 d2be
0.061900828 0.043098092 0.11410903 -0.21777247 -0.14455923 0.3228388 -0.20565219 -0.05967579
0.029495021 -0.10053634 -0.021993292 0.35170853 0.11605601 0.11329158 0.0030967211 0.06293872
-0.00026152507 -0.038817946 0.2070237 0.012262614 -0.09121917 -0.008489555 -0.059111863 -0.17114918
0.05706555 0.061618365 -0.021944487 -0.046468258 -0.17641477 0.054546278 0.20862499 -0.035486277
0.13752526 -0.1008837 0.1761049 -0.07269174 -0.2673981 -0.052518923 -0.14023343 0.14575262
0.21604478 -0.21242025 -0.017355686 -0.0930484 -0.21394178 0.12708437 -0.30071324 0.39936152
0.2154632 -0.15216328 0.038345248 0.22429872 0.0030956843 -0.17808354 -0.046558462 -0.13426927
0.015578034 0.18251905 0.05175605 0.17143993 0.11257207 -0.14249064 0.01396596 -0.11837918
-0.12359191 -0.115680404 0.12832108 0.03814846 0.17793824 0.15686914 0.597677 0.05713336
-0.11063686 -0.043266706 0.106498614 0.09804492 0.2197003 0.08747689 -0.19977298 0.07458736
-0.011265374 -0.16440985 0.020282699 0.15550731 -0.1675714 -0.24598293 -0.047949743 0.2834947
-0.11902689 -0.10605694 -0.22310247 -0.12421024 -0.22275402 0.085543774 -0.0007480972 -0.005843813
-0.15284225 0.057902593 0.040368777 -0.034065764 -0.08289679 -0.06843271 0.14901061 -0.22130497
0.3641088 -0.09819336 -0.14566806 0.00907379 -0.30204356 0.27188906 -0.31778482 -0.110519364
-0.21525773 0.29370445 -0.17271844 -0.11333506 -0.27408832 0.263926 -0.116146766 0.09548738
-0.5009001 -0.16652802 -0.12499253 -0.065567195 0.22686058 0.18101992 -0.27981827 0.19366282
-0.017071575 0.103654444 0.41584522 -0.09305052 -0.04713431 0.10993724 -0.2305462 0.15921625
0.25552174 -0.20477396 -0.06780245 0.0628245 0.0058958274 0.12034565 -0.18002944 -0.1716584
0.11774052 -0.14715193 -0.016602471 -0.13677107 -0.100213334 -0.12574704 0.05257037 -0.042317137
0.1217093 0.0040484257 -0.041835766 0.050569173 -0.24563946 -0.12982261 -0.041822277 -0.20480436
0.104954734 -0.15873626 0.1872543 -0.16458936 -0.0050585936 0.21276252 0.19344239 0.121972926
0.047950692 -0.23661812 -0.10439783 -0.3567184 0.022096107 -0.15126492 -0.02309674 0.013660604
0.084129274 0.21999273 0.11766909 -0.016934136 -0.2795289 0.23347682 -0.052563537 -0.14528662
0.27172008 0.052980993 -0.2885719 -0.13730402 0.23925841 -0.1594262 -0.24001318 0.21965359
0.035487797 0.07343413 0.02043631 -0.11098686 -0.030423425 0.076252915 0.10689562 0.11557934
0.021790074 0.026595978 -0.032368127 0.04143841 0.13754982 0.0023750823 -0.21111667 0.25459927
-0.21682951 -0.062965885 0.0749483 -0.08817361 0.21400686 -0.24911037 -0.26456004 0.18558948
-0.053210273 0.16486306 0.049694896 0.088753015 0.1875267 0.22233246 -0.16370137 0.2685466
-0.032383587 0.07744133 0.1506703 -0.31932423 -0.1771233 -0.4949456 0.105918355 0.14041553
0.115660794 0.21218187 -0.08394712 -0.1280742 0.03134705 0.3337429 -0.010230537 -0.4542283
-0.007967599 0.16901463 0.22516721 -0.004604102 -0.12161705 -0.14241108 0.23699994 -0.039163556
0.1709965 -0.09898872 -0.04803815 0.19656953 0.078249626 0.32958972 0.03147041 -0.4103088

mean_net.2.bias f4 [128]
00000000: a4db 5bbd 3c79 f0bb dcde 5a3c 1793 78be
00000010: ce93 903d 3728 423e b789 573e 1469 36be
00000020: 4108 173c 9e39 293e a629 45bd 66a5 8e3d
00000030: 14bc 413c 4bcb 1ebd e254 65bd c854 24bc
00000040: 8e14 99bd 1b13 693e 0e64 95bd b6a4 7abd
00000050: ca01 763c 2d48 23bb e482 703e 992c dbbd
00000060: 9347 3bbe 35de acbc e054 26bc 9a2b 45bc
00000070: 39a9 85bd a98a 583e 93c5 d93d 8ad5 d43d
00000080: d293 9a3d a7f2 9a3b 8f6e 8dbd 90c5 78bd
00000090: 45fb 7cbe 30ec c93d 71e3 b4ba a062 29bd
000000a0: fd77 2d3e 00e8 7a3d bfce cbbc 0b52 933d
000000b0: a69c 0d3e 4e94 ddbd 6c93 cbbd 6057 6ebe
000000c0: 36cf 3fbd 5166 b83d 63ed cf3d d2fd 013e
000000d0: 8f2f aabd 60ba 483e 7a70 363e a0be a73d
000000e0: 8553 fb3d 1347 ca3c 33fc 83be 8691 803d
000000f0: f126 a23e 9106 2dbd 85cf 293e 822c 08be
00000100: 49e2 553e d3b4 d03c c661 a23c 155e 12be
00000110: 0611 e5bd 1801 0b3d f119 393e ddea 6fbd
00000120: 8232 aa39 3b22 2e3e 1c9e 29bc 1ec4 6abe
00000130: 533d d23d 9f7f a93c dab3 c73b 2569 fabd
00000140: f5dd 9abd a904 a73d 1ddf 103d b99c 8cbd
00000150: 8994 d1bd a522 9a3d b6b1 813d 6035 063c
00000160: 59c3 42be c8c8 21bd 9a9e b13b 3848 883d
00000170: 8a3f 4c3e d166 ed3c cc08 a2bd 98a0 3e3e
00000180: 0a1c 67bd 92c5 96bd fd22 80be 6821 d9bc
00000190: 15a8 c9bc 1389 de3d f8e4 e1bd bd60 9dbd
000001a0: fc07 25bd 8b45 ac3d ad86 21bd bce2 863d
000001b0: e865 44be 8da0 5d3e 063b a9bc b60e f5bd
000001c0: 28c7 363d c197 9bbc 7bc6 5cbe 583d 3cbe
000001d0: 2612 4f3b ea0a b03d e674 95bd 02f2 9f3b
000001e0: 0048 69ba f107 2cbc 519d a7bd d505 7fbe
000001f0: 0867 8ebd a7e0 0f3d 7e26 e13d 545d cebd
-0.053676262 -0.007338671 0.013358798 -0.2427486 0.070594415 0.18960653 0.21048628 -0.17813522
0.0092182765 0.16525885 -0.048135422 0.06965141 0.0118246265 -0.038768094 -0.055989154 -0.010029979
-0.074746236 0.22761194 -0.072944745 -0.061192237 0.015015075 -0.0024914846 0.23487431 -0.10701866
-0.18289022 -0.02110205 -0.010152072 -0.012034321 -0.06526417 0.21146645 0.106333874 0.10392292
0.07547726 0.0047286334 -0.06905853 -0.060735285 -0.24705227 0.09859502 -0.0013800693 -0.04135382
0.16940303 0.06125641 -0.024878858 0.07193383 0.13829288 -0.108193025 -0.09940228 -0.23275518
-0.04682847 0.0900389 0.101527 0.12694481 -0.08309852 0.19602346 0.17816344 0.08190656
0.122717895 0.024692094 -0.2577835 0.062777564 0.31670335 -0.04224259 0.16583069 -0.13298228
0.20887102 0.025476849 0.019822013 -0.14293702 -0.111848876 0.03393659 0.18076302 -0.058573592
0.00032462558 0.17005245 -0.010352638 -0.22926375 0.10265603 0.020690737 0.006094438 -0.12227086
-0.07561866 0.08155186 0.035369027 -0.0686583 -0.10233409 0.07526139 0.06332724 0.0081914365
-0.19019832 -0.03949812 0.005420518 0.066544 0.19946113 0.02897969 -0.07911834 0.18615949
-0.056423225 -0.07361902 -0.25026694 -0.026505187 -0.02461628 0.108659886 -0.110300004 -0.07684467
-0.040290818 0.08411702 -0.039435077 0.06586215 -0.19179499 0.21643277 -0.020658027 -0.119656965
0.044623524 -0.01899326 -0.2156009 -0.18382776 0.003159651 0.08595832 -0.07297687 0.0048811445
-0.00088989735 -0.01049994 -0.081843026 -0.24904568 -0.069532454 0.035126355 0.1099367 -0.10076395

mean_net.4.weight f4 [4, 128]
00000000: 982f dbbc e842 0dbf 2652 25be 85af 4f3e
00000010: 5b14 3fbd 5ed3 dd3e bde3 113e 87ce 3abc
00000020: c29e 8abe 9205 713e 8d08 48bd f05e 903e
00000030: faa3 e73e 57cc df3e 8f82 e83c 16e8 24be
00000040: 8cf4 643d df58 8b3e 8f8f 64be 55d7 7d3e
00000050: 6abd 2cbe a1ad a83e b778 7dbd c0a1 9abe
00000060: eae4 bb3d d92b 953e 4fa7 88bd d8ee e9be
00000070: dba9 e2bc 24df 013e ebff acbe 8e70 a9be
00000080: 2fb3 4cbd a497 7c3e 9653 b7bd df7d 9f3e
00000090: db32 afbd fe81 b1be 7249 c23e 00b3 c3be
000000a0: 9d96 6abe b35e 253e 31f9 e6bd a92b ebbc
000000b0: aa2f d63e 121a dfbe 2525 ccbe 906d a83d
000000c0: b6e2 7e3e 8a92 b03d ae41 6a3d 7106 513e
000000d0: dbc4 3c3e cb09 debe 3b70 2ebe 31e6 0f3f
000000e0: 678d fbbd a1c8 0bbd f73b d23d bbc4 8b3d
000000f0: 349d 1ebe d66e cfbe 4b37 a83e 87c9 ba3c
00000100: 6d91 55be fe38 ef3d d5e5 f43d dc3d 993e
00000110: bcef 9c3e 2ced 00bd 34c5 acbe e394 893e
00000120: 5c05 013f f7e3 a43d 5da5 98bb 4304 80bd
00000130: f790 18be 2b4e 4a3d 3adf 91be 4f2e 953e
00000140: 812b ac3e 6f7b 4c3e ad5a 95be 0262 b53e
00000150: 424e d9be bc92 85be 60d1 a5bd e4df ad3e
00000160: 02b8 46be 5202 e5bd 8139 3fbe d356 02be
00000170: 2f67 523c 3a7c 9fbd 4997 d4bd ea78 74bd
00000180: 4a6a b93e db96 ad3e 0b60 773e 2f8e 643e
00000190: 2530 84bd af8c df3c fdb8 92be c9de f3be
000001a0: aa16 123e 96d6 71be ffb9 14bf 8241 5f3e
000001b0: f320 4f3e a057 8e3e 0c20 ebbc c2a5 ff3e
000001c0: bc49 7fbe 91de 183e 1937 ce3b 2b67 92be
000001d0: 9416 873e c08f d73e 4dbe 323e 5318 72bc
000001e0: 9a0e 35be f816 adbe 0384 c93b 377f c5bd
000001f0: 5f66 a53b d4dc 92bd dcd0 0b3f 482b 17be
00000200: 3119 473e 2947 0fbe 332c 2c3e 31f6 923d
00000210: 8f19 65be 87aa 4f3e 1f13 35bd 715c 43bd
00000220: 266f afbe efc8 f2be 76d8 5e3e 210a 2fbe
00000230: b269 db3b 6f18 153e c008 3f3f 011c 6f3e
00000240: 2a64 18be a5a7 6fbd e50f ce3d 5e6a 063e
00000250: c936 c03d 81ad 483c 87e5 d43e 9564 0f3e
00000260: 9108 833e 87df 8e3e ba29 dc3e 249d 023e
00000270: 1b5b 9bbe 14af 55bd e5ae 73be 9bb4 8abe
00000280: 3efc 6dbe fb53 d6be 1772 9abe ce09 9dbe
00000290: 2811 75bc b2ea 793e 4fed 1ebe 6ce3 633e
000002a0: f9cc 76be 2f3c 4a3e dda4 bfbd 3abb fa3d
000002b0: aecc ee3d e1c8 4f3e 896b e33d b72e 21bd
000002c0: a663 d1be 0573 f0be 7274 683d 06f9 2d3d
000002d0: ff02 93be 284c b3be cdbc 1ebe a8e1 473e
000002e0: 361f 31be e447 08bf 34f1 6f3e 57b8 d3be
000002f0: 1506 aabd 6442 f5bd 31f6 d03e 8290 f33e
00000300: 8216 4cbe a532 a9be 2376 0d3f 462e ffbb
00000310: 82ba 683e caab e73e 68d0 78bd a10c 613e
00000320: 5cb9 c6bd 59f4 ceba 699f 5d3e 709a e5bd
00000330: b11f c1be beef 9abe 3101 af3d 3050 28be
00000340: 2254 0c3e ad14 28be cf45 8bbe 5c37 743b
00000350: a23e 6a3e 720a b5be 5035 d7bb 170b 113e
00000360: 4a7c 733e 849f aabe 2ec7 c1be 928b 5fbe
00000370: 7f88 983e d085 493e b0df 47bf 4b2b 373e
00000380: 4cc6 1a3e 1725 ea3e 303d 4d3d 2e4a 0cbe
00000390: c71e 39be abc7 b23d ac58 563d 3764 d5be
000003a0: bcd0 763e 34c5 553d 8c63 3f3e 6d0f b93e
000003b0: 3415 ad3d 59b2 b43d e511 f83e 1d2e 53bd
000003c0: b20a 92bb 88af b0be 6bb0 c43d 807a f7bd
000003d0: 05ba 843e 9d94 e63d 33f4 12bd 8987 9e3d
000003e0: cd45 cfbe df35 95bd 01b6 373e 690b 0b3e
000003f0: 8fb7 edbd c3e5 173f 2840 05bd a6aa d9bc
-0.026756093 -0.55180216 -0.16144618 0.20281799 -0.046650272 0.43325323 0.14247032 -0.011401779
-0.27074248 0.23537281 -0.04883628 0.28197432 0.45242292 0.43710586 0.028382568 -0.16104159
0.05589728 0.2721624 -0.22320388 0.24789174 -0.1686913 0.32944968 -0.0618827 -0.3020153
0.09174521 0.29135016 -0.066725366 -0.45690036 -0.027668884 0.12682778 -0.33789 -0.33093685
-0.04997557 0.24667221 -0.089514896 0.3115072 -0.08554622 -0.3466949 0.3794666 -0.38222504
-0.22909017 0.16149406 -0.11277998 -0.028707342 0.4183324 -0.43574578 -0.3987209 0.082240224
0.24891171 0.086217 0.057191543 0.20412613 0.1843447 -0.43366846 -0.17035 0.5621062
-0.1228283 -0.03412688 0.10265344 0.06824633 -0.15489656 -0.4051425 0.32854685 0.022801174
-0.20856257 0.11680792 0.119578995 0.29930007 0.30651653 -0.031476185 -0.33744204 0.26871404
0.503988 0.08051293 -0.0046583847 -0.06250813 -0.1489905 0.049390953 -0.2849062 0.29136893
0.3362694 0.19968961 -0.29170743 0.35426337 -0.42442518 -0.26088512 -0.08096576 0.33959877
-0.19406131 -0.11182083 -0.1867428 -0.12728433 0.012841984 -0.07787366 -0.10380418 -0.059685625
0.36213905 0.33904156 0.24157731 0.22319864 -0.06454495 0.027288763 -0.2865676 -0.4763091
0.14266458 -0.23617014 -0.5809631 0.21802333 0.20227413 0.27801228 -0.028701805 0.4993115
-0.24930471 0.14928652 0.0062931892 -0.28594336 0.26384413 0.4210186 0.17455406 -0.014776307
-0.17681351 -0.33806586 0.00614977 -0.09643405 0.005047604 -0.07171026 0.5461557 -0.14762604
0.19443204 -0.13991989 0.16813736 0.071758635 -0.22373031 0.20279895 -0.04420769 -0.04769558
-0.34264487 -0.47418925 0.21762261 -0.17093708 0.0066959495 0.14560102 0.74622726 0.23350526
-0.1488196 -0.058509488 0.100616254 0.13126513 0.093854494 0.012248398 0.41581365 0.14003213
0.25592473 0.27904913 0.43000585 0.12755257 -0.30342945 -0.05216892 -0.23797186 -0.27090916
-0.23240754 -0.41860947 -0.3016517 -0.30671543 -0.014957704 0.24405935 -0.15520214 0.22254723
-0.24101628 0.1974952 -0.09357617 0.12242742 0.11660133 0.20291473 0.11104495 -0.03935119
-0.40896338 -0.46962753 0.056751676 0.042473815 -0.28713223 -0.3501904 -0.1550171 0.19519675
-0.17297062 -0.53234696 0.23431855 -0.41351578 -0.08301941 -0.11975554 0.4081283 0.47571188
-0.19930461 -0.3304645 0.5525839 -0.0077874986 0.22727397 0.45248252 -0.060745627 0.21977474
-0.09703323 -0.0015789374 0.21642841 -0.11211097 -0.3771949 -0.30261034 0.08545149 -0.16436839
0.13703969 -0.16414137 -0.27201697 0.0037264442 0.22875455 -0.35359532 -0.0065676346 0.14164387
0.23777881 -0.33324826 -0.37847275 -0.21830586 0.29791638 0.19679952 -0.78075695 0.17887609
0.15114707 0.45731422 0.05010718 -0.13700172 -0.18078147 0.0872949 0.052330658 -0.4167802
0.24103063 0.05219002 0.18690318 0.3614458 0.0845131 0.088230796 0.48451152 -0.05155765
-0.0044568414 -0.3450892 0.096039616 -0.12083912 0.25923172 0.112588145 -0.035877418 0.07740695
-0.4048294 -0.07285666 0.17940523 0.13578571 -0.11607277 0.59334964 -0.032531887 -0.02657063

mean_net.4.bias f4 [4]
00000000: 1b77 d2bd cce7 093c 3d47 603c 69a8 6c3d
-0.10276624 0.008417081 0.0136888595 0.057777796
