test_uav/model/critic_model12-10-2023_11-19-48/150.pt (torch, 77879 bytes, 5 tensors)

critic_network.0.weight f4 [128, 17]
000000 f6 49 33 be d0 77 8a bf f8 c0 b1 be 71 e1 0e 3f
       -0.17508683 -1.0817814 -0.34717536 0.55812746
000010 bb 0e 63 bf a9 bd 22 bd de c4 65 3e d2 51 9c 3e
       -0.8869435 -0.039731655 0.2243838 0.30531174
000020 81 1b 4d 3e 9e 24 f5 be 4c 76 f4 3f 31 de 10 40
       0.20030023 -0.478795 1.9098601 2.2635615
000030 82 95 e7 3e e7 85 14 bd c7 24 09 bc 34 8d b6 b9
       0.45231253 -0.03626051 -0.008370585 -0.0003481895
000040 0b e9 55 bd b9 e1 82 3d 82 78 03 3e bd 97 40 3e
       -0.0522242 0.063907094 0.12838939 0.18807884
000050 76 dc 09 be 96 ab 51 be 88 d9 18 bf bd 73 de bd
       -0.13463005 -0.20475611 -0.59706926 -0.10861919
000060 ff 8e 2c be e1 8f af bd ac 67 11 3f 65 5a a7 bf
       -0.16851424 -0.085723646 0.56798816 -1.3074461
000070 c3 de 29 3e 7e 66 d5 3e 9d fe a4 bc 5b 24 51 bd
       0.16588883 0.41679758 -0.02014094 -0.051060062
000080 ec ec 80 bd b9 b4 3e 3d b7 b0 fb 3e e7 80 c6 be
       -0.06295189 0.04655907 0.4915826 -0.3877022
000090 08 6b 1b 3f 20 f5 7b 3e 70 9b d8 bd c0 88 06 be
       0.6071019 0.24605227 -0.10576522 -0.13138103
0000a0 20 f3 8c 3d 01 21 3b 3e 34 bf 3e bd 00 5c 28 bf
       0.0688231 0.18274309 -0.046569064 -0.6576538
0000b0 d5 54 13 be 84 54 b9 3f 82 b8 90 3e 2c bf 76 bc
       -0.1438783 1.4478917 0.28265768 -0.015060227
0000c0 fe 74 66 3c 88 34 a1 3c a5 c8 95 3c fd cf c1 3d
       0.014065979 0.01967837 0.018284151 0.09463499
0000d0 40 01 04 be 63 86 1a bf 3e a2 81 3e bb 6c 0c bf
       -0.12891102 -0.6036131 0.25319093 -0.5485341
0000e0 86 89 0a 3d 14 88 2c bf 38 6b 13 bf 3a c6 6c 3e
       0.03382256 -0.6739514 -0.5758548 0.23122492
0000f0 b2 e4 c6 bf 8c ab 2e bf 83 77 34 3f ed 80 03 bf
       -1.5538542 -0.6823051 0.7049486 -0.513686
000100 23 ce 96 be e6 22 ee be f6 9f 64 bf 1a 46 c1 3d
       -0.29454145 -0.46511 -0.8930658 0.09437199
000110 e1 68 bc bf cb 37 c9 3e 28 f1 96 3e 1e c0 c3 be
       -1.4719507 0.3930038 0.29480863 -0.3823251
000120 d7 53 26 3f 62 1a b1 bd df 75 8d bc 54 99 c5 3d
       0.6497168 -0.0864761 -0.01726812 0.09648386
000130 83 7d 7b bd 55 55 b8 be d5 f7 c8 3e aa ae e6 bf
       -0.061398994 -0.36002603 0.3925158 -1.8022053
000140 eb c3 6b be a7 1d 9d ba ca 9e da 3c 40 ab 05 3d
       -0.23023956 -0.0011986987 0.026687045 0.03263402
000150 18 d3 e3 3c c5 11 6a 3e a4 0d 8d be 92 60 87 3f
       0.027810618 0.22858341 -0.2754947 1.0576346
000160 5b 71 ff be 49 bb 3d bd ea b2 4e be 7a 54 f4 be
       -0.4989117 -0.046321187 -0.20185438 -0.477207
000170 e5 ed 98 3e 1a 7e cd 3e 69 6e 9e 3f f6 59 20 3f
       0.29869 0.4013527 1.2377445 0.6263727
000180 c9 45 50 3b 90 1c 9f 3f 90 29 0f 3e 85 90 71 3e
       0.0031779876 1.2430592 0.13980699 0.23590286
000190 5c a1 b7 3e 77 62 40 3f bc 20 ff 3d 70 7b d1 3c
       0.35865295 0.75150245 0.124574155 0.025571555
0001a0 92 5a 9b bd dc 3a 8a be 10 98 f8 3d 7a b3 a6 3d
       -0.07585634 -0.2699803 0.121383786 0.08139701
0001b0 89 4e 2e bc 3a a4 52 bd db 5b 87 be 11 39 ff be
       -0.010638841 -0.05142615 -0.26437268 -0.49848226
0001c0 18 39 18 bf fa 3c 0e bf e9 c8 76 be 61 87 85 3d
       -0.5946212 -0.5556179 -0.24100079 0.06519962
0001d0 9c ae b1 3d d5 26 f5 3c 96 1f 05 3e 6f 7e a8 3e
       0.08675882 0.029925743 0.1300033 0.3290896
0001e0 ca 9e 20 3d 3f 2b 6e 3e a9 e2 85 bf 79 12 38 3f
       0.039213933 0.23258685 -1.0459796 0.7190319
0001f0 be b1 ec 3e 5d 20 63 bd 89 75 e9 3e af 2d ad bf
       0.46229357 -0.055450786 0.45597485 -1.3529567
000200 d3 c8 be 3f 7a 5f 45 3f 9d 2a 57 be 37 06 40 bf
       1.4905037 0.7709881 -0.2101235 -0.75009483
000210 4a c9 d6 3b bb 0d 11 3e 79 90 62 3e 7d 5a 36 3e
       0.0065547572 0.14165394 0.22125424 0.17807956
000220 24 bd ec 3e 73 75 e7 3e 65 30 81 3c ec b9 c8 3d
       0.46238053 0.45206794 0.015770147 0.09801087
000230 6b a0 12 3f a3 85 69 3f 75 20 7d 3d 20 90 1b 3e
       0.5727603 0.9121954 0.06179853 0.15191698
000240 fc b7 08 be d1 8c e0 bf d1 f3 e6 3d fe 02 f1 be
       -0.13351434 -1.7542974 0.11276973 -0.47072595
000250 cf 5c 4d 3d da 8c ad 3d 25 cd 02 3e a2 34 2a be
       0.050137337 0.08474131 0.12773569 -0.1662164
000260 a1 7d be be ec 3b 65 3e 84 f5 2a 3f ea 8e 0d bf
       -0.37205222 0.2238614 0.6678088 -0.55296195
000270 aa 11 4a bf 4e ae 08 3f 29 28 75 3f 36 14 1c bc
       -0.78933203 0.5339097 0.95764405 -0.009526303
000280 98 65 c3 be 64 03 33 3e a0 d5 f9 bf 1a 78 d4 bc
       -0.38163447 0.17481762 -1.9518318 -0.025936175
000290 46 64 24 c0 01 5e 79 3f 24 77 7d be ae d6 03 bd
       -2.5686202 0.97409064 -0.2475248 -0.032187156
0002a0 1b ac eb be 37 6b 08 bf 6c 72 91 be 44 fe e8 bf
       -0.46029744 -0.53288597 -0.2840761 -1.8202596
0002b0 46 a2 b1 bb 8b d1 e9 be 16 89 14 3e b0 b5 0b bd
       -0.005420956 -0.4566768 0.14505419 -0.034108818
0002c0 bd 43 5c 3e 37 74 d9 3b 06 3c cd 3e e5 de 87 bd
       0.21510215 0.0066361683 0.40084857 -0.06634311
0002d0 0d 77 74 3f 43 fa f0 3f 6e 69 18 bf 6d 79 c4 3b
       0.9549416 1.8826374 -0.5953587 0.0059959204
0002e0 3d 70 f2 ba 22 e1 69 3d 2f 08 1c bd 00 1b c0 be
       -0.0018496584 0.05709947 -0.038093742 -0.375206
0002f0 c8 10 03 3e 08 11 2b bf ac d4 27 be 37 b8 b6 3c
       0.1279937 -0.6682286 -0.16389722 0.022304637
000300 bb 7e 34 3e 9c bc 90 3e be 90 fe 3d 11 52 8a 3e
       0.17626469 0.28268898 0.12429951 0.27015737
000310 30 c8 37 c0 ed 0a 21 bf c4 5a be 3e a4 11 0d bb
       -2.8715935 -0.62907296 0.37178624 -0.0021525407
000320 b6 37 08 bf 36 98 09 bf 71 46 f9 be d4 65 48 bf
       -0.5321001 -0.5374788 -0.48686555 -0.7828038
000330 a4 6a 16 be d1 d5 b2 3e db fc 07 bf b8 55 36 3e
       -0.14689118 0.34928754 -0.531202 0.17806137
000340 f6 89 1b 3f 7c dc 75 bf 4f 89 6c be b5 02 88 3d
       0.60757387 -0.9603956 -0.23099254 0.06641141
000350 ed 7d d8 3b f6 76 6b bf d7 de 43 c0 29 a0 32 3f
       0.0066068084 -0.91978395 -3.060476 0.69775635
000360 4b 74 ae 3e ca 71 1d bf d6 fa 23 bf 57 15 03 bf
       0.340731 -0.61501753 -0.6405462 -0.51204437
000370 22 cf c0 be 41 d2 57 bd af 6f 07 3f 35 f0 92 3e
       -0.3765803 -0.052690748 0.5290479 0.28698888
000380 11 d1 58 3d de f8 b2 bd 82 6e 04 3e 23 42 81 3e
       0.052933756 -0.08738874 0.1293278 0.2524577
000390 7e 3b 23 3d 69 e7 2f bf b2 ec 3a 3f 3d 84 06 40
       0.039851658 -0.6871248 0.7301742 2.1018212
0003a0 52 d0 a2 3e a3 72 01 bf 69 26 47 bc 2a 99 08 3e
       0.3179956 -0.50565547 -0.012155154 0.13339677
0003b0 9e 6b 82 3d 8f 2a 92 bc d5 a8 0a 40 32 e4 ea be
       0.063681826 -0.01784256 2.1665547 -0.45877224
0003c0 18 fa af be b9 ab db be 84 07 04 bf d7 f6 21 bf
       -0.34370494 -0.4290445 -0.5157397 -0.6326727
0003d0 74 98 97 be 11 a0 a7 bd de 14 72 3e b5 60 0f 3f
       -0.296085 -0.08184827 0.23640773 0.5600694
0003e0 cd 8f 52 3f 39 89 50 c0 0d 9e 06 be c5 57 91 3d
       0.8225067 -3.2583754 -0.13146229 0.07096819
0003f0 f1 74 08 3d f7 9e 2d 3c cb 9e 71 3d a4 45 95 be
       0.03331465 0.010596982 0.058989327 -0.29154694

critic_network.0.bias f4 [128]
000000 da af 8d bf 5e ec c1 3f 4f 65 e2 bf 16 2e a9 bf
       -1.1069291 1.5150259 -1.7687167 -1.3217189
000010 ae 1e ac bf a0 2d b1 3f e2 53 a6 bf 09 5f 8b 3f
       -1.3446863 1.3842049 -1.2994349 1.0888377
000020 a5 af cf bf 8d b1 91 bf 42 d6 3e be 8d be 05 c0
       -1.6225477 -1.1382309 -0.1863642 -2.0897553
000030 ba 92 d1 be 6b 33 61 3f fd f8 89 bf ed 17 27 bf
       -0.40932256 0.8796908 -1.077911 -0.6527088
000040 df 52 96 bd ea 09 88 bf 60 75 03 be d8 8a bc be
       -0.07340025 -1.0628026 -0.12837744 -0.3682468
000050 0b fd d3 3f ce 10 eb 3f cf 6a 82 bf b8 35 3e bf
       1.6561598 1.8364503 -1.0188845 -0.7430072
000060 20 fb 1d bd 6a a9 ed bf 8e 88 87 bf 7f 9c 7a be
       -0.03856957 -1.8567326 -1.0588548 -0.24473761
000070 1b 69 33 be 3e 77 93 3f d6 43 af 3f a4 b2 5f bf
       -0.17520563 1.1520765 1.3692577 -0.8738196
000080 b4 e5 28 3f 1d d0 38 bf 81 27 3d bf d4 98 e6 bc
       0.659755 -0.72192556 -0.73888403 -0.028149046
000090 90 fb 6b bf 22 7f 63 bf ba 14 26 bf 0b f7 f4 3d
       -0.9218073 -0.88865864 -0.64875376 0.11961182
0000a0 f5 38 42 3f c6 43 9e bb 6d b7 00 40 48 52 9d 3f
       0.7586816 -0.0048298566 2.0111954 1.2290735
0000b0 07 01 ea 3f 6a 7e ad 3f cc e7 c4 bf 1b 9b 83 bf
       1.8281564 1.3554204 -1.5383239 -1.028171
0000c0 92 44 8b 3f 6e 0a 46 be 8c 61 75 3d 2d ba 32 bf
       1.0880301 -0.19339916 0.05990748 -0.6981533
0000d0 e1 ed 77 bd a6 3d 9b bf 70 8d a9 3f 11 a3 a0 3f
       -0.060529593 -1.2128189 1.3246288 1.2549764
0000e0 57 0d 74 3e e8 9a 72 bf 18 9d 9b 3f df d6 5e 3f
       0.23833214 -0.9476762 1.2157316 0.8704662
0000f0 0f 20 bc 3f d0 c5 51 3f fb 4e ed 3d 5b 90 e3 be
       1.4697284 0.8194246 0.1158733 -0.44446072
000100 42 f8 9c bf fe 8e 85 3f fc e4 96 bf 35 b5 a5 3f
       -1.2263262 1.0434263 -1.178863 1.2945925
000110 30 1e 7e 3f 4c 27 de bf e5 2d d0 3f f5 b2 25 3f
       0.9926481 -1.7355742 1.6264006 0.6472619
000120 a7 84 9b 3f 05 d7 65 bf ba 78 60 3d 77 d1 78 3f
       1.2149857 -0.8978122 0.054802634 0.9719462
000130 c6 47 5e bf d1 83 a0 be a7 42 83 bf 31 77 81 bf
       -0.8682827 -0.31350568 -1.0254716 -1.0114499
000140 68 51 26 3f d7 cd cd 3e ff 20 12 bf 99 c6 a0 3f
       0.64967966 0.40196106 -0.570816 1.2560607
000150 ca 7d 87 3d 13 3b f8 3e c3 ef f5 3e ef 8a ac 3f
       0.06615789 0.4848257 0.48034486 1.3479899
000160 90 4f 51 3e 02 b1 c2 bf 36 1c d6 3e 12 09 20 3f
       0.20440507 -1.5210268 0.41818398 0.6251384
000170 2b b6 fc 3d a0 ab 8d 3f 93 cb 21 be 16 7d 35 3f
       0.12339433 1.1068001 -0.15800314 0.7089399
000180 90 f3 13 bf 51 7b bb be f6 00 c6 3f 49 a7 ff be
       -0.5779352 -0.3661752 1.5469043 -0.49932316
000190 8c ed ce bf b2 1e 2f bf 3d 2a f9 bd a6 c2 d8 be
       -1.6166244 -0.6840621 -0.121662594 -0.42336005
0001a0 5f 4f 8a 3f c2 7c e3 be 5d 28 a6 3d 11 96 a7 be
       1.0805472 -0.4443112 0.081131674 -0.3273168
0001b0 93 99 41 bf b3 a4 c9 3e 3e 03 fa bf e4 ff e8 3f
       -0.7562496 0.39383468 -1.953224 1.8203092
0001c0 7c af 9c bf f4 33 39 be 46 c8 a0 3f f9 da 4c 3f
       -1.2241054 -0.18086225 1.2561119 0.80021626
0001d0 d7 d1 05 3f 31 6e 0d 3f c7 c4 82 bf 4b 13 a3 bf
       0.52273315 0.55246264 -1.0216302 -1.2740263
0001e0 95 f7 93 3e 9a f6 24 3f 5e ef 99 bf 32 92 34 bf
       0.28899828 0.64438784 -1.2026174 -0.70535576
0001f0 82 b1 76 bf 55 f7 95 3e b9 b4 e4 bd 15 65 0e c0
       -0.96364605 0.29290262 -0.111672826 -2.2249196

critic_network.2.weight f4 [128, 128]
000000 b2 f7 b2 bd c3 64 30 3f e0 90 c2 3f 35 b8 b2 bf
       -0.087386504 0.6890375 1.5200462 -1.3962466
000010 b7 c6 b0 3f db 6b a6 3f 8a 84 b2 bf c4 fe 4e 3f
       1.3810643 1.3001665 -1.3946698 0.8085749
000020 0e f3 4c be 06 64 03 bf cb cb 9e 3f 69 95 8f bf
       -0.20014593 -0.513245 1.2405943 -1.1217471
000030 18 47 6c 3d f4 ce 8f bf 47 d6 b3 3d c0 f4 03 c0
       0.057684988 -1.1235032 0.087811045 -2.0618134
000040 0f 34 a8 3f dd 52 be 3e b1 ae d6 3e aa 3e b8 3f
       1.3140887 0.37172595 0.41930154 1.4394124
000050 f7 66 fc bf 24 3e c4 bf d0 2a 3a 3f 4c eb c5 be
       -1.9718922 -1.5331464 0.72721577 -0.3865608
000060 5f 31 3f 3f 78 a6 9b bf 7d d8 40 bf 72 5b 1e 3f
       0.7468471 -1.2160177 -0.75330335 0.61858284
000070 d7 8d 0b 3f 8e cf d8 be a9 85 9e bf 76 be 02 40
       0.54513305 -0.42345852 -1.238454 2.0428748
000080 d1 cf 96 bf 17 dd 11 3f 4c 0a 3d 3e 33 c5 66 3f
       -1.178217 0.5697798 0.18460959 0.9014465
000090 45 bc 69 bf 3a 29 7a bf 82 76 36 3f 14 ac cd be
       -0.913029 -0.97719157 0.7127458 -0.40170348
0000a0 a3 f5 32 be 2d 26 85 3e 05 5a 54 3f f6 f2 2c c0
       -0.17476515 0.26005688 0.8294986 -2.7023292
0000b0 df 91 9f 3f 58 c9 0d 3f 8c 53 25 40 08 54 6e 3f
       1.2466391 0.5538535 2.5832243 0.9309697
0000c0 9f 95 d1 bf 7e cc 30 3f 8d 2b 16 bf 43 10 ef 3f
       -1.6373786 0.6906203 -0.58660203 1.8676838
0000d0 e7 03 62 bd 10 49 9b 3f 41 95 36 bf 68 38 b5 bf
       -0.055179503 1.2131672 -0.71321493 -1.4157839
0000e0 45 88 d8 3e 48 cc 8d 3f a3 8c 1f bf 64 b0 94 bf
       0.42291465 1.1077967 -0.6232397 -1.161633
0000f0 a7 2d ce 3e a9 b3 5c bf 59 37 02 3d 00 a1 36 3f
       0.40269205 -0.8621164 0.031791065 0.71339417
000100 10 65 92 3f c3 4e 1e bf b0 e0 8c 3f e6 e5 c9 3f
       1.1437092 -0.6183893 1.1006069 1.5773284
000110 eb d4 1b c0 7e c1 fd be 15 b2 9a 3f 94 5e d4 3f
       -2.4348705 -0.49561685 1.2085596 1.6591363
000120 30 a9 5f bf 64 f9 9d 3f f0 91 c1 3f f8 b2 b2 bf
       -0.87367535 1.2341733 1.5122662 -1.3960867
000130 10 7e 94 3f 0c af 91 be 1a 34 08 3e e5 62 b4 bf
       1.1600971 -0.28453863 0.13301125 -1.409268
000140 56 8d 9c bf 8a d1 be 3e 72 07 6e 3f a8 1b f2 bf
       -1.2230632 0.3726924 0.9298011 -1.891469
000150 38 52 95 3f 6f ef 2e 3f 5c d4 97 be f2 6d 1d bf
       1.1665716 0.68334097 -0.29654205 -0.6149589
000160 5e 9e 10 c0 d6 c5 09 3f 2f ce 8f 3e 40 c8 3f 3d
       -2.259666 0.538175 0.28086993 0.046821833
000170 84 e3 38 bf 3a 5c aa bf e8 ab f6 be 35 c1 76 bf
       -0.7222216 -1.3309395 -0.4817803 -0.9638856
000180 84 b6 00 bf cd 42 7b 3e 64 1f 91 3f 8e ee 7e 3d
       -0.50278497 0.24537201 1.1337705 0.062239222
000190 fd c4 b3 bf 51 3d 9e 3e 5a 2c 8f bf 2f 28 c8 be
       -1.4044491 0.30906156 -1.118541 -0.39093158
0001a0 78 ed 27 3e 39 f3 ab 3e e3 f0 e9 be c8 c3 4c bf
       0.16399181 0.33584002 -0.45691594 -0.7998624
0001b0 f6 00 7e 3e 96 23 c4 3d 57 25 10 40 85 75 af 3f
       0.24805054 0.095771 2.252279 1.3707739
0001c0 ef f4 6d 3f a6 f8 42 3e bb 55 8d bf e8 f4 7a 3e
       0.92951864 0.19040164 -1.1041788 0.24507487
0001d0 7d 54 16 bf 8e ff 38 bf 47 07 9e 3e c9 8d d1 3e
       -0.5872267 -0.72264946 0.30864927 0.40928486
0001e0 df cc 53 bf f8 da 51 bf 6e 32 50 bf af 56 8d bc
       -0.82734483 -0.81974745 -0.8132695 -0.017253248
0001f0 d7 02 f1 bd c8 cb 1d 3e 1e 15 03 3f b3 61 80 bf
       -0.1176812 0.15409768 0.512041 -1.0029815
000200 cb ae 8e 3e 8a b3 e9 bf e0 93 4f c0 76 fd bf 3f
       0.2786773 -1.8257916 -3.2434006 1.4999225
000210 a5 31 8c bf 47 90 b0 bf 80 1e 2d bf 01 12 28 bf
       -1.095265 -1.379403 -0.67624664 -0.6565247
000220 a4 17 c6 3e 24 cd 69 bf 18 47 17 bf fb e1 9c 3f
       0.3868991 -0.91328645 -0.59092855 1.2256464
000230 8a 93 63 bf 8e bf 73 3f 5c fc 7b 3e fd 4b 20 3f
       -0.88897 0.95214164 0.24607986 0.6261595
000240 eb 3e 5e bf 51 2e 5c bf 90 9c 01 be ce 15 85 bf
       -0.86814755 -0.86008173 -0.1265738 -1.0397279
000250 22 0b bd 3f 38 e3 8a 3f 1d bf 24 bf 7a f5 6a 3f
       1.4769022 1.0850592 -0.64354116 0.9178082
000260 d9 77 ac be e2 97 cc 3e 4e d6 8a 3e dd 64 e9 bf
       -0.33685187 0.39959627 0.27116627 -1.8233906
000270 9b f5 fb bc 16 73 dc 3f 1b cb ac 3f 14 78 bb be
       -0.030756762 1.7222621 1.3499483 -0.3661505
000280 7a 93 3a 3f 3d 75 fe be 7f 3e 45 bd 07 59 d2 be
       0.7288128 -0.4969882 -0.048155304 -0.41083547
000290 97 ec b4 3f 62 fe 45 3f 1f e4 06 3f 92 12 59 bd
       1.4134701 0.7734128 0.52691835 -0.052996226
0002a0 cf b3 68 bf 22 d8 1a 3e 76 b8 0c bf d2 28 27 40
       -0.90899366 0.1512151 -0.54968965 2.6118665
0002b0 d0 f3 b3 bf 60 81 a7 3e 7c 55 d8 bf 3d 6e 0d 3f
       -1.4058781 0.32715893 -1.6901088 0.55246335
0002c0 ab 3a 48 40 4c ea 87 3e bb 6f d0 3f e9 26 42 bf
       3.1285808 0.26545942 1.6284097 -0.7584062
0002d0 d4 a2 39 3f 6d 81 e9 bf 0d b8 99 3d 5d 0a 0a bf
       0.7251408 -1.8242623 0.07505808 -0.53922063
0002e0 c9 27 97 be a0 92 fb bc 5e f8 4a 3f 37 0e 3e 40
       -0.2952254 -0.030709565 0.7928523 2.9696176
0002f0 72 30 63 3e 27 58 1c bf 21 67 4e 3e 00 28 9d bf
       0.22186449 -0.6107201 0.20156528 -1.2277832
000300 c3 01 d4 bf 62 c5 8a 3d 6a 65 a5 bf 23 31 9a bf
       -1.6563038 0.06775929 -1.2921574 -1.2046245
000310 e6 56 05 3e 45 f7 13 3e 5b 5c 88 bf b4 1d f1 bd
       0.1302143 0.14449795 -1.0653185 -0.117732435
000320 d9 dd 47 be 82 c2 44 bf 1e d5 5d bf 45 97 3f bf
       -0.19518222 -0.76859295 -0.86653316 -0.74840194
000330 92 2e 45 bf 52 a8 73 3f 2e 36 e3 be de d3 95 3e
       -0.77024186 0.9517871 -0.44377273 0.29263204
000340 bf 5f fd 3e 6b 12 89 bf 55 ee f5 be b2 5a db 3e
       0.4948711 -1.0708746 -0.48033395 0.42842633
000350 a0 61 ea be ce 11 8a bc bf 4e 56 3f d3 d1 ab 3e
       -0.45777607 -0.016854193 0.83713907 0.3355852
000360 f7 d0 86 be 76 4c bb bf 7a c7 9c bf 6d d9 35 be
       -0.26331303 -1.4632709 -1.2248375 -0.17758723
000370 b8 46 f7 be 5f 8a 69 3e 0e 26 62 be d3 5e c0 be
       -0.48296142 0.2280669 -0.22084829 -0.37572345
000380 d9 66 6b bf 80 5f 2a 3d c2 ee 9b bf 87 ba f4 3e
       -0.9195381 0.041594982 -1.2182238 0.4779856
000390 44 14 c8 be 78 02 ba be aa 6b 8c 3f 73 79 53 3f
       -0.3907796 -0.36330009 1.0970356 0.8260719
0003a0 ce e1 dd 3d 2d 0f 4e bf 68 41 af 3f 3f 15 3e be
       0.108340845 -0.80491906 1.3691835 -0.18562792
0003b0 fa 6b 4a 3f ff d2 90 bf 49 16 11 c0 9e d5 cc bf
       0.7907101 -1.1314391 -2.2669852 -1.6002691
0003c0 13 f4 ba bf 99 3a 48 bf 24 ba ab 3f 7a ca 76 3e
       -1.4605736 -0.7821441 1.3416181 0.24100676
0003d0 57 9c 96 3c 41 1c 1b 3f a7 ff 49 3d 76 5f 29 3f
       0.018385096 0.6058999 0.049316075 0.66161287
0003e0 92 0d 04 be 71 87 40 bf b2 16 11 3f e1 21 bf 3f
       -0.12895802 -0.7520667 0.56675255 1.4932214
0003f0 bc df d3 bd c5 80 9d 3f 81 0a d6 be 08 46 3d 3f
       -0.10345408 1.2304922 -0.4180489 0.73934984

critic_network.2.bias f4 [128]
000000 da 89 8a 3f 13 87 8a bf 86 8b e5 bf 09 64 a6 3f
       1.0823319 -1.0822471 -1.7933204 1.2999278
000010 ad 4f b3 bf 0a 47 b6 bf 8f 11 d1 3f f8 41 b5 bf
       -1.400869 -1.4240429 1.6333483 -1.4160757
000020 45 46 ea bf 9b b9 90 bf c7 84 a6 3f 87 75 bd 3f
       -1.8302695 -1.1306642 1.300927 1.4801491
000030 b4 e2 c2 bf cb f2 c2 3f 55 c9 90 3f 8d a2 a3 3f
       -1.5225434 1.5230345 1.1311442 1.2783982
000040 a8 95 b1 bf 96 5e 8e 3f 30 2e 87 bf 72 c3 9c bf
       -1.3873796 1.1122615 -1.056097 -1.2247145
000050 ae de 87 3f 97 ef 84 3f 7c b4 77 bf 29 3d 88 bf
       1.0614831 1.0385617 -0.9675977 -1.0643665
000060 cc 2d b3 3f 1f a3 af bf 15 1d 7d bf 1a 63 cf bf
       1.3998351 -1.3721656 -0.988725 -1.6202118
000070 dd b6 7d bf d3 a3 9e 3f 45 e6 8c 3f 15 69 ae bf
       -0.9910715 1.2393745 1.1007773 -1.3625818
000080 de 2b dc 3f 26 63 a9 bf 37 0e e6 bf 4a c9 d5 bf
       1.7200887 -1.3233383 -1.7973088 -1.6702054
000090 95 c7 c1 3f d2 ca bf 3f 63 02 87 3f 61 4a ac bf
       1.5139033 1.4983771 1.0547603 -1.3460199
0000a0 73 f2 d3 bf 68 56 bb bf 07 3c 8d 3f 3e fc a7 bf
       -1.6558365 -1.4635744 1.1033944 -1.3123853
0000b0 82 f1 72 3f c5 02 ad 3f dd ac dd 3f 3f 2a ac 3f
       0.9489976 1.351647 1.7318379 1.3450392
0000c0 ff 6b b7 3f 9f 7d 9a bf 06 67 a7 3f b9 75 af 3f
       1.4329833 -1.2069587 1.3078315 1.3707801
0000d0 53 c1 a3 3f de 70 b3 3f c8 46 c8 3f 24 65 ab bf
       1.2793373 1.4018819 1.5646601 -1.3390241
0000e0 51 1e e2 bf 2b 43 89 3f e7 de c6 bf 4c 57 ba bf
       -1.7665502 1.0723623 -1.5536774 -1.4557891
0000f0 78 eb bd 3f 92 ea c9 3f 5f 88 d1 3f 86 a8 b6 bf
       1.4837484 1.577471 1.6369742 -1.4270179
000100 a8 71 ad bf bc 4e a9 3f 79 54 d0 3f 51 a9 a3 bf
       -1.355031 1.3227153 1.6275779 -1.2786046
000110 bf 3c c5 3f 00 f4 06 40 d1 cd 83 bf 0e 62 c9 bf
       1.5409163 2.1086426 -1.0297185 -1.5733049
000120 e5 f8 e8 3f 16 ff a0 bf e8 ad 90 bf 6a 02 9c 3f
       1.8200957 -1.2577846 -1.1303072 1.2188237
000130 a8 89 a4 3f dd cf 84 bf 05 84 d6 3f 55 a2 b7 bf
       1.2854509 -1.0375935 1.6759039 -1.4346415
000140 ce 38 b9 bf 7c 8d 83 bf 5f d1 ac bf 44 a3 d8 bf
       -1.447046 -1.0277553 -1.3501395 -1.6924825
000150 b5 d7 c0 bf 29 09 9a 3f cd f1 be bf 15 b4 bc 3f
       -1.5065829 1.2034045 -1.4917542 1.4742457
000160 7c 4a a8 3f 7e bd a8 bf 4d d5 b1 3f d4 fa af 3f
       1.3147731 -1.3182828 1.3893219 1.3748422
000170 3c 96 c9 bf b3 03 9f bf 66 14 ef bf 20 88 b8 bf
       -1.5748973 -1.2423004 -1.86781 -1.4416542
000180 b6 62 b0 3f a2 9c 8a bf cd df d0 bf 78 3a d9 bf
       1.3780124 -1.082905 -1.6318299 -1.6970968
000190 e5 37 95 3f 86 02 a3 bf 27 b6 72 3f 2e 13 92 3f
       1.1657683 -1.2735145 0.9480919 1.1412103
0001a0 97 65 ec bf f0 3d c4 bf da 79 df bf c1 f6 67 bf
       -1.8468503 -1.5331402 -1.7459061 -0.9061089
0001b0 f9 d5 90 bf 70 4b ca 3f 49 bf 95 3f 6a ed 8d bf
       -1.1315299 1.5804272 1.1699001 -1.1088078
0001c0 c8 e5 bb 3f 43 f2 b6 bf 1c 41 89 bf bb e6 a3 3f
       1.4679499 -1.4292682 -1.0722995 1.2804788
0001d0 2a f2 b1 bf 43 90 be 3f 38 97 6f 3f e8 95 bc 3f
       -1.3902028 1.4887775 0.93590117 1.4733248
0001e0 82 ed 90 bf 32 f4 de 3f 83 02 e1 bf 27 61 ab 3f
       -1.1322482 1.7418272 -1.7578892 1.3389024
0001f0 56 97 b1 3f 5a 50 a0 3f bf c1 9e bf 5c f1 aa bf
       1.3874309 1.2524521 -1.2402877 -1.3354907

critic_network.4.weight f4 [1, 128]
000000 2b 16 4d c2 80 22 5e 42 24 7d 51 42 c9 6b 53 c2
       -51.27165 55.53369 52.372208 -52.85526
000010 ee f7 59 42 d9 da 50 42 f0 e7 51 c2 34 5c 4e 42
       54.49212 52.21372 -52.4765 51.590042
000020 9f a8 47 42 56 0e 4a 42 a2 a7 5c c2 ac 09 59 c2
       49.91467 50.514 -55.163704 -54.259445
000030 47 60 4b 42 2b 6f 5c c2 63 aa 46 c2 cf 83 52 c2
       50.84402 -55.108562 -49.666393 -52.62872
000040 e5 4a 50 42 ff 90 66 c2 11 13 49 42 b1 de 5a 42
       52.07314 -57.641598 50.26862 54.717472
000050 1f 4a 53 c2 5b c2 3d c2 c6 59 4e 42 23 12 47 42
       -52.822384 -47.4398 51.58767 49.76771
000060 5c bf 4f c2 4c a7 4d 42 42 e2 4e 42 e1 7d 80 42
       -51.936874 51.413376 51.720955 64.24586
000070 5f c8 59 42 e6 61 4d c2 9a 0e 57 c2 0b 96 4a 42
       54.445675 -51.345604 -53.76426 50.646526
000080 22 33 5d c2 b1 14 4c 42 2f 3b 5d 42 20 e7 58 42
       -55.299934 51.020206 55.307796 54.225708
000090 7e 56 51 c2 44 56 54 c2 1b e7 4d c2 1b d2 62 42
       -52.334465 -53.084244 -51.47569 56.70518
0000a0 4d 0b 5f 42 a3 1d 4b 42 2b 9c 49 c2 26 31 47 42
       55.761036 50.778942 -50.402508 49.797997
0000b0 0b 60 41 c2 1f be 3b c2 26 b9 4f c2 44 06 54 c2
       -48.343792 -46.935665 -51.93081 -53.00612
0000c0 d9 00 4c c2 54 f2 57 42 5c 1b 50 c2 1f 7a 45 c2
       -51.000828 53.98665 -52.02672 -49.36926
0000d0 15 fe 68 c2 45 7a 56 c2 bc 60 4a c2 ca 9c 51 42
       -58.248127 -53.619404 -50.594467 52.403114
0000e0 0a d2 57 42 0e 05 5c c2 9a 9a 4a 42 17 a5 51 42
       53.955116 -55.004936 50.650978 52.41122
0000f0 da 3a 4d c2 fd 8a 59 c2 f5 b3 52 c2 48 aa 4e 42
       -51.307472 -54.38573 -52.67574 51.66629
000100 14 f1 54 42 96 3a 4e c2 55 78 5d c2 7d 51 4e 42
       53.235428 -51.557213 -55.36751 51.57958
000110 10 16 60 c2 32 93 60 c2 2a 99 47 42 56 03 4b 42
       -56.021545 -56.143745 49.899574 50.753258
000120 d7 1a 4a c2 bf 8f 41 42 0a 57 4d 42 b7 61 55 c2
       -50.52621 48.390377 51.335 -53.345425
000130 29 0c 50 c2 5f cf 79 42 f0 e7 51 c2 dc 11 50 42
       -52.011875 62.45251 -52.4765 52.01744
000140 7c 6d 69 42 af 92 58 42 c2 78 4f 42 41 0e 52 42
       58.35692 54.143246 51.867928 52.51392
000150 c8 52 4c 42 a1 16 85 c2 4f 35 54 42 ec 87 44 c2
       51.08084 -66.5442 53.05206 -49.132736
000160 ca bc 50 c2 09 3d 57 42 a3 ff 52 c2 5f 96 48 c2
       -52.184364 53.809605 -52.749645 -50.146847
000170 4b 49 54 42 ff 87 4f 42 af 29 5a 42 c0 bd 4a 42
       53.071575 51.88281 54.540707 50.685303
000180 36 da 56 c2 0e 77 5d 42 0e 92 5f 42 d2 12 50 42
       -53.713097 55.366264 55.89263 52.01838
000190 fd 70 4a c2 ef 9e 41 42 7e d7 6b c2 7e 4f 4e c2
       -50.61034 48.40521 -58.96044 -51.57763
0001a0 18 7d 0c 42 ab 8b 4e 42 5e 28 54 42 52 0c 49 42
       35.12216 51.636395 53.03942 50.26203
0001b0 38 f8 55 42 bc d0 53 c2 f9 d0 5d c2 ea a1 56 42
       53.4924 -52.953842 -55.454075 53.65812
0001c0 7b 97 59 c2 16 0e 54 42 eb c2 52 42 02 50 66 c2
       -54.39793 53.013756 52.69035 -57.578133
0001d0 bf 9e 53 42 5e 6e 48 c2 cb 45 4e c2 fe c3 50 c2
       52.905025 -50.10778 -51.568157 -52.1914
0001e0 26 2f 50 42 5a 3d 59 c2 75 51 53 42 0f 04 66 c2
       52.046043 -54.309914 52.829548 -57.503963
0001f0 55 40 5e c2 91 23 69 c2 55 fc 4d 42 13 54 41 42
       -55.562824 -58.284733 51.496418 48.332104
